module @jit_train_step attributes {mhlo.num_partitions = 4 : i32, mhlo.num_replicas = 1 : i32} {
  sdy.mesh @mesh = <["dp"=4]>
  func.func public @main(%arg0: tensor<512x768xf32>, %arg1: tensor<2x768xf32>, %arg2: tensor<30522x768xf32>, %arg3: tensor<768xf32>, %arg4: tensor<768x768xf32>, %arg5: tensor<768xf32>, %arg6: tensor<768x768xf32>, %arg7: tensor<768xf32>, %arg8: tensor<768x768xf32>, %arg9: tensor<768xf32>, %arg10: tensor<768x768xf32>, %arg11: tensor<768xf32>, %arg12: tensor<768xf32>, %arg13: tensor<768xf32>, %arg14: tensor<3072x768xf32>, %arg15: tensor<768xf32>, %arg16: tensor<768xf32>, %arg17: tensor<3072xf32>, %arg18: tensor<768x3072xf32>, %arg19: tensor<768xf32>, %arg20: tensor<768x768xf32>, %arg21: tensor<768xf32>, %arg22: tensor<768x768xf32>, %arg23: tensor<768xf32>, %arg24: tensor<768x768xf32>, %arg25: tensor<768xf32>, %arg26: tensor<768x768xf32>, %arg27: tensor<768xf32>, %arg28: tensor<768xf32>, %arg29: tensor<768xf32>, %arg30: tensor<3072x768xf32>, %arg31: tensor<768xf32>, %arg32: tensor<768xf32>, %arg33: tensor<3072xf32>, %arg34: tensor<768x3072xf32>, %arg35: tensor<768xf32>, %arg36: tensor<768x768xf32>, %arg37: tensor<768xf32>, %arg38: tensor<768x768xf32>, %arg39: tensor<768xf32>, %arg40: tensor<768x768xf32>, %arg41: tensor<768xf32>, %arg42: tensor<768x768xf32>, %arg43: tensor<768xf32>, %arg44: tensor<768xf32>, %arg45: tensor<768xf32>, %arg46: tensor<3072x768xf32>, %arg47: tensor<768xf32>, %arg48: tensor<768xf32>, %arg49: tensor<3072xf32>, %arg50: tensor<768x3072xf32>, %arg51: tensor<768xf32>, %arg52: tensor<768x768xf32>, %arg53: tensor<768xf32>, %arg54: tensor<768x768xf32>, %arg55: tensor<768xf32>, %arg56: tensor<768x768xf32>, %arg57: tensor<768xf32>, %arg58: tensor<768x768xf32>, %arg59: tensor<768xf32>, %arg60: tensor<768xf32>, %arg61: tensor<768xf32>, %arg62: tensor<3072x768xf32>, %arg63: tensor<768xf32>, %arg64: tensor<768xf32>, %arg65: tensor<3072xf32>, %arg66: tensor<768x3072xf32>, %arg67: tensor<768xf32>, %arg68: tensor<768x768xf32>, %arg69: tensor<768xf32>, %arg70: tensor<768x768xf32>, %arg71: tensor<768xf32>, %arg72: tensor<768x768xf32>, %arg73: tensor<768xf32>, %arg74: tensor<768x768xf32>, %arg75: tensor<768xf32>, %arg76: tensor<768xf32>, %arg77: tensor<768xf32>, %arg78: tensor<3072x768xf32>, %arg79: tensor<768xf32>, %arg80: tensor<768xf32>, %arg81: tensor<3072xf32>, %arg82: tensor<768x3072xf32>, %arg83: tensor<768xf32>, %arg84: tensor<768x768xf32>, %arg85: tensor<768xf32>, %arg86: tensor<768x768xf32>, %arg87: tensor<768xf32>, %arg88: tensor<768x768xf32>, %arg89: tensor<768xf32>, %arg90: tensor<768x768xf32>, %arg91: tensor<768xf32>, %arg92: tensor<768xf32>, %arg93: tensor<768xf32>, %arg94: tensor<3072x768xf32>, %arg95: tensor<768xf32>, %arg96: tensor<768xf32>, %arg97: tensor<3072xf32>, %arg98: tensor<768x3072xf32>, %arg99: tensor<768xf32>, %arg100: tensor<768x768xf32>, %arg101: tensor<768xf32>, %arg102: tensor<768x768xf32>, %arg103: tensor<768xf32>, %arg104: tensor<768x768xf32>, %arg105: tensor<768xf32>, %arg106: tensor<768x768xf32>, %arg107: tensor<768xf32>, %arg108: tensor<768xf32>, %arg109: tensor<768xf32>, %arg110: tensor<3072x768xf32>, %arg111: tensor<768xf32>, %arg112: tensor<768xf32>, %arg113: tensor<3072xf32>, %arg114: tensor<768x3072xf32>, %arg115: tensor<768xf32>, %arg116: tensor<768x768xf32>, %arg117: tensor<768xf32>, %arg118: tensor<768x768xf32>, %arg119: tensor<768xf32>, %arg120: tensor<768x768xf32>, %arg121: tensor<768xf32>, %arg122: tensor<768x768xf32>, %arg123: tensor<768xf32>, %arg124: tensor<768xf32>, %arg125: tensor<768xf32>, %arg126: tensor<3072x768xf32>, %arg127: tensor<768xf32>, %arg128: tensor<768xf32>, %arg129: tensor<3072xf32>, %arg130: tensor<768x3072xf32>, %arg131: tensor<768xf32>, %arg132: tensor<768x768xf32>, %arg133: tensor<768xf32>, %arg134: tensor<768x768xf32>, %arg135: tensor<768xf32>, %arg136: tensor<768x768xf32>, %arg137: tensor<768xf32>, %arg138: tensor<768x768xf32>, %arg139: tensor<768xf32>, %arg140: tensor<768xf32>, %arg141: tensor<768xf32>, %arg142: tensor<3072x768xf32>, %arg143: tensor<768xf32>, %arg144: tensor<768xf32>, %arg145: tensor<3072xf32>, %arg146: tensor<768x3072xf32>, %arg147: tensor<768xf32>, %arg148: tensor<768x768xf32>, %arg149: tensor<768xf32>, %arg150: tensor<768x768xf32>, %arg151: tensor<768xf32>, %arg152: tensor<768x768xf32>, %arg153: tensor<768xf32>, %arg154: tensor<768x768xf32>, %arg155: tensor<768xf32>, %arg156: tensor<768xf32>, %arg157: tensor<768xf32>, %arg158: tensor<3072x768xf32>, %arg159: tensor<768xf32>, %arg160: tensor<768xf32>, %arg161: tensor<3072xf32>, %arg162: tensor<768x3072xf32>, %arg163: tensor<768xf32>, %arg164: tensor<768x768xf32>, %arg165: tensor<768xf32>, %arg166: tensor<768x768xf32>, %arg167: tensor<768xf32>, %arg168: tensor<768x768xf32>, %arg169: tensor<768xf32>, %arg170: tensor<768x768xf32>, %arg171: tensor<768xf32>, %arg172: tensor<768xf32>, %arg173: tensor<768xf32>, %arg174: tensor<3072x768xf32>, %arg175: tensor<768xf32>, %arg176: tensor<768xf32>, %arg177: tensor<3072xf32>, %arg178: tensor<768x3072xf32>, %arg179: tensor<768xf32>, %arg180: tensor<768x768xf32>, %arg181: tensor<768xf32>, %arg182: tensor<768x768xf32>, %arg183: tensor<768xf32>, %arg184: tensor<768x768xf32>, %arg185: tensor<768xf32>, %arg186: tensor<768x768xf32>, %arg187: tensor<768xf32>, %arg188: tensor<768xf32>, %arg189: tensor<768xf32>, %arg190: tensor<3072x768xf32>, %arg191: tensor<768xf32>, %arg192: tensor<768xf32>, %arg193: tensor<3072xf32>, %arg194: tensor<768x3072xf32>, %arg195: tensor<768xf32>, %arg196: tensor<768xf32>, %arg197: tensor<30522xf32>, %arg198: tensor<768xf32>, %arg199: tensor<768x768xf32>, %arg200: tensor<30522x768xf32>, %arg201: tensor<768xf32>, %arg202: tensor<768xf32>, %arg203: tensor<i32>, %arg204: tensor<512x768xf32>, %arg205: tensor<2x768xf32>, %arg206: tensor<30522x768xf32>, %arg207: tensor<768xf32>, %arg208: tensor<768x768xf32>, %arg209: tensor<768xf32>, %arg210: tensor<768x768xf32>, %arg211: tensor<768xf32>, %arg212: tensor<768x768xf32>, %arg213: tensor<768xf32>, %arg214: tensor<768x768xf32>, %arg215: tensor<768xf32>, %arg216: tensor<768xf32>, %arg217: tensor<768xf32>, %arg218: tensor<3072x768xf32>, %arg219: tensor<768xf32>, %arg220: tensor<768xf32>, %arg221: tensor<3072xf32>, %arg222: tensor<768x3072xf32>, %arg223: tensor<768xf32>, %arg224: tensor<768x768xf32>, %arg225: tensor<768xf32>, %arg226: tensor<768x768xf32>, %arg227: tensor<768xf32>, %arg228: tensor<768x768xf32>, %arg229: tensor<768xf32>, %arg230: tensor<768x768xf32>, %arg231: tensor<768xf32>, %arg232: tensor<768xf32>, %arg233: tensor<768xf32>, %arg234: tensor<3072x768xf32>, %arg235: tensor<768xf32>, %arg236: tensor<768xf32>, %arg237: tensor<3072xf32>, %arg238: tensor<768x3072xf32>, %arg239: tensor<768xf32>, %arg240: tensor<768x768xf32>, %arg241: tensor<768xf32>, %arg242: tensor<768x768xf32>, %arg243: tensor<768xf32>, %arg244: tensor<768x768xf32>, %arg245: tensor<768xf32>, %arg246: tensor<768x768xf32>, %arg247: tensor<768xf32>, %arg248: tensor<768xf32>, %arg249: tensor<768xf32>, %arg250: tensor<3072x768xf32>, %arg251: tensor<768xf32>, %arg252: tensor<768xf32>, %arg253: tensor<3072xf32>, %arg254: tensor<768x3072xf32>, %arg255: tensor<768xf32>, %arg256: tensor<768x768xf32>, %arg257: tensor<768xf32>, %arg258: tensor<768x768xf32>, %arg259: tensor<768xf32>, %arg260: tensor<768x768xf32>, %arg261: tensor<768xf32>, %arg262: tensor<768x768xf32>, %arg263: tensor<768xf32>, %arg264: tensor<768xf32>, %arg265: tensor<768xf32>, %arg266: tensor<3072x768xf32>, %arg267: tensor<768xf32>, %arg268: tensor<768xf32>, %arg269: tensor<3072xf32>, %arg270: tensor<768x3072xf32>, %arg271: tensor<768xf32>, %arg272: tensor<768x768xf32>, %arg273: tensor<768xf32>, %arg274: tensor<768x768xf32>, %arg275: tensor<768xf32>, %arg276: tensor<768x768xf32>, %arg277: tensor<768xf32>, %arg278: tensor<768x768xf32>, %arg279: tensor<768xf32>, %arg280: tensor<768xf32>, %arg281: tensor<768xf32>, %arg282: tensor<3072x768xf32>, %arg283: tensor<768xf32>, %arg284: tensor<768xf32>, %arg285: tensor<3072xf32>, %arg286: tensor<768x3072xf32>, %arg287: tensor<768xf32>, %arg288: tensor<768x768xf32>, %arg289: tensor<768xf32>, %arg290: tensor<768x768xf32>, %arg291: tensor<768xf32>, %arg292: tensor<768x768xf32>, %arg293: tensor<768xf32>, %arg294: tensor<768x768xf32>, %arg295: tensor<768xf32>, %arg296: tensor<768xf32>, %arg297: tensor<768xf32>, %arg298: tensor<3072x768xf32>, %arg299: tensor<768xf32>, %arg300: tensor<768xf32>, %arg301: tensor<3072xf32>, %arg302: tensor<768x3072xf32>, %arg303: tensor<768xf32>, %arg304: tensor<768x768xf32>, %arg305: tensor<768xf32>, %arg306: tensor<768x768xf32>, %arg307: tensor<768xf32>, %arg308: tensor<768x768xf32>, %arg309: tensor<768xf32>, %arg310: tensor<768x768xf32>, %arg311: tensor<768xf32>, %arg312: tensor<768xf32>, %arg313: tensor<768xf32>, %arg314: tensor<3072x768xf32>, %arg315: tensor<768xf32>, %arg316: tensor<768xf32>, %arg317: tensor<3072xf32>, %arg318: tensor<768x3072xf32>, %arg319: tensor<768xf32>, %arg320: tensor<768x768xf32>, %arg321: tensor<768xf32>, %arg322: tensor<768x768xf32>, %arg323: tensor<768xf32>, %arg324: tensor<768x768xf32>, %arg325: tensor<768xf32>, %arg326: tensor<768x768xf32>, %arg327: tensor<768xf32>, %arg328: tensor<768xf32>, %arg329: tensor<768xf32>, %arg330: tensor<3072x768xf32>, %arg331: tensor<768xf32>, %arg332: tensor<768xf32>, %arg333: tensor<3072xf32>, %arg334: tensor<768x3072xf32>, %arg335: tensor<768xf32>, %arg336: tensor<768x768xf32>, %arg337: tensor<768xf32>, %arg338: tensor<768x768xf32>, %arg339: tensor<768xf32>, %arg340: tensor<768x768xf32>, %arg341: tensor<768xf32>, %arg342: tensor<768x768xf32>, %arg343: tensor<768xf32>, %arg344: tensor<768xf32>, %arg345: tensor<768xf32>, %arg346: tensor<3072x768xf32>, %arg347: tensor<768xf32>, %arg348: tensor<768xf32>, %arg349: tensor<3072xf32>, %arg350: tensor<768x3072xf32>, %arg351: tensor<768xf32>, %arg352: tensor<768x768xf32>, %arg353: tensor<768xf32>, %arg354: tensor<768x768xf32>, %arg355: tensor<768xf32>, %arg356: tensor<768x768xf32>, %arg357: tensor<768xf32>, %arg358: tensor<768x768xf32>, %arg359: tensor<768xf32>, %arg360: tensor<768xf32>, %arg361: tensor<768xf32>, %arg362: tensor<3072x768xf32>, %arg363: tensor<768xf32>, %arg364: tensor<768xf32>, %arg365: tensor<3072xf32>, %arg366: tensor<768x3072xf32>, %arg367: tensor<768xf32>, %arg368: tensor<768x768xf32>, %arg369: tensor<768xf32>, %arg370: tensor<768x768xf32>, %arg371: tensor<768xf32>, %arg372: tensor<768x768xf32>, %arg373: tensor<768xf32>, %arg374: tensor<768x768xf32>, %arg375: tensor<768xf32>, %arg376: tensor<768xf32>, %arg377: tensor<768xf32>, %arg378: tensor<3072x768xf32>, %arg379: tensor<768xf32>, %arg380: tensor<768xf32>, %arg381: tensor<3072xf32>, %arg382: tensor<768x3072xf32>, %arg383: tensor<768xf32>, %arg384: tensor<768x768xf32>, %arg385: tensor<768xf32>, %arg386: tensor<768x768xf32>, %arg387: tensor<768xf32>, %arg388: tensor<768x768xf32>, %arg389: tensor<768xf32>, %arg390: tensor<768x768xf32>, %arg391: tensor<768xf32>, %arg392: tensor<768xf32>, %arg393: tensor<768xf32>, %arg394: tensor<3072x768xf32>, %arg395: tensor<768xf32>, %arg396: tensor<768xf32>, %arg397: tensor<3072xf32>, %arg398: tensor<768x3072xf32>, %arg399: tensor<768xf32>, %arg400: tensor<768xf32>, %arg401: tensor<30522xf32>, %arg402: tensor<768xf32>, %arg403: tensor<768x768xf32>, %arg404: tensor<30522x768xf32>, %arg405: tensor<768xf32>, %arg406: tensor<768xf32>, %arg407: tensor<512x768xf32>, %arg408: tensor<2x768xf32>, %arg409: tensor<30522x768xf32>, %arg410: tensor<768xf32>, %arg411: tensor<768x768xf32>, %arg412: tensor<768xf32>, %arg413: tensor<768x768xf32>, %arg414: tensor<768xf32>, %arg415: tensor<768x768xf32>, %arg416: tensor<768xf32>, %arg417: tensor<768x768xf32>, %arg418: tensor<768xf32>, %arg419: tensor<768xf32>, %arg420: tensor<768xf32>, %arg421: tensor<3072x768xf32>, %arg422: tensor<768xf32>, %arg423: tensor<768xf32>, %arg424: tensor<3072xf32>, %arg425: tensor<768x3072xf32>, %arg426: tensor<768xf32>, %arg427: tensor<768x768xf32>, %arg428: tensor<768xf32>, %arg429: tensor<768x768xf32>, %arg430: tensor<768xf32>, %arg431: tensor<768x768xf32>, %arg432: tensor<768xf32>, %arg433: tensor<768x768xf32>, %arg434: tensor<768xf32>, %arg435: tensor<768xf32>, %arg436: tensor<768xf32>, %arg437: tensor<3072x768xf32>, %arg438: tensor<768xf32>, %arg439: tensor<768xf32>, %arg440: tensor<3072xf32>, %arg441: tensor<768x3072xf32>, %arg442: tensor<768xf32>, %arg443: tensor<768x768xf32>, %arg444: tensor<768xf32>, %arg445: tensor<768x768xf32>, %arg446: tensor<768xf32>, %arg447: tensor<768x768xf32>, %arg448: tensor<768xf32>, %arg449: tensor<768x768xf32>, %arg450: tensor<768xf32>, %arg451: tensor<768xf32>, %arg452: tensor<768xf32>, %arg453: tensor<3072x768xf32>, %arg454: tensor<768xf32>, %arg455: tensor<768xf32>, %arg456: tensor<3072xf32>, %arg457: tensor<768x3072xf32>, %arg458: tensor<768xf32>, %arg459: tensor<768x768xf32>, %arg460: tensor<768xf32>, %arg461: tensor<768x768xf32>, %arg462: tensor<768xf32>, %arg463: tensor<768x768xf32>, %arg464: tensor<768xf32>, %arg465: tensor<768x768xf32>, %arg466: tensor<768xf32>, %arg467: tensor<768xf32>, %arg468: tensor<768xf32>, %arg469: tensor<3072x768xf32>, %arg470: tensor<768xf32>, %arg471: tensor<768xf32>, %arg472: tensor<3072xf32>, %arg473: tensor<768x3072xf32>, %arg474: tensor<768xf32>, %arg475: tensor<768x768xf32>, %arg476: tensor<768xf32>, %arg477: tensor<768x768xf32>, %arg478: tensor<768xf32>, %arg479: tensor<768x768xf32>, %arg480: tensor<768xf32>, %arg481: tensor<768x768xf32>, %arg482: tensor<768xf32>, %arg483: tensor<768xf32>, %arg484: tensor<768xf32>, %arg485: tensor<3072x768xf32>, %arg486: tensor<768xf32>, %arg487: tensor<768xf32>, %arg488: tensor<3072xf32>, %arg489: tensor<768x3072xf32>, %arg490: tensor<768xf32>, %arg491: tensor<768x768xf32>, %arg492: tensor<768xf32>, %arg493: tensor<768x768xf32>, %arg494: tensor<768xf32>, %arg495: tensor<768x768xf32>, %arg496: tensor<768xf32>, %arg497: tensor<768x768xf32>, %arg498: tensor<768xf32>, %arg499: tensor<768xf32>, %arg500: tensor<768xf32>, %arg501: tensor<3072x768xf32>, %arg502: tensor<768xf32>, %arg503: tensor<768xf32>, %arg504: tensor<3072xf32>, %arg505: tensor<768x3072xf32>, %arg506: tensor<768xf32>, %arg507: tensor<768x768xf32>, %arg508: tensor<768xf32>, %arg509: tensor<768x768xf32>, %arg510: tensor<768xf32>, %arg511: tensor<768x768xf32>, %arg512: tensor<768xf32>, %arg513: tensor<768x768xf32>, %arg514: tensor<768xf32>, %arg515: tensor<768xf32>, %arg516: tensor<768xf32>, %arg517: tensor<3072x768xf32>, %arg518: tensor<768xf32>, %arg519: tensor<768xf32>, %arg520: tensor<3072xf32>, %arg521: tensor<768x3072xf32>, %arg522: tensor<768xf32>, %arg523: tensor<768x768xf32>, %arg524: tensor<768xf32>, %arg525: tensor<768x768xf32>, %arg526: tensor<768xf32>, %arg527: tensor<768x768xf32>, %arg528: tensor<768xf32>, %arg529: tensor<768x768xf32>, %arg530: tensor<768xf32>, %arg531: tensor<768xf32>, %arg532: tensor<768xf32>, %arg533: tensor<3072x768xf32>, %arg534: tensor<768xf32>, %arg535: tensor<768xf32>, %arg536: tensor<3072xf32>, %arg537: tensor<768x3072xf32>, %arg538: tensor<768xf32>, %arg539: tensor<768x768xf32>, %arg540: tensor<768xf32>, %arg541: tensor<768x768xf32>, %arg542: tensor<768xf32>, %arg543: tensor<768x768xf32>, %arg544: tensor<768xf32>, %arg545: tensor<768x768xf32>, %arg546: tensor<768xf32>, %arg547: tensor<768xf32>, %arg548: tensor<768xf32>, %arg549: tensor<3072x768xf32>, %arg550: tensor<768xf32>, %arg551: tensor<768xf32>, %arg552: tensor<3072xf32>, %arg553: tensor<768x3072xf32>, %arg554: tensor<768xf32>, %arg555: tensor<768x768xf32>, %arg556: tensor<768xf32>, %arg557: tensor<768x768xf32>, %arg558: tensor<768xf32>, %arg559: tensor<768x768xf32>, %arg560: tensor<768xf32>, %arg561: tensor<768x768xf32>, %arg562: tensor<768xf32>, %arg563: tensor<768xf32>, %arg564: tensor<768xf32>, %arg565: tensor<3072x768xf32>, %arg566: tensor<768xf32>, %arg567: tensor<768xf32>, %arg568: tensor<3072xf32>, %arg569: tensor<768x3072xf32>, %arg570: tensor<768xf32>, %arg571: tensor<768x768xf32>, %arg572: tensor<768xf32>, %arg573: tensor<768x768xf32>, %arg574: tensor<768xf32>, %arg575: tensor<768x768xf32>, %arg576: tensor<768xf32>, %arg577: tensor<768x768xf32>, %arg578: tensor<768xf32>, %arg579: tensor<768xf32>, %arg580: tensor<768xf32>, %arg581: tensor<3072x768xf32>, %arg582: tensor<768xf32>, %arg583: tensor<768xf32>, %arg584: tensor<3072xf32>, %arg585: tensor<768x3072xf32>, %arg586: tensor<768xf32>, %arg587: tensor<768x768xf32>, %arg588: tensor<768xf32>, %arg589: tensor<768x768xf32>, %arg590: tensor<768xf32>, %arg591: tensor<768x768xf32>, %arg592: tensor<768xf32>, %arg593: tensor<768x768xf32>, %arg594: tensor<768xf32>, %arg595: tensor<768xf32>, %arg596: tensor<768xf32>, %arg597: tensor<3072x768xf32>, %arg598: tensor<768xf32>, %arg599: tensor<768xf32>, %arg600: tensor<3072xf32>, %arg601: tensor<768x3072xf32>, %arg602: tensor<768xf32>, %arg603: tensor<768xf32>, %arg604: tensor<30522xf32>, %arg605: tensor<768xf32>, %arg606: tensor<768x768xf32>, %arg607: tensor<30522x768xf32>, %arg608: tensor<768xf32>, %arg609: tensor<768xf32>, %arg610: tensor<i32>, %arg611: tensor<64x512xi32> {sdy.sharding = #sdy.sharding<@mesh, [{"dp"}, {}]>}, %arg612: tensor<64x512xi32> {sdy.sharding = #sdy.sharding<@mesh, [{"dp"}, {}]>}, %arg613: tensor<64x512xi32> {sdy.sharding = #sdy.sharding<@mesh, [{"dp"}, {}]>}, %arg614: tensor<64x512xi32> {sdy.sharding = #sdy.sharding<@mesh, [{"dp"}, {}]>}, %arg615: tensor<2xui32>) -> (tensor<512x768xf32> {jax.result_info = "result[0].params['encoder']['params']['embedder']['embedders_position_ids']['embedding']"}, tensor<2x768xf32> {jax.result_info = "result[0].params['encoder']['params']['embedder']['embedders_segment_ids']['embedding']"}, tensor<30522x768xf32> {jax.result_info = "result[0].params['encoder']['params']['embedder']['embedders_token_ids']['embedding']"}, tensor<768xf32> {jax.result_info = "result[0].params['encoder']['params']['encoder_block']['layer_sequence']['layers_0']['attention_block']['attention_layer']['key']['bias']"}, tensor<768x768xf32> {jax.result_info = "result[0].params['encoder']['params']['encoder_block']['layer_sequence']['layers_0']['attention_block']['attention_layer']['key']['kernel']"}, tensor<768xf32> {jax.result_info = "result[0].params['encoder']['params']['encoder_block']['layer_sequence']['layers_0']['attention_block']['attention_layer']['query']['bias']"}, tensor<768x768xf32> {jax.result_info = "result[0].params['encoder']['params']['encoder_block']['layer_sequence']['layers_0']['attention_block']['attention_layer']['query']['kernel']"}, tensor<768xf32> {jax.result_info = "result[0].params['encoder']['params']['encoder_block']['layer_sequence']['layers_0']['attention_block']['attention_layer']['value']['bias']"}, tensor<768x768xf32> {jax.result_info = "result[0].params['encoder']['params']['encoder_block']['layer_sequence']['layers_0']['attention_block']['attention_layer']['value']['kernel']"}, tensor<768xf32> {jax.result_info = "result[0].params['encoder']['params']['encoder_block']['layer_sequence']['layers_0']['attention_block']['dense_layer']['bias']"}, tensor<768x768xf32> {jax.result_info = "result[0].params['encoder']['params']['encoder_block']['layer_sequence']['layers_0']['attention_block']['dense_layer']['kernel']"}, tensor<768xf32> {jax.result_info = "result[0].params['encoder']['params']['encoder_block']['layer_sequence']['layers_0']['attention_block']['layer_norm']['bias']"}, tensor<768xf32> {jax.result_info = "result[0].params['encoder']['params']['encoder_block']['layer_sequence']['layers_0']['attention_block']['layer_norm']['scale']"}, tensor<768xf32> {jax.result_info = "result[0].params['encoder']['params']['encoder_block']['layer_sequence']['layers_0']['mlp_block']['dense_layer']['bias']"}, tensor<3072x768xf32> {jax.result_info = "result[0].params['encoder']['params']['encoder_block']['layer_sequence']['layers_0']['mlp_block']['dense_layer']['kernel']"}, tensor<768xf32> {jax.result_info = "result[0].params['encoder']['params']['encoder_block']['layer_sequence']['layers_0']['mlp_block']['layer_norm']['bias']"}, tensor<768xf32> {jax.result_info = "result[0].params['encoder']['params']['encoder_block']['layer_sequence']['layers_0']['mlp_block']['layer_norm']['scale']"}, tensor<3072xf32> {jax.result_info = "result[0].params['encoder']['params']['encoder_block']['layer_sequence']['layers_0']['mlp_block']['mlp']['dense_layer']['bias']"}, tensor<768x3072xf32> {jax.result_info = "result[0].params['encoder']['params']['encoder_block']['layer_sequence']['layers_0']['mlp_block']['mlp']['dense_layer']['kernel']"}, tensor<768xf32> {jax.result_info = "result[0].params['encoder']['params']['encoder_block']['layer_sequence']['layers_1']['attention_block']['attention_layer']['key']['bias']"}, tensor<768x768xf32> {jax.result_info = "result[0].params['encoder']['params']['encoder_block']['layer_sequence']['layers_1']['attention_block']['attention_layer']['key']['kernel']"}, tensor<768xf32> {jax.result_info = "result[0].params['encoder']['params']['encoder_block']['layer_sequence']['layers_1']['attention_block']['attention_layer']['query']['bias']"}, tensor<768x768xf32> {jax.result_info = "result[0].params['encoder']['params']['encoder_block']['layer_sequence']['layers_1']['attention_block']['attention_layer']['query']['kernel']"}, tensor<768xf32> {jax.result_info = "result[0].params['encoder']['params']['encoder_block']['layer_sequence']['layers_1']['attention_block']['attention_layer']['value']['bias']"}, tensor<768x768xf32> {jax.result_info = "result[0].params['encoder']['params']['encoder_block']['layer_sequence']['layers_1']['attention_block']['attention_layer']['value']['kernel']"}, tensor<768xf32> {jax.result_info = "result[0].params['encoder']['params']['encoder_block']['layer_sequence']['layers_1']['attention_block']['dense_layer']['bias']"}, tensor<768x768xf32> {jax.result_info = "result[0].params['encoder']['params']['encoder_block']['layer_sequence']['layers_1']['attention_block']['dense_layer']['kernel']"}, tensor<768xf32> {jax.result_info = "result[0].params['encoder']['params']['encoder_block']['layer_sequence']['layers_1']['attention_block']['layer_norm']['bias']"}, tensor<768xf32> {jax.result_info = "result[0].params['encoder']['params']['encoder_block']['layer_sequence']['layers_1']['attention_block']['layer_norm']['scale']"}, tensor<768xf32> {jax.result_info = "result[0].params['encoder']['params']['encoder_block']['layer_sequence']['layers_1']['mlp_block']['dense_layer']['bias']"}, tensor<3072x768xf32> {jax.result_info = "result[0].params['encoder']['params']['encoder_block']['layer_sequence']['layers_1']['mlp_block']['dense_layer']['kernel']"}, tensor<768xf32> {jax.result_info = "result[0].params['encoder']['params']['encoder_block']['layer_sequence']['layers_1']['mlp_block']['layer_norm']['bias']"}, tensor<768xf32> {jax.result_info = "result[0].params['encoder']['params']['encoder_block']['layer_sequence']['layers_1']['mlp_block']['layer_norm']['scale']"}, tensor<3072xf32> {jax.result_info = "result[0].params['encoder']['params']['encoder_block']['layer_sequence']['layers_1']['mlp_block']['mlp']['dense_layer']['bias']"}, tensor<768x3072xf32> {jax.result_info = "result[0].params['encoder']['params']['encoder_block']['layer_sequence']['layers_1']['mlp_block']['mlp']['dense_layer']['kernel']"}, tensor<768xf32> {jax.result_info = "result[0].params['encoder']['params']['encoder_block']['layer_sequence']['layers_10']['attention_block']['attention_layer']['key']['bias']"}, tensor<768x768xf32> {jax.result_info = "result[0].params['encoder']['params']['encoder_block']['layer_sequence']['layers_10']['attention_block']['attention_layer']['key']['kernel']"}, tensor<768xf32> {jax.result_info = "result[0].params['encoder']['params']['encoder_block']['layer_sequence']['layers_10']['attention_block']['attention_layer']['query']['bias']"}, tensor<768x768xf32> {jax.result_info = "result[0].params['encoder']['params']['encoder_block']['layer_sequence']['layers_10']['attention_block']['attention_layer']['query']['kernel']"}, tensor<768xf32> {jax.result_info = "result[0].params['encoder']['params']['encoder_block']['layer_sequence']['layers_10']['attention_block']['attention_layer']['value']['bias']"}, tensor<768x768xf32> {jax.result_info = "result[0].params['encoder']['params']['encoder_block']['layer_sequence']['layers_10']['attention_block']['attention_layer']['value']['kernel']"}, tensor<768xf32> {jax.result_info = "result[0].params['encoder']['params']['encoder_block']['layer_sequence']['layers_10']['attention_block']['dense_layer']['bias']"}, tensor<768x768xf32> {jax.result_info = "result[0].params['encoder']['params']['encoder_block']['layer_sequence']['layers_10']['attention_block']['dense_layer']['kernel']"}, tensor<768xf32> {jax.result_info = "result[0].params['encoder']['params']['encoder_block']['layer_sequence']['layers_10']['attention_block']['layer_norm']['bias']"}, tensor<768xf32> {jax.result_info = "result[0].params['encoder']['params']['encoder_block']['layer_sequence']['layers_10']['attention_block']['layer_norm']['scale']"}, tensor<768xf32> {jax.result_info = "result[0].params['encoder']['params']['encoder_block']['layer_sequence']['layers_10']['mlp_block']['dense_layer']['bias']"}, tensor<3072x768xf32> {jax.result_info = "result[0].params['encoder']['params']['encoder_block']['layer_sequence']['layers_10']['mlp_block']['dense_layer']['kernel']"}, tensor<768xf32> {jax.result_info = "result[0].params['encoder']['params']['encoder_block']['layer_sequence']['layers_10']['mlp_block']['layer_norm']['bias']"}, tensor<768xf32> {jax.result_info = "result[0].params['encoder']['params']['encoder_block']['layer_sequence']['layers_10']['mlp_block']['layer_norm']['scale']"}, tensor<3072xf32> {jax.result_info = "result[0].params['encoder']['params']['encoder_block']['layer_sequence']['layers_10']['mlp_block']['mlp']['dense_layer']['bias']"}, tensor<768x3072xf32> {jax.result_info = "result[0].params['encoder']['params']['encoder_block']['layer_sequence']['layers_10']['mlp_block']['mlp']['dense_layer']['kernel']"}, tensor<768xf32> {jax.result_info = "result[0].params['encoder']['params']['encoder_block']['layer_sequence']['layers_11']['attention_block']['attention_layer']['key']['bias']"}, tensor<768x768xf32> {jax.result_info = "result[0].params['encoder']['params']['encoder_block']['layer_sequence']['layers_11']['attention_block']['attention_layer']['key']['kernel']"}, tensor<768xf32> {jax.result_info = "result[0].params['encoder']['params']['encoder_block']['layer_sequence']['layers_11']['attention_block']['attention_layer']['query']['bias']"}, tensor<768x768xf32> {jax.result_info = "result[0].params['encoder']['params']['encoder_block']['layer_sequence']['layers_11']['attention_block']['attention_layer']['query']['kernel']"}, tensor<768xf32> {jax.result_info = "result[0].params['encoder']['params']['encoder_block']['layer_sequence']['layers_11']['attention_block']['attention_layer']['value']['bias']"}, tensor<768x768xf32> {jax.result_info = "result[0].params['encoder']['params']['encoder_block']['layer_sequence']['layers_11']['attention_block']['attention_layer']['value']['kernel']"}, tensor<768xf32> {jax.result_info = "result[0].params['encoder']['params']['encoder_block']['layer_sequence']['layers_11']['attention_block']['dense_layer']['bias']"}, tensor<768x768xf32> {jax.result_info = "result[0].params['encoder']['params']['encoder_block']['layer_sequence']['layers_11']['attention_block']['dense_layer']['kernel']"}, tensor<768xf32> {jax.result_info = "result[0].params['encoder']['params']['encoder_block']['layer_sequence']['layers_11']['attention_block']['layer_norm']['bias']"}, tensor<768xf32> {jax.result_info = "result[0].params['encoder']['params']['encoder_block']['layer_sequence']['layers_11']['attention_block']['layer_norm']['scale']"}, tensor<768xf32> {jax.result_info = "result[0].params['encoder']['params']['encoder_block']['layer_sequence']['layers_11']['mlp_block']['dense_layer']['bias']"}, tensor<3072x768xf32> {jax.result_info = "result[0].params['encoder']['params']['encoder_block']['layer_sequence']['layers_11']['mlp_block']['dense_layer']['kernel']"}, tensor<768xf32> {jax.result_info = "result[0].params['encoder']['params']['encoder_block']['layer_sequence']['layers_11']['mlp_block']['layer_norm']['bias']"}, tensor<768xf32> {jax.result_info = "result[0].params['encoder']['params']['encoder_block']['layer_sequence']['layers_11']['mlp_block']['layer_norm']['scale']"}, tensor<3072xf32> {jax.result_info = "result[0].params['encoder']['params']['encoder_block']['layer_sequence']['layers_11']['mlp_block']['mlp']['dense_layer']['bias']"}, tensor<768x3072xf32> {jax.result_info = "result[0].params['encoder']['params']['encoder_block']['layer_sequence']['layers_11']['mlp_block']['mlp']['dense_layer']['kernel']"}, tensor<768xf32> {jax.result_info = "result[0].params['encoder']['params']['encoder_block']['layer_sequence']['layers_2']['attention_block']['attention_layer']['key']['bias']"}, tensor<768x768xf32> {jax.result_info = "result[0].params['encoder']['params']['encoder_block']['layer_sequence']['layers_2']['attention_block']['attention_layer']['key']['kernel']"}, tensor<768xf32> {jax.result_info = "result[0].params['encoder']['params']['encoder_block']['layer_sequence']['layers_2']['attention_block']['attention_layer']['query']['bias']"}, tensor<768x768xf32> {jax.result_info = "result[0].params['encoder']['params']['encoder_block']['layer_sequence']['layers_2']['attention_block']['attention_layer']['query']['kernel']"}, tensor<768xf32> {jax.result_info = "result[0].params['encoder']['params']['encoder_block']['layer_sequence']['layers_2']['attention_block']['attention_layer']['value']['bias']"}, tensor<768x768xf32> {jax.result_info = "result[0].params['encoder']['params']['encoder_block']['layer_sequence']['layers_2']['attention_block']['attention_layer']['value']['kernel']"}, tensor<768xf32> {jax.result_info = "result[0].params['encoder']['params']['encoder_block']['layer_sequence']['layers_2']['attention_block']['dense_layer']['bias']"}, tensor<768x768xf32> {jax.result_info = "result[0].params['encoder']['params']['encoder_block']['layer_sequence']['layers_2']['attention_block']['dense_layer']['kernel']"}, tensor<768xf32> {jax.result_info = "result[0].params['encoder']['params']['encoder_block']['layer_sequence']['layers_2']['attention_block']['layer_norm']['bias']"}, tensor<768xf32> {jax.result_info = "result[0].params['encoder']['params']['encoder_block']['layer_sequence']['layers_2']['attention_block']['layer_norm']['scale']"}, tensor<768xf32> {jax.result_info = "result[0].params['encoder']['params']['encoder_block']['layer_sequence']['layers_2']['mlp_block']['dense_layer']['bias']"}, tensor<3072x768xf32> {jax.result_info = "result[0].params['encoder']['params']['encoder_block']['layer_sequence']['layers_2']['mlp_block']['dense_layer']['kernel']"}, tensor<768xf32> {jax.result_info = "result[0].params['encoder']['params']['encoder_block']['layer_sequence']['layers_2']['mlp_block']['layer_norm']['bias']"}, tensor<768xf32> {jax.result_info = "result[0].params['encoder']['params']['encoder_block']['layer_sequence']['layers_2']['mlp_block']['layer_norm']['scale']"}, tensor<3072xf32> {jax.result_info = "result[0].params['encoder']['params']['encoder_block']['layer_sequence']['layers_2']['mlp_block']['mlp']['dense_layer']['bias']"}, tensor<768x3072xf32> {jax.result_info = "result[0].params['encoder']['params']['encoder_block']['layer_sequence']['layers_2']['mlp_block']['mlp']['dense_layer']['kernel']"}, tensor<768xf32> {jax.result_info = "result[0].params['encoder']['params']['encoder_block']['layer_sequence']['layers_3']['attention_block']['attention_layer']['key']['bias']"}, tensor<768x768xf32> {jax.result_info = "result[0].params['encoder']['params']['encoder_block']['layer_sequence']['layers_3']['attention_block']['attention_layer']['key']['kernel']"}, tensor<768xf32> {jax.result_info = "result[0].params['encoder']['params']['encoder_block']['layer_sequence']['layers_3']['attention_block']['attention_layer']['query']['bias']"}, tensor<768x768xf32> {jax.result_info = "result[0].params['encoder']['params']['encoder_block']['layer_sequence']['layers_3']['attention_block']['attention_layer']['query']['kernel']"}, tensor<768xf32> {jax.result_info = "result[0].params['encoder']['params']['encoder_block']['layer_sequence']['layers_3']['attention_block']['attention_layer']['value']['bias']"}, tensor<768x768xf32> {jax.result_info = "result[0].params['encoder']['params']['encoder_block']['layer_sequence']['layers_3']['attention_block']['attention_layer']['value']['kernel']"}, tensor<768xf32> {jax.result_info = "result[0].params['encoder']['params']['encoder_block']['layer_sequence']['layers_3']['attention_block']['dense_layer']['bias']"}, tensor<768x768xf32> {jax.result_info = "result[0].params['encoder']['params']['encoder_block']['layer_sequence']['layers_3']['attention_block']['dense_layer']['kernel']"}, tensor<768xf32> {jax.result_info = "result[0].params['encoder']['params']['encoder_block']['layer_sequence']['layers_3']['attention_block']['layer_norm']['bias']"}, tensor<768xf32> {jax.result_info = "result[0].params['encoder']['params']['encoder_block']['layer_sequence']['layers_3']['attention_block']['layer_norm']['scale']"}, tensor<768xf32> {jax.result_info = "result[0].params['encoder']['params']['encoder_block']['layer_sequence']['layers_3']['mlp_block']['dense_layer']['bias']"}, tensor<3072x768xf32> {jax.result_info = "result[0].params['encoder']['params']['encoder_block']['layer_sequence']['layers_3']['mlp_block']['dense_layer']['kernel']"}, tensor<768xf32> {jax.result_info = "result[0].params['encoder']['params']['encoder_block']['layer_sequence']['layers_3']['mlp_block']['layer_norm']['bias']"}, tensor<768xf32> {jax.result_info = "result[0].params['encoder']['params']['encoder_block']['layer_sequence']['layers_3']['mlp_block']['layer_norm']['scale']"}, tensor<3072xf32> {jax.result_info = "result[0].params['encoder']['params']['encoder_block']['layer_sequence']['layers_3']['mlp_block']['mlp']['dense_layer']['bias']"}, tensor<768x3072xf32> {jax.result_info = "result[0].params['encoder']['params']['encoder_block']['layer_sequence']['layers_3']['mlp_block']['mlp']['dense_layer']['kernel']"}, tensor<768xf32> {jax.result_info = "result[0].params['encoder']['params']['encoder_block']['layer_sequence']['layers_4']['attention_block']['attention_layer']['key']['bias']"}, tensor<768x768xf32> {jax.result_info = "result[0].params['encoder']['params']['encoder_block']['layer_sequence']['layers_4']['attention_block']['attention_layer']['key']['kernel']"}, tensor<768xf32> {jax.result_info = "result[0].params['encoder']['params']['encoder_block']['layer_sequence']['layers_4']['attention_block']['attention_layer']['query']['bias']"}, tensor<768x768xf32> {jax.result_info = "result[0].params['encoder']['params']['encoder_block']['layer_sequence']['layers_4']['attention_block']['attention_layer']['query']['kernel']"}, tensor<768xf32> {jax.result_info = "result[0].params['encoder']['params']['encoder_block']['layer_sequence']['layers_4']['attention_block']['attention_layer']['value']['bias']"}, tensor<768x768xf32> {jax.result_info = "result[0].params['encoder']['params']['encoder_block']['layer_sequence']['layers_4']['attention_block']['attention_layer']['value']['kernel']"}, tensor<768xf32> {jax.result_info = "result[0].params['encoder']['params']['encoder_block']['layer_sequence']['layers_4']['attention_block']['dense_layer']['bias']"}, tensor<768x768xf32> {jax.result_info = "result[0].params['encoder']['params']['encoder_block']['layer_sequence']['layers_4']['attention_block']['dense_layer']['kernel']"}, tensor<768xf32> {jax.result_info = "result[0].params['encoder']['params']['encoder_block']['layer_sequence']['layers_4']['attention_block']['layer_norm']['bias']"}, tensor<768xf32> {jax.result_info = "result[0].params['encoder']['params']['encoder_block']['layer_sequence']['layers_4']['attention_block']['layer_norm']['scale']"}, tensor<768xf32> {jax.result_info = "result[0].params['encoder']['params']['encoder_block']['layer_sequence']['layers_4']['mlp_block']['dense_layer']['bias']"}, tensor<3072x768xf32> {jax.result_info = "result[0].params['encoder']['params']['encoder_block']['layer_sequence']['layers_4']['mlp_block']['dense_layer']['kernel']"}, tensor<768xf32> {jax.result_info = "result[0].params['encoder']['params']['encoder_block']['layer_sequence']['layers_4']['mlp_block']['layer_norm']['bias']"}, tensor<768xf32> {jax.result_info = "result[0].params['encoder']['params']['encoder_block']['layer_sequence']['layers_4']['mlp_block']['layer_norm']['scale']"}, tensor<3072xf32> {jax.result_info = "result[0].params['encoder']['params']['encoder_block']['layer_sequence']['layers_4']['mlp_block']['mlp']['dense_layer']['bias']"}, tensor<768x3072xf32> {jax.result_info = "result[0].params['encoder']['params']['encoder_block']['layer_sequence']['layers_4']['mlp_block']['mlp']['dense_layer']['kernel']"}, tensor<768xf32> {jax.result_info = "result[0].params['encoder']['params']['encoder_block']['layer_sequence']['layers_5']['attention_block']['attention_layer']['key']['bias']"}, tensor<768x768xf32> {jax.result_info = "result[0].params['encoder']['params']['encoder_block']['layer_sequence']['layers_5']['attention_block']['attention_layer']['key']['kernel']"}, tensor<768xf32> {jax.result_info = "result[0].params['encoder']['params']['encoder_block']['layer_sequence']['layers_5']['attention_block']['attention_layer']['query']['bias']"}, tensor<768x768xf32> {jax.result_info = "result[0].params['encoder']['params']['encoder_block']['layer_sequence']['layers_5']['attention_block']['attention_layer']['query']['kernel']"}, tensor<768xf32> {jax.result_info = "result[0].params['encoder']['params']['encoder_block']['layer_sequence']['layers_5']['attention_block']['attention_layer']['value']['bias']"}, tensor<768x768xf32> {jax.result_info = "result[0].params['encoder']['params']['encoder_block']['layer_sequence']['layers_5']['attention_block']['attention_layer']['value']['kernel']"}, tensor<768xf32> {jax.result_info = "result[0].params['encoder']['params']['encoder_block']['layer_sequence']['layers_5']['attention_block']['dense_layer']['bias']"}, tensor<768x768xf32> {jax.result_info = "result[0].params['encoder']['params']['encoder_block']['layer_sequence']['layers_5']['attention_block']['dense_layer']['kernel']"}, tensor<768xf32> {jax.result_info = "result[0].params['encoder']['params']['encoder_block']['layer_sequence']['layers_5']['attention_block']['layer_norm']['bias']"}, tensor<768xf32> {jax.result_info = "result[0].params['encoder']['params']['encoder_block']['layer_sequence']['layers_5']['attention_block']['layer_norm']['scale']"}, tensor<768xf32> {jax.result_info = "result[0].params['encoder']['params']['encoder_block']['layer_sequence']['layers_5']['mlp_block']['dense_layer']['bias']"}, tensor<3072x768xf32> {jax.result_info = "result[0].params['encoder']['params']['encoder_block']['layer_sequence']['layers_5']['mlp_block']['dense_layer']['kernel']"}, tensor<768xf32> {jax.result_info = "result[0].params['encoder']['params']['encoder_block']['layer_sequence']['layers_5']['mlp_block']['layer_norm']['bias']"}, tensor<768xf32> {jax.result_info = "result[0].params['encoder']['params']['encoder_block']['layer_sequence']['layers_5']['mlp_block']['layer_norm']['scale']"}, tensor<3072xf32> {jax.result_info = "result[0].params['encoder']['params']['encoder_block']['layer_sequence']['layers_5']['mlp_block']['mlp']['dense_layer']['bias']"}, tensor<768x3072xf32> {jax.result_info = "result[0].params['encoder']['params']['encoder_block']['layer_sequence']['layers_5']['mlp_block']['mlp']['dense_layer']['kernel']"}, tensor<768xf32> {jax.result_info = "result[0].params['encoder']['params']['encoder_block']['layer_sequence']['layers_6']['attention_block']['attention_layer']['key']['bias']"}, tensor<768x768xf32> {jax.result_info = "result[0].params['encoder']['params']['encoder_block']['layer_sequence']['layers_6']['attention_block']['attention_layer']['key']['kernel']"}, tensor<768xf32> {jax.result_info = "result[0].params['encoder']['params']['encoder_block']['layer_sequence']['layers_6']['attention_block']['attention_layer']['query']['bias']"}, tensor<768x768xf32> {jax.result_info = "result[0].params['encoder']['params']['encoder_block']['layer_sequence']['layers_6']['attention_block']['attention_layer']['query']['kernel']"}, tensor<768xf32> {jax.result_info = "result[0].params['encoder']['params']['encoder_block']['layer_sequence']['layers_6']['attention_block']['attention_layer']['value']['bias']"}, tensor<768x768xf32> {jax.result_info = "result[0].params['encoder']['params']['encoder_block']['layer_sequence']['layers_6']['attention_block']['attention_layer']['value']['kernel']"}, tensor<768xf32> {jax.result_info = "result[0].params['encoder']['params']['encoder_block']['layer_sequence']['layers_6']['attention_block']['dense_layer']['bias']"}, tensor<768x768xf32> {jax.result_info = "result[0].params['encoder']['params']['encoder_block']['layer_sequence']['layers_6']['attention_block']['dense_layer']['kernel']"}, tensor<768xf32> {jax.result_info = "result[0].params['encoder']['params']['encoder_block']['layer_sequence']['layers_6']['attention_block']['layer_norm']['bias']"}, tensor<768xf32> {jax.result_info = "result[0].params['encoder']['params']['encoder_block']['layer_sequence']['layers_6']['attention_block']['layer_norm']['scale']"}, tensor<768xf32> {jax.result_info = "result[0].params['encoder']['params']['encoder_block']['layer_sequence']['layers_6']['mlp_block']['dense_layer']['bias']"}, tensor<3072x768xf32> {jax.result_info = "result[0].params['encoder']['params']['encoder_block']['layer_sequence']['layers_6']['mlp_block']['dense_layer']['kernel']"}, tensor<768xf32> {jax.result_info = "result[0].params['encoder']['params']['encoder_block']['layer_sequence']['layers_6']['mlp_block']['layer_norm']['bias']"}, tensor<768xf32> {jax.result_info = "result[0].params['encoder']['params']['encoder_block']['layer_sequence']['layers_6']['mlp_block']['layer_norm']['scale']"}, tensor<3072xf32> {jax.result_info = "result[0].params['encoder']['params']['encoder_block']['layer_sequence']['layers_6']['mlp_block']['mlp']['dense_layer']['bias']"}, tensor<768x3072xf32> {jax.result_info = "result[0].params['encoder']['params']['encoder_block']['layer_sequence']['layers_6']['mlp_block']['mlp']['dense_layer']['kernel']"}, tensor<768xf32> {jax.result_info = "result[0].params['encoder']['params']['encoder_block']['layer_sequence']['layers_7']['attention_block']['attention_layer']['key']['bias']"}, tensor<768x768xf32> {jax.result_info = "result[0].params['encoder']['params']['encoder_block']['layer_sequence']['layers_7']['attention_block']['attention_layer']['key']['kernel']"}, tensor<768xf32> {jax.result_info = "result[0].params['encoder']['params']['encoder_block']['layer_sequence']['layers_7']['attention_block']['attention_layer']['query']['bias']"}, tensor<768x768xf32> {jax.result_info = "result[0].params['encoder']['params']['encoder_block']['layer_sequence']['layers_7']['attention_block']['attention_layer']['query']['kernel']"}, tensor<768xf32> {jax.result_info = "result[0].params['encoder']['params']['encoder_block']['layer_sequence']['layers_7']['attention_block']['attention_layer']['value']['bias']"}, tensor<768x768xf32> {jax.result_info = "result[0].params['encoder']['params']['encoder_block']['layer_sequence']['layers_7']['attention_block']['attention_layer']['value']['kernel']"}, tensor<768xf32> {jax.result_info = "result[0].params['encoder']['params']['encoder_block']['layer_sequence']['layers_7']['attention_block']['dense_layer']['bias']"}, tensor<768x768xf32> {jax.result_info = "result[0].params['encoder']['params']['encoder_block']['layer_sequence']['layers_7']['attention_block']['dense_layer']['kernel']"}, tensor<768xf32> {jax.result_info = "result[0].params['encoder']['params']['encoder_block']['layer_sequence']['layers_7']['attention_block']['layer_norm']['bias']"}, tensor<768xf32> {jax.result_info = "result[0].params['encoder']['params']['encoder_block']['layer_sequence']['layers_7']['attention_block']['layer_norm']['scale']"}, tensor<768xf32> {jax.result_info = "result[0].params['encoder']['params']['encoder_block']['layer_sequence']['layers_7']['mlp_block']['dense_layer']['bias']"}, tensor<3072x768xf32> {jax.result_info = "result[0].params['encoder']['params']['encoder_block']['layer_sequence']['layers_7']['mlp_block']['dense_layer']['kernel']"}, tensor<768xf32> {jax.result_info = "result[0].params['encoder']['params']['encoder_block']['layer_sequence']['layers_7']['mlp_block']['layer_norm']['bias']"}, tensor<768xf32> {jax.result_info = "result[0].params['encoder']['params']['encoder_block']['layer_sequence']['layers_7']['mlp_block']['layer_norm']['scale']"}, tensor<3072xf32> {jax.result_info = "result[0].params['encoder']['params']['encoder_block']['layer_sequence']['layers_7']['mlp_block']['mlp']['dense_layer']['bias']"}, tensor<768x3072xf32> {jax.result_info = "result[0].params['encoder']['params']['encoder_block']['layer_sequence']['layers_7']['mlp_block']['mlp']['dense_layer']['kernel']"}, tensor<768xf32> {jax.result_info = "result[0].params['encoder']['params']['encoder_block']['layer_sequence']['layers_8']['attention_block']['attention_layer']['key']['bias']"}, tensor<768x768xf32> {jax.result_info = "result[0].params['encoder']['params']['encoder_block']['layer_sequence']['layers_8']['attention_block']['attention_layer']['key']['kernel']"}, tensor<768xf32> {jax.result_info = "result[0].params['encoder']['params']['encoder_block']['layer_sequence']['layers_8']['attention_block']['attention_layer']['query']['bias']"}, tensor<768x768xf32> {jax.result_info = "result[0].params['encoder']['params']['encoder_block']['layer_sequence']['layers_8']['attention_block']['attention_layer']['query']['kernel']"}, tensor<768xf32> {jax.result_info = "result[0].params['encoder']['params']['encoder_block']['layer_sequence']['layers_8']['attention_block']['attention_layer']['value']['bias']"}, tensor<768x768xf32> {jax.result_info = "result[0].params['encoder']['params']['encoder_block']['layer_sequence']['layers_8']['attention_block']['attention_layer']['value']['kernel']"}, tensor<768xf32> {jax.result_info = "result[0].params['encoder']['params']['encoder_block']['layer_sequence']['layers_8']['attention_block']['dense_layer']['bias']"}, tensor<768x768xf32> {jax.result_info = "result[0].params['encoder']['params']['encoder_block']['layer_sequence']['layers_8']['attention_block']['dense_layer']['kernel']"}, tensor<768xf32> {jax.result_info = "result[0].params['encoder']['params']['encoder_block']['layer_sequence']['layers_8']['attention_block']['layer_norm']['bias']"}, tensor<768xf32> {jax.result_info = "result[0].params['encoder']['params']['encoder_block']['layer_sequence']['layers_8']['attention_block']['layer_norm']['scale']"}, tensor<768xf32> {jax.result_info = "result[0].params['encoder']['params']['encoder_block']['layer_sequence']['layers_8']['mlp_block']['dense_layer']['bias']"}, tensor<3072x768xf32> {jax.result_info = "result[0].params['encoder']['params']['encoder_block']['layer_sequence']['layers_8']['mlp_block']['dense_layer']['kernel']"}, tensor<768xf32> {jax.result_info = "result[0].params['encoder']['params']['encoder_block']['layer_sequence']['layers_8']['mlp_block']['layer_norm']['bias']"}, tensor<768xf32> {jax.result_info = "result[0].params['encoder']['params']['encoder_block']['layer_sequence']['layers_8']['mlp_block']['layer_norm']['scale']"}, tensor<3072xf32> {jax.result_info = "result[0].params['encoder']['params']['encoder_block']['layer_sequence']['layers_8']['mlp_block']['mlp']['dense_layer']['bias']"}, tensor<768x3072xf32> {jax.result_info = "result[0].params['encoder']['params']['encoder_block']['layer_sequence']['layers_8']['mlp_block']['mlp']['dense_layer']['kernel']"}, tensor<768xf32> {jax.result_info = "result[0].params['encoder']['params']['encoder_block']['layer_sequence']['layers_9']['attention_block']['attention_layer']['key']['bias']"}, tensor<768x768xf32> {jax.result_info = "result[0].params['encoder']['params']['encoder_block']['layer_sequence']['layers_9']['attention_block']['attention_layer']['key']['kernel']"}, tensor<768xf32> {jax.result_info = "result[0].params['encoder']['params']['encoder_block']['layer_sequence']['layers_9']['attention_block']['attention_layer']['query']['bias']"}, tensor<768x768xf32> {jax.result_info = "result[0].params['encoder']['params']['encoder_block']['layer_sequence']['layers_9']['attention_block']['attention_layer']['query']['kernel']"}, tensor<768xf32> {jax.result_info = "result[0].params['encoder']['params']['encoder_block']['layer_sequence']['layers_9']['attention_block']['attention_layer']['value']['bias']"}, tensor<768x768xf32> {jax.result_info = "result[0].params['encoder']['params']['encoder_block']['layer_sequence']['layers_9']['attention_block']['attention_layer']['value']['kernel']"}, tensor<768xf32> {jax.result_info = "result[0].params['encoder']['params']['encoder_block']['layer_sequence']['layers_9']['attention_block']['dense_layer']['bias']"}, tensor<768x768xf32> {jax.result_info = "result[0].params['encoder']['params']['encoder_block']['layer_sequence']['layers_9']['attention_block']['dense_layer']['kernel']"}, tensor<768xf32> {jax.result_info = "result[0].params['encoder']['params']['encoder_block']['layer_sequence']['layers_9']['attention_block']['layer_norm']['bias']"}, tensor<768xf32> {jax.result_info = "result[0].params['encoder']['params']['encoder_block']['layer_sequence']['layers_9']['attention_block']['layer_norm']['scale']"}, tensor<768xf32> {jax.result_info = "result[0].params['encoder']['params']['encoder_block']['layer_sequence']['layers_9']['mlp_block']['dense_layer']['bias']"}, tensor<3072x768xf32> {jax.result_info = "result[0].params['encoder']['params']['encoder_block']['layer_sequence']['layers_9']['mlp_block']['dense_layer']['kernel']"}, tensor<768xf32> {jax.result_info = "result[0].params['encoder']['params']['encoder_block']['layer_sequence']['layers_9']['mlp_block']['layer_norm']['bias']"}, tensor<768xf32> {jax.result_info = "result[0].params['encoder']['params']['encoder_block']['layer_sequence']['layers_9']['mlp_block']['layer_norm']['scale']"}, tensor<3072xf32> {jax.result_info = "result[0].params['encoder']['params']['encoder_block']['layer_sequence']['layers_9']['mlp_block']['mlp']['dense_layer']['bias']"}, tensor<768x3072xf32> {jax.result_info = "result[0].params['encoder']['params']['encoder_block']['layer_sequence']['layers_9']['mlp_block']['mlp']['dense_layer']['kernel']"}, tensor<768xf32> {jax.result_info = "result[0].params['encoder']['params']['layer_norm']['bias']"}, tensor<768xf32> {jax.result_info = "result[0].params['encoder']['params']['layer_norm']['scale']"}, tensor<30522xf32> {jax.result_info = "result[0].params['mlm_head']['params']['bias']"}, tensor<768xf32> {jax.result_info = "result[0].params['mlm_head']['params']['dense']['bias']"}, tensor<768x768xf32> {jax.result_info = "result[0].params['mlm_head']['params']['dense']['kernel']"}, tensor<30522x768xf32> {jax.result_info = "result[0].params['mlm_head']['params']['encoder']['embedder']['embedders_token_ids']['embedding']"}, tensor<768xf32> {jax.result_info = "result[0].params['mlm_head']['params']['layer_norm']['bias']"}, tensor<768xf32> {jax.result_info = "result[0].params['mlm_head']['params']['layer_norm']['scale']"}, tensor<i32> {jax.result_info = "result[0].opt_state[1][0].count"}, tensor<512x768xf32> {jax.result_info = "result[0].opt_state[1][0].mu['encoder']['params']['embedder']['embedders_position_ids']['embedding']"}, tensor<2x768xf32> {jax.result_info = "result[0].opt_state[1][0].mu['encoder']['params']['embedder']['embedders_segment_ids']['embedding']"}, tensor<30522x768xf32> {jax.result_info = "result[0].opt_state[1][0].mu['encoder']['params']['embedder']['embedders_token_ids']['embedding']"}, tensor<768xf32> {jax.result_info = "result[0].opt_state[1][0].mu['encoder']['params']['encoder_block']['layer_sequence']['layers_0']['attention_block']['attention_layer']['key']['bias']"}, tensor<768x768xf32> {jax.result_info = "result[0].opt_state[1][0].mu['encoder']['params']['encoder_block']['layer_sequence']['layers_0']['attention_block']['attention_layer']['key']['kernel']"}, tensor<768xf32> {jax.result_info = "result[0].opt_state[1][0].mu['encoder']['params']['encoder_block']['layer_sequence']['layers_0']['attention_block']['attention_layer']['query']['bias']"}, tensor<768x768xf32> {jax.result_info = "result[0].opt_state[1][0].mu['encoder']['params']['encoder_block']['layer_sequence']['layers_0']['attention_block']['attention_layer']['query']['kernel']"}, tensor<768xf32> {jax.result_info = "result[0].opt_state[1][0].mu['encoder']['params']['encoder_block']['layer_sequence']['layers_0']['attention_block']['attention_layer']['value']['bias']"}, tensor<768x768xf32> {jax.result_info = "result[0].opt_state[1][0].mu['encoder']['params']['encoder_block']['layer_sequence']['layers_0']['attention_block']['attention_layer']['value']['kernel']"}, tensor<768xf32> {jax.result_info = "result[0].opt_state[1][0].mu['encoder']['params']['encoder_block']['layer_sequence']['layers_0']['attention_block']['dense_layer']['bias']"}, tensor<768x768xf32> {jax.result_info = "result[0].opt_state[1][0].mu['encoder']['params']['encoder_block']['layer_sequence']['layers_0']['attention_block']['dense_layer']['kernel']"}, tensor<768xf32> {jax.result_info = "result[0].opt_state[1][0].mu['encoder']['params']['encoder_block']['layer_sequence']['layers_0']['attention_block']['layer_norm']['bias']"}, tensor<768xf32> {jax.result_info = "result[0].opt_state[1][0].mu['encoder']['params']['encoder_block']['layer_sequence']['layers_0']['attention_block']['layer_norm']['scale']"}, tensor<768xf32> {jax.result_info = "result[0].opt_state[1][0].mu['encoder']['params']['encoder_block']['layer_sequence']['layers_0']['mlp_block']['dense_layer']['bias']"}, tensor<3072x768xf32> {jax.result_info = "result[0].opt_state[1][0].mu['encoder']['params']['encoder_block']['layer_sequence']['layers_0']['mlp_block']['dense_layer']['kernel']"}, tensor<768xf32> {jax.result_info = "result[0].opt_state[1][0].mu['encoder']['params']['encoder_block']['layer_sequence']['layers_0']['mlp_block']['layer_norm']['bias']"}, tensor<768xf32> {jax.result_info = "result[0].opt_state[1][0].mu['encoder']['params']['encoder_block']['layer_sequence']['layers_0']['mlp_block']['layer_norm']['scale']"}, tensor<3072xf32> {jax.result_info = "result[0].opt_state[1][0].mu['encoder']['params']['encoder_block']['layer_sequence']['layers_0']['mlp_block']['mlp']['dense_layer']['bias']"}, tensor<768x3072xf32> {jax.result_info = "result[0].opt_state[1][0].mu['encoder']['params']['encoder_block']['layer_sequence']['layers_0']['mlp_block']['mlp']['dense_layer']['kernel']"}, tensor<768xf32> {jax.result_info = "result[0].opt_state[1][0].mu['encoder']['params']['encoder_block']['layer_sequence']['layers_1']['attention_block']['attention_layer']['key']['bias']"}, tensor<768x768xf32> {jax.result_info = "result[0].opt_state[1][0].mu['encoder']['params']['encoder_block']['layer_sequence']['layers_1']['attention_block']['attention_layer']['key']['kernel']"}, tensor<768xf32> {jax.result_info = "result[0].opt_state[1][0].mu['encoder']['params']['encoder_block']['layer_sequence']['layers_1']['attention_block']['attention_layer']['query']['bias']"}, tensor<768x768xf32> {jax.result_info = "result[0].opt_state[1][0].mu['encoder']['params']['encoder_block']['layer_sequence']['layers_1']['attention_block']['attention_layer']['query']['kernel']"}, tensor<768xf32> {jax.result_info = "result[0].opt_state[1][0].mu['encoder']['params']['encoder_block']['layer_sequence']['layers_1']['attention_block']['attention_layer']['value']['bias']"}, tensor<768x768xf32> {jax.result_info = "result[0].opt_state[1][0].mu['encoder']['params']['encoder_block']['layer_sequence']['layers_1']['attention_block']['attention_layer']['value']['kernel']"}, tensor<768xf32> {jax.result_info = "result[0].opt_state[1][0].mu['encoder']['params']['encoder_block']['layer_sequence']['layers_1']['attention_block']['dense_layer']['bias']"}, tensor<768x768xf32> {jax.result_info = "result[0].opt_state[1][0].mu['encoder']['params']['encoder_block']['layer_sequence']['layers_1']['attention_block']['dense_layer']['kernel']"}, tensor<768xf32> {jax.result_info = "result[0].opt_state[1][0].mu['encoder']['params']['encoder_block']['layer_sequence']['layers_1']['attention_block']['layer_norm']['bias']"}, tensor<768xf32> {jax.result_info = "result[0].opt_state[1][0].mu['encoder']['params']['encoder_block']['layer_sequence']['layers_1']['attention_block']['layer_norm']['scale']"}, tensor<768xf32> {jax.result_info = "result[0].opt_state[1][0].mu['encoder']['params']['encoder_block']['layer_sequence']['layers_1']['mlp_block']['dense_layer']['bias']"}, tensor<3072x768xf32> {jax.result_info = "result[0].opt_state[1][0].mu['encoder']['params']['encoder_block']['layer_sequence']['layers_1']['mlp_block']['dense_layer']['kernel']"}, tensor<768xf32> {jax.result_info = "result[0].opt_state[1][0].mu['encoder']['params']['encoder_block']['layer_sequence']['layers_1']['mlp_block']['layer_norm']['bias']"}, tensor<768xf32> {jax.result_info = "result[0].opt_state[1][0].mu['encoder']['params']['encoder_block']['layer_sequence']['layers_1']['mlp_block']['layer_norm']['scale']"}, tensor<3072xf32> {jax.result_info = "result[0].opt_state[1][0].mu['encoder']['params']['encoder_block']['layer_sequence']['layers_1']['mlp_block']['mlp']['dense_layer']['bias']"}, tensor<768x3072xf32> {jax.result_info = "result[0].opt_state[1][0].mu['encoder']['params']['encoder_block']['layer_sequence']['layers_1']['mlp_block']['mlp']['dense_layer']['kernel']"}, tensor<768xf32> {jax.result_info = "result[0].opt_state[1][0].mu['encoder']['params']['encoder_block']['layer_sequence']['layers_10']['attention_block']['attention_layer']['key']['bias']"}, tensor<768x768xf32> {jax.result_info = "result[0].opt_state[1][0].mu['encoder']['params']['encoder_block']['layer_sequence']['layers_10']['attention_block']['attention_layer']['key']['kernel']"}, tensor<768xf32> {jax.result_info = "result[0].opt_state[1][0].mu['encoder']['params']['encoder_block']['layer_sequence']['layers_10']['attention_block']['attention_layer']['query']['bias']"}, tensor<768x768xf32> {jax.result_info = "result[0].opt_state[1][0].mu['encoder']['params']['encoder_block']['layer_sequence']['layers_10']['attention_block']['attention_layer']['query']['kernel']"}, tensor<768xf32> {jax.result_info = "result[0].opt_state[1][0].mu['encoder']['params']['encoder_block']['layer_sequence']['layers_10']['attention_block']['attention_layer']['value']['bias']"}, tensor<768x768xf32> {jax.result_info = "result[0].opt_state[1][0].mu['encoder']['params']['encoder_block']['layer_sequence']['layers_10']['attention_block']['attention_layer']['value']['kernel']"}, tensor<768xf32> {jax.result_info = "result[0].opt_state[1][0].mu['encoder']['params']['encoder_block']['layer_sequence']['layers_10']['attention_block']['dense_layer']['bias']"}, tensor<768x768xf32> {jax.result_info = "result[0].opt_state[1][0].mu['encoder']['params']['encoder_block']['layer_sequence']['layers_10']['attention_block']['dense_layer']['kernel']"}, tensor<768xf32> {jax.result_info = "result[0].opt_state[1][0].mu['encoder']['params']['encoder_block']['layer_sequence']['layers_10']['attention_block']['layer_norm']['bias']"}, tensor<768xf32> {jax.result_info = "result[0].opt_state[1][0].mu['encoder']['params']['encoder_block']['layer_sequence']['layers_10']['attention_block']['layer_norm']['scale']"}, tensor<768xf32> {jax.result_info = "result[0].opt_state[1][0].mu['encoder']['params']['encoder_block']['layer_sequence']['layers_10']['mlp_block']['dense_layer']['bias']"}, tensor<3072x768xf32> {jax.result_info = "result[0].opt_state[1][0].mu['encoder']['params']['encoder_block']['layer_sequence']['layers_10']['mlp_block']['dense_layer']['kernel']"}, tensor<768xf32> {jax.result_info = "result[0].opt_state[1][0].mu['encoder']['params']['encoder_block']['layer_sequence']['layers_10']['mlp_block']['layer_norm']['bias']"}, tensor<768xf32> {jax.result_info = "result[0].opt_state[1][0].mu['encoder']['params']['encoder_block']['layer_sequence']['layers_10']['mlp_block']['layer_norm']['scale']"}, tensor<3072xf32> {jax.result_info = "result[0].opt_state[1][0].mu['encoder']['params']['encoder_block']['layer_sequence']['layers_10']['mlp_block']['mlp']['dense_layer']['bias']"}, tensor<768x3072xf32> {jax.result_info = "result[0].opt_state[1][0].mu['encoder']['params']['encoder_block']['layer_sequence']['layers_10']['mlp_block']['mlp']['dense_layer']['kernel']"}, tensor<768xf32> {jax.result_info = "result[0].opt_state[1][0].mu['encoder']['params']['encoder_block']['layer_sequence']['layers_11']['attention_block']['attention_layer']['key']['bias']"}, tensor<768x768xf32> {jax.result_info = "result[0].opt_state[1][0].mu['encoder']['params']['encoder_block']['layer_sequence']['layers_11']['attention_block']['attention_layer']['key']['kernel']"}, tensor<768xf32> {jax.result_info = "result[0].opt_state[1][0].mu['encoder']['params']['encoder_block']['layer_sequence']['layers_11']['attention_block']['attention_layer']['query']['bias']"}, tensor<768x768xf32> {jax.result_info = "result[0].opt_state[1][0].mu['encoder']['params']['encoder_block']['layer_sequence']['layers_11']['attention_block']['attention_layer']['query']['kernel']"}, tensor<768xf32> {jax.result_info = "result[0].opt_state[1][0].mu['encoder']['params']['encoder_block']['layer_sequence']['layers_11']['attention_block']['attention_layer']['value']['bias']"}, tensor<768x768xf32> {jax.result_info = "result[0].opt_state[1][0].mu['encoder']['params']['encoder_block']['layer_sequence']['layers_11']['attention_block']['attention_layer']['value']['kernel']"}, tensor<768xf32> {jax.result_info = "result[0].opt_state[1][0].mu['encoder']['params']['encoder_block']['layer_sequence']['layers_11']['attention_block']['dense_layer']['bias']"}, tensor<768x768xf32> {jax.result_info = "result[0].opt_state[1][0].mu['encoder']['params']['encoder_block']['layer_sequence']['layers_11']['attention_block']['dense_layer']['kernel']"}, tensor<768xf32> {jax.result_info = "result[0].opt_state[1][0].mu['encoder']['params']['encoder_block']['layer_sequence']['layers_11']['attention_block']['layer_norm']['bias']"}, tensor<768xf32> {jax.result_info = "result[0].opt_state[1][0].mu['encoder']['params']['encoder_block']['layer_sequence']['layers_11']['attention_block']['layer_norm']['scale']"}, tensor<768xf32> {jax.result_info = "result[0].opt_state[1][0].mu['encoder']['params']['encoder_block']['layer_sequence']['layers_11']['mlp_block']['dense_layer']['bias']"}, tensor<3072x768xf32> {jax.result_info = "result[0].opt_state[1][0].mu['encoder']['params']['encoder_block']['layer_sequence']['layers_11']['mlp_block']['dense_layer']['kernel']"}, tensor<768xf32> {jax.result_info = "result[0].opt_state[1][0].mu['encoder']['params']['encoder_block']['layer_sequence']['layers_11']['mlp_block']['layer_norm']['bias']"}, tensor<768xf32> {jax.result_info = "result[0].opt_state[1][0].mu['encoder']['params']['encoder_block']['layer_sequence']['layers_11']['mlp_block']['layer_norm']['scale']"}, tensor<3072xf32> {jax.result_info = "result[0].opt_state[1][0].mu['encoder']['params']['encoder_block']['layer_sequence']['layers_11']['mlp_block']['mlp']['dense_layer']['bias']"}, tensor<768x3072xf32> {jax.result_info = "result[0].opt_state[1][0].mu['encoder']['params']['encoder_block']['layer_sequence']['layers_11']['mlp_block']['mlp']['dense_layer']['kernel']"}, tensor<768xf32> {jax.result_info = "result[0].opt_state[1][0].mu['encoder']['params']['encoder_block']['layer_sequence']['layers_2']['attention_block']['attention_layer']['key']['bias']"}, tensor<768x768xf32> {jax.result_info = "result[0].opt_state[1][0].mu['encoder']['params']['encoder_block']['layer_sequence']['layers_2']['attention_block']['attention_layer']['key']['kernel']"}, tensor<768xf32> {jax.result_info = "result[0].opt_state[1][0].mu['encoder']['params']['encoder_block']['layer_sequence']['layers_2']['attention_block']['attention_layer']['query']['bias']"}, tensor<768x768xf32> {jax.result_info = "result[0].opt_state[1][0].mu['encoder']['params']['encoder_block']['layer_sequence']['layers_2']['attention_block']['attention_layer']['query']['kernel']"}, tensor<768xf32> {jax.result_info = "result[0].opt_state[1][0].mu['encoder']['params']['encoder_block']['layer_sequence']['layers_2']['attention_block']['attention_layer']['value']['bias']"}, tensor<768x768xf32> {jax.result_info = "result[0].opt_state[1][0].mu['encoder']['params']['encoder_block']['layer_sequence']['layers_2']['attention_block']['attention_layer']['value']['kernel']"}, tensor<768xf32> {jax.result_info = "result[0].opt_state[1][0].mu['encoder']['params']['encoder_block']['layer_sequence']['layers_2']['attention_block']['dense_layer']['bias']"}, tensor<768x768xf32> {jax.result_info = "result[0].opt_state[1][0].mu['encoder']['params']['encoder_block']['layer_sequence']['layers_2']['attention_block']['dense_layer']['kernel']"}, tensor<768xf32> {jax.result_info = "result[0].opt_state[1][0].mu['encoder']['params']['encoder_block']['layer_sequence']['layers_2']['attention_block']['layer_norm']['bias']"}, tensor<768xf32> {jax.result_info = "result[0].opt_state[1][0].mu['encoder']['params']['encoder_block']['layer_sequence']['layers_2']['attention_block']['layer_norm']['scale']"}, tensor<768xf32> {jax.result_info = "result[0].opt_state[1][0].mu['encoder']['params']['encoder_block']['layer_sequence']['layers_2']['mlp_block']['dense_layer']['bias']"}, tensor<3072x768xf32> {jax.result_info = "result[0].opt_state[1][0].mu['encoder']['params']['encoder_block']['layer_sequence']['layers_2']['mlp_block']['dense_layer']['kernel']"}, tensor<768xf32> {jax.result_info = "result[0].opt_state[1][0].mu['encoder']['params']['encoder_block']['layer_sequence']['layers_2']['mlp_block']['layer_norm']['bias']"}, tensor<768xf32> {jax.result_info = "result[0].opt_state[1][0].mu['encoder']['params']['encoder_block']['layer_sequence']['layers_2']['mlp_block']['layer_norm']['scale']"}, tensor<3072xf32> {jax.result_info = "result[0].opt_state[1][0].mu['encoder']['params']['encoder_block']['layer_sequence']['layers_2']['mlp_block']['mlp']['dense_layer']['bias']"}, tensor<768x3072xf32> {jax.result_info = "result[0].opt_state[1][0].mu['encoder']['params']['encoder_block']['layer_sequence']['layers_2']['mlp_block']['mlp']['dense_layer']['kernel']"}, tensor<768xf32> {jax.result_info = "result[0].opt_state[1][0].mu['encoder']['params']['encoder_block']['layer_sequence']['layers_3']['attention_block']['attention_layer']['key']['bias']"}, tensor<768x768xf32> {jax.result_info = "result[0].opt_state[1][0].mu['encoder']['params']['encoder_block']['layer_sequence']['layers_3']['attention_block']['attention_layer']['key']['kernel']"}, tensor<768xf32> {jax.result_info = "result[0].opt_state[1][0].mu['encoder']['params']['encoder_block']['layer_sequence']['layers_3']['attention_block']['attention_layer']['query']['bias']"}, tensor<768x768xf32> {jax.result_info = "result[0].opt_state[1][0].mu['encoder']['params']['encoder_block']['layer_sequence']['layers_3']['attention_block']['attention_layer']['query']['kernel']"}, tensor<768xf32> {jax.result_info = "result[0].opt_state[1][0].mu['encoder']['params']['encoder_block']['layer_sequence']['layers_3']['attention_block']['attention_layer']['value']['bias']"}, tensor<768x768xf32> {jax.result_info = "result[0].opt_state[1][0].mu['encoder']['params']['encoder_block']['layer_sequence']['layers_3']['attention_block']['attention_layer']['value']['kernel']"}, tensor<768xf32> {jax.result_info = "result[0].opt_state[1][0].mu['encoder']['params']['encoder_block']['layer_sequence']['layers_3']['attention_block']['dense_layer']['bias']"}, tensor<768x768xf32> {jax.result_info = "result[0].opt_state[1][0].mu['encoder']['params']['encoder_block']['layer_sequence']['layers_3']['attention_block']['dense_layer']['kernel']"}, tensor<768xf32> {jax.result_info = "result[0].opt_state[1][0].mu['encoder']['params']['encoder_block']['layer_sequence']['layers_3']['attention_block']['layer_norm']['bias']"}, tensor<768xf32> {jax.result_info = "result[0].opt_state[1][0].mu['encoder']['params']['encoder_block']['layer_sequence']['layers_3']['attention_block']['layer_norm']['scale']"}, tensor<768xf32> {jax.result_info = "result[0].opt_state[1][0].mu['encoder']['params']['encoder_block']['layer_sequence']['layers_3']['mlp_block']['dense_layer']['bias']"}, tensor<3072x768xf32> {jax.result_info = "result[0].opt_state[1][0].mu['encoder']['params']['encoder_block']['layer_sequence']['layers_3']['mlp_block']['dense_layer']['kernel']"}, tensor<768xf32> {jax.result_info = "result[0].opt_state[1][0].mu['encoder']['params']['encoder_block']['layer_sequence']['layers_3']['mlp_block']['layer_norm']['bias']"}, tensor<768xf32> {jax.result_info = "result[0].opt_state[1][0].mu['encoder']['params']['encoder_block']['layer_sequence']['layers_3']['mlp_block']['layer_norm']['scale']"}, tensor<3072xf32> {jax.result_info = "result[0].opt_state[1][0].mu['encoder']['params']['encoder_block']['layer_sequence']['layers_3']['mlp_block']['mlp']['dense_layer']['bias']"}, tensor<768x3072xf32> {jax.result_info = "result[0].opt_state[1][0].mu['encoder']['params']['encoder_block']['layer_sequence']['layers_3']['mlp_block']['mlp']['dense_layer']['kernel']"}, tensor<768xf32> {jax.result_info = "result[0].opt_state[1][0].mu['encoder']['params']['encoder_block']['layer_sequence']['layers_4']['attention_block']['attention_layer']['key']['bias']"}, tensor<768x768xf32> {jax.result_info = "result[0].opt_state[1][0].mu['encoder']['params']['encoder_block']['layer_sequence']['layers_4']['attention_block']['attention_layer']['key']['kernel']"}, tensor<768xf32> {jax.result_info = "result[0].opt_state[1][0].mu['encoder']['params']['encoder_block']['layer_sequence']['layers_4']['attention_block']['attention_layer']['query']['bias']"}, tensor<768x768xf32> {jax.result_info = "result[0].opt_state[1][0].mu['encoder']['params']['encoder_block']['layer_sequence']['layers_4']['attention_block']['attention_layer']['query']['kernel']"}, tensor<768xf32> {jax.result_info = "result[0].opt_state[1][0].mu['encoder']['params']['encoder_block']['layer_sequence']['layers_4']['attention_block']['attention_layer']['value']['bias']"}, tensor<768x768xf32> {jax.result_info = "result[0].opt_state[1][0].mu['encoder']['params']['encoder_block']['layer_sequence']['layers_4']['attention_block']['attention_layer']['value']['kernel']"}, tensor<768xf32> {jax.result_info = "result[0].opt_state[1][0].mu['encoder']['params']['encoder_block']['layer_sequence']['layers_4']['attention_block']['dense_layer']['bias']"}, tensor<768x768xf32> {jax.result_info = "result[0].opt_state[1][0].mu['encoder']['params']['encoder_block']['layer_sequence']['layers_4']['attention_block']['dense_layer']['kernel']"}, tensor<768xf32> {jax.result_info = "result[0].opt_state[1][0].mu['encoder']['params']['encoder_block']['layer_sequence']['layers_4']['attention_block']['layer_norm']['bias']"}, tensor<768xf32> {jax.result_info = "result[0].opt_state[1][0].mu['encoder']['params']['encoder_block']['layer_sequence']['layers_4']['attention_block']['layer_norm']['scale']"}, tensor<768xf32> {jax.result_info = "result[0].opt_state[1][0].mu['encoder']['params']['encoder_block']['layer_sequence']['layers_4']['mlp_block']['dense_layer']['bias']"}, tensor<3072x768xf32> {jax.result_info = "result[0].opt_state[1][0].mu['encoder']['params']['encoder_block']['layer_sequence']['layers_4']['mlp_block']['dense_layer']['kernel']"}, tensor<768xf32> {jax.result_info = "result[0].opt_state[1][0].mu['encoder']['params']['encoder_block']['layer_sequence']['layers_4']['mlp_block']['layer_norm']['bias']"}, tensor<768xf32> {jax.result_info = "result[0].opt_state[1][0].mu['encoder']['params']['encoder_block']['layer_sequence']['layers_4']['mlp_block']['layer_norm']['scale']"}, tensor<3072xf32> {jax.result_info = "result[0].opt_state[1][0].mu['encoder']['params']['encoder_block']['layer_sequence']['layers_4']['mlp_block']['mlp']['dense_layer']['bias']"}, tensor<768x3072xf32> {jax.result_info = "result[0].opt_state[1][0].mu['encoder']['params']['encoder_block']['layer_sequence']['layers_4']['mlp_block']['mlp']['dense_layer']['kernel']"}, tensor<768xf32> {jax.result_info = "result[0].opt_state[1][0].mu['encoder']['params']['encoder_block']['layer_sequence']['layers_5']['attention_block']['attention_layer']['key']['bias']"}, tensor<768x768xf32> {jax.result_info = "result[0].opt_state[1][0].mu['encoder']['params']['encoder_block']['layer_sequence']['layers_5']['attention_block']['attention_layer']['key']['kernel']"}, tensor<768xf32> {jax.result_info = "result[0].opt_state[1][0].mu['encoder']['params']['encoder_block']['layer_sequence']['layers_5']['attention_block']['attention_layer']['query']['bias']"}, tensor<768x768xf32> {jax.result_info = "result[0].opt_state[1][0].mu['encoder']['params']['encoder_block']['layer_sequence']['layers_5']['attention_block']['attention_layer']['query']['kernel']"}, tensor<768xf32> {jax.result_info = "result[0].opt_state[1][0].mu['encoder']['params']['encoder_block']['layer_sequence']['layers_5']['attention_block']['attention_layer']['value']['bias']"}, tensor<768x768xf32> {jax.result_info = "result[0].opt_state[1][0].mu['encoder']['params']['encoder_block']['layer_sequence']['layers_5']['attention_block']['attention_layer']['value']['kernel']"}, tensor<768xf32> {jax.result_info = "result[0].opt_state[1][0].mu['encoder']['params']['encoder_block']['layer_sequence']['layers_5']['attention_block']['dense_layer']['bias']"}, tensor<768x768xf32> {jax.result_info = "result[0].opt_state[1][0].mu['encoder']['params']['encoder_block']['layer_sequence']['layers_5']['attention_block']['dense_layer']['kernel']"}, tensor<768xf32> {jax.result_info = "result[0].opt_state[1][0].mu['encoder']['params']['encoder_block']['layer_sequence']['layers_5']['attention_block']['layer_norm']['bias']"}, tensor<768xf32> {jax.result_info = "result[0].opt_state[1][0].mu['encoder']['params']['encoder_block']['layer_sequence']['layers_5']['attention_block']['layer_norm']['scale']"}, tensor<768xf32> {jax.result_info = "result[0].opt_state[1][0].mu['encoder']['params']['encoder_block']['layer_sequence']['layers_5']['mlp_block']['dense_layer']['bias']"}, tensor<3072x768xf32> {jax.result_info = "result[0].opt_state[1][0].mu['encoder']['params']['encoder_block']['layer_sequence']['layers_5']['mlp_block']['dense_layer']['kernel']"}, tensor<768xf32> {jax.result_info = "result[0].opt_state[1][0].mu['encoder']['params']['encoder_block']['layer_sequence']['layers_5']['mlp_block']['layer_norm']['bias']"}, tensor<768xf32> {jax.result_info = "result[0].opt_state[1][0].mu['encoder']['params']['encoder_block']['layer_sequence']['layers_5']['mlp_block']['layer_norm']['scale']"}, tensor<3072xf32> {jax.result_info = "result[0].opt_state[1][0].mu['encoder']['params']['encoder_block']['layer_sequence']['layers_5']['mlp_block']['mlp']['dense_layer']['bias']"}, tensor<768x3072xf32> {jax.result_info = "result[0].opt_state[1][0].mu['encoder']['params']['encoder_block']['layer_sequence']['layers_5']['mlp_block']['mlp']['dense_layer']['kernel']"}, tensor<768xf32> {jax.result_info = "result[0].opt_state[1][0].mu['encoder']['params']['encoder_block']['layer_sequence']['layers_6']['attention_block']['attention_layer']['key']['bias']"}, tensor<768x768xf32> {jax.result_info = "result[0].opt_state[1][0].mu['encoder']['params']['encoder_block']['layer_sequence']['layers_6']['attention_block']['attention_layer']['key']['kernel']"}, tensor<768xf32> {jax.result_info = "result[0].opt_state[1][0].mu['encoder']['params']['encoder_block']['layer_sequence']['layers_6']['attention_block']['attention_layer']['query']['bias']"}, tensor<768x768xf32> {jax.result_info = "result[0].opt_state[1][0].mu['encoder']['params']['encoder_block']['layer_sequence']['layers_6']['attention_block']['attention_layer']['query']['kernel']"}, tensor<768xf32> {jax.result_info = "result[0].opt_state[1][0].mu['encoder']['params']['encoder_block']['layer_sequence']['layers_6']['attention_block']['attention_layer']['value']['bias']"}, tensor<768x768xf32> {jax.result_info = "result[0].opt_state[1][0].mu['encoder']['params']['encoder_block']['layer_sequence']['layers_6']['attention_block']['attention_layer']['value']['kernel']"}, tensor<768xf32> {jax.result_info = "result[0].opt_state[1][0].mu['encoder']['params']['encoder_block']['layer_sequence']['layers_6']['attention_block']['dense_layer']['bias']"}, tensor<768x768xf32> {jax.result_info = "result[0].opt_state[1][0].mu['encoder']['params']['encoder_block']['layer_sequence']['layers_6']['attention_block']['dense_layer']['kernel']"}, tensor<768xf32> {jax.result_info = "result[0].opt_state[1][0].mu['encoder']['params']['encoder_block']['layer_sequence']['layers_6']['attention_block']['layer_norm']['bias']"}, tensor<768xf32> {jax.result_info = "result[0].opt_state[1][0].mu['encoder']['params']['encoder_block']['layer_sequence']['layers_6']['attention_block']['layer_norm']['scale']"}, tensor<768xf32> {jax.result_info = "result[0].opt_state[1][0].mu['encoder']['params']['encoder_block']['layer_sequence']['layers_6']['mlp_block']['dense_layer']['bias']"}, tensor<3072x768xf32> {jax.result_info = "result[0].opt_state[1][0].mu['encoder']['params']['encoder_block']['layer_sequence']['layers_6']['mlp_block']['dense_layer']['kernel']"}, tensor<768xf32> {jax.result_info = "result[0].opt_state[1][0].mu['encoder']['params']['encoder_block']['layer_sequence']['layers_6']['mlp_block']['layer_norm']['bias']"}, tensor<768xf32> {jax.result_info = "result[0].opt_state[1][0].mu['encoder']['params']['encoder_block']['layer_sequence']['layers_6']['mlp_block']['layer_norm']['scale']"}, tensor<3072xf32> {jax.result_info = "result[0].opt_state[1][0].mu['encoder']['params']['encoder_block']['layer_sequence']['layers_6']['mlp_block']['mlp']['dense_layer']['bias']"}, tensor<768x3072xf32> {jax.result_info = "result[0].opt_state[1][0].mu['encoder']['params']['encoder_block']['layer_sequence']['layers_6']['mlp_block']['mlp']['dense_layer']['kernel']"}, tensor<768xf32> {jax.result_info = "result[0].opt_state[1][0].mu['encoder']['params']['encoder_block']['layer_sequence']['layers_7']['attention_block']['attention_layer']['key']['bias']"}, tensor<768x768xf32> {jax.result_info = "result[0].opt_state[1][0].mu['encoder']['params']['encoder_block']['layer_sequence']['layers_7']['attention_block']['attention_layer']['key']['kernel']"}, tensor<768xf32> {jax.result_info = "result[0].opt_state[1][0].mu['encoder']['params']['encoder_block']['layer_sequence']['layers_7']['attention_block']['attention_layer']['query']['bias']"}, tensor<768x768xf32> {jax.result_info = "result[0].opt_state[1][0].mu['encoder']['params']['encoder_block']['layer_sequence']['layers_7']['attention_block']['attention_layer']['query']['kernel']"}, tensor<768xf32> {jax.result_info = "result[0].opt_state[1][0].mu['encoder']['params']['encoder_block']['layer_sequence']['layers_7']['attention_block']['attention_layer']['value']['bias']"}, tensor<768x768xf32> {jax.result_info = "result[0].opt_state[1][0].mu['encoder']['params']['encoder_block']['layer_sequence']['layers_7']['attention_block']['attention_layer']['value']['kernel']"}, tensor<768xf32> {jax.result_info = "result[0].opt_state[1][0].mu['encoder']['params']['encoder_block']['layer_sequence']['layers_7']['attention_block']['dense_layer']['bias']"}, tensor<768x768xf32> {jax.result_info = "result[0].opt_state[1][0].mu['encoder']['params']['encoder_block']['layer_sequence']['layers_7']['attention_block']['dense_layer']['kernel']"}, tensor<768xf32> {jax.result_info = "result[0].opt_state[1][0].mu['encoder']['params']['encoder_block']['layer_sequence']['layers_7']['attention_block']['layer_norm']['bias']"}, tensor<768xf32> {jax.result_info = "result[0].opt_state[1][0].mu['encoder']['params']['encoder_block']['layer_sequence']['layers_7']['attention_block']['layer_norm']['scale']"}, tensor<768xf32> {jax.result_info = "result[0].opt_state[1][0].mu['encoder']['params']['encoder_block']['layer_sequence']['layers_7']['mlp_block']['dense_layer']['bias']"}, tensor<3072x768xf32> {jax.result_info = "result[0].opt_state[1][0].mu['encoder']['params']['encoder_block']['layer_sequence']['layers_7']['mlp_block']['dense_layer']['kernel']"}, tensor<768xf32> {jax.result_info = "result[0].opt_state[1][0].mu['encoder']['params']['encoder_block']['layer_sequence']['layers_7']['mlp_block']['layer_norm']['bias']"}, tensor<768xf32> {jax.result_info = "result[0].opt_state[1][0].mu['encoder']['params']['encoder_block']['layer_sequence']['layers_7']['mlp_block']['layer_norm']['scale']"}, tensor<3072xf32> {jax.result_info = "result[0].opt_state[1][0].mu['encoder']['params']['encoder_block']['layer_sequence']['layers_7']['mlp_block']['mlp']['dense_layer']['bias']"}, tensor<768x3072xf32> {jax.result_info = "result[0].opt_state[1][0].mu['encoder']['params']['encoder_block']['layer_sequence']['layers_7']['mlp_block']['mlp']['dense_layer']['kernel']"}, tensor<768xf32> {jax.result_info = "result[0].opt_state[1][0].mu['encoder']['params']['encoder_block']['layer_sequence']['layers_8']['attention_block']['attention_layer']['key']['bias']"}, tensor<768x768xf32> {jax.result_info = "result[0].opt_state[1][0].mu['encoder']['params']['encoder_block']['layer_sequence']['layers_8']['attention_block']['attention_layer']['key']['kernel']"}, tensor<768xf32> {jax.result_info = "result[0].opt_state[1][0].mu['encoder']['params']['encoder_block']['layer_sequence']['layers_8']['attention_block']['attention_layer']['query']['bias']"}, tensor<768x768xf32> {jax.result_info = "result[0].opt_state[1][0].mu['encoder']['params']['encoder_block']['layer_sequence']['layers_8']['attention_block']['attention_layer']['query']['kernel']"}, tensor<768xf32> {jax.result_info = "result[0].opt_state[1][0].mu['encoder']['params']['encoder_block']['layer_sequence']['layers_8']['attention_block']['attention_layer']['value']['bias']"}, tensor<768x768xf32> {jax.result_info = "result[0].opt_state[1][0].mu['encoder']['params']['encoder_block']['layer_sequence']['layers_8']['attention_block']['attention_layer']['value']['kernel']"}, tensor<768xf32> {jax.result_info = "result[0].opt_state[1][0].mu['encoder']['params']['encoder_block']['layer_sequence']['layers_8']['attention_block']['dense_layer']['bias']"}, tensor<768x768xf32> {jax.result_info = "result[0].opt_state[1][0].mu['encoder']['params']['encoder_block']['layer_sequence']['layers_8']['attention_block']['dense_layer']['kernel']"}, tensor<768xf32> {jax.result_info = "result[0].opt_state[1][0].mu['encoder']['params']['encoder_block']['layer_sequence']['layers_8']['attention_block']['layer_norm']['bias']"}, tensor<768xf32> {jax.result_info = "result[0].opt_state[1][0].mu['encoder']['params']['encoder_block']['layer_sequence']['layers_8']['attention_block']['layer_norm']['scale']"}, tensor<768xf32> {jax.result_info = "result[0].opt_state[1][0].mu['encoder']['params']['encoder_block']['layer_sequence']['layers_8']['mlp_block']['dense_layer']['bias']"}, tensor<3072x768xf32> {jax.result_info = "result[0].opt_state[1][0].mu['encoder']['params']['encoder_block']['layer_sequence']['layers_8']['mlp_block']['dense_layer']['kernel']"}, tensor<768xf32> {jax.result_info = "result[0].opt_state[1][0].mu['encoder']['params']['encoder_block']['layer_sequence']['layers_8']['mlp_block']['layer_norm']['bias']"}, tensor<768xf32> {jax.result_info = "result[0].opt_state[1][0].mu['encoder']['params']['encoder_block']['layer_sequence']['layers_8']['mlp_block']['layer_norm']['scale']"}, tensor<3072xf32> {jax.result_info = "result[0].opt_state[1][0].mu['encoder']['params']['encoder_block']['layer_sequence']['layers_8']['mlp_block']['mlp']['dense_layer']['bias']"}, tensor<768x3072xf32> {jax.result_info = "result[0].opt_state[1][0].mu['encoder']['params']['encoder_block']['layer_sequence']['layers_8']['mlp_block']['mlp']['dense_layer']['kernel']"}, tensor<768xf32> {jax.result_info = "result[0].opt_state[1][0].mu['encoder']['params']['encoder_block']['layer_sequence']['layers_9']['attention_block']['attention_layer']['key']['bias']"}, tensor<768x768xf32> {jax.result_info = "result[0].opt_state[1][0].mu['encoder']['params']['encoder_block']['layer_sequence']['layers_9']['attention_block']['attention_layer']['key']['kernel']"}, tensor<768xf32> {jax.result_info = "result[0].opt_state[1][0].mu['encoder']['params']['encoder_block']['layer_sequence']['layers_9']['attention_block']['attention_layer']['query']['bias']"}, tensor<768x768xf32> {jax.result_info = "result[0].opt_state[1][0].mu['encoder']['params']['encoder_block']['layer_sequence']['layers_9']['attention_block']['attention_layer']['query']['kernel']"}, tensor<768xf32> {jax.result_info = "result[0].opt_state[1][0].mu['encoder']['params']['encoder_block']['layer_sequence']['layers_9']['attention_block']['attention_layer']['value']['bias']"}, tensor<768x768xf32> {jax.result_info = "result[0].opt_state[1][0].mu['encoder']['params']['encoder_block']['layer_sequence']['layers_9']['attention_block']['attention_layer']['value']['kernel']"}, tensor<768xf32> {jax.result_info = "result[0].opt_state[1][0].mu['encoder']['params']['encoder_block']['layer_sequence']['layers_9']['attention_block']['dense_layer']['bias']"}, tensor<768x768xf32> {jax.result_info = "result[0].opt_state[1][0].mu['encoder']['params']['encoder_block']['layer_sequence']['layers_9']['attention_block']['dense_layer']['kernel']"}, tensor<768xf32> {jax.result_info = "result[0].opt_state[1][0].mu['encoder']['params']['encoder_block']['layer_sequence']['layers_9']['attention_block']['layer_norm']['bias']"}, tensor<768xf32> {jax.result_info = "result[0].opt_state[1][0].mu['encoder']['params']['encoder_block']['layer_sequence']['layers_9']['attention_block']['layer_norm']['scale']"}, tensor<768xf32> {jax.result_info = "result[0].opt_state[1][0].mu['encoder']['params']['encoder_block']['layer_sequence']['layers_9']['mlp_block']['dense_layer']['bias']"}, tensor<3072x768xf32> {jax.result_info = "result[0].opt_state[1][0].mu['encoder']['params']['encoder_block']['layer_sequence']['layers_9']['mlp_block']['dense_layer']['kernel']"}, tensor<768xf32> {jax.result_info = "result[0].opt_state[1][0].mu['encoder']['params']['encoder_block']['layer_sequence']['layers_9']['mlp_block']['layer_norm']['bias']"}, tensor<768xf32> {jax.result_info = "result[0].opt_state[1][0].mu['encoder']['params']['encoder_block']['layer_sequence']['layers_9']['mlp_block']['layer_norm']['scale']"}, tensor<3072xf32> {jax.result_info = "result[0].opt_state[1][0].mu['encoder']['params']['encoder_block']['layer_sequence']['layers_9']['mlp_block']['mlp']['dense_layer']['bias']"}, tensor<768x3072xf32> {jax.result_info = "result[0].opt_state[1][0].mu['encoder']['params']['encoder_block']['layer_sequence']['layers_9']['mlp_block']['mlp']['dense_layer']['kernel']"}, tensor<768xf32> {jax.result_info = "result[0].opt_state[1][0].mu['encoder']['params']['layer_norm']['bias']"}, tensor<768xf32> {jax.result_info = "result[0].opt_state[1][0].mu['encoder']['params']['layer_norm']['scale']"}, tensor<30522xf32> {jax.result_info = "result[0].opt_state[1][0].mu['mlm_head']['params']['bias']"}, tensor<768xf32> {jax.result_info = "result[0].opt_state[1][0].mu['mlm_head']['params']['dense']['bias']"}, tensor<768x768xf32> {jax.result_info = "result[0].opt_state[1][0].mu['mlm_head']['params']['dense']['kernel']"}, tensor<30522x768xf32> {jax.result_info = "result[0].opt_state[1][0].mu['mlm_head']['params']['encoder']['embedder']['embedders_token_ids']['embedding']"}, tensor<768xf32> {jax.result_info = "result[0].opt_state[1][0].mu['mlm_head']['params']['layer_norm']['bias']"}, tensor<768xf32> {jax.result_info = "result[0].opt_state[1][0].mu['mlm_head']['params']['layer_norm']['scale']"}, tensor<512x768xf32> {jax.result_info = "result[0].opt_state[1][0].nu['encoder']['params']['embedder']['embedders_position_ids']['embedding']"}, tensor<2x768xf32> {jax.result_info = "result[0].opt_state[1][0].nu['encoder']['params']['embedder']['embedders_segment_ids']['embedding']"}, tensor<30522x768xf32> {jax.result_info = "result[0].opt_state[1][0].nu['encoder']['params']['embedder']['embedders_token_ids']['embedding']"}, tensor<768xf32> {jax.result_info = "result[0].opt_state[1][0].nu['encoder']['params']['encoder_block']['layer_sequence']['layers_0']['attention_block']['attention_layer']['key']['bias']"}, tensor<768x768xf32> {jax.result_info = "result[0].opt_state[1][0].nu['encoder']['params']['encoder_block']['layer_sequence']['layers_0']['attention_block']['attention_layer']['key']['kernel']"}, tensor<768xf32> {jax.result_info = "result[0].opt_state[1][0].nu['encoder']['params']['encoder_block']['layer_sequence']['layers_0']['attention_block']['attention_layer']['query']['bias']"}, tensor<768x768xf32> {jax.result_info = "result[0].opt_state[1][0].nu['encoder']['params']['encoder_block']['layer_sequence']['layers_0']['attention_block']['attention_layer']['query']['kernel']"}, tensor<768xf32> {jax.result_info = "result[0].opt_state[1][0].nu['encoder']['params']['encoder_block']['layer_sequence']['layers_0']['attention_block']['attention_layer']['value']['bias']"}, tensor<768x768xf32> {jax.result_info = "result[0].opt_state[1][0].nu['encoder']['params']['encoder_block']['layer_sequence']['layers_0']['attention_block']['attention_layer']['value']['kernel']"}, tensor<768xf32> {jax.result_info = "result[0].opt_state[1][0].nu['encoder']['params']['encoder_block']['layer_sequence']['layers_0']['attention_block']['dense_layer']['bias']"}, tensor<768x768xf32> {jax.result_info = "result[0].opt_state[1][0].nu['encoder']['params']['encoder_block']['layer_sequence']['layers_0']['attention_block']['dense_layer']['kernel']"}, tensor<768xf32> {jax.result_info = "result[0].opt_state[1][0].nu['encoder']['params']['encoder_block']['layer_sequence']['layers_0']['attention_block']['layer_norm']['bias']"}, tensor<768xf32> {jax.result_info = "result[0].opt_state[1][0].nu['encoder']['params']['encoder_block']['layer_sequence']['layers_0']['attention_block']['layer_norm']['scale']"}, tensor<768xf32> {jax.result_info = "result[0].opt_state[1][0].nu['encoder']['params']['encoder_block']['layer_sequence']['layers_0']['mlp_block']['dense_layer']['bias']"}, tensor<3072x768xf32> {jax.result_info = "result[0].opt_state[1][0].nu['encoder']['params']['encoder_block']['layer_sequence']['layers_0']['mlp_block']['dense_layer']['kernel']"}, tensor<768xf32> {jax.result_info = "result[0].opt_state[1][0].nu['encoder']['params']['encoder_block']['layer_sequence']['layers_0']['mlp_block']['layer_norm']['bias']"}, tensor<768xf32> {jax.result_info = "result[0].opt_state[1][0].nu['encoder']['params']['encoder_block']['layer_sequence']['layers_0']['mlp_block']['layer_norm']['scale']"}, tensor<3072xf32> {jax.result_info = "result[0].opt_state[1][0].nu['encoder']['params']['encoder_block']['layer_sequence']['layers_0']['mlp_block']['mlp']['dense_layer']['bias']"}, tensor<768x3072xf32> {jax.result_info = "result[0].opt_state[1][0].nu['encoder']['params']['encoder_block']['layer_sequence']['layers_0']['mlp_block']['mlp']['dense_layer']['kernel']"}, tensor<768xf32> {jax.result_info = "result[0].opt_state[1][0].nu['encoder']['params']['encoder_block']['layer_sequence']['layers_1']['attention_block']['attention_layer']['key']['bias']"}, tensor<768x768xf32> {jax.result_info = "result[0].opt_state[1][0].nu['encoder']['params']['encoder_block']['layer_sequence']['layers_1']['attention_block']['attention_layer']['key']['kernel']"}, tensor<768xf32> {jax.result_info = "result[0].opt_state[1][0].nu['encoder']['params']['encoder_block']['layer_sequence']['layers_1']['attention_block']['attention_layer']['query']['bias']"}, tensor<768x768xf32> {jax.result_info = "result[0].opt_state[1][0].nu['encoder']['params']['encoder_block']['layer_sequence']['layers_1']['attention_block']['attention_layer']['query']['kernel']"}, tensor<768xf32> {jax.result_info = "result[0].opt_state[1][0].nu['encoder']['params']['encoder_block']['layer_sequence']['layers_1']['attention_block']['attention_layer']['value']['bias']"}, tensor<768x768xf32> {jax.result_info = "result[0].opt_state[1][0].nu['encoder']['params']['encoder_block']['layer_sequence']['layers_1']['attention_block']['attention_layer']['value']['kernel']"}, tensor<768xf32> {jax.result_info = "result[0].opt_state[1][0].nu['encoder']['params']['encoder_block']['layer_sequence']['layers_1']['attention_block']['dense_layer']['bias']"}, tensor<768x768xf32> {jax.result_info = "result[0].opt_state[1][0].nu['encoder']['params']['encoder_block']['layer_sequence']['layers_1']['attention_block']['dense_layer']['kernel']"}, tensor<768xf32> {jax.result_info = "result[0].opt_state[1][0].nu['encoder']['params']['encoder_block']['layer_sequence']['layers_1']['attention_block']['layer_norm']['bias']"}, tensor<768xf32> {jax.result_info = "result[0].opt_state[1][0].nu['encoder']['params']['encoder_block']['layer_sequence']['layers_1']['attention_block']['layer_norm']['scale']"}, tensor<768xf32> {jax.result_info = "result[0].opt_state[1][0].nu['encoder']['params']['encoder_block']['layer_sequence']['layers_1']['mlp_block']['dense_layer']['bias']"}, tensor<3072x768xf32> {jax.result_info = "result[0].opt_state[1][0].nu['encoder']['params']['encoder_block']['layer_sequence']['layers_1']['mlp_block']['dense_layer']['kernel']"}, tensor<768xf32> {jax.result_info = "result[0].opt_state[1][0].nu['encoder']['params']['encoder_block']['layer_sequence']['layers_1']['mlp_block']['layer_norm']['bias']"}, tensor<768xf32> {jax.result_info = "result[0].opt_state[1][0].nu['encoder']['params']['encoder_block']['layer_sequence']['layers_1']['mlp_block']['layer_norm']['scale']"}, tensor<3072xf32> {jax.result_info = "result[0].opt_state[1][0].nu['encoder']['params']['encoder_block']['layer_sequence']['layers_1']['mlp_block']['mlp']['dense_layer']['bias']"}, tensor<768x3072xf32> {jax.result_info = "result[0].opt_state[1][0].nu['encoder']['params']['encoder_block']['layer_sequence']['layers_1']['mlp_block']['mlp']['dense_layer']['kernel']"}, tensor<768xf32> {jax.result_info = "result[0].opt_state[1][0].nu['encoder']['params']['encoder_block']['layer_sequence']['layers_10']['attention_block']['attention_layer']['key']['bias']"}, tensor<768x768xf32> {jax.result_info = "result[0].opt_state[1][0].nu['encoder']['params']['encoder_block']['layer_sequence']['layers_10']['attention_block']['attention_layer']['key']['kernel']"}, tensor<768xf32> {jax.result_info = "result[0].opt_state[1][0].nu['encoder']['params']['encoder_block']['layer_sequence']['layers_10']['attention_block']['attention_layer']['query']['bias']"}, tensor<768x768xf32> {jax.result_info = "result[0].opt_state[1][0].nu['encoder']['params']['encoder_block']['layer_sequence']['layers_10']['attention_block']['attention_layer']['query']['kernel']"}, tensor<768xf32> {jax.result_info = "result[0].opt_state[1][0].nu['encoder']['params']['encoder_block']['layer_sequence']['layers_10']['attention_block']['attention_layer']['value']['bias']"}, tensor<768x768xf32> {jax.result_info = "result[0].opt_state[1][0].nu['encoder']['params']['encoder_block']['layer_sequence']['layers_10']['attention_block']['attention_layer']['value']['kernel']"}, tensor<768xf32> {jax.result_info = "result[0].opt_state[1][0].nu['encoder']['params']['encoder_block']['layer_sequence']['layers_10']['attention_block']['dense_layer']['bias']"}, tensor<768x768xf32> {jax.result_info = "result[0].opt_state[1][0].nu['encoder']['params']['encoder_block']['layer_sequence']['layers_10']['attention_block']['dense_layer']['kernel']"}, tensor<768xf32> {jax.result_info = "result[0].opt_state[1][0].nu['encoder']['params']['encoder_block']['layer_sequence']['layers_10']['attention_block']['layer_norm']['bias']"}, tensor<768xf32> {jax.result_info = "result[0].opt_state[1][0].nu['encoder']['params']['encoder_block']['layer_sequence']['layers_10']['attention_block']['layer_norm']['scale']"}, tensor<768xf32> {jax.result_info = "result[0].opt_state[1][0].nu['encoder']['params']['encoder_block']['layer_sequence']['layers_10']['mlp_block']['dense_layer']['bias']"}, tensor<3072x768xf32> {jax.result_info = "result[0].opt_state[1][0].nu['encoder']['params']['encoder_block']['layer_sequence']['layers_10']['mlp_block']['dense_layer']['kernel']"}, tensor<768xf32> {jax.result_info = "result[0].opt_state[1][0].nu['encoder']['params']['encoder_block']['layer_sequence']['layers_10']['mlp_block']['layer_norm']['bias']"}, tensor<768xf32> {jax.result_info = "result[0].opt_state[1][0].nu['encoder']['params']['encoder_block']['layer_sequence']['layers_10']['mlp_block']['layer_norm']['scale']"}, tensor<3072xf32> {jax.result_info = "result[0].opt_state[1][0].nu['encoder']['params']['encoder_block']['layer_sequence']['layers_10']['mlp_block']['mlp']['dense_layer']['bias']"}, tensor<768x3072xf32> {jax.result_info = "result[0].opt_state[1][0].nu['encoder']['params']['encoder_block']['layer_sequence']['layers_10']['mlp_block']['mlp']['dense_layer']['kernel']"}, tensor<768xf32> {jax.result_info = "result[0].opt_state[1][0].nu['encoder']['params']['encoder_block']['layer_sequence']['layers_11']['attention_block']['attention_layer']['key']['bias']"}, tensor<768x768xf32> {jax.result_info = "result[0].opt_state[1][0].nu['encoder']['params']['encoder_block']['layer_sequence']['layers_11']['attention_block']['attention_layer']['key']['kernel']"}, tensor<768xf32> {jax.result_info = "result[0].opt_state[1][0].nu['encoder']['params']['encoder_block']['layer_sequence']['layers_11']['attention_block']['attention_layer']['query']['bias']"}, tensor<768x768xf32> {jax.result_info = "result[0].opt_state[1][0].nu['encoder']['params']['encoder_block']['layer_sequence']['layers_11']['attention_block']['attention_layer']['query']['kernel']"}, tensor<768xf32> {jax.result_info = "result[0].opt_state[1][0].nu['encoder']['params']['encoder_block']['layer_sequence']['layers_11']['attention_block']['attention_layer']['value']['bias']"}, tensor<768x768xf32> {jax.result_info = "result[0].opt_state[1][0].nu['encoder']['params']['encoder_block']['layer_sequence']['layers_11']['attention_block']['attention_layer']['value']['kernel']"}, tensor<768xf32> {jax.result_info = "result[0].opt_state[1][0].nu['encoder']['params']['encoder_block']['layer_sequence']['layers_11']['attention_block']['dense_layer']['bias']"}, tensor<768x768xf32> {jax.result_info = "result[0].opt_state[1][0].nu['encoder']['params']['encoder_block']['layer_sequence']['layers_11']['attention_block']['dense_layer']['kernel']"}, tensor<768xf32> {jax.result_info = "result[0].opt_state[1][0].nu['encoder']['params']['encoder_block']['layer_sequence']['layers_11']['attention_block']['layer_norm']['bias']"}, tensor<768xf32> {jax.result_info = "result[0].opt_state[1][0].nu['encoder']['params']['encoder_block']['layer_sequence']['layers_11']['attention_block']['layer_norm']['scale']"}, tensor<768xf32> {jax.result_info = "result[0].opt_state[1][0].nu['encoder']['params']['encoder_block']['layer_sequence']['layers_11']['mlp_block']['dense_layer']['bias']"}, tensor<3072x768xf32> {jax.result_info = "result[0].opt_state[1][0].nu['encoder']['params']['encoder_block']['layer_sequence']['layers_11']['mlp_block']['dense_layer']['kernel']"}, tensor<768xf32> {jax.result_info = "result[0].opt_state[1][0].nu['encoder']['params']['encoder_block']['layer_sequence']['layers_11']['mlp_block']['layer_norm']['bias']"}, tensor<768xf32> {jax.result_info = "result[0].opt_state[1][0].nu['encoder']['params']['encoder_block']['layer_sequence']['layers_11']['mlp_block']['layer_norm']['scale']"}, tensor<3072xf32> {jax.result_info = "result[0].opt_state[1][0].nu['encoder']['params']['encoder_block']['layer_sequence']['layers_11']['mlp_block']['mlp']['dense_layer']['bias']"}, tensor<768x3072xf32> {jax.result_info = "result[0].opt_state[1][0].nu['encoder']['params']['encoder_block']['layer_sequence']['layers_11']['mlp_block']['mlp']['dense_layer']['kernel']"}, tensor<768xf32> {jax.result_info = "result[0].opt_state[1][0].nu['encoder']['params']['encoder_block']['layer_sequence']['layers_2']['attention_block']['attention_layer']['key']['bias']"}, tensor<768x768xf32> {jax.result_info = "result[0].opt_state[1][0].nu['encoder']['params']['encoder_block']['layer_sequence']['layers_2']['attention_block']['attention_layer']['key']['kernel']"}, tensor<768xf32> {jax.result_info = "result[0].opt_state[1][0].nu['encoder']['params']['encoder_block']['layer_sequence']['layers_2']['attention_block']['attention_layer']['query']['bias']"}, tensor<768x768xf32> {jax.result_info = "result[0].opt_state[1][0].nu['encoder']['params']['encoder_block']['layer_sequence']['layers_2']['attention_block']['attention_layer']['query']['kernel']"}, tensor<768xf32> {jax.result_info = "result[0].opt_state[1][0].nu['encoder']['params']['encoder_block']['layer_sequence']['layers_2']['attention_block']['attention_layer']['value']['bias']"}, tensor<768x768xf32> {jax.result_info = "result[0].opt_state[1][0].nu['encoder']['params']['encoder_block']['layer_sequence']['layers_2']['attention_block']['attention_layer']['value']['kernel']"}, tensor<768xf32> {jax.result_info = "result[0].opt_state[1][0].nu['encoder']['params']['encoder_block']['layer_sequence']['layers_2']['attention_block']['dense_layer']['bias']"}, tensor<768x768xf32> {jax.result_info = "result[0].opt_state[1][0].nu['encoder']['params']['encoder_block']['layer_sequence']['layers_2']['attention_block']['dense_layer']['kernel']"}, tensor<768xf32> {jax.result_info = "result[0].opt_state[1][0].nu['encoder']['params']['encoder_block']['layer_sequence']['layers_2']['attention_block']['layer_norm']['bias']"}, tensor<768xf32> {jax.result_info = "result[0].opt_state[1][0].nu['encoder']['params']['encoder_block']['layer_sequence']['layers_2']['attention_block']['layer_norm']['scale']"}, tensor<768xf32> {jax.result_info = "result[0].opt_state[1][0].nu['encoder']['params']['encoder_block']['layer_sequence']['layers_2']['mlp_block']['dense_layer']['bias']"}, tensor<3072x768xf32> {jax.result_info = "result[0].opt_state[1][0].nu['encoder']['params']['encoder_block']['layer_sequence']['layers_2']['mlp_block']['dense_layer']['kernel']"}, tensor<768xf32> {jax.result_info = "result[0].opt_state[1][0].nu['encoder']['params']['encoder_block']['layer_sequence']['layers_2']['mlp_block']['layer_norm']['bias']"}, tensor<768xf32> {jax.result_info = "result[0].opt_state[1][0].nu['encoder']['params']['encoder_block']['layer_sequence']['layers_2']['mlp_block']['layer_norm']['scale']"}, tensor<3072xf32> {jax.result_info = "result[0].opt_state[1][0].nu['encoder']['params']['encoder_block']['layer_sequence']['layers_2']['mlp_block']['mlp']['dense_layer']['bias']"}, tensor<768x3072xf32> {jax.result_info = "result[0].opt_state[1][0].nu['encoder']['params']['encoder_block']['layer_sequence']['layers_2']['mlp_block']['mlp']['dense_layer']['kernel']"}, tensor<768xf32> {jax.result_info = "result[0].opt_state[1][0].nu['encoder']['params']['encoder_block']['layer_sequence']['layers_3']['attention_block']['attention_layer']['key']['bias']"}, tensor<768x768xf32> {jax.result_info = "result[0].opt_state[1][0].nu['encoder']['params']['encoder_block']['layer_sequence']['layers_3']['attention_block']['attention_layer']['key']['kernel']"}, tensor<768xf32> {jax.result_info = "result[0].opt_state[1][0].nu['encoder']['params']['encoder_block']['layer_sequence']['layers_3']['attention_block']['attention_layer']['query']['bias']"}, tensor<768x768xf32> {jax.result_info = "result[0].opt_state[1][0].nu['encoder']['params']['encoder_block']['layer_sequence']['layers_3']['attention_block']['attention_layer']['query']['kernel']"}, tensor<768xf32> {jax.result_info = "result[0].opt_state[1][0].nu['encoder']['params']['encoder_block']['layer_sequence']['layers_3']['attention_block']['attention_layer']['value']['bias']"}, tensor<768x768xf32> {jax.result_info = "result[0].opt_state[1][0].nu['encoder']['params']['encoder_block']['layer_sequence']['layers_3']['attention_block']['attention_layer']['value']['kernel']"}, tensor<768xf32> {jax.result_info = "result[0].opt_state[1][0].nu['encoder']['params']['encoder_block']['layer_sequence']['layers_3']['attention_block']['dense_layer']['bias']"}, tensor<768x768xf32> {jax.result_info = "result[0].opt_state[1][0].nu['encoder']['params']['encoder_block']['layer_sequence']['layers_3']['attention_block']['dense_layer']['kernel']"}, tensor<768xf32> {jax.result_info = "result[0].opt_state[1][0].nu['encoder']['params']['encoder_block']['layer_sequence']['layers_3']['attention_block']['layer_norm']['bias']"}, tensor<768xf32> {jax.result_info = "result[0].opt_state[1][0].nu['encoder']['params']['encoder_block']['layer_sequence']['layers_3']['attention_block']['layer_norm']['scale']"}, tensor<768xf32> {jax.result_info = "result[0].opt_state[1][0].nu['encoder']['params']['encoder_block']['layer_sequence']['layers_3']['mlp_block']['dense_layer']['bias']"}, tensor<3072x768xf32> {jax.result_info = "result[0].opt_state[1][0].nu['encoder']['params']['encoder_block']['layer_sequence']['layers_3']['mlp_block']['dense_layer']['kernel']"}, tensor<768xf32> {jax.result_info = "result[0].opt_state[1][0].nu['encoder']['params']['encoder_block']['layer_sequence']['layers_3']['mlp_block']['layer_norm']['bias']"}, tensor<768xf32> {jax.result_info = "result[0].opt_state[1][0].nu['encoder']['params']['encoder_block']['layer_sequence']['layers_3']['mlp_block']['layer_norm']['scale']"}, tensor<3072xf32> {jax.result_info = "result[0].opt_state[1][0].nu['encoder']['params']['encoder_block']['layer_sequence']['layers_3']['mlp_block']['mlp']['dense_layer']['bias']"}, tensor<768x3072xf32> {jax.result_info = "result[0].opt_state[1][0].nu['encoder']['params']['encoder_block']['layer_sequence']['layers_3']['mlp_block']['mlp']['dense_layer']['kernel']"}, tensor<768xf32> {jax.result_info = "result[0].opt_state[1][0].nu['encoder']['params']['encoder_block']['layer_sequence']['layers_4']['attention_block']['attention_layer']['key']['bias']"}, tensor<768x768xf32> {jax.result_info = "result[0].opt_state[1][0].nu['encoder']['params']['encoder_block']['layer_sequence']['layers_4']['attention_block']['attention_layer']['key']['kernel']"}, tensor<768xf32> {jax.result_info = "result[0].opt_state[1][0].nu['encoder']['params']['encoder_block']['layer_sequence']['layers_4']['attention_block']['attention_layer']['query']['bias']"}, tensor<768x768xf32> {jax.result_info = "result[0].opt_state[1][0].nu['encoder']['params']['encoder_block']['layer_sequence']['layers_4']['attention_block']['attention_layer']['query']['kernel']"}, tensor<768xf32> {jax.result_info = "result[0].opt_state[1][0].nu['encoder']['params']['encoder_block']['layer_sequence']['layers_4']['attention_block']['attention_layer']['value']['bias']"}, tensor<768x768xf32> {jax.result_info = "result[0].opt_state[1][0].nu['encoder']['params']['encoder_block']['layer_sequence']['layers_4']['attention_block']['attention_layer']['value']['kernel']"}, tensor<768xf32> {jax.result_info = "result[0].opt_state[1][0].nu['encoder']['params']['encoder_block']['layer_sequence']['layers_4']['attention_block']['dense_layer']['bias']"}, tensor<768x768xf32> {jax.result_info = "result[0].opt_state[1][0].nu['encoder']['params']['encoder_block']['layer_sequence']['layers_4']['attention_block']['dense_layer']['kernel']"}, tensor<768xf32> {jax.result_info = "result[0].opt_state[1][0].nu['encoder']['params']['encoder_block']['layer_sequence']['layers_4']['attention_block']['layer_norm']['bias']"}, tensor<768xf32> {jax.result_info = "result[0].opt_state[1][0].nu['encoder']['params']['encoder_block']['layer_sequence']['layers_4']['attention_block']['layer_norm']['scale']"}, tensor<768xf32> {jax.result_info = "result[0].opt_state[1][0].nu['encoder']['params']['encoder_block']['layer_sequence']['layers_4']['mlp_block']['dense_layer']['bias']"}, tensor<3072x768xf32> {jax.result_info = "result[0].opt_state[1][0].nu['encoder']['params']['encoder_block']['layer_sequence']['layers_4']['mlp_block']['dense_layer']['kernel']"}, tensor<768xf32> {jax.result_info = "result[0].opt_state[1][0].nu['encoder']['params']['encoder_block']['layer_sequence']['layers_4']['mlp_block']['layer_norm']['bias']"}, tensor<768xf32> {jax.result_info = "result[0].opt_state[1][0].nu['encoder']['params']['encoder_block']['layer_sequence']['layers_4']['mlp_block']['layer_norm']['scale']"}, tensor<3072xf32> {jax.result_info = "result[0].opt_state[1][0].nu['encoder']['params']['encoder_block']['layer_sequence']['layers_4']['mlp_block']['mlp']['dense_layer']['bias']"}, tensor<768x3072xf32> {jax.result_info = "result[0].opt_state[1][0].nu['encoder']['params']['encoder_block']['layer_sequence']['layers_4']['mlp_block']['mlp']['dense_layer']['kernel']"}, tensor<768xf32> {jax.result_info = "result[0].opt_state[1][0].nu['encoder']['params']['encoder_block']['layer_sequence']['layers_5']['attention_block']['attention_layer']['key']['bias']"}, tensor<768x768xf32> {jax.result_info = "result[0].opt_state[1][0].nu['encoder']['params']['encoder_block']['layer_sequence']['layers_5']['attention_block']['attention_layer']['key']['kernel']"}, tensor<768xf32> {jax.result_info = "result[0].opt_state[1][0].nu['encoder']['params']['encoder_block']['layer_sequence']['layers_5']['attention_block']['attention_layer']['query']['bias']"}, tensor<768x768xf32> {jax.result_info = "result[0].opt_state[1][0].nu['encoder']['params']['encoder_block']['layer_sequence']['layers_5']['attention_block']['attention_layer']['query']['kernel']"}, tensor<768xf32> {jax.result_info = "result[0].opt_state[1][0].nu['encoder']['params']['encoder_block']['layer_sequence']['layers_5']['attention_block']['attention_layer']['value']['bias']"}, tensor<768x768xf32> {jax.result_info = "result[0].opt_state[1][0].nu['encoder']['params']['encoder_block']['layer_sequence']['layers_5']['attention_block']['attention_layer']['value']['kernel']"}, tensor<768xf32> {jax.result_info = "result[0].opt_state[1][0].nu['encoder']['params']['encoder_block']['layer_sequence']['layers_5']['attention_block']['dense_layer']['bias']"}, tensor<768x768xf32> {jax.result_info = "result[0].opt_state[1][0].nu['encoder']['params']['encoder_block']['layer_sequence']['layers_5']['attention_block']['dense_layer']['kernel']"}, tensor<768xf32> {jax.result_info = "result[0].opt_state[1][0].nu['encoder']['params']['encoder_block']['layer_sequence']['layers_5']['attention_block']['layer_norm']['bias']"}, tensor<768xf32> {jax.result_info = "result[0].opt_state[1][0].nu['encoder']['params']['encoder_block']['layer_sequence']['layers_5']['attention_block']['layer_norm']['scale']"}, tensor<768xf32> {jax.result_info = "result[0].opt_state[1][0].nu['encoder']['params']['encoder_block']['layer_sequence']['layers_5']['mlp_block']['dense_layer']['bias']"}, tensor<3072x768xf32> {jax.result_info = "result[0].opt_state[1][0].nu['encoder']['params']['encoder_block']['layer_sequence']['layers_5']['mlp_block']['dense_layer']['kernel']"}, tensor<768xf32> {jax.result_info = "result[0].opt_state[1][0].nu['encoder']['params']['encoder_block']['layer_sequence']['layers_5']['mlp_block']['layer_norm']['bias']"}, tensor<768xf32> {jax.result_info = "result[0].opt_state[1][0].nu['encoder']['params']['encoder_block']['layer_sequence']['layers_5']['mlp_block']['layer_norm']['scale']"}, tensor<3072xf32> {jax.result_info = "result[0].opt_state[1][0].nu['encoder']['params']['encoder_block']['layer_sequence']['layers_5']['mlp_block']['mlp']['dense_layer']['bias']"}, tensor<768x3072xf32> {jax.result_info = "result[0].opt_state[1][0].nu['encoder']['params']['encoder_block']['layer_sequence']['layers_5']['mlp_block']['mlp']['dense_layer']['kernel']"}, tensor<768xf32> {jax.result_info = "result[0].opt_state[1][0].nu['encoder']['params']['encoder_block']['layer_sequence']['layers_6']['attention_block']['attention_layer']['key']['bias']"}, tensor<768x768xf32> {jax.result_info = "result[0].opt_state[1][0].nu['encoder']['params']['encoder_block']['layer_sequence']['layers_6']['attention_block']['attention_layer']['key']['kernel']"}, tensor<768xf32> {jax.result_info = "result[0].opt_state[1][0].nu['encoder']['params']['encoder_block']['layer_sequence']['layers_6']['attention_block']['attention_layer']['query']['bias']"}, tensor<768x768xf32> {jax.result_info = "result[0].opt_state[1][0].nu['encoder']['params']['encoder_block']['layer_sequence']['layers_6']['attention_block']['attention_layer']['query']['kernel']"}, tensor<768xf32> {jax.result_info = "result[0].opt_state[1][0].nu['encoder']['params']['encoder_block']['layer_sequence']['layers_6']['attention_block']['attention_layer']['value']['bias']"}, tensor<768x768xf32> {jax.result_info = "result[0].opt_state[1][0].nu['encoder']['params']['encoder_block']['layer_sequence']['layers_6']['attention_block']['attention_layer']['value']['kernel']"}, tensor<768xf32> {jax.result_info = "result[0].opt_state[1][0].nu['encoder']['params']['encoder_block']['layer_sequence']['layers_6']['attention_block']['dense_layer']['bias']"}, tensor<768x768xf32> {jax.result_info = "result[0].opt_state[1][0].nu['encoder']['params']['encoder_block']['layer_sequence']['layers_6']['attention_block']['dense_layer']['kernel']"}, tensor<768xf32> {jax.result_info = "result[0].opt_state[1][0].nu['encoder']['params']['encoder_block']['layer_sequence']['layers_6']['attention_block']['layer_norm']['bias']"}, tensor<768xf32> {jax.result_info = "result[0].opt_state[1][0].nu['encoder']['params']['encoder_block']['layer_sequence']['layers_6']['attention_block']['layer_norm']['scale']"}, tensor<768xf32> {jax.result_info = "result[0].opt_state[1][0].nu['encoder']['params']['encoder_block']['layer_sequence']['layers_6']['mlp_block']['dense_layer']['bias']"}, tensor<3072x768xf32> {jax.result_info = "result[0].opt_state[1][0].nu['encoder']['params']['encoder_block']['layer_sequence']['layers_6']['mlp_block']['dense_layer']['kernel']"}, tensor<768xf32> {jax.result_info = "result[0].opt_state[1][0].nu['encoder']['params']['encoder_block']['layer_sequence']['layers_6']['mlp_block']['layer_norm']['bias']"}, tensor<768xf32> {jax.result_info = "result[0].opt_state[1][0].nu['encoder']['params']['encoder_block']['layer_sequence']['layers_6']['mlp_block']['layer_norm']['scale']"}, tensor<3072xf32> {jax.result_info = "result[0].opt_state[1][0].nu['encoder']['params']['encoder_block']['layer_sequence']['layers_6']['mlp_block']['mlp']['dense_layer']['bias']"}, tensor<768x3072xf32> {jax.result_info = "result[0].opt_state[1][0].nu['encoder']['params']['encoder_block']['layer_sequence']['layers_6']['mlp_block']['mlp']['dense_layer']['kernel']"}, tensor<768xf32> {jax.result_info = "result[0].opt_state[1][0].nu['encoder']['params']['encoder_block']['layer_sequence']['layers_7']['attention_block']['attention_layer']['key']['bias']"}, tensor<768x768xf32> {jax.result_info = "result[0].opt_state[1][0].nu['encoder']['params']['encoder_block']['layer_sequence']['layers_7']['attention_block']['attention_layer']['key']['kernel']"}, tensor<768xf32> {jax.result_info = "result[0].opt_state[1][0].nu['encoder']['params']['encoder_block']['layer_sequence']['layers_7']['attention_block']['attention_layer']['query']['bias']"}, tensor<768x768xf32> {jax.result_info = "result[0].opt_state[1][0].nu['encoder']['params']['encoder_block']['layer_sequence']['layers_7']['attention_block']['attention_layer']['query']['kernel']"}, tensor<768xf32> {jax.result_info = "result[0].opt_state[1][0].nu['encoder']['params']['encoder_block']['layer_sequence']['layers_7']['attention_block']['attention_layer']['value']['bias']"}, tensor<768x768xf32> {jax.result_info = "result[0].opt_state[1][0].nu['encoder']['params']['encoder_block']['layer_sequence']['layers_7']['attention_block']['attention_layer']['value']['kernel']"}, tensor<768xf32> {jax.result_info = "result[0].opt_state[1][0].nu['encoder']['params']['encoder_block']['layer_sequence']['layers_7']['attention_block']['dense_layer']['bias']"}, tensor<768x768xf32> {jax.result_info = "result[0].opt_state[1][0].nu['encoder']['params']['encoder_block']['layer_sequence']['layers_7']['attention_block']['dense_layer']['kernel']"}, tensor<768xf32> {jax.result_info = "result[0].opt_state[1][0].nu['encoder']['params']['encoder_block']['layer_sequence']['layers_7']['attention_block']['layer_norm']['bias']"}, tensor<768xf32> {jax.result_info = "result[0].opt_state[1][0].nu['encoder']['params']['encoder_block']['layer_sequence']['layers_7']['attention_block']['layer_norm']['scale']"}, tensor<768xf32> {jax.result_info = "result[0].opt_state[1][0].nu['encoder']['params']['encoder_block']['layer_sequence']['layers_7']['mlp_block']['dense_layer']['bias']"}, tensor<3072x768xf32> {jax.result_info = "result[0].opt_state[1][0].nu['encoder']['params']['encoder_block']['layer_sequence']['layers_7']['mlp_block']['dense_layer']['kernel']"}, tensor<768xf32> {jax.result_info = "result[0].opt_state[1][0].nu['encoder']['params']['encoder_block']['layer_sequence']['layers_7']['mlp_block']['layer_norm']['bias']"}, tensor<768xf32> {jax.result_info = "result[0].opt_state[1][0].nu['encoder']['params']['encoder_block']['layer_sequence']['layers_7']['mlp_block']['layer_norm']['scale']"}, tensor<3072xf32> {jax.result_info = "result[0].opt_state[1][0].nu['encoder']['params']['encoder_block']['layer_sequence']['layers_7']['mlp_block']['mlp']['dense_layer']['bias']"}, tensor<768x3072xf32> {jax.result_info = "result[0].opt_state[1][0].nu['encoder']['params']['encoder_block']['layer_sequence']['layers_7']['mlp_block']['mlp']['dense_layer']['kernel']"}, tensor<768xf32> {jax.result_info = "result[0].opt_state[1][0].nu['encoder']['params']['encoder_block']['layer_sequence']['layers_8']['attention_block']['attention_layer']['key']['bias']"}, tensor<768x768xf32> {jax.result_info = "result[0].opt_state[1][0].nu['encoder']['params']['encoder_block']['layer_sequence']['layers_8']['attention_block']['attention_layer']['key']['kernel']"}, tensor<768xf32> {jax.result_info = "result[0].opt_state[1][0].nu['encoder']['params']['encoder_block']['layer_sequence']['layers_8']['attention_block']['attention_layer']['query']['bias']"}, tensor<768x768xf32> {jax.result_info = "result[0].opt_state[1][0].nu['encoder']['params']['encoder_block']['layer_sequence']['layers_8']['attention_block']['attention_layer']['query']['kernel']"}, tensor<768xf32> {jax.result_info = "result[0].opt_state[1][0].nu['encoder']['params']['encoder_block']['layer_sequence']['layers_8']['attention_block']['attention_layer']['value']['bias']"}, tensor<768x768xf32> {jax.result_info = "result[0].opt_state[1][0].nu['encoder']['params']['encoder_block']['layer_sequence']['layers_8']['attention_block']['attention_layer']['value']['kernel']"}, tensor<768xf32> {jax.result_info = "result[0].opt_state[1][0].nu['encoder']['params']['encoder_block']['layer_sequence']['layers_8']['attention_block']['dense_layer']['bias']"}, tensor<768x768xf32> {jax.result_info = "result[0].opt_state[1][0].nu['encoder']['params']['encoder_block']['layer_sequence']['layers_8']['attention_block']['dense_layer']['kernel']"}, tensor<768xf32> {jax.result_info = "result[0].opt_state[1][0].nu['encoder']['params']['encoder_block']['layer_sequence']['layers_8']['attention_block']['layer_norm']['bias']"}, tensor<768xf32> {jax.result_info = "result[0].opt_state[1][0].nu['encoder']['params']['encoder_block']['layer_sequence']['layers_8']['attention_block']['layer_norm']['scale']"}, tensor<768xf32> {jax.result_info = "result[0].opt_state[1][0].nu['encoder']['params']['encoder_block']['layer_sequence']['layers_8']['mlp_block']['dense_layer']['bias']"}, tensor<3072x768xf32> {jax.result_info = "result[0].opt_state[1][0].nu['encoder']['params']['encoder_block']['layer_sequence']['layers_8']['mlp_block']['dense_layer']['kernel']"}, tensor<768xf32> {jax.result_info = "result[0].opt_state[1][0].nu['encoder']['params']['encoder_block']['layer_sequence']['layers_8']['mlp_block']['layer_norm']['bias']"}, tensor<768xf32> {jax.result_info = "result[0].opt_state[1][0].nu['encoder']['params']['encoder_block']['layer_sequence']['layers_8']['mlp_block']['layer_norm']['scale']"}, tensor<3072xf32> {jax.result_info = "result[0].opt_state[1][0].nu['encoder']['params']['encoder_block']['layer_sequence']['layers_8']['mlp_block']['mlp']['dense_layer']['bias']"}, tensor<768x3072xf32> {jax.result_info = "result[0].opt_state[1][0].nu['encoder']['params']['encoder_block']['layer_sequence']['layers_8']['mlp_block']['mlp']['dense_layer']['kernel']"}, tensor<768xf32> {jax.result_info = "result[0].opt_state[1][0].nu['encoder']['params']['encoder_block']['layer_sequence']['layers_9']['attention_block']['attention_layer']['key']['bias']"}, tensor<768x768xf32> {jax.result_info = "result[0].opt_state[1][0].nu['encoder']['params']['encoder_block']['layer_sequence']['layers_9']['attention_block']['attention_layer']['key']['kernel']"}, tensor<768xf32> {jax.result_info = "result[0].opt_state[1][0].nu['encoder']['params']['encoder_block']['layer_sequence']['layers_9']['attention_block']['attention_layer']['query']['bias']"}, tensor<768x768xf32> {jax.result_info = "result[0].opt_state[1][0].nu['encoder']['params']['encoder_block']['layer_sequence']['layers_9']['attention_block']['attention_layer']['query']['kernel']"}, tensor<768xf32> {jax.result_info = "result[0].opt_state[1][0].nu['encoder']['params']['encoder_block']['layer_sequence']['layers_9']['attention_block']['attention_layer']['value']['bias']"}, tensor<768x768xf32> {jax.result_info = "result[0].opt_state[1][0].nu['encoder']['params']['encoder_block']['layer_sequence']['layers_9']['attention_block']['attention_layer']['value']['kernel']"}, tensor<768xf32> {jax.result_info = "result[0].opt_state[1][0].nu['encoder']['params']['encoder_block']['layer_sequence']['layers_9']['attention_block']['dense_layer']['bias']"}, tensor<768x768xf32> {jax.result_info = "result[0].opt_state[1][0].nu['encoder']['params']['encoder_block']['layer_sequence']['layers_9']['attention_block']['dense_layer']['kernel']"}, tensor<768xf32> {jax.result_info = "result[0].opt_state[1][0].nu['encoder']['params']['encoder_block']['layer_sequence']['layers_9']['attention_block']['layer_norm']['bias']"}, tensor<768xf32> {jax.result_info = "result[0].opt_state[1][0].nu['encoder']['params']['encoder_block']['layer_sequence']['layers_9']['attention_block']['layer_norm']['scale']"}, tensor<768xf32> {jax.result_info = "result[0].opt_state[1][0].nu['encoder']['params']['encoder_block']['layer_sequence']['layers_9']['mlp_block']['dense_layer']['bias']"}, tensor<3072x768xf32> {jax.result_info = "result[0].opt_state[1][0].nu['encoder']['params']['encoder_block']['layer_sequence']['layers_9']['mlp_block']['dense_layer']['kernel']"}, tensor<768xf32> {jax.result_info = "result[0].opt_state[1][0].nu['encoder']['params']['encoder_block']['layer_sequence']['layers_9']['mlp_block']['layer_norm']['bias']"}, tensor<768xf32> {jax.result_info = "result[0].opt_state[1][0].nu['encoder']['params']['encoder_block']['layer_sequence']['layers_9']['mlp_block']['layer_norm']['scale']"}, tensor<3072xf32> {jax.result_info = "result[0].opt_state[1][0].nu['encoder']['params']['encoder_block']['layer_sequence']['layers_9']['mlp_block']['mlp']['dense_layer']['bias']"}, tensor<768x3072xf32> {jax.result_info = "result[0].opt_state[1][0].nu['encoder']['params']['encoder_block']['layer_sequence']['layers_9']['mlp_block']['mlp']['dense_layer']['kernel']"}, tensor<768xf32> {jax.result_info = "result[0].opt_state[1][0].nu['encoder']['params']['layer_norm']['bias']"}, tensor<768xf32> {jax.result_info = "result[0].opt_state[1][0].nu['encoder']['params']['layer_norm']['scale']"}, tensor<30522xf32> {jax.result_info = "result[0].opt_state[1][0].nu['mlm_head']['params']['bias']"}, tensor<768xf32> {jax.result_info = "result[0].opt_state[1][0].nu['mlm_head']['params']['dense']['bias']"}, tensor<768x768xf32> {jax.result_info = "result[0].opt_state[1][0].nu['mlm_head']['params']['dense']['kernel']"}, tensor<30522x768xf32> {jax.result_info = "result[0].opt_state[1][0].nu['mlm_head']['params']['encoder']['embedder']['embedders_token_ids']['embedding']"}, tensor<768xf32> {jax.result_info = "result[0].opt_state[1][0].nu['mlm_head']['params']['layer_norm']['bias']"}, tensor<768xf32> {jax.result_info = "result[0].opt_state[1][0].nu['mlm_head']['params']['layer_norm']['scale']"}, tensor<i32> {jax.result_info = "result[0].opt_state[1][2].count"}, tensor<i32> {jax.result_info = "result[2]['acc'][0]"}, tensor<i32> {jax.result_info = "result[2]['acc'][1]"}, tensor<f32> {jax.result_info = "result[2]['loss'][0]"}, tensor<i32> {jax.result_info = "result[2]['loss'][1]"}, tensor<i32> {jax.result_info = "result[2]['total_token']"}) {
    %0 = stablehlo.iota dim = 0 : tensor<512xi32>
    %1 = stablehlo.broadcast_in_dim %0, dims = [1] : (tensor<512xi32>) -> tensor<1x512xi32>
    %2 = stablehlo.broadcast_in_dim %1, dims = [0, 1] : (tensor<1x512xi32>) -> tensor<64x512xi32>
    %c = stablehlo.constant dense<0> : tensor<i32>
    %3 = stablehlo.broadcast_in_dim %c, dims = [] : (tensor<i32>) -> tensor<64x512xi32>
    %4 = stablehlo.compare  LT, %arg611, %3,  SIGNED : (tensor<64x512xi32>, tensor<64x512xi32>) -> tensor<64x512xi1>
    %c_0 = stablehlo.constant dense<30522> : tensor<i32>
    %5 = stablehlo.broadcast_in_dim %c_0, dims = [] : (tensor<i32>) -> tensor<64x512xi32>
    %6 = stablehlo.add %arg611, %5 : tensor<64x512xi32>
    %7 = stablehlo.select %4, %6, %arg611 : tensor<64x512xi1>, tensor<64x512xi32>
    %8 = stablehlo.broadcast_in_dim %7, dims = [0, 1] : (tensor<64x512xi32>) -> tensor<64x512x1xi32>
    %9 = "stablehlo.gather"(%arg2, %8) <{dimension_numbers = #stablehlo.gather<offset_dims = [2], collapsed_slice_dims = [0], start_index_map = [0], index_vector_dim = 2>, indices_are_sorted = false, slice_sizes = array<i64: 1, 768>}> : (tensor<30522x768xf32>, tensor<64x512x1xi32>) -> tensor<64x512x768xf32>
    %10 = stablehlo.broadcast_in_dim %c, dims = [] : (tensor<i32>) -> tensor<64x512xi32>
    %11 = stablehlo.compare  LT, %2, %10,  SIGNED : (tensor<64x512xi32>, tensor<64x512xi32>) -> tensor<64x512xi1>
    %c_1 = stablehlo.constant dense<512> : tensor<i32>
    %12 = stablehlo.broadcast_in_dim %c_1, dims = [] : (tensor<i32>) -> tensor<64x512xi32>
    %13 = stablehlo.add %2, %12 : tensor<64x512xi32>
    %14 = stablehlo.select %11, %13, %2 : tensor<64x512xi1>, tensor<64x512xi32>
    %15 = stablehlo.broadcast_in_dim %14, dims = [0, 1] : (tensor<64x512xi32>) -> tensor<64x512x1xi32>
    %16 = "stablehlo.gather"(%arg0, %15) <{dimension_numbers = #stablehlo.gather<offset_dims = [2], collapsed_slice_dims = [0], start_index_map = [0], index_vector_dim = 2>, indices_are_sorted = false, slice_sizes = array<i64: 1, 768>}> : (tensor<512x768xf32>, tensor<64x512x1xi32>) -> tensor<64x512x768xf32>
    %17 = stablehlo.broadcast_in_dim %c, dims = [] : (tensor<i32>) -> tensor<64x512xi32>
    %18 = stablehlo.compare  LT, %arg613, %17,  SIGNED : (tensor<64x512xi32>, tensor<64x512xi32>) -> tensor<64x512xi1>
    %c_2 = stablehlo.constant dense<2> : tensor<i32>
    %19 = stablehlo.broadcast_in_dim %c_2, dims = [] : (tensor<i32>) -> tensor<64x512xi32>
    %20 = stablehlo.add %arg613, %19 : tensor<64x512xi32>
    %21 = stablehlo.select %18, %20, %arg613 : tensor<64x512xi1>, tensor<64x512xi32>
    %22 = stablehlo.broadcast_in_dim %21, dims = [0, 1] : (tensor<64x512xi32>) -> tensor<64x512x1xi32>
    %23 = "stablehlo.gather"(%arg1, %22) <{dimension_numbers = #stablehlo.gather<offset_dims = [2], collapsed_slice_dims = [0], start_index_map = [0], index_vector_dim = 2>, indices_are_sorted = false, slice_sizes = array<i64: 1, 768>}> : (tensor<2x768xf32>, tensor<64x512x1xi32>) -> tensor<64x512x768xf32>
    %24 = stablehlo.add %16, %23 : tensor<64x512x768xf32>
    %25 = stablehlo.add %24, %9 : tensor<64x512x768xf32>
    %26 = stablehlo.multiply %25, %25 : tensor<64x512x768xf32>
    %cst = stablehlo.constant dense<2.000000e+00> : tensor<f32>
    %27 = stablehlo.broadcast_in_dim %cst, dims = [] : (tensor<f32>) -> tensor<64x512x768xf32>
    %28 = stablehlo.multiply %27, %25 : tensor<64x512x768xf32>
    %cst_3 = stablehlo.constant dense<0.000000e+00> : tensor<f32>
    %29 = stablehlo.reduce(%25 init: %cst_3) applies stablehlo.add across dimensions = [2] : (tensor<64x512x768xf32>, tensor<f32>) -> tensor<64x512xf32>
    %cst_4 = stablehlo.constant dense<7.680000e+02> : tensor<f32>
    %30 = stablehlo.broadcast_in_dim %cst_4, dims = [] : (tensor<f32>) -> tensor<64x512xf32>
    %31 = stablehlo.divide %29, %30 : tensor<64x512xf32>
    %cst_5 = stablehlo.constant dense<0.000000e+00> : tensor<f32>
    %32 = stablehlo.reduce(%26 init: %cst_5) applies stablehlo.add across dimensions = [2] : (tensor<64x512x768xf32>, tensor<f32>) -> tensor<64x512xf32>
    %33 = stablehlo.broadcast_in_dim %cst_4, dims = [] : (tensor<f32>) -> tensor<64x512xf32>
    %34 = stablehlo.divide %32, %33 : tensor<64x512xf32>
    %35 = stablehlo.multiply %31, %31 : tensor<64x512xf32>
    %36 = stablehlo.broadcast_in_dim %cst, dims = [] : (tensor<f32>) -> tensor<64x512xf32>
    %37 = stablehlo.multiply %36, %31 : tensor<64x512xf32>
    %38 = stablehlo.subtract %34, %35 : tensor<64x512xf32>
    %cst_6 = stablehlo.constant dense<0.000000e+00> : tensor<f32>
    %39 = stablehlo.broadcast_in_dim %cst_6, dims = [] : (tensor<f32>) -> tensor<64x512xf32>
    %40 = stablehlo.maximum %39, %38 : tensor<64x512xf32>
    %41 = stablehlo.compare  EQ, %38, %40,  FLOAT : (tensor<64x512xf32>, tensor<64x512xf32>) -> tensor<64x512xi1>
    %cst_7 = stablehlo.constant dense<1.000000e+00> : tensor<f32>
    %42 = stablehlo.broadcast_in_dim %cst_7, dims = [] : (tensor<f32>) -> tensor<64x512xf32>
    %43 = stablehlo.broadcast_in_dim %cst_6, dims = [] : (tensor<f32>) -> tensor<64x512xf32>
    %44 = stablehlo.select %41, %42, %43 : tensor<64x512xi1>, tensor<64x512xf32>
    %45 = stablehlo.broadcast_in_dim %cst_6, dims = [] : (tensor<f32>) -> tensor<64x512xf32>
    %46 = stablehlo.compare  EQ, %45, %40,  FLOAT : (tensor<64x512xf32>, tensor<64x512xf32>) -> tensor<64x512xi1>
    %47 = stablehlo.broadcast_in_dim %cst, dims = [] : (tensor<f32>) -> tensor<64x512xf32>
    %48 = stablehlo.broadcast_in_dim %cst_7, dims = [] : (tensor<f32>) -> tensor<64x512xf32>
    %49 = stablehlo.select %46, %47, %48 : tensor<64x512xi1>, tensor<64x512xf32>
    %50 = stablehlo.divide %44, %49 : tensor<64x512xf32>
    %51 = stablehlo.broadcast_in_dim %31, dims = [0, 1] : (tensor<64x512xf32>) -> tensor<64x512x1xf32>
    %52 = stablehlo.broadcast_in_dim %40, dims = [0, 1] : (tensor<64x512xf32>) -> tensor<64x512x1xf32>
    %53 = stablehlo.broadcast_in_dim %51, dims = [0, 1, 2] : (tensor<64x512x1xf32>) -> tensor<64x512x768xf32>
    %54 = stablehlo.subtract %25, %53 : tensor<64x512x768xf32>
    %cst_8 = stablehlo.constant dense<9.99999996E-13> : tensor<f32>
    %55 = stablehlo.broadcast_in_dim %cst_8, dims = [] : (tensor<f32>) -> tensor<64x512x1xf32>
    %56 = stablehlo.add %52, %55 : tensor<64x512x1xf32>
    %57 = stablehlo.rsqrt %56 : tensor<64x512x1xf32>
    %58 = stablehlo.divide %57, %56 : tensor<64x512x1xf32>
    %cst_9 = stablehlo.constant dense<-5.000000e-01> : tensor<f32>
    %59 = stablehlo.broadcast_in_dim %cst_9, dims = [] : (tensor<f32>) -> tensor<64x512x1xf32>
    %60 = stablehlo.multiply %59, %58 : tensor<64x512x1xf32>
    %61 = stablehlo.reshape %arg196 : (tensor<768xf32>) -> tensor<1x1x768xf32>
    %62 = stablehlo.broadcast_in_dim %57, dims = [0, 1, 2] : (tensor<64x512x1xf32>) -> tensor<64x512x768xf32>
    %63 = stablehlo.broadcast_in_dim %61, dims = [0, 1, 2] : (tensor<1x1x768xf32>) -> tensor<64x512x768xf32>
    %64 = stablehlo.multiply %62, %63 : tensor<64x512x768xf32>
    %65 = stablehlo.multiply %54, %64 : tensor<64x512x768xf32>
    %66 = stablehlo.reshape %arg195 : (tensor<768xf32>) -> tensor<1x1x768xf32>
    %67 = stablehlo.broadcast_in_dim %66, dims = [0, 1, 2] : (tensor<1x1x768xf32>) -> tensor<64x512x768xf32>
    %68 = stablehlo.add %65, %67 : tensor<64x512x768xf32>
    %c_10 = stablehlo.constant dense<4050721435> : tensor<ui32>
    %69 = call @_threefry_fold_in(%arg615, %c_10) : (tensor<2xui32>, tensor<ui32>) -> tensor<2xui32>
    %cst_11 = stablehlo.constant dense<0.899999976> : tensor<f32>
    %70 = call @_bernoulli(%69, %cst_11) : (tensor<2xui32>, tensor<f32>) -> tensor<64x512x768xi1>
    %71 = stablehlo.broadcast_in_dim %cst_11, dims = [] : (tensor<f32>) -> tensor<64x512x768xf32>
    %72 = stablehlo.divide %68, %71 : tensor<64x512x768xf32>
    %73 = stablehlo.broadcast_in_dim %cst_6, dims = [] : (tensor<f32>) -> tensor<64x512x768xf32>
    %74 = stablehlo.select %70, %72, %73 : tensor<64x512x768xi1>, tensor<64x512x768xf32>
    %75 = stablehlo.broadcast_in_dim %arg612, dims = [0, 1] : (tensor<64x512xi32>) -> tensor<64x512x1xi32>
    %76 = stablehlo.broadcast_in_dim %arg612, dims = [0, 2] : (tensor<64x512xi32>) -> tensor<64x1x512xi32>
    %77 = stablehlo.broadcast_in_dim %75, dims = [0, 1, 2] : (tensor<64x512x1xi32>) -> tensor<64x512x512xi32>
    %78 = stablehlo.broadcast_in_dim %76, dims = [0, 1, 2] : (tensor<64x1x512xi32>) -> tensor<64x512x512xi32>
    %79 = stablehlo.multiply %77, %78 : tensor<64x512x512xi32>
    %80 = stablehlo.broadcast_in_dim %79, dims = [0, 2, 3] : (tensor<64x512x512xi32>) -> tensor<64x1x512x512xi32>
    %81 = stablehlo.convert %80 : (tensor<64x1x512x512xi32>) -> tensor<64x1x512x512xf32>
    %82 = stablehlo.reshape %arg6 : (tensor<768x768xf32>) -> tensor<768x12x64xf32>
    %83 = stablehlo.dot_general %74, %82, contracting_dims = [2] x [0], precision = [DEFAULT, DEFAULT] : (tensor<64x512x768xf32>, tensor<768x12x64xf32>) -> tensor<64x512x12x64xf32>
    %84 = stablehlo.reshape %arg5 : (tensor<768xf32>) -> tensor<12x64xf32>
    %85 = stablehlo.broadcast_in_dim %84, dims = [1, 2] : (tensor<12x64xf32>) -> tensor<1x12x64xf32>
    %86 = stablehlo.broadcast_in_dim %85, dims = [0, 2, 3] : (tensor<1x12x64xf32>) -> tensor<1x1x12x64xf32>
    %87 = stablehlo.broadcast_in_dim %86, dims = [0, 1, 2, 3] : (tensor<1x1x12x64xf32>) -> tensor<64x512x12x64xf32>
    %88 = stablehlo.add %83, %87 : tensor<64x512x12x64xf32>
    %89 = stablehlo.reshape %arg4 : (tensor<768x768xf32>) -> tensor<768x12x64xf32>
    %90 = stablehlo.dot_general %74, %89, contracting_dims = [2] x [0], precision = [DEFAULT, DEFAULT] : (tensor<64x512x768xf32>, tensor<768x12x64xf32>) -> tensor<64x512x12x64xf32>
    %91 = stablehlo.reshape %arg3 : (tensor<768xf32>) -> tensor<12x64xf32>
    %92 = stablehlo.broadcast_in_dim %91, dims = [1, 2] : (tensor<12x64xf32>) -> tensor<1x12x64xf32>
    %93 = stablehlo.broadcast_in_dim %92, dims = [0, 2, 3] : (tensor<1x12x64xf32>) -> tensor<1x1x12x64xf32>
    %94 = stablehlo.broadcast_in_dim %93, dims = [0, 1, 2, 3] : (tensor<1x1x12x64xf32>) -> tensor<64x512x12x64xf32>
    %95 = stablehlo.add %90, %94 : tensor<64x512x12x64xf32>
    %96 = stablehlo.reshape %arg8 : (tensor<768x768xf32>) -> tensor<768x12x64xf32>
    %97 = stablehlo.dot_general %74, %96, contracting_dims = [2] x [0], precision = [DEFAULT, DEFAULT] : (tensor<64x512x768xf32>, tensor<768x12x64xf32>) -> tensor<64x512x12x64xf32>
    %98 = stablehlo.reshape %arg7 : (tensor<768xf32>) -> tensor<12x64xf32>
    %99 = stablehlo.broadcast_in_dim %98, dims = [1, 2] : (tensor<12x64xf32>) -> tensor<1x12x64xf32>
    %100 = stablehlo.broadcast_in_dim %99, dims = [0, 2, 3] : (tensor<1x12x64xf32>) -> tensor<1x1x12x64xf32>
    %101 = stablehlo.broadcast_in_dim %100, dims = [0, 1, 2, 3] : (tensor<1x1x12x64xf32>) -> tensor<64x512x12x64xf32>
    %102 = stablehlo.add %97, %101 : tensor<64x512x12x64xf32>
    %103 = stablehlo.broadcast_in_dim %cst_6, dims = [] : (tensor<f32>) -> tensor<64x1x512x512xf32>
    %104 = stablehlo.compare  GT, %81, %103,  FLOAT : (tensor<64x1x512x512xf32>, tensor<64x1x512x512xf32>) -> tensor<64x1x512x512xi1>
    %cst_12 = stablehlo.constant dense<0.000000e+00> : tensor<f32>
    %105 = stablehlo.broadcast_in_dim %cst_12, dims = [] : (tensor<f32>) -> tensor<64x1x512x512xf32>
    %106 = stablehlo.convert %105 : tensor<64x1x512x512xf32>
    %cst_13 = stablehlo.constant dense<-1.000000e+10> : tensor<f32>
    %107 = stablehlo.broadcast_in_dim %cst_13, dims = [] : (tensor<f32>) -> tensor<64x1x512x512xf32>
    %108 = stablehlo.convert %107 : tensor<64x1x512x512xf32>
    %109 = stablehlo.select %104, %106, %108 : tensor<64x1x512x512xi1>, tensor<64x1x512x512xf32>
    %c_14 = stablehlo.constant dense<2530881375> : tensor<ui32>
    %110 = call @_threefry_fold_in(%arg615, %c_14) : (tensor<2xui32>, tensor<ui32>) -> tensor<2xui32>
    %cst_15 = stablehlo.constant dense<6.400000e+01> : tensor<f32>
    %111 = stablehlo.sqrt %cst_15 : tensor<f32>
    %112 = stablehlo.convert %111 : tensor<f32>
    %113 = stablehlo.broadcast_in_dim %112, dims = [] : (tensor<f32>) -> tensor<64x512x12x64xf32>
    %114 = stablehlo.divide %88, %113 : tensor<64x512x12x64xf32>
    %115 = stablehlo.dot_general %114, %95, batching_dims = [0, 2] x [0, 2], contracting_dims = [3] x [3], precision = [DEFAULT, DEFAULT] : (tensor<64x512x12x64xf32>, tensor<64x512x12x64xf32>) -> tensor<64x12x512x512xf32>
    %116 = stablehlo.broadcast_in_dim %109, dims = [0, 1, 2, 3] : (tensor<64x1x512x512xf32>) -> tensor<64x12x512x512xf32>
    %117 = stablehlo.add %115, %116 : tensor<64x12x512x512xf32>
    %cst_16 = stablehlo.constant dense<0xFF800000> : tensor<f32>
    %118 = stablehlo.reduce(%117 init: %cst_16) applies stablehlo.maximum across dimensions = [3] : (tensor<64x12x512x512xf32>, tensor<f32>) -> tensor<64x12x512xf32>
    %cst_17 = stablehlo.constant dense<0xFF800000> : tensor<f32>
    %119 = stablehlo.broadcast_in_dim %cst_17, dims = [] : (tensor<f32>) -> tensor<64x12x512xf32>
    %120 = stablehlo.maximum %119, %118 : tensor<64x12x512xf32>
    %121 = stablehlo.broadcast_in_dim %120, dims = [0, 1, 2] : (tensor<64x12x512xf32>) -> tensor<64x12x512x1xf32>
    %122 = stablehlo.broadcast_in_dim %121, dims = [0, 1, 2, 3] : (tensor<64x12x512x1xf32>) -> tensor<64x12x512x512xf32>
    %123 = stablehlo.subtract %117, %122 : tensor<64x12x512x512xf32>
    %124 = stablehlo.exponential %123 : tensor<64x12x512x512xf32>
    %cst_18 = stablehlo.constant dense<0.000000e+00> : tensor<f32>
    %125 = stablehlo.reduce(%124 init: %cst_18) applies stablehlo.add across dimensions = [3] : (tensor<64x12x512x512xf32>, tensor<f32>) -> tensor<64x12x512xf32>
    %126 = stablehlo.broadcast_in_dim %125, dims = [0, 1, 2] : (tensor<64x12x512xf32>) -> tensor<64x12x512x1xf32>
    %127 = stablehlo.broadcast_in_dim %126, dims = [0, 1, 2, 3] : (tensor<64x12x512x1xf32>) -> tensor<64x12x512x512xf32>
    %128 = stablehlo.divide %124, %127 : tensor<64x12x512x512xf32>
    %129 = stablehlo.multiply %126, %126 : tensor<64x12x512x1xf32>
    %cst_19 = stablehlo.constant dense<1.000000e+00> : tensor<f32>
    %130 = stablehlo.broadcast_in_dim %cst_19, dims = [] : (tensor<f32>) -> tensor<64x12x512x1xf32>
    %131 = stablehlo.divide %130, %129 : tensor<64x12x512x1xf32>
    %132 = call @_bernoulli_71(%110, %cst_11) : (tensor<2xui32>, tensor<f32>) -> tensor<64x12x512x512xi1>
    %133 = stablehlo.convert %132 : (tensor<64x12x512x512xi1>) -> tensor<64x12x512x512xf32>
    %134 = stablehlo.broadcast_in_dim %cst_11, dims = [] : (tensor<f32>) -> tensor<64x12x512x512xf32>
    %135 = stablehlo.divide %133, %134 : tensor<64x12x512x512xf32>
    %136 = stablehlo.multiply %128, %135 : tensor<64x12x512x512xf32>
    %137 = stablehlo.dot_general %102, %136, batching_dims = [0, 2] x [0, 1], contracting_dims = [1] x [3], precision = [DEFAULT, DEFAULT] : (tensor<64x512x12x64xf32>, tensor<64x12x512x512xf32>) -> tensor<64x12x64x512xf32>
    %138 = stablehlo.transpose %137, dims = [0, 3, 1, 2] : (tensor<64x12x64x512xf32>) -> tensor<64x512x12x64xf32>
    %139 = stablehlo.reshape %arg10 : (tensor<768x768xf32>) -> tensor<12x64x768xf32>
    %140 = stablehlo.dot_general %138, %139, contracting_dims = [2, 3] x [0, 1], precision = [DEFAULT, DEFAULT] : (tensor<64x512x12x64xf32>, tensor<12x64x768xf32>) -> tensor<64x512x768xf32>
    %141 = stablehlo.broadcast_in_dim %arg9, dims = [1] : (tensor<768xf32>) -> tensor<1x768xf32>
    %142 = stablehlo.broadcast_in_dim %141, dims = [0, 2] : (tensor<1x768xf32>) -> tensor<1x1x768xf32>
    %143 = stablehlo.broadcast_in_dim %142, dims = [0, 1, 2] : (tensor<1x1x768xf32>) -> tensor<64x512x768xf32>
    %144 = stablehlo.add %140, %143 : tensor<64x512x768xf32>
    %c_20 = stablehlo.constant dense<1268671986> : tensor<ui32>
    %145 = call @_threefry_fold_in(%arg615, %c_20) : (tensor<2xui32>, tensor<ui32>) -> tensor<2xui32>
    %146 = call @_bernoulli(%145, %cst_11) : (tensor<2xui32>, tensor<f32>) -> tensor<64x512x768xi1>
    %147 = stablehlo.broadcast_in_dim %cst_11, dims = [] : (tensor<f32>) -> tensor<64x512x768xf32>
    %148 = stablehlo.divide %144, %147 : tensor<64x512x768xf32>
    %149 = stablehlo.broadcast_in_dim %cst_6, dims = [] : (tensor<f32>) -> tensor<64x512x768xf32>
    %150 = stablehlo.select %146, %148, %149 : tensor<64x512x768xi1>, tensor<64x512x768xf32>
    %151 = stablehlo.add %150, %74 : tensor<64x512x768xf32>
    %152 = stablehlo.multiply %151, %151 : tensor<64x512x768xf32>
    %153 = stablehlo.broadcast_in_dim %cst, dims = [] : (tensor<f32>) -> tensor<64x512x768xf32>
    %154 = stablehlo.multiply %153, %151 : tensor<64x512x768xf32>
    %cst_21 = stablehlo.constant dense<0.000000e+00> : tensor<f32>
    %155 = stablehlo.reduce(%151 init: %cst_21) applies stablehlo.add across dimensions = [2] : (tensor<64x512x768xf32>, tensor<f32>) -> tensor<64x512xf32>
    %156 = stablehlo.broadcast_in_dim %cst_4, dims = [] : (tensor<f32>) -> tensor<64x512xf32>
    %157 = stablehlo.divide %155, %156 : tensor<64x512xf32>
    %cst_22 = stablehlo.constant dense<0.000000e+00> : tensor<f32>
    %158 = stablehlo.reduce(%152 init: %cst_22) applies stablehlo.add across dimensions = [2] : (tensor<64x512x768xf32>, tensor<f32>) -> tensor<64x512xf32>
    %159 = stablehlo.broadcast_in_dim %cst_4, dims = [] : (tensor<f32>) -> tensor<64x512xf32>
    %160 = stablehlo.divide %158, %159 : tensor<64x512xf32>
    %161 = stablehlo.multiply %157, %157 : tensor<64x512xf32>
    %162 = stablehlo.broadcast_in_dim %cst, dims = [] : (tensor<f32>) -> tensor<64x512xf32>
    %163 = stablehlo.multiply %162, %157 : tensor<64x512xf32>
    %164 = stablehlo.subtract %160, %161 : tensor<64x512xf32>
    %165 = stablehlo.broadcast_in_dim %cst_6, dims = [] : (tensor<f32>) -> tensor<64x512xf32>
    %166 = stablehlo.maximum %165, %164 : tensor<64x512xf32>
    %167 = stablehlo.compare  EQ, %164, %166,  FLOAT : (tensor<64x512xf32>, tensor<64x512xf32>) -> tensor<64x512xi1>
    %168 = stablehlo.broadcast_in_dim %cst_7, dims = [] : (tensor<f32>) -> tensor<64x512xf32>
    %169 = stablehlo.broadcast_in_dim %cst_6, dims = [] : (tensor<f32>) -> tensor<64x512xf32>
    %170 = stablehlo.select %167, %168, %169 : tensor<64x512xi1>, tensor<64x512xf32>
    %171 = stablehlo.broadcast_in_dim %cst_6, dims = [] : (tensor<f32>) -> tensor<64x512xf32>
    %172 = stablehlo.compare  EQ, %171, %166,  FLOAT : (tensor<64x512xf32>, tensor<64x512xf32>) -> tensor<64x512xi1>
    %173 = stablehlo.broadcast_in_dim %cst, dims = [] : (tensor<f32>) -> tensor<64x512xf32>
    %174 = stablehlo.broadcast_in_dim %cst_7, dims = [] : (tensor<f32>) -> tensor<64x512xf32>
    %175 = stablehlo.select %172, %173, %174 : tensor<64x512xi1>, tensor<64x512xf32>
    %176 = stablehlo.divide %170, %175 : tensor<64x512xf32>
    %177 = stablehlo.broadcast_in_dim %157, dims = [0, 1] : (tensor<64x512xf32>) -> tensor<64x512x1xf32>
    %178 = stablehlo.broadcast_in_dim %166, dims = [0, 1] : (tensor<64x512xf32>) -> tensor<64x512x1xf32>
    %179 = stablehlo.broadcast_in_dim %177, dims = [0, 1, 2] : (tensor<64x512x1xf32>) -> tensor<64x512x768xf32>
    %180 = stablehlo.subtract %151, %179 : tensor<64x512x768xf32>
    %181 = stablehlo.broadcast_in_dim %cst_8, dims = [] : (tensor<f32>) -> tensor<64x512x1xf32>
    %182 = stablehlo.add %178, %181 : tensor<64x512x1xf32>
    %183 = stablehlo.rsqrt %182 : tensor<64x512x1xf32>
    %184 = stablehlo.divide %183, %182 : tensor<64x512x1xf32>
    %185 = stablehlo.broadcast_in_dim %cst_9, dims = [] : (tensor<f32>) -> tensor<64x512x1xf32>
    %186 = stablehlo.multiply %185, %184 : tensor<64x512x1xf32>
    %187 = stablehlo.reshape %arg12 : (tensor<768xf32>) -> tensor<1x1x768xf32>
    %188 = stablehlo.broadcast_in_dim %183, dims = [0, 1, 2] : (tensor<64x512x1xf32>) -> tensor<64x512x768xf32>
    %189 = stablehlo.broadcast_in_dim %187, dims = [0, 1, 2] : (tensor<1x1x768xf32>) -> tensor<64x512x768xf32>
    %190 = stablehlo.multiply %188, %189 : tensor<64x512x768xf32>
    %191 = stablehlo.multiply %180, %190 : tensor<64x512x768xf32>
    %192 = stablehlo.reshape %arg11 : (tensor<768xf32>) -> tensor<1x1x768xf32>
    %193 = stablehlo.broadcast_in_dim %192, dims = [0, 1, 2] : (tensor<1x1x768xf32>) -> tensor<64x512x768xf32>
    %194 = stablehlo.add %191, %193 : tensor<64x512x768xf32>
    %195 = stablehlo.dot_general %194, %arg18, contracting_dims = [2] x [0], precision = [DEFAULT, DEFAULT] : (tensor<64x512x768xf32>, tensor<768x3072xf32>) -> tensor<64x512x3072xf32>
    %196 = stablehlo.broadcast_in_dim %arg17, dims = [1] : (tensor<3072xf32>) -> tensor<1x3072xf32>
    %197 = stablehlo.broadcast_in_dim %196, dims = [0, 2] : (tensor<1x3072xf32>) -> tensor<1x1x3072xf32>
    %198 = stablehlo.broadcast_in_dim %197, dims = [0, 1, 2] : (tensor<1x1x3072xf32>) -> tensor<64x512x3072xf32>
    %199 = stablehlo.add %195, %198 : tensor<64x512x3072xf32>
    %200 = stablehlo.multiply %199, %199 : tensor<64x512x3072xf32>
    %201 = stablehlo.multiply %200, %199 : tensor<64x512x3072xf32>
    %202 = stablehlo.multiply %199, %199 : tensor<64x512x3072xf32>
    %cst_23 = stablehlo.constant dense<3.000000e+00> : tensor<f32>
    %203 = stablehlo.broadcast_in_dim %cst_23, dims = [] : (tensor<f32>) -> tensor<64x512x3072xf32>
    %204 = stablehlo.multiply %203, %202 : tensor<64x512x3072xf32>
    %cst_24 = stablehlo.constant dense<4.471500e-02> : tensor<f32>
    %205 = stablehlo.broadcast_in_dim %cst_24, dims = [] : (tensor<f32>) -> tensor<64x512x3072xf32>
    %206 = stablehlo.multiply %205, %201 : tensor<64x512x3072xf32>
    %207 = stablehlo.add %199, %206 : tensor<64x512x3072xf32>
    %cst_25 = stablehlo.constant dense<0.797884583> : tensor<f32>
    %208 = stablehlo.broadcast_in_dim %cst_25, dims = [] : (tensor<f32>) -> tensor<64x512x3072xf32>
    %209 = stablehlo.multiply %208, %207 : tensor<64x512x3072xf32>
    %210 = stablehlo.tanh %209 : tensor<64x512x3072xf32>
    %211 = stablehlo.broadcast_in_dim %cst_7, dims = [] : (tensor<f32>) -> tensor<f32>
    %212 = stablehlo.broadcast_in_dim %211, dims = [] : (tensor<f32>) -> tensor<64x512x3072xf32>
    %213 = stablehlo.subtract %212, %210 : tensor<64x512x3072xf32>
    %214 = stablehlo.broadcast_in_dim %cst_7, dims = [] : (tensor<f32>) -> tensor<64x512x3072xf32>
    %215 = stablehlo.add %214, %210 : tensor<64x512x3072xf32>
    %cst_26 = stablehlo.constant dense<5.000000e-01> : tensor<f32>
    %216 = stablehlo.broadcast_in_dim %cst_26, dims = [] : (tensor<f32>) -> tensor<64x512x3072xf32>
    %217 = stablehlo.multiply %216, %215 : tensor<64x512x3072xf32>
    %218 = stablehlo.multiply %199, %217 : tensor<64x512x3072xf32>
    %219 = stablehlo.dot_general %218, %arg14, contracting_dims = [2] x [0], precision = [DEFAULT, DEFAULT] : (tensor<64x512x3072xf32>, tensor<3072x768xf32>) -> tensor<64x512x768xf32>
    %220 = stablehlo.broadcast_in_dim %arg13, dims = [1] : (tensor<768xf32>) -> tensor<1x768xf32>
    %221 = stablehlo.broadcast_in_dim %220, dims = [0, 2] : (tensor<1x768xf32>) -> tensor<1x1x768xf32>
    %222 = stablehlo.broadcast_in_dim %221, dims = [0, 1, 2] : (tensor<1x1x768xf32>) -> tensor<64x512x768xf32>
    %223 = stablehlo.add %219, %222 : tensor<64x512x768xf32>
    %c_27 = stablehlo.constant dense<1964414256> : tensor<ui32>
    %224 = call @_threefry_fold_in(%arg615, %c_27) : (tensor<2xui32>, tensor<ui32>) -> tensor<2xui32>
    %225 = call @_bernoulli_112(%224, %cst_11) : (tensor<2xui32>, tensor<f32>) -> tensor<64x1x768xi1>
    %226 = stablehlo.broadcast_in_dim %225, dims = [0, 1, 2] : (tensor<64x1x768xi1>) -> tensor<64x512x768xi1>
    %227 = stablehlo.broadcast_in_dim %cst_11, dims = [] : (tensor<f32>) -> tensor<64x512x768xf32>
    %228 = stablehlo.divide %223, %227 : tensor<64x512x768xf32>
    %229 = stablehlo.broadcast_in_dim %cst_6, dims = [] : (tensor<f32>) -> tensor<64x512x768xf32>
    %230 = stablehlo.select %226, %228, %229 : tensor<64x512x768xi1>, tensor<64x512x768xf32>
    %231 = stablehlo.add %230, %194 : tensor<64x512x768xf32>
    %232 = stablehlo.multiply %231, %231 : tensor<64x512x768xf32>
    %233 = stablehlo.broadcast_in_dim %cst, dims = [] : (tensor<f32>) -> tensor<64x512x768xf32>
    %234 = stablehlo.multiply %233, %231 : tensor<64x512x768xf32>
    %cst_28 = stablehlo.constant dense<0.000000e+00> : tensor<f32>
    %235 = stablehlo.reduce(%231 init: %cst_28) applies stablehlo.add across dimensions = [2] : (tensor<64x512x768xf32>, tensor<f32>) -> tensor<64x512xf32>
    %236 = stablehlo.broadcast_in_dim %cst_4, dims = [] : (tensor<f32>) -> tensor<64x512xf32>
    %237 = stablehlo.divide %235, %236 : tensor<64x512xf32>
    %cst_29 = stablehlo.constant dense<0.000000e+00> : tensor<f32>
    %238 = stablehlo.reduce(%232 init: %cst_29) applies stablehlo.add across dimensions = [2] : (tensor<64x512x768xf32>, tensor<f32>) -> tensor<64x512xf32>
    %239 = stablehlo.broadcast_in_dim %cst_4, dims = [] : (tensor<f32>) -> tensor<64x512xf32>
    %240 = stablehlo.divide %238, %239 : tensor<64x512xf32>
    %241 = stablehlo.multiply %237, %237 : tensor<64x512xf32>
…
    %102 = stablehlo.broadcast_in_dim %arg0, dims = [] : (tensor<ui32>) -> tensor<64x512x768xui32>
    %103 = stablehlo.add %95, %102 : tensor<64x512x768xui32>
    %104 = stablehlo.broadcast_in_dim %arg1, dims = [] : (tensor<ui32>) -> tensor<64x512x768xui32>
    %105 = stablehlo.add %101, %104 : tensor<64x512x768xui32>
    %106 = stablehlo.broadcast_in_dim %c_8, dims = [] : (tensor<ui32>) -> tensor<64x512x768xui32>
    %107 = stablehlo.add %105, %106 : tensor<64x512x768xui32>
    %108 = stablehlo.add %103, %107 : tensor<64x512x768xui32>
    %109 = stablehlo.broadcast_in_dim %c_3, dims = [] : (tensor<ui32>) -> tensor<64x512x768xui32>
    %110 = stablehlo.shift_left %107, %109 : tensor<64x512x768xui32>
    %111 = stablehlo.broadcast_in_dim %c_2, dims = [] : (tensor<ui32>) -> tensor<64x512x768xui32>
    %112 = stablehlo.shift_right_logical %107, %111 : tensor<64x512x768xui32>
    %113 = stablehlo.or %110, %112 : tensor<64x512x768xui32>
    %114 = stablehlo.xor %108, %113 : tensor<64x512x768xui32>
    %115 = stablehlo.add %108, %114 : tensor<64x512x768xui32>
    %116 = stablehlo.broadcast_in_dim %c_7, dims = [] : (tensor<ui32>) -> tensor<64x512x768xui32>
    %117 = stablehlo.shift_left %114, %116 : tensor<64x512x768xui32>
    %118 = stablehlo.broadcast_in_dim %c_8, dims = [] : (tensor<ui32>) -> tensor<64x512x768xui32>
    %119 = stablehlo.shift_right_logical %114, %118 : tensor<64x512x768xui32>
    %120 = stablehlo.or %117, %119 : tensor<64x512x768xui32>
    %121 = stablehlo.xor %115, %120 : tensor<64x512x768xui32>
    %122 = stablehlo.add %115, %121 : tensor<64x512x768xui32>
    %123 = stablehlo.broadcast_in_dim %c_9, dims = [] : (tensor<ui32>) -> tensor<64x512x768xui32>
    %124 = stablehlo.shift_left %121, %123 : tensor<64x512x768xui32>
    %125 = stablehlo.broadcast_in_dim %c_9, dims = [] : (tensor<ui32>) -> tensor<64x512x768xui32>
    %126 = stablehlo.shift_right_logical %121, %125 : tensor<64x512x768xui32>
    %127 = stablehlo.or %124, %126 : tensor<64x512x768xui32>
    %128 = stablehlo.xor %122, %127 : tensor<64x512x768xui32>
    %129 = stablehlo.add %122, %128 : tensor<64x512x768xui32>
    %130 = stablehlo.broadcast_in_dim %c_10, dims = [] : (tensor<ui32>) -> tensor<64x512x768xui32>
    %131 = stablehlo.shift_left %128, %130 : tensor<64x512x768xui32>
    %132 = stablehlo.broadcast_in_dim %c_11, dims = [] : (tensor<ui32>) -> tensor<64x512x768xui32>
    %133 = stablehlo.shift_right_logical %128, %132 : tensor<64x512x768xui32>
    %134 = stablehlo.or %131, %133 : tensor<64x512x768xui32>
    %135 = stablehlo.xor %129, %134 : tensor<64x512x768xui32>
    %136 = stablehlo.broadcast_in_dim %arg1, dims = [] : (tensor<ui32>) -> tensor<64x512x768xui32>
    %137 = stablehlo.add %129, %136 : tensor<64x512x768xui32>
    %138 = stablehlo.broadcast_in_dim %1, dims = [] : (tensor<ui32>) -> tensor<64x512x768xui32>
    %139 = stablehlo.add %135, %138 : tensor<64x512x768xui32>
    %c_13 = stablehlo.constant dense<4> : tensor<ui32>
    %140 = stablehlo.broadcast_in_dim %c_13, dims = [] : (tensor<ui32>) -> tensor<64x512x768xui32>
    %141 = stablehlo.add %139, %140 : tensor<64x512x768xui32>
    %142 = stablehlo.add %137, %141 : tensor<64x512x768xui32>
    %143 = stablehlo.broadcast_in_dim %c_0, dims = [] : (tensor<ui32>) -> tensor<64x512x768xui32>
    %144 = stablehlo.shift_left %141, %143 : tensor<64x512x768xui32>
    %145 = stablehlo.broadcast_in_dim %c_1, dims = [] : (tensor<ui32>) -> tensor<64x512x768xui32>
    %146 = stablehlo.shift_right_logical %141, %145 : tensor<64x512x768xui32>
    %147 = stablehlo.or %144, %146 : tensor<64x512x768xui32>
    %148 = stablehlo.xor %142, %147 : tensor<64x512x768xui32>
    %149 = stablehlo.add %142, %148 : tensor<64x512x768xui32>
    %150 = stablehlo.broadcast_in_dim %c_2, dims = [] : (tensor<ui32>) -> tensor<64x512x768xui32>
    %151 = stablehlo.shift_left %148, %150 : tensor<64x512x768xui32>
    %152 = stablehlo.broadcast_in_dim %c_3, dims = [] : (tensor<ui32>) -> tensor<64x512x768xui32>
    %153 = stablehlo.shift_right_logical %148, %152 : tensor<64x512x768xui32>
    %154 = stablehlo.or %151, %153 : tensor<64x512x768xui32>
    %155 = stablehlo.xor %149, %154 : tensor<64x512x768xui32>
    %156 = stablehlo.add %149, %155 : tensor<64x512x768xui32>
    %157 = stablehlo.broadcast_in_dim %c_4, dims = [] : (tensor<ui32>) -> tensor<64x512x768xui32>
    %158 = stablehlo.shift_left %155, %157 : tensor<64x512x768xui32>
    %159 = stablehlo.broadcast_in_dim %c_5, dims = [] : (tensor<ui32>) -> tensor<64x512x768xui32>
    %160 = stablehlo.shift_right_logical %155, %159 : tensor<64x512x768xui32>
    %161 = stablehlo.or %158, %160 : tensor<64x512x768xui32>
    %162 = stablehlo.xor %156, %161 : tensor<64x512x768xui32>
    %163 = stablehlo.add %156, %162 : tensor<64x512x768xui32>
    %164 = stablehlo.broadcast_in_dim %c_5, dims = [] : (tensor<ui32>) -> tensor<64x512x768xui32>
    %165 = stablehlo.shift_left %162, %164 : tensor<64x512x768xui32>
    %166 = stablehlo.broadcast_in_dim %c_4, dims = [] : (tensor<ui32>) -> tensor<64x512x768xui32>
    %167 = stablehlo.shift_right_logical %162, %166 : tensor<64x512x768xui32>
    %168 = stablehlo.or %165, %167 : tensor<64x512x768xui32>
    %169 = stablehlo.xor %163, %168 : tensor<64x512x768xui32>
    %170 = stablehlo.broadcast_in_dim %1, dims = [] : (tensor<ui32>) -> tensor<64x512x768xui32>
    %171 = stablehlo.add %163, %170 : tensor<64x512x768xui32>
    %172 = stablehlo.broadcast_in_dim %arg0, dims = [] : (tensor<ui32>) -> tensor<64x512x768xui32>
    %173 = stablehlo.add %169, %172 : tensor<64x512x768xui32>
    %c_14 = stablehlo.constant dense<5> : tensor<ui32>
    %174 = stablehlo.broadcast_in_dim %c_14, dims = [] : (tensor<ui32>) -> tensor<64x512x768xui32>
    %175 = stablehlo.add %173, %174 : tensor<64x512x768xui32>
    return %171, %175 : tensor<64x512x768xui32>, tensor<64x512x768xui32>
  }
  func.func private @_bernoulli_71(%arg0: tensor<2xui32>, %arg1: tensor<f32>) -> tensor<64x12x512x512xi1> {
    %cst = stablehlo.constant dense<0.000000e+00> : tensor<f32>
    %cst_0 = stablehlo.constant dense<1.000000e+00> : tensor<f32>
    %0 = call @_uniform_72(%arg0, %cst, %cst_0) : (tensor<2xui32>, tensor<f32>, tensor<f32>) -> tensor<64x12x512x512xf32>
    %1 = stablehlo.broadcast_in_dim %arg1, dims = [] : (tensor<f32>) -> tensor<64x12x512x512xf32>
    %2 = stablehlo.compare  LT, %0, %1,  FLOAT : (tensor<64x12x512x512xf32>, tensor<64x12x512x512xf32>) -> tensor<64x12x512x512xi1>
    return %2 : tensor<64x12x512x512xi1>
  }
  func.func private @_uniform_72(%arg0: tensor<2xui32>, %arg1: tensor<f32>, %arg2: tensor<f32>) -> tensor<64x12x512x512xf32> {
    %0 = stablehlo.convert %arg1 : tensor<f32>
    %1 = stablehlo.convert %arg2 : tensor<f32>
    %2 = stablehlo.broadcast_in_dim %0, dims = [] : (tensor<f32>) -> tensor<1x1x1x1xf32>
    %3 = stablehlo.broadcast_in_dim %1, dims = [] : (tensor<f32>) -> tensor<1x1x1x1xf32>
    %4 = stablehlo.slice %arg0 [0:1] : (tensor<2xui32>) -> tensor<1xui32>
    %5 = stablehlo.reshape %4 : (tensor<1xui32>) -> tensor<ui32>
    %6 = stablehlo.slice %arg0 [1:2] : (tensor<2xui32>) -> tensor<1xui32>
    %7 = stablehlo.reshape %6 : (tensor<1xui32>) -> tensor<ui32>
    %8 = stablehlo.iota dim = 0 : tensor<64x12x512x512xui64>
    %9 = stablehlo.iota dim = 1 : tensor<64x12x512x512xui64>
    %10 = stablehlo.iota dim = 2 : tensor<64x12x512x512xui64>
    %11 = stablehlo.iota dim = 3 : tensor<64x12x512x512xui64>
    %c = stablehlo.constant dense<3145728> : tensor<ui64>
    %12 = stablehlo.broadcast_in_dim %c, dims = [] : (tensor<ui64>) -> tensor<64x12x512x512xui64>
    %13 = stablehlo.multiply %12, %8 : tensor<64x12x512x512xui64>
    %c_0 = stablehlo.constant dense<262144> : tensor<ui64>
    %14 = stablehlo.broadcast_in_dim %c_0, dims = [] : (tensor<ui64>) -> tensor<64x12x512x512xui64>
    %15 = stablehlo.multiply %14, %9 : tensor<64x12x512x512xui64>
    %c_1 = stablehlo.constant dense<512> : tensor<ui64>
    %16 = stablehlo.broadcast_in_dim %c_1, dims = [] : (tensor<ui64>) -> tensor<64x12x512x512xui64>
    %17 = stablehlo.multiply %16, %10 : tensor<64x12x512x512xui64>
    %c_2 = stablehlo.constant dense<1> : tensor<ui64>
    %18 = stablehlo.broadcast_in_dim %c_2, dims = [] : (tensor<ui64>) -> tensor<64x12x512x512xui64>
    %19 = stablehlo.multiply %18, %11 : tensor<64x12x512x512xui64>
    %20 = stablehlo.add %13, %15 : tensor<64x12x512x512xui64>
    %21 = stablehlo.add %20, %17 : tensor<64x12x512x512xui64>
    %22 = stablehlo.add %21, %19 : tensor<64x12x512x512xui64>
    %c_3 = stablehlo.constant dense<32> : tensor<ui64>
    %23 = stablehlo.broadcast_in_dim %c_3, dims = [] : (tensor<ui64>) -> tensor<64x12x512x512xui64>
    %24 = stablehlo.shift_right_logical %22, %23 : tensor<64x12x512x512xui64>
    %25 = stablehlo.convert %22 : (tensor<64x12x512x512xui64>) -> tensor<64x12x512x512xui32>
    %26 = stablehlo.convert %24 : (tensor<64x12x512x512xui64>) -> tensor<64x12x512x512xui32>
    %27:2 = call @threefry2x32_76(%5, %7, %26, %25) : (tensor<ui32>, tensor<ui32>, tensor<64x12x512x512xui32>, tensor<64x12x512x512xui32>) -> (tensor<64x12x512x512xui32>, tensor<64x12x512x512xui32>)
    %28 = stablehlo.xor %27#0, %27#1 : tensor<64x12x512x512xui32>
    %c_4 = stablehlo.constant dense<9> : tensor<ui32>
    %29 = stablehlo.broadcast_in_dim %c_4, dims = [] : (tensor<ui32>) -> tensor<64x12x512x512xui32>
    %30 = stablehlo.shift_right_logical %28, %29 : tensor<64x12x512x512xui32>
    %c_5 = stablehlo.constant dense<1065353216> : tensor<ui32>
    %31 = stablehlo.broadcast_in_dim %c_5, dims = [] : (tensor<ui32>) -> tensor<64x12x512x512xui32>
    %32 = stablehlo.or %30, %31 : tensor<64x12x512x512xui32>
    %33 = stablehlo.bitcast_convert %32 : (tensor<64x12x512x512xui32>) -> tensor<64x12x512x512xf32>
    %cst = stablehlo.constant dense<1.000000e+00> : tensor<f32>
    %34 = stablehlo.broadcast_in_dim %cst, dims = [] : (tensor<f32>) -> tensor<64x12x512x512xf32>
    %35 = stablehlo.subtract %33, %34 : tensor<64x12x512x512xf32>
    %36 = stablehlo.subtract %3, %2 : tensor<1x1x1x1xf32>
    %37 = stablehlo.broadcast_in_dim %36, dims = [0, 1, 2, 3] : (tensor<1x1x1x1xf32>) -> tensor<64x12x512x512xf32>
    %38 = stablehlo.multiply %35, %37 : tensor<64x12x512x512xf32>
    %39 = stablehlo.broadcast_in_dim %2, dims = [0, 1, 2, 3] : (tensor<1x1x1x1xf32>) -> tensor<64x12x512x512xf32>
    %40 = stablehlo.add %38, %39 : tensor<64x12x512x512xf32>
    %41 = stablehlo.broadcast_in_dim %2, dims = [0, 1, 2, 3] : (tensor<1x1x1x1xf32>) -> tensor<64x12x512x512xf32>
    %42 = stablehlo.maximum %41, %40 : tensor<64x12x512x512xf32>
    return %42 : tensor<64x12x512x512xf32>
  }
  func.func private @threefry2x32_76(%arg0: tensor<ui32>, %arg1: tensor<ui32>, %arg2: tensor<64x12x512x512xui32>, %arg3: tensor<64x12x512x512xui32>) -> (tensor<64x12x512x512xui32>, tensor<64x12x512x512xui32>) {
    %0 = stablehlo.xor %arg0, %arg1 : tensor<ui32>
    %c = stablehlo.constant dense<466688986> : tensor<ui32>
    %1 = stablehlo.xor %0, %c : tensor<ui32>
    %2 = stablehlo.broadcast_in_dim %arg0, dims = [] : (tensor<ui32>) -> tensor<64x12x512x512xui32>
    %3 = stablehlo.add %arg2, %2 : tensor<64x12x512x512xui32>
    %4 = stablehlo.broadcast_in_dim %arg1, dims = [] : (tensor<ui32>) -> tensor<64x12x512x512xui32>
    %5 = stablehlo.add %arg3, %4 : tensor<64x12x512x512xui32>
    %6 = stablehlo.add %3, %5 : tensor<64x12x512x512xui32>
    %c_0 = stablehlo.constant dense<13> : tensor<ui32>
    %7 = stablehlo.broadcast_in_dim %c_0, dims = [] : (tensor<ui32>) -> tensor<64x12x512x512xui32>
    %8 = stablehlo.shift_left %5, %7 : tensor<64x12x512x512xui32>
    %c_1 = stablehlo.constant dense<19> : tensor<ui32>
    %9 = stablehlo.broadcast_in_dim %c_1, dims = [] : (tensor<ui32>) -> tensor<64x12x512x512xui32>
    %10 = stablehlo.shift_right_logical %5, %9 : tensor<64x12x512x512xui32>
    %11 = stablehlo.or %8, %10 : tensor<64x12x512x512xui32>
    %12 = stablehlo.xor %6, %11 : tensor<64x12x512x512xui32>
    %13 = stablehlo.add %6, %12 : tensor<64x12x512x512xui32>
    %c_2 = stablehlo.constant dense<15> : tensor<ui32>
    %14 = stablehlo.broadcast_in_dim %c_2, dims = [] : (tensor<ui32>) -> tensor<64x12x512x512xui32>
    %15 = stablehlo.shift_left %12, %14 : tensor<64x12x512x512xui32>
    %c_3 = stablehlo.constant dense<17> : tensor<ui32>
    %16 = stablehlo.broadcast_in_dim %c_3, dims = [] : (tensor<ui32>) -> tensor<64x12x512x512xui32>
    %17 = stablehlo.shift_right_logical %12, %16 : tensor<64x12x512x512xui32>
    %18 = stablehlo.or %15, %17 : tensor<64x12x512x512xui32>
    %19 = stablehlo.xor %13, %18 : tensor<64x12x512x512xui32>
    %20 = stablehlo.add %13, %19 : tensor<64x12x512x512xui32>
    %c_4 = stablehlo.constant dense<26> : tensor<ui32>
    %21 = stablehlo.broadcast_in_dim %c_4, dims = [] : (tensor<ui32>) -> tensor<64x12x512x512xui32>
    %22 = stablehlo.shift_left %19, %21 : tensor<64x12x512x512xui32>
    %c_5 = stablehlo.constant dense<6> : tensor<ui32>
    %23 = stablehlo.broadcast_in_dim %c_5, dims = [] : (tensor<ui32>) -> tensor<64x12x512x512xui32>
    %24 = stablehlo.shift_right_logical %19, %23 : tensor<64x12x512x512xui32>
    %25 = stablehlo.or %22, %24 : tensor<64x12x512x512xui32>
    %26 = stablehlo.xor %20, %25 : tensor<64x12x512x512xui32>
    %27 = stablehlo.add %20, %26 : tensor<64x12x512x512xui32>
    %28 = stablehlo.broadcast_in_dim %c_5, dims = [] : (tensor<ui32>) -> tensor<64x12x512x512xui32>
    %29 = stablehlo.shift_left %26, %28 : tensor<64x12x512x512xui32>
    %30 = stablehlo.broadcast_in_dim %c_4, dims = [] : (tensor<ui32>) -> tensor<64x12x512x512xui32>
    %31 = stablehlo.shift_right_logical %26, %30 : tensor<64x12x512x512xui32>
    %32 = stablehlo.or %29, %31 : tensor<64x12x512x512xui32>
    %33 = stablehlo.xor %27, %32 : tensor<64x12x512x512xui32>
    %34 = stablehlo.broadcast_in_dim %arg1, dims = [] : (tensor<ui32>) -> tensor<64x12x512x512xui32>
    %35 = stablehlo.add %27, %34 : tensor<64x12x512x512xui32>
    %36 = stablehlo.broadcast_in_dim %1, dims = [] : (tensor<ui32>) -> tensor<64x12x512x512xui32>
    %37 = stablehlo.add %33, %36 : tensor<64x12x512x512xui32>
    %c_6 = stablehlo.constant dense<1> : tensor<ui32>
    %38 = stablehlo.broadcast_in_dim %c_6, dims = [] : (tensor<ui32>) -> tensor<64x12x512x512xui32>
    %39 = stablehlo.add %37, %38 : tensor<64x12x512x512xui32>
    %40 = stablehlo.add %35, %39 : tensor<64x12x512x512xui32>
    %41 = stablehlo.broadcast_in_dim %c_3, dims = [] : (tensor<ui32>) -> tensor<64x12x512x512xui32>
    %42 = stablehlo.shift_left %39, %41 : tensor<64x12x512x512xui32>
    %43 = stablehlo.broadcast_in_dim %c_2, dims = [] : (tensor<ui32>) -> tensor<64x12x512x512xui32>
    %44 = stablehlo.shift_right_logical %39, %43 : tensor<64x12x512x512xui32>
    %45 = stablehlo.or %42, %44 : tensor<64x12x512x512xui32>
    %46 = stablehlo.xor %40, %45 : tensor<64x12x512x512xui32>
    %47 = stablehlo.add %40, %46 : tensor<64x12x512x512xui32>
    %c_7 = stablehlo.constant dense<29> : tensor<ui32>
    %48 = stablehlo.broadcast_in_dim %c_7, dims = [] : (tensor<ui32>) -> tensor<64x12x512x512xui32>
    %49 = stablehlo.shift_left %46, %48 : tensor<64x12x512x512xui32>
    %c_8 = stablehlo.constant dense<3> : tensor<ui32>
    %50 = stablehlo.broadcast_in_dim %c_8, dims = [] : (tensor<ui32>) -> tensor<64x12x512x512xui32>
    %51 = stablehlo.shift_right_logical %46, %50 : tensor<64x12x512x512xui32>
    %52 = stablehlo.or %49, %51 : tensor<64x12x512x512xui32>
    %53 = stablehlo.xor %47, %52 : tensor<64x12x512x512xui32>
    %54 = stablehlo.add %47, %53 : tensor<64x12x512x512xui32>
    %c_9 = stablehlo.constant dense<16> : tensor<ui32>
    %55 = stablehlo.broadcast_in_dim %c_9, dims = [] : (tensor<ui32>) -> tensor<64x12x512x512xui32>
    %56 = stablehlo.shift_left %53, %55 : tensor<64x12x512x512xui32>
    %57 = stablehlo.broadcast_in_dim %c_9, dims = [] : (tensor<ui32>) -> tensor<64x12x512x512xui32>
    %58 = stablehlo.shift_right_logical %53, %57 : tensor<64x12x512x512xui32>
    %59 = stablehlo.or %56, %58 : tensor<64x12x512x512xui32>
    %60 = stablehlo.xor %54, %59 : tensor<64x12x512x512xui32>
    %61 = stablehlo.add %54, %60 : tensor<64x12x512x512xui32>
    %c_10 = stablehlo.constant dense<24> : tensor<ui32>
    %62 = stablehlo.broadcast_in_dim %c_10, dims = [] : (tensor<ui32>) -> tensor<64x12x512x512xui32>
    %63 = stablehlo.shift_left %60, %62 : tensor<64x12x512x512xui32>
    %c_11 = stablehlo.constant dense<8> : tensor<ui32>
    %64 = stablehlo.broadcast_in_dim %c_11, dims = [] : (tensor<ui32>) -> tensor<64x12x512x512xui32>
    %65 = stablehlo.shift_right_logical %60, %64 : tensor<64x12x512x512xui32>
    %66 = stablehlo.or %63, %65 : tensor<64x12x512x512xui32>
    %67 = stablehlo.xor %61, %66 : tensor<64x12x512x512xui32>
    %68 = stablehlo.broadcast_in_dim %1, dims = [] : (tensor<ui32>) -> tensor<64x12x512x512xui32>
    %69 = stablehlo.add %61, %68 : tensor<64x12x512x512xui32>
    %70 = stablehlo.broadcast_in_dim %arg0, dims = [] : (tensor<ui32>) -> tensor<64x12x512x512xui32>
    %71 = stablehlo.add %67, %70 : tensor<64x12x512x512xui32>
    %c_12 = stablehlo.constant dense<2> : tensor<ui32>
    %72 = stablehlo.broadcast_in_dim %c_12, dims = [] : (tensor<ui32>) -> tensor<64x12x512x512xui32>
    %73 = stablehlo.add %71, %72 : tensor<64x12x512x512xui32>
    %74 = stablehlo.add %69, %73 : tensor<64x12x512x512xui32>
    %75 = stablehlo.broadcast_in_dim %c_0, dims = [] : (tensor<ui32>) -> tensor<64x12x512x512xui32>
    %76 = stablehlo.shift_left %73, %75 : tensor<64x12x512x512xui32>
    %77 = stablehlo.broadcast_in_dim %c_1, dims = [] : (tensor<ui32>) -> tensor<64x12x512x512xui32>
    %78 = stablehlo.shift_right_logical %73, %77 : tensor<64x12x512x512xui32>
    %79 = stablehlo.or %76, %78 : tensor<64x12x512x512xui32>
    %80 = stablehlo.xor %74, %79 : tensor<64x12x512x512xui32>
    %81 = stablehlo.add %74, %80 : tensor<64x12x512x512xui32>
    %82 = stablehlo.broadcast_in_dim %c_2, dims = [] : (tensor<ui32>) -> tensor<64x12x512x512xui32>
    %83 = stablehlo.shift_left %80, %82 : tensor<64x12x512x512xui32>
    %84 = stablehlo.broadcast_in_dim %c_3, dims = [] : (tensor<ui32>) -> tensor<64x12x512x512xui32>
    %85 = stablehlo.shift_right_logical %80, %84 : tensor<64x12x512x512xui32>
    %86 = stablehlo.or %83, %85 : tensor<64x12x512x512xui32>
    %87 = stablehlo.xor %81, %86 : tensor<64x12x512x512xui32>
    %88 = stablehlo.add %81, %87 : tensor<64x12x512x512xui32>
    %89 = stablehlo.broadcast_in_dim %c_4, dims = [] : (tensor<ui32>) -> tensor<64x12x512x512xui32>
    %90 = stablehlo.shift_left %87, %89 : tensor<64x12x512x512xui32>
    %91 = stablehlo.broadcast_in_dim %c_5, dims = [] : (tensor<ui32>) -> tensor<64x12x512x512xui32>
    %92 = stablehlo.shift_right_logical %87, %91 : tensor<64x12x512x512xui32>
    %93 = stablehlo.or %90, %92 : tensor<64x12x512x512xui32>
    %94 = stablehlo.xor %88, %93 : tensor<64x12x512x512xui32>
    %95 = stablehlo.add %88, %94 : tensor<64x12x512x512xui32>
    %96 = stablehlo.broadcast_in_dim %c_5, dims = [] : (tensor<ui32>) -> tensor<64x12x512x512xui32>
    %97 = stablehlo.shift_left %94, %96 : tensor<64x12x512x512xui32>
    %98 = stablehlo.broadcast_in_dim %c_4, dims = [] : (tensor<ui32>) -> tensor<64x12x512x512xui32>
    %99 = stablehlo.shift_right_logical %94, %98 : tensor<64x12x512x512xui32>
    %100 = stablehlo.or %97, %99 : tensor<64x12x512x512xui32>
    %101 = stablehlo.xor %95, %100 : tensor<64x12x512x512xui32>
    %102 = stablehlo.broadcast_in_dim %arg0, dims = [] : (tensor<ui32>) -> tensor<64x12x512x512xui32>
    %103 = stablehlo.add %95, %102 : tensor<64x12x512x512xui32>
    %104 = stablehlo.broadcast_in_dim %arg1, dims = [] : (tensor<ui32>) -> tensor<64x12x512x512xui32>
    %105 = stablehlo.add %101, %104 : tensor<64x12x512x512xui32>
    %106 = stablehlo.broadcast_in_dim %c_8, dims = [] : (tensor<ui32>) -> tensor<64x12x512x512xui32>
    %107 = stablehlo.add %105, %106 : tensor<64x12x512x512xui32>
    %108 = stablehlo.add %103, %107 : tensor<64x12x512x512xui32>
    %109 = stablehlo.broadcast_in_dim %c_3, dims = [] : (tensor<ui32>) -> tensor<64x12x512x512xui32>
    %110 = stablehlo.shift_left %107, %109 : tensor<64x12x512x512xui32>
    %111 = stablehlo.broadcast_in_dim %c_2, dims = [] : (tensor<ui32>) -> tensor<64x12x512x512xui32>
    %112 = stablehlo.shift_right_logical %107, %111 : tensor<64x12x512x512xui32>
    %113 = stablehlo.or %110, %112 : tensor<64x12x512x512xui32>
    %114 = stablehlo.xor %108, %113 : tensor<64x12x512x512xui32>
    %115 = stablehlo.add %108, %114 : tensor<64x12x512x512xui32>
    %116 = stablehlo.broadcast_in_dim %c_7, dims = [] : (tensor<ui32>) -> tensor<64x12x512x512xui32>
    %117 = stablehlo.shift_left %114, %116 : tensor<64x12x512x512xui32>
    %118 = stablehlo.broadcast_in_dim %c_8, dims = [] : (tensor<ui32>) -> tensor<64x12x512x512xui32>
    %119 = stablehlo.shift_right_logical %114, %118 : tensor<64x12x512x512xui32>
    %120 = stablehlo.or %117, %119 : tensor<64x12x512x512xui32>
    %121 = stablehlo.xor %115, %120 : tensor<64x12x512x512xui32>
    %122 = stablehlo.add %115, %121 : tensor<64x12x512x512xui32>
    %123 = stablehlo.broadcast_in_dim %c_9, dims = [] : (tensor<ui32>) -> tensor<64x12x512x512xui32>
    %124 = stablehlo.shift_left %121, %123 : tensor<64x12x512x512xui32>
    %125 = stablehlo.broadcast_in_dim %c_9, dims = [] : (tensor<ui32>) -> tensor<64x12x512x512xui32>
    %126 = stablehlo.shift_right_logical %121, %125 : tensor<64x12x512x512xui32>
    %127 = stablehlo.or %124, %126 : tensor<64x12x512x512xui32>
    %128 = stablehlo.xor %122, %127 : tensor<64x12x512x512xui32>
    %129 = stablehlo.add %122, %128 : tensor<64x12x512x512xui32>
    %130 = stablehlo.broadcast_in_dim %c_10, dims = [] : (tensor<ui32>) -> tensor<64x12x512x512xui32>
    %131 = stablehlo.shift_left %128, %130 : tensor<64x12x512x512xui32>
    %132 = stablehlo.broadcast_in_dim %c_11, dims = [] : (tensor<ui32>) -> tensor<64x12x512x512xui32>
    %133 = stablehlo.shift_right_logical %128, %132 : tensor<64x12x512x512xui32>
    %134 = stablehlo.or %131, %133 : tensor<64x12x512x512xui32>
    %135 = stablehlo.xor %129, %134 : tensor<64x12x512x512xui32>
    %136 = stablehlo.broadcast_in_dim %arg1, dims = [] : (tensor<ui32>) -> tensor<64x12x512x512xui32>
    %137 = stablehlo.add %129, %136 : tensor<64x12x512x512xui32>
    %138 = stablehlo.broadcast_in_dim %1, dims = [] : (tensor<ui32>) -> tensor<64x12x512x512xui32>
    %139 = stablehlo.add %135, %138 : tensor<64x12x512x512xui32>
    %c_13 = stablehlo.constant dense<4> : tensor<ui32>
    %140 = stablehlo.broadcast_in_dim %c_13, dims = [] : (tensor<ui32>) -> tensor<64x12x512x512xui32>
    %141 = stablehlo.add %139, %140 : tensor<64x12x512x512xui32>
    %142 = stablehlo.add %137, %141 : tensor<64x12x512x512xui32>
    %143 = stablehlo.broadcast_in_dim %c_0, dims = [] : (tensor<ui32>) -> tensor<64x12x512x512xui32>
    %144 = stablehlo.shift_left %141, %143 : tensor<64x12x512x512xui32>
    %145 = stablehlo.broadcast_in_dim %c_1, dims = [] : (tensor<ui32>) -> tensor<64x12x512x512xui32>
    %146 = stablehlo.shift_right_logical %141, %145 : tensor<64x12x512x512xui32>
    %147 = stablehlo.or %144, %146 : tensor<64x12x512x512xui32>
    %148 = stablehlo.xor %142, %147 : tensor<64x12x512x512xui32>
    %149 = stablehlo.add %142, %148 : tensor<64x12x512x512xui32>
    %150 = stablehlo.broadcast_in_dim %c_2, dims = [] : (tensor<ui32>) -> tensor<64x12x512x512xui32>
    %151 = stablehlo.shift_left %148, %150 : tensor<64x12x512x512xui32>
    %152 = stablehlo.broadcast_in_dim %c_3, dims = [] : (tensor<ui32>) -> tensor<64x12x512x512xui32>
    %153 = stablehlo.shift_right_logical %148, %152 : tensor<64x12x512x512xui32>
    %154 = stablehlo.or %151, %153 : tensor<64x12x512x512xui32>
    %155 = stablehlo.xor %149, %154 : tensor<64x12x512x512xui32>
    %156 = stablehlo.add %149, %155 : tensor<64x12x512x512xui32>
    %157 = stablehlo.broadcast_in_dim %c_4, dims = [] : (tensor<ui32>) -> tensor<64x12x512x512xui32>
    %158 = stablehlo.shift_left %155, %157 : tensor<64x12x512x512xui32>
    %159 = stablehlo.broadcast_in_dim %c_5, dims = [] : (tensor<ui32>) -> tensor<64x12x512x512xui32>
    %160 = stablehlo.shift_right_logical %155, %159 : tensor<64x12x512x512xui32>
    %161 = stablehlo.or %158, %160 : tensor<64x12x512x512xui32>
    %162 = stablehlo.xor %156, %161 : tensor<64x12x512x512xui32>
    %163 = stablehlo.add %156, %162 : tensor<64x12x512x512xui32>
    %164 = stablehlo.broadcast_in_dim %c_5, dims = [] : (tensor<ui32>) -> tensor<64x12x512x512xui32>
    %165 = stablehlo.shift_left %162, %164 : tensor<64x12x512x512xui32>
    %166 = stablehlo.broadcast_in_dim %c_4, dims = [] : (tensor<ui32>) -> tensor<64x12x512x512xui32>
    %167 = stablehlo.shift_right_logical %162, %166 : tensor<64x12x512x512xui32>
    %168 = stablehlo.or %165, %167 : tensor<64x12x512x512xui32>
    %169 = stablehlo.xor %163, %168 : tensor<64x12x512x512xui32>
    %170 = stablehlo.broadcast_in_dim %1, dims = [] : (tensor<ui32>) -> tensor<64x12x512x512xui32>
    %171 = stablehlo.add %163, %170 : tensor<64x12x512x512xui32>
    %172 = stablehlo.broadcast_in_dim %arg0, dims = [] : (tensor<ui32>) -> tensor<64x12x512x512xui32>
    %173 = stablehlo.add %169, %172 : tensor<64x12x512x512xui32>
    %c_14 = stablehlo.constant dense<5> : tensor<ui32>
    %174 = stablehlo.broadcast_in_dim %c_14, dims = [] : (tensor<ui32>) -> tensor<64x12x512x512xui32>
    %175 = stablehlo.add %173, %174 : tensor<64x12x512x512xui32>
    return %171, %175 : tensor<64x12x512x512xui32>, tensor<64x12x512x512xui32>
  }
  func.func private @_bernoulli_112(%arg0: tensor<2xui32>, %arg1: tensor<f32>) -> tensor<64x1x768xi1> {
    %cst = stablehlo.constant dense<0.000000e+00> : tensor<f32>
    %cst_0 = stablehlo.constant dense<1.000000e+00> : tensor<f32>
    %0 = call @_uniform_113(%arg0, %cst, %cst_0) : (tensor<2xui32>, tensor<f32>, tensor<f32>) -> tensor<64x1x768xf32>
    %1 = stablehlo.broadcast_in_dim %arg1, dims = [] : (tensor<f32>) -> tensor<64x1x768xf32>
    %2 = stablehlo.compare  LT, %0, %1,  FLOAT : (tensor<64x1x768xf32>, tensor<64x1x768xf32>) -> tensor<64x1x768xi1>
    return %2 : tensor<64x1x768xi1>
  }
  func.func private @_uniform_113(%arg0: tensor<2xui32>, %arg1: tensor<f32>, %arg2: tensor<f32>) -> tensor<64x1x768xf32> {
    %0 = stablehlo.convert %arg1 : tensor<f32>
    %1 = stablehlo.convert %arg2 : tensor<f32>
    %2 = stablehlo.broadcast_in_dim %0, dims = [] : (tensor<f32>) -> tensor<1x1x1xf32>
    %3 = stablehlo.broadcast_in_dim %1, dims = [] : (tensor<f32>) -> tensor<1x1x1xf32>
    %4 = stablehlo.slice %arg0 [0:1] : (tensor<2xui32>) -> tensor<1xui32>
    %5 = stablehlo.reshape %4 : (tensor<1xui32>) -> tensor<ui32>
    %6 = stablehlo.slice %arg0 [1:2] : (tensor<2xui32>) -> tensor<1xui32>
    %7 = stablehlo.reshape %6 : (tensor<1xui32>) -> tensor<ui32>
    %8 = stablehlo.iota dim = 0 : tensor<64x1x768xui64>
    %9 = stablehlo.iota dim = 1 : tensor<64x1x768xui64>
    %10 = stablehlo.iota dim = 2 : tensor<64x1x768xui64>
    %c = stablehlo.constant dense<768> : tensor<ui64>
    %11 = stablehlo.broadcast_in_dim %c, dims = [] : (tensor<ui64>) -> tensor<64x1x768xui64>
    %12 = stablehlo.multiply %11, %8 : tensor<64x1x768xui64>
    %c_0 = stablehlo.constant dense<768> : tensor<ui64>
    %13 = stablehlo.broadcast_in_dim %c_0, dims = [] : (tensor<ui64>) -> tensor<64x1x768xui64>
    %14 = stablehlo.multiply %13, %9 : tensor<64x1x768xui64>
    %c_1 = stablehlo.constant dense<1> : tensor<ui64>
    %15 = stablehlo.broadcast_in_dim %c_1, dims = [] : (tensor<ui64>) -> tensor<64x1x768xui64>
    %16 = stablehlo.multiply %15, %10 : tensor<64x1x768xui64>
    %17 = stablehlo.add %12, %14 : tensor<64x1x768xui64>
    %18 = stablehlo.add %17, %16 : tensor<64x1x768xui64>
    %c_2 = stablehlo.constant dense<32> : tensor<ui64>
    %19 = stablehlo.broadcast_in_dim %c_2, dims = [] : (tensor<ui64>) -> tensor<64x1x768xui64>
    %20 = stablehlo.shift_right_logical %18, %19 : tensor<64x1x768xui64>
    %21 = stablehlo.convert %18 : (tensor<64x1x768xui64>) -> tensor<64x1x768xui32>
    %22 = stablehlo.convert %20 : (tensor<64x1x768xui64>) -> tensor<64x1x768xui32>
    %23:2 = call @threefry2x32_116(%5, %7, %22, %21) : (tensor<ui32>, tensor<ui32>, tensor<64x1x768xui32>, tensor<64x1x768xui32>) -> (tensor<64x1x768xui32>, tensor<64x1x768xui32>)
    %24 = stablehlo.xor %23#0, %23#1 : tensor<64x1x768xui32>
    %c_3 = stablehlo.constant dense<9> : tensor<ui32>
    %25 = stablehlo.broadcast_in_dim %c_3, dims = [] : (tensor<ui32>) -> tensor<64x1x768xui32>
    %26 = stablehlo.shift_right_logical %24, %25 : tensor<64x1x768xui32>
    %c_4 = stablehlo.constant dense<1065353216> : tensor<ui32>
    %27 = stablehlo.broadcast_in_dim %c_4, dims = [] : (tensor<ui32>) -> tensor<64x1x768xui32>
    %28 = stablehlo.or %26, %27 : tensor<64x1x768xui32>
    %29 = stablehlo.bitcast_convert %28 : (tensor<64x1x768xui32>) -> tensor<64x1x768xf32>
    %cst = stablehlo.constant dense<1.000000e+00> : tensor<f32>
    %30 = stablehlo.broadcast_in_dim %cst, dims = [] : (tensor<f32>) -> tensor<64x1x768xf32>
    %31 = stablehlo.subtract %29, %30 : tensor<64x1x768xf32>
    %32 = stablehlo.subtract %3, %2 : tensor<1x1x1xf32>
    %33 = stablehlo.broadcast_in_dim %32, dims = [0, 1, 2] : (tensor<1x1x1xf32>) -> tensor<64x1x768xf32>
    %34 = stablehlo.multiply %31, %33 : tensor<64x1x768xf32>
    %35 = stablehlo.broadcast_in_dim %2, dims = [0, 1, 2] : (tensor<1x1x1xf32>) -> tensor<64x1x768xf32>
    %36 = stablehlo.add %34, %35 : tensor<64x1x768xf32>
    %37 = stablehlo.broadcast_in_dim %2, dims = [0, 1, 2] : (tensor<1x1x1xf32>) -> tensor<64x1x768xf32>
    %38 = stablehlo.maximum %37, %36 : tensor<64x1x768xf32>
    return %38 : tensor<64x1x768xf32>
  }
  func.func private @threefry2x32_116(%arg0: tensor<ui32>, %arg1: tensor<ui32>, %arg2: tensor<64x1x768xui32>, %arg3: tensor<64x1x768xui32>) -> (tensor<64x1x768xui32>, tensor<64x1x768xui32>) {
    %0 = stablehlo.xor %arg0, %arg1 : tensor<ui32>
    %c = stablehlo.constant dense<466688986> : tensor<ui32>
    %1 = stablehlo.xor %0, %c : tensor<ui32>
    %2 = stablehlo.broadcast_in_dim %arg0, dims = [] : (tensor<ui32>) -> tensor<64x1x768xui32>
    %3 = stablehlo.add %arg2, %2 : tensor<64x1x768xui32>
    %4 = stablehlo.broadcast_in_dim %arg1, dims = [] : (tensor<ui32>) -> tensor<64x1x768xui32>
    %5 = stablehlo.add %arg3, %4 : tensor<64x1x768xui32>
    %6 = stablehlo.add %3, %5 : tensor<64x1x768xui32>
    %c_0 = stablehlo.constant dense<13> : tensor<ui32>
    %7 = stablehlo.broadcast_in_dim %c_0, dims = [] : (tensor<ui32>) -> tensor<64x1x768xui32>
    %8 = stablehlo.shift_left %5, %7 : tensor<64x1x768xui32>
    %c_1 = stablehlo.constant dense<19> : tensor<ui32>
    %9 = stablehlo.broadcast_in_dim %c_1, dims = [] : (tensor<ui32>) -> tensor<64x1x768xui32>
    %10 = stablehlo.shift_right_logical %5, %9 : tensor<64x1x768xui32>
    %11 = stablehlo.or %8, %10 : tensor<64x1x768xui32>
    %12 = stablehlo.xor %6, %11 : tensor<64x1x768xui32>
    %13 = stablehlo.add %6, %12 : tensor<64x1x768xui32>
    %c_2 = stablehlo.constant dense<15> : tensor<ui32>
    %14 = stablehlo.broadcast_in_dim %c_2, dims = [] : (tensor<ui32>) -> tensor<64x1x768xui32>
    %15 = stablehlo.shift_left %12, %14 : tensor<64x1x768xui32>
    %c_3 = stablehlo.constant dense<17> : tensor<ui32>
    %16 = stablehlo.broadcast_in_dim %c_3, dims = [] : (tensor<ui32>) -> tensor<64x1x768xui32>
    %17 = stablehlo.shift_right_logical %12, %16 : tensor<64x1x768xui32>
    %18 = stablehlo.or %15, %17 : tensor<64x1x768xui32>
    %19 = stablehlo.xor %13, %18 : tensor<64x1x768xui32>
    %20 = stablehlo.add %13, %19 : tensor<64x1x768xui32>
    %c_4 = stablehlo.constant dense<26> : tensor<ui32>
    %21 = stablehlo.broadcast_in_dim %c_4, dims = [] : (tensor<ui32>) -> tensor<64x1x768xui32>
    %22 = stablehlo.shift_left %19, %21 : tensor<64x1x768xui32>
    %c_5 = stablehlo.constant dense<6> : tensor<ui32>
    %23 = stablehlo.broadcast_in_dim %c_5, dims = [] : (tensor<ui32>) -> tensor<64x1x768xui32>
    %24 = stablehlo.shift_right_logical %19, %23 : tensor<64x1x768xui32>
    %25 = stablehlo.or %22, %24 : tensor<64x1x768xui32>
    %26 = stablehlo.xor %20, %25 : tensor<64x1x768xui32>
    %27 = stablehlo.add %20, %26 : tensor<64x1x768xui32>
    %28 = stablehlo.broadcast_in_dim %c_5, dims = [] : (tensor<ui32>) -> tensor<64x1x768xui32>
    %29 = stablehlo.shift_left %26, %28 : tensor<64x1x768xui32>
    %30 = stablehlo.broadcast_in_dim %c_4, dims = [] : (tensor<ui32>) -> tensor<64x1x768xui32>
    %31 = stablehlo.shift_right_logical %26, %30 : tensor<64x1x768xui32>
    %32 = stablehlo.or %29, %31 : tensor<64x1x768xui32>
    %33 = stablehlo.xor %27, %32 : tensor<64x1x768xui32>
    %34 = stablehlo.broadcast_in_dim %arg1, dims = [] : (tensor<ui32>) -> tensor<64x1x768xui32>
    %35 = stablehlo.add %27, %34 : tensor<64x1x768xui32>
    %36 = stablehlo.broadcast_in_dim %1, dims = [] : (tensor<ui32>) -> tensor<64x1x768xui32>
    %37 = stablehlo.add %33, %36 : tensor<64x1x768xui32>
    %c_6 = stablehlo.constant dense<1> : tensor<ui32>
    %38 = stablehlo.broadcast_in_dim %c_6, dims = [] : (tensor<ui32>) -> tensor<64x1x768xui32>
    %39 = stablehlo.add %37, %38 : tensor<64x1x768xui32>
    %40 = stablehlo.add %35, %39 : tensor<64x1x768xui32>
    %41 = stablehlo.broadcast_in_dim %c_3, dims = [] : (tensor<ui32>) -> tensor<64x1x768xui32>
    %42 = stablehlo.shift_left %39, %41 : tensor<64x1x768xui32>
    %43 = stablehlo.broadcast_in_dim %c_2, dims = [] : (tensor<ui32>) -> tensor<64x1x768xui32>
    %44 = stablehlo.shift_right_logical %39, %43 : tensor<64x1x768xui32>
    %45 = stablehlo.or %42, %44 : tensor<64x1x768xui32>
    %46 = stablehlo.xor %40, %45 : tensor<64x1x768xui32>
    %47 = stablehlo.add %40, %46 : tensor<64x1x768xui32>
    %c_7 = stablehlo.constant dense<29> : tensor<ui32>
    %48 = stablehlo.broadcast_in_dim %c_7, dims = [] : (tensor<ui32>) -> tensor<64x1x768xui32>
    %49 = stablehlo.shift_left %46, %48 : tensor<64x1x768xui32>
    %c_8 = stablehlo.constant dense<3> : tensor<ui32>
    %50 = stablehlo.broadcast_in_dim %c_8, dims = [] : (tensor<ui32>) -> tensor<64x1x768xui32>
    %51 = stablehlo.shift_right_logical %46, %50 : tensor<64x1x768xui32>
    %52 = stablehlo.or %49, %51 : tensor<64x1x768xui32>
    %53 = stablehlo.xor %47, %52 : tensor<64x1x768xui32>
    %54 = stablehlo.add %47, %53 : tensor<64x1x768xui32>
    %c_9 = stablehlo.constant dense<16> : tensor<ui32>
    %55 = stablehlo.broadcast_in_dim %c_9, dims = [] : (tensor<ui32>) -> tensor<64x1x768xui32>
    %56 = stablehlo.shift_left %53, %55 : tensor<64x1x768xui32>
    %57 = stablehlo.broadcast_in_dim %c_9, dims = [] : (tensor<ui32>) -> tensor<64x1x768xui32>
    %58 = stablehlo.shift_right_logical %53, %57 : tensor<64x1x768xui32>
    %59 = stablehlo.or %56, %58 : tensor<64x1x768xui32>
    %60 = stablehlo.xor %54, %59 : tensor<64x1x768xui32>
    %61 = stablehlo.add %54, %60 : tensor<64x1x768xui32>
    %c_10 = stablehlo.constant dense<24> : tensor<ui32>
    %62 = stablehlo.broadcast_in_dim %c_10, dims = [] : (tensor<ui32>) -> tensor<64x1x768xui32>
    %63 = stablehlo.shift_left %60, %62 : tensor<64x1x768xui32>
    %c_11 = stablehlo.constant dense<8> : tensor<ui32>
    %64 = stablehlo.broadcast_in_dim %c_11, dims = [] : (tensor<ui32>) -> tensor<64x1x768xui32>
    %65 = stablehlo.shift_right_logical %60, %64 : tensor<64x1x768xui32>
    %66 = stablehlo.or %63, %65 : tensor<64x1x768xui32>
    %67 = stablehlo.xor %61, %66 : tensor<64x1x768xui32>
    %68 = stablehlo.broadcast_in_dim %1, dims = [] : (tensor<ui32>) -> tensor<64x1x768xui32>
    %69 = stablehlo.add %61, %68 : tensor<64x1x768xui32>
    %70 = stablehlo.broadcast_in_dim %arg0, dims = [] : (tensor<ui32>) -> tensor<64x1x768xui32>
    %71 = stablehlo.add %67, %70 : tensor<64x1x768xui32>
    %c_12 = stablehlo.constant dense<2> : tensor<ui32>
    %72 = stablehlo.broadcast_in_dim %c_12, dims = [] : (tensor<ui32>) -> tensor<64x1x768xui32>
    %73 = stablehlo.add %71, %72 : tensor<64x1x768xui32>
    %74 = stablehlo.add %69, %73 : tensor<64x1x768xui32>
    %75 = stablehlo.broadcast_in_dim %c_0, dims = [] : (tensor<ui32>) -> tensor<64x1x768xui32>
    %76 = stablehlo.shift_left %73, %75 : tensor<64x1x768xui32>
    %77 = stablehlo.broadcast_in_dim %c_1, dims = [] : (tensor<ui32>) -> tensor<64x1x768xui32>
    %78 = stablehlo.shift_right_logical %73, %77 : tensor<64x1x768xui32>
    %79 = stablehlo.or %76, %78 : tensor<64x1x768xui32>
    %80 = stablehlo.xor %74, %79 : tensor<64x1x768xui32>
    %81 = stablehlo.add %74, %80 : tensor<64x1x768xui32>
    %82 = stablehlo.broadcast_in_dim %c_2, dims = [] : (tensor<ui32>) -> tensor<64x1x768xui32>
    %83 = stablehlo.shift_left %80, %82 : tensor<64x1x768xui32>
    %84 = stablehlo.broadcast_in_dim %c_3, dims = [] : (tensor<ui32>) -> tensor<64x1x768xui32>
    %85 = stablehlo.shift_right_logical %80, %84 : tensor<64x1x768xui32>
    %86 = stablehlo.or %83, %85 : tensor<64x1x768xui32>
    %87 = stablehlo.xor %81, %86 : tensor<64x1x768xui32>
    %88 = stablehlo.add %81, %87 : tensor<64x1x768xui32>
    %89 = stablehlo.broadcast_in_dim %c_4, dims = [] : (tensor<ui32>) -> tensor<64x1x768xui32>
    %90 = stablehlo.shift_left %87, %89 : tensor<64x1x768xui32>
    %91 = stablehlo.broadcast_in_dim %c_5, dims = [] : (tensor<ui32>) -> tensor<64x1x768xui32>
    %92 = stablehlo.shift_right_logical %87, %91 : tensor<64x1x768xui32>
    %93 = stablehlo.or %90, %92 : tensor<64x1x768xui32>
    %94 = stablehlo.xor %88, %93 : tensor<64x1x768xui32>
    %95 = stablehlo.add %88, %94 : tensor<64x1x768xui32>
    %96 = stablehlo.broadcast_in_dim %c_5, dims = [] : (tensor<ui32>) -> tensor<64x1x768xui32>
    %97 = stablehlo.shift_left %94, %96 : tensor<64x1x768xui32>
    %98 = stablehlo.broadcast_in_dim %c_4, dims = [] : (tensor<ui32>) -> tensor<64x1x768xui32>
    %99 = stablehlo.shift_right_logical %94, %98 : tensor<64x1x768xui32>
    %100 = stablehlo.or %97, %99 : tensor<64x1x768xui32>
    %101 = stablehlo.xor %95, %100 : tensor<64x1x768xui32>
    %102 = stablehlo.broadcast_in_dim %arg0, dims = [] : (tensor<ui32>) -> tensor<64x1x768xui32>
    %103 = stablehlo.add %95, %102 : tensor<64x1x768xui32>
    %104 = stablehlo.broadcast_in_dim %arg1, dims = [] : (tensor<ui32>) -> tensor<64x1x768xui32>
    %105 = stablehlo.add %101, %104 : tensor<64x1x768xui32>
    %106 = stablehlo.broadcast_in_dim %c_8, dims = [] : (tensor<ui32>) -> tensor<64x1x768xui32>
    %107 = stablehlo.add %105, %106 : tensor<64x1x768xui32>
    %108 = stablehlo.add %103, %107 : tensor<64x1x768xui32>
    %109 = stablehlo.broadcast_in_dim %c_3, dims = [] : (tensor<ui32>) -> tensor<64x1x768xui32>
    %110 = stablehlo.shift_left %107, %109 : tensor<64x1x768xui32>
    %111 = stablehlo.broadcast_in_dim %c_2, dims = [] : (tensor<ui32>) -> tensor<64x1x768xui32>
    %112 = stablehlo.shift_right_logical %107, %111 : tensor<64x1x768xui32>
    %113 = stablehlo.or %110, %112 : tensor<64x1x768xui32>
    %114 = stablehlo.xor %108, %113 : tensor<64x1x768xui32>
    %115 = stablehlo.add %108, %114 : tensor<64x1x768xui32>
    %116 = stablehlo.broadcast_in_dim %c_7, dims = [] : (tensor<ui32>) -> tensor<64x1x768xui32>
    %117 = stablehlo.shift_left %114, %116 : tensor<64x1x768xui32>
    %118 = stablehlo.broadcast_in_dim %c_8, dims = [] : (tensor<ui32>) -> tensor<64x1x768xui32>
    %119 = stablehlo.shift_right_logical %114, %118 : tensor<64x1x768xui32>
    %120 = stablehlo.or %117, %119 : tensor<64x1x768xui32>
    %121 = stablehlo.xor %115, %120 : tensor<64x1x768xui32>
    %122 = stablehlo.add %115, %121 : tensor<64x1x768xui32>
    %123 = stablehlo.broadcast_in_dim %c_9, dims = [] : (tensor<ui32>) -> tensor<64x1x768xui32>
    %124 = stablehlo.shift_left %121, %123 : tensor<64x1x768xui32>
    %125 = stablehlo.broadcast_in_dim %c_9, dims = [] : (tensor<ui32>) -> tensor<64x1x768xui32>
    %126 = stablehlo.shift_right_logical %121, %125 : tensor<64x1x768xui32>
    %127 = stablehlo.or %124, %126 : tensor<64x1x768xui32>
    %128 = stablehlo.xor %122, %127 : tensor<64x1x768xui32>
    %129 = stablehlo.add %122, %128 : tensor<64x1x768xui32>
    %130 = stablehlo.broadcast_in_dim %c_10, dims = [] : (tensor<ui32>) -> tensor<64x1x768xui32>
    %131 = stablehlo.shift_left %128, %130 : tensor<64x1x768xui32>
    %132 = stablehlo.broadcast_in_dim %c_11, dims = [] : (tensor<ui32>) -> tensor<64x1x768xui32>
    %133 = stablehlo.shift_right_logical %128, %132 : tensor<64x1x768xui32>
    %134 = stablehlo.or %131, %133 : tensor<64x1x768xui32>
    %135 = stablehlo.xor %129, %134 : tensor<64x1x768xui32>
    %136 = stablehlo.broadcast_in_dim %arg1, dims = [] : (tensor<ui32>) -> tensor<64x1x768xui32>
    %137 = stablehlo.add %129, %136 : tensor<64x1x768xui32>
    %138 = stablehlo.broadcast_in_dim %1, dims = [] : (tensor<ui32>) -> tensor<64x1x768xui32>
    %139 = stablehlo.add %135, %138 : tensor<64x1x768xui32>
    %c_13 = stablehlo.constant dense<4> : tensor<ui32>
    %140 = stablehlo.broadcast_in_dim %c_13, dims = [] : (tensor<ui32>) -> tensor<64x1x768xui32>
    %141 = stablehlo.add %139, %140 : tensor<64x1x768xui32>
    %142 = stablehlo.add %137, %141 : tensor<64x1x768xui32>
    %143 = stablehlo.broadcast_in_dim %c_0, dims = [] : (tensor<ui32>) -> tensor<64x1x768xui32>
    %144 = stablehlo.shift_left %141, %143 : tensor<64x1x768xui32>
    %145 = stablehlo.broadcast_in_dim %c_1, dims = [] : (tensor<ui32>) -> tensor<64x1x768xui32>
    %146 = stablehlo.shift_right_logical %141, %145 : tensor<64x1x768xui32>
    %147 = stablehlo.or %144, %146 : tensor<64x1x768xui32>
    %148 = stablehlo.xor %142, %147 : tensor<64x1x768xui32>
    %149 = stablehlo.add %142, %148 : tensor<64x1x768xui32>
    %150 = stablehlo.broadcast_in_dim %c_2, dims = [] : (tensor<ui32>) -> tensor<64x1x768xui32>
    %151 = stablehlo.shift_left %148, %150 : tensor<64x1x768xui32>
    %152 = stablehlo.broadcast_in_dim %c_3, dims = [] : (tensor<ui32>) -> tensor<64x1x768xui32>
    %153 = stablehlo.shift_right_logical %148, %152 : tensor<64x1x768xui32>
    %154 = stablehlo.or %151, %153 : tensor<64x1x768xui32>
    %155 = stablehlo.xor %149, %154 : tensor<64x1x768xui32>
    %156 = stablehlo.add %149, %155 : tensor<64x1x768xui32>
    %157 = stablehlo.broadcast_in_dim %c_4, dims = [] : (tensor<ui32>) -> tensor<64x1x768xui32>
    %158 = stablehlo.shift_left %155, %157 : tensor<64x1x768xui32>
    %159 = stablehlo.broadcast_in_dim %c_5, dims = [] : (tensor<ui32>) -> tensor<64x1x768xui32>
    %160 = stablehlo.shift_right_logical %155, %159 : tensor<64x1x768xui32>
    %161 = stablehlo.or %158, %160 : tensor<64x1x768xui32>
    %162 = stablehlo.xor %156, %161 : tensor<64x1x768xui32>
    %163 = stablehlo.add %156, %162 : tensor<64x1x768xui32>
    %164 = stablehlo.broadcast_in_dim %c_5, dims = [] : (tensor<ui32>) -> tensor<64x1x768xui32>
    %165 = stablehlo.shift_left %162, %164 : tensor<64x1x768xui32>
    %166 = stablehlo.broadcast_in_dim %c_4, dims = [] : (tensor<ui32>) -> tensor<64x1x768xui32>
    %167 = stablehlo.shift_right_logical %162, %166 : tensor<64x1x768xui32>
    %168 = stablehlo.or %165, %167 : tensor<64x1x768xui32>
    %169 = stablehlo.xor %163, %168 : tensor<64x1x768xui32>
    %170 = stablehlo.broadcast_in_dim %1, dims = [] : (tensor<ui32>) -> tensor<64x1x768xui32>
    %171 = stablehlo.add %163, %170 : tensor<64x1x768xui32>
    %172 = stablehlo.broadcast_in_dim %arg0, dims = [] : (tensor<ui32>) -> tensor<64x1x768xui32>
    %173 = stablehlo.add %169, %172 : tensor<64x1x768xui32>
    %c_14 = stablehlo.constant dense<5> : tensor<ui32>
    %174 = stablehlo.broadcast_in_dim %c_14, dims = [] : (tensor<ui32>) -> tensor<64x1x768xui32>
    %175 = stablehlo.add %173, %174 : tensor<64x1x768xui32>
    return %171, %175 : tensor<64x1x768xui32>, tensor<64x1x768xui32>
  }
  func.func private @_where(%arg0: tensor<64x512xi1>, %arg1: tensor<64x512xi32>, %arg2: tensor<i32>) -> tensor<64x512xi32> {
    %0 = stablehlo.convert %arg2 : tensor<i32>
    %1 = stablehlo.broadcast_in_dim %0, dims = [] : (tensor<i32>) -> tensor<64x512xi32>
    %2 = stablehlo.select %arg0, %arg1, %1 : tensor<64x512xi1>, tensor<64x512xi32>
    return %2 : tensor<64x512xi32>
  }
  func.func private @take_along_axis(%arg0: tensor<64x512x30522xf32>, %arg1: tensor<64x512x1xi32>) -> (tensor<64x512x1xf32>, tensor<64x512x1x1xi32>) {
    %c = stablehlo.constant dense<0> : tensor<i32>
    %0 = stablehlo.broadcast_in_dim %c, dims = [] : (tensor<i32>) -> tensor<64x512x1xi32>
    %1 = stablehlo.compare  LT, %arg1, %0,  SIGNED : (tensor<64x512x1xi32>, tensor<64x512x1xi32>) -> tensor<64x512x1xi1>
    %c_0 = stablehlo.constant dense<30522> : tensor<i32>
    %2 = stablehlo.broadcast_in_dim %c_0, dims = [] : (tensor<i32>) -> tensor<64x512x1xi32>
    %3 = stablehlo.add %arg1, %2 : tensor<64x512x1xi32>
    %4 = stablehlo.select %1, %3, %arg1 : tensor<64x512x1xi1>, tensor<64x512x1xi32>
    %5 = stablehlo.reshape %4 : (tensor<64x512x1xi32>) -> tensor<64x512x1x1xi32>
    %c_1 = stablehlo.constant dense<30521> : tensor<1xi32>
    %c_2 = stablehlo.constant dense<0> : tensor<i32>
    %6 = stablehlo.broadcast_in_dim %c_2, dims = [] : (tensor<i32>) -> tensor<64x512x1x1xi32>
    %7 = stablehlo.compare  GE, %5, %6,  SIGNED : (tensor<64x512x1x1xi32>, tensor<64x512x1x1xi32>) -> tensor<64x512x1x1xi1>
    %8 = stablehlo.broadcast_in_dim %c_1, dims = [3] : (tensor<1xi32>) -> tensor<1x1x1x1xi32>
    %9 = stablehlo.broadcast_in_dim %8, dims = [0, 1, 2, 3] : (tensor<1x1x1x1xi32>) -> tensor<64x512x1x1xi32>
    %10 = stablehlo.compare  LE, %5, %9,  SIGNED : (tensor<64x512x1x1xi32>, tensor<64x512x1x1xi32>) -> tensor<64x512x1x1xi1>
    %11 = stablehlo.and %7, %10 : tensor<64x512x1x1xi1>
    %c_3 = stablehlo.constant dense<true> : tensor<i1>
    %12 = stablehlo.reduce(%11 init: %c_3) applies stablehlo.and across dimensions = [3] : (tensor<64x512x1x1xi1>, tensor<i1>) -> tensor<64x512x1xi1>
    %13 = "stablehlo.gather"(%arg0, %5) <{dimension_numbers = #stablehlo.gather<collapsed_slice_dims = [2], operand_batching_dims = [0, 1], start_indices_batching_dims = [0, 1], start_index_map = [2], index_vector_dim = 3>, indices_are_sorted = false, slice_sizes = array<i64: 1, 1, 1>}> : (tensor<64x512x30522xf32>, tensor<64x512x1x1xi32>) -> tensor<64x512x1xf32>
    %cst = stablehlo.constant dense<0x7FC00000> : tensor<f32>
    %14 = stablehlo.broadcast_in_dim %cst, dims = [] : (tensor<f32>) -> tensor<64x512x1xf32>
    %15 = stablehlo.select %12, %13, %14 : tensor<64x512x1xi1>, tensor<64x512x1xf32>
    return %15, %5 : tensor<64x512x1xf32>, tensor<64x512x1x1xi32>
  }
  func.func private @_where_160(%arg0: tensor<64x512xi1>, %arg1: tensor<64x512xf32>, %arg2: tensor<f32>) -> tensor<64x512xf32> {
    %0 = stablehlo.convert %arg2 : tensor<f32>
    %1 = stablehlo.broadcast_in_dim %0, dims = [] : (tensor<f32>) -> tensor<64x512xf32>
    %2 = stablehlo.select %arg0, %arg1, %1 : tensor<64x512xi1>, tensor<64x512xf32>
    return %2 : tensor<64x512xf32>
  }
  func.func private @argmax(%arg0: tensor<64x512x30522xf32>) -> tensor<64x512xi32> {
    %0 = stablehlo.iota dim = 2 : tensor<64x512x30522xi32>
    %cst = stablehlo.constant dense<0xFF800000> : tensor<f32>
    %c = stablehlo.constant dense<0> : tensor<i32>
    %1:2 = stablehlo.reduce(%arg0 init: %cst), (%0 init: %c) across dimensions = [2] : (tensor<64x512x30522xf32>, tensor<64x512x30522xi32>, tensor<f32>, tensor<i32>) -> (tensor<64x512xf32>, tensor<64x512xi32>)
     reducer(%arg1: tensor<f32>, %arg3: tensor<f32>) (%arg2: tensor<i32>, %arg4: tensor<i32>)  {
      %2 = stablehlo.compare  GT, %arg1, %arg3,  FLOAT : (tensor<f32>, tensor<f32>) -> tensor<i1>
      %3 = stablehlo.compare  NE, %arg1, %arg1,  FLOAT : (tensor<f32>, tensor<f32>) -> tensor<i1>
      %4 = stablehlo.or %2, %3 : tensor<i1>
      %5 = stablehlo.compare  EQ, %arg1, %arg3,  FLOAT : (tensor<f32>, tensor<f32>) -> tensor<i1>
      %6 = stablehlo.compare  LT, %arg2, %arg4,  SIGNED : (tensor<i32>, tensor<i32>) -> tensor<i1>
      %7 = stablehlo.and %5, %6 : tensor<i1>
      %8 = stablehlo.or %4, %7 : tensor<i1>
      %9 = stablehlo.select %4, %arg1, %arg3 : tensor<i1>, tensor<f32>
      %10 = stablehlo.select %8, %arg2, %arg4 : tensor<i1>, tensor<i32>
      stablehlo.return %9, %10 : tensor<f32>, tensor<i32>
    }
    return %1#1 : tensor<64x512xi32>
  }
  func.func private @_where_176(%arg0: tensor<64x512xi1>, %arg1: tensor<64x512xf32>) -> tensor<64x512xf32> {
    %cst = stablehlo.constant dense<0.000000e+00> : tensor<f32>
    %0 = stablehlo.broadcast_in_dim %cst, dims = [] : (tensor<f32>) -> tensor<64x512xf32>
    %1 = stablehlo.select %arg0, %arg1, %0 : tensor<64x512xi1>, tensor<64x512xf32>
    return %1 : tensor<64x512xf32>
  }
  func.func private @take_along_axis_177(%arg0: tensor<64x512x1x1xi32>, %arg1: tensor<64x512x1xf32>) -> tensor<64x512x30522xf32> {
    %cst = stablehlo.constant dense<0.000000e+00> : tensor<f32>
    %0 = stablehlo.broadcast_in_dim %cst, dims = [] : (tensor<f32>) -> tensor<64x512x30522xf32>
    %1 = "stablehlo.scatter"(%0, %arg0, %arg1) <{indices_are_sorted = false, scatter_dimension_numbers = #stablehlo.scatter<inserted_window_dims = [2], input_batching_dims = [0, 1], scatter_indices_batching_dims = [0, 1], scatter_dims_to_operand_dims = [2], index_vector_dim = 3>, unique_indices = false}> ({
    ^bb0(%arg2: tensor<f32>, %arg3: tensor<f32>):
      %2 = stablehlo.add %arg2, %arg3 : tensor<f32>
      stablehlo.return %2 : tensor<f32>
    }) : (tensor<64x512x30522xf32>, tensor<64x512x1x1xi32>, tensor<64x512x1xf32>) -> tensor<64x512x30522xf32>
    return %1 : tensor<64x512x30522xf32>
  }
  func.func private @_where_348(%arg0: tensor<i1>, %arg1: tensor<i32>, %arg2: tensor<i32>) -> tensor<i32> {
    %0 = stablehlo.select %arg0, %arg1, %arg2 : tensor<i1>, tensor<i32>
    return %0 : tensor<i32>
  }
  func.func private @clip(%arg0: tensor<i32>, %arg1: tensor<i32>, %arg2: tensor<i32>) -> tensor<i32> {
    %0 = stablehlo.convert %arg1 : tensor<i32>
    %1 = stablehlo.maximum %0, %arg0 : tensor<i32>
    %2 = stablehlo.convert %arg2 : tensor<i32>
    %3 = stablehlo.minimum %2, %1 : tensor<i32>
    return %3 : tensor<i32>
  }
  func.func private @_where_398(%arg0: tensor<i1>, %arg1: tensor<f32>, %arg2: tensor<f32>) -> tensor<f32> {
    %0 = stablehlo.convert %arg2 : tensor<f32>
    %1 = stablehlo.select %arg0, %arg1, %0 : tensor<i1>, tensor<f32>
    return %1 : tensor<f32>
  }
}
