module @jit__step attributes {mhlo.num_partitions = 4 : i32, mhlo.num_replicas = 1 : i32} {
  sdy.mesh @mesh = <["dp"=4]>
  func.func public @main(%arg0: tensor<30522x768xbf16> {sdy.sharding = #sdy.sharding<@mesh, [{}, {}]>}, %arg1: tensor<512x768xbf16> {sdy.sharding = #sdy.sharding<@mesh, [{}, {}]>}, %arg2: tensor<2x768xbf16> {sdy.sharding = #sdy.sharding<@mesh, [{}, {}]>}, %arg3: tensor<768xbf16> {sdy.sharding = #sdy.sharding<@mesh, [{}]>}, %arg4: tensor<768xbf16> {sdy.sharding = #sdy.sharding<@mesh, [{}]>}, %arg5: tensor<768x768xbf16> {sdy.sharding = #sdy.sharding<@mesh, [{}, {}]>}, %arg6: tensor<768xbf16> {sdy.sharding = #sdy.sharding<@mesh, [{}]>}, %arg7: tensor<768x768xbf16> {sdy.sharding = #sdy.sharding<@mesh, [{}, {}]>}, %arg8: tensor<768xbf16> {sdy.sharding = #sdy.sharding<@mesh, [{}]>}, %arg9: tensor<768x768xbf16> {sdy.sharding = #sdy.sharding<@mesh, [{}, {}]>}, %arg10: tensor<768xbf16> {sdy.sharding = #sdy.sharding<@mesh, [{}]>}, %arg11: tensor<768x768xbf16> {sdy.sharding = #sdy.sharding<@mesh, [{}, {}]>}, %arg12: tensor<768xbf16> {sdy.sharding = #sdy.sharding<@mesh, [{}]>}, %arg13: tensor<768xbf16> {sdy.sharding = #sdy.sharding<@mesh, [{}]>}, %arg14: tensor<768xbf16> {sdy.sharding = #sdy.sharding<@mesh, [{}]>}, %arg15: tensor<3072x768xbf16> {sdy.sharding = #sdy.sharding<@mesh, [{}, {}]>}, %arg16: tensor<3072xbf16> {sdy.sharding = #sdy.sharding<@mesh, [{}]>}, %arg17: tensor<768x3072xbf16> {sdy.sharding = #sdy.sharding<@mesh, [{}, {}]>}, %arg18: tensor<768xbf16> {sdy.sharding = #sdy.sharding<@mesh, [{}]>}, %arg19: tensor<768xbf16> {sdy.sharding = #sdy.sharding<@mesh, [{}]>}, %arg20: tensor<768xbf16> {sdy.sharding = #sdy.sharding<@mesh, [{}]>}, %arg21: tensor<768x768xbf16> {sdy.sharding = #sdy.sharding<@mesh, [{}, {}]>}, %arg22: tensor<768xbf16> {sdy.sharding = #sdy.sharding<@mesh, [{}]>}, %arg23: tensor<768x768xbf16> {sdy.sharding = #sdy.sharding<@mesh, [{}, {}]>}, %arg24: tensor<768xbf16> {sdy.sharding = #sdy.sharding<@mesh, [{}]>}, %arg25: tensor<768x768xbf16> {sdy.sharding = #sdy.sharding<@mesh, [{}, {}]>}, %arg26: tensor<768xbf16> {sdy.sharding = #sdy.sharding<@mesh, [{}]>}, %arg27: tensor<768x768xbf16> {sdy.sharding = #sdy.sharding<@mesh, [{}, {}]>}, %arg28: tensor<768xbf16> {sdy.sharding = #sdy.sharding<@mesh, [{}]>}, %arg29: tensor<768xbf16> {sdy.sharding = #sdy.sharding<@mesh, [{}]>}, %arg30: tensor<768xbf16> {sdy.sharding = #sdy.sharding<@mesh, [{}]>}, %arg31: tensor<3072x768xbf16> {sdy.sharding = #sdy.sharding<@mesh, [{}, {}]>}, %arg32: tensor<3072xbf16> {sdy.sharding = #sdy.sharding<@mesh, [{}]>}, %arg33: tensor<768x3072xbf16> {sdy.sharding = #sdy.sharding<@mesh, [{}, {}]>}, %arg34: tensor<768xbf16> {sdy.sharding = #sdy.sharding<@mesh, [{}]>}, %arg35: tensor<768xbf16> {sdy.sharding = #sdy.sharding<@mesh, [{}]>}, %arg36: tensor<768xbf16> {sdy.sharding = #sdy.sharding<@mesh, [{}]>}, %arg37: tensor<768x768xbf16> {sdy.sharding = #sdy.sharding<@mesh, [{}, {}]>}, %arg38: tensor<768xbf16> {sdy.sharding = #sdy.sharding<@mesh, [{}]>}, %arg39: tensor<768x768xbf16> {sdy.sharding = #sdy.sharding<@mesh, [{}, {}]>}, %arg40: tensor<768xbf16> {sdy.sharding = #sdy.sharding<@mesh, [{}]>}, %arg41: tensor<768x768xbf16> {sdy.sharding = #sdy.sharding<@mesh, [{}, {}]>}, %arg42: tensor<768xbf16> {sdy.sharding = #sdy.sharding<@mesh, [{}]>}, %arg43: tensor<768x768xbf16> {sdy.sharding = #sdy.sharding<@mesh, [{}, {}]>}, %arg44: tensor<768xbf16> {sdy.sharding = #sdy.sharding<@mesh, [{}]>}, %arg45: tensor<768xbf16> {sdy.sharding = #sdy.sharding<@mesh, [{}]>}, %arg46: tensor<768xbf16> {sdy.sharding = #sdy.sharding<@mesh, [{}]>}, %arg47: tensor<3072x768xbf16> {sdy.sharding = #sdy.sharding<@mesh, [{}, {}]>}, %arg48: tensor<3072xbf16> {sdy.sharding = #sdy.sharding<@mesh, [{}]>}, %arg49: tensor<768x3072xbf16> {sdy.sharding = #sdy.sharding<@mesh, [{}, {}]>}, %arg50: tensor<768xbf16> {sdy.sharding = #sdy.sharding<@mesh, [{}]>}, %arg51: tensor<768xbf16> {sdy.sharding = #sdy.sharding<@mesh, [{}]>}, %arg52: tensor<768xbf16> {sdy.sharding = #sdy.sharding<@mesh, [{}]>}, %arg53: tensor<768x768xbf16> {sdy.sharding = #sdy.sharding<@mesh, [{}, {}]>}, %arg54: tensor<768xbf16> {sdy.sharding = #sdy.sharding<@mesh, [{}]>}, %arg55: tensor<768x768xbf16> {sdy.sharding = #sdy.sharding<@mesh, [{}, {}]>}, %arg56: tensor<768xbf16> {sdy.sharding = #sdy.sharding<@mesh, [{}]>}, %arg57: tensor<768x768xbf16> {sdy.sharding = #sdy.sharding<@mesh, [{}, {}]>}, %arg58: tensor<768xbf16> {sdy.sharding = #sdy.sharding<@mesh, [{}]>}, %arg59: tensor<768x768xbf16> {sdy.sharding = #sdy.sharding<@mesh, [{}, {}]>}, %arg60: tensor<768xbf16> {sdy.sharding = #sdy.sharding<@mesh, [{}]>}, %arg61: tensor<768xbf16> {sdy.sharding = #sdy.sharding<@mesh, [{}]>}, %arg62: tensor<768xbf16> {sdy.sharding = #sdy.sharding<@mesh, [{}]>}, %arg63: tensor<3072x768xbf16> {sdy.sharding = #sdy.sharding<@mesh, [{}, {}]>}, %arg64: tensor<3072xbf16> {sdy.sharding = #sdy.sharding<@mesh, [{}]>}, %arg65: tensor<768x3072xbf16> {sdy.sharding = #sdy.sharding<@mesh, [{}, {}]>}, %arg66: tensor<768xbf16> {sdy.sharding = #sdy.sharding<@mesh, [{}]>}, %arg67: tensor<768xbf16> {sdy.sharding = #sdy.sharding<@mesh, [{}]>}, %arg68: tensor<768xbf16> {sdy.sharding = #sdy.sharding<@mesh, [{}]>}, %arg69: tensor<768x768xbf16> {sdy.sharding = #sdy.sharding<@mesh, [{}, {}]>}, %arg70: tensor<768xbf16> {sdy.sharding = #sdy.sharding<@mesh, [{}]>}, %arg71: tensor<768x768xbf16> {sdy.sharding = #sdy.sharding<@mesh, [{}, {}]>}, %arg72: tensor<768xbf16> {sdy.sharding = #sdy.sharding<@mesh, [{}]>}, %arg73: tensor<768x768xbf16> {sdy.sharding = #sdy.sharding<@mesh, [{}, {}]>}, %arg74: tensor<768xbf16> {sdy.sharding = #sdy.sharding<@mesh, [{}]>}, %arg75: tensor<768x768xbf16> {sdy.sharding = #sdy.sharding<@mesh, [{}, {}]>}, %arg76: tensor<768xbf16> {sdy.sharding = #sdy.sharding<@mesh, [{}]>}, %arg77: tensor<768xbf16> {sdy.sharding = #sdy.sharding<@mesh, [{}]>}, %arg78: tensor<768xbf16> {sdy.sharding = #sdy.sharding<@mesh, [{}]>}, %arg79: tensor<3072x768xbf16> {sdy.sharding = #sdy.sharding<@mesh, [{}, {}]>}, %arg80: tensor<3072xbf16> {sdy.sharding = #sdy.sharding<@mesh, [{}]>}, %arg81: tensor<768x3072xbf16> {sdy.sharding = #sdy.sharding<@mesh, [{}, {}]>}, %arg82: tensor<768xbf16> {sdy.sharding = #sdy.sharding<@mesh, [{}]>}, %arg83: tensor<768xbf16> {sdy.sharding = #sdy.sharding<@mesh, [{}]>}, %arg84: tensor<768xbf16> {sdy.sharding = #sdy.sharding<@mesh, [{}]>}, %arg85: tensor<768x768xbf16> {sdy.sharding = #sdy.sharding<@mesh, [{}, {}]>}, %arg86: tensor<768xbf16> {sdy.sharding = #sdy.sharding<@mesh, [{}]>}, %arg87: tensor<768x768xbf16> {sdy.sharding = #sdy.sharding<@mesh, [{}, {}]>}, %arg88: tensor<768xbf16> {sdy.sharding = #sdy.sharding<@mesh, [{}]>}, %arg89: tensor<768x768xbf16> {sdy.sharding = #sdy.sharding<@mesh, [{}, {}]>}, %arg90: tensor<768xbf16> {sdy.sharding = #sdy.sharding<@mesh, [{}]>}, %arg91: tensor<768x768xbf16> {sdy.sharding = #sdy.sharding<@mesh, [{}, {}]>}, %arg92: tensor<768xbf16> {sdy.sharding = #sdy.sharding<@mesh, [{}]>}, %arg93: tensor<768xbf16> {sdy.sharding = #sdy.sharding<@mesh, [{}]>}, %arg94: tensor<768xbf16> {sdy.sharding = #sdy.sharding<@mesh, [{}]>}, %arg95: tensor<3072x768xbf16> {sdy.sharding = #sdy.sharding<@mesh, [{}, {}]>}, %arg96: tensor<3072xbf16> {sdy.sharding = #sdy.sharding<@mesh, [{}]>}, %arg97: tensor<768x3072xbf16> {sdy.sharding = #sdy.sharding<@mesh, [{}, {}]>}, %arg98: tensor<768xbf16> {sdy.sharding = #sdy.sharding<@mesh, [{}]>}, %arg99: tensor<768xbf16> {sdy.sharding = #sdy.sharding<@mesh, [{}]>}, %arg100: tensor<768xbf16> {sdy.sharding = #sdy.sharding<@mesh, [{}]>}, %arg101: tensor<768x768xbf16> {sdy.sharding = #sdy.sharding<@mesh, [{}, {}]>}, %arg102: tensor<768xbf16> {sdy.sharding = #sdy.sharding<@mesh, [{}]>}, %arg103: tensor<768x768xbf16> {sdy.sharding = #sdy.sharding<@mesh, [{}, {}]>}, %arg104: tensor<768xbf16> {sdy.sharding = #sdy.sharding<@mesh, [{}]>}, %arg105: tensor<768x768xbf16> {sdy.sharding = #sdy.sharding<@mesh, [{}, {}]>}, %arg106: tensor<768xbf16> {sdy.sharding = #sdy.sharding<@mesh, [{}]>}, %arg107: tensor<768x768xbf16> {sdy.sharding = #sdy.sharding<@mesh, [{}, {}]>}, %arg108: tensor<768xbf16> {sdy.sharding = #sdy.sharding<@mesh, [{}]>}, %arg109: tensor<768xbf16> {sdy.sharding = #sdy.sharding<@mesh, [{}]>}, %arg110: tensor<768xbf16> {sdy.sharding = #sdy.sharding<@mesh, [{}]>}, %arg111: tensor<3072x768xbf16> {sdy.sharding = #sdy.sharding<@mesh, [{}, {}]>}, %arg112: tensor<3072xbf16> {sdy.sharding = #sdy.sharding<@mesh, [{}]>}, %arg113: tensor<768x3072xbf16> {sdy.sharding = #sdy.sharding<@mesh, [{}, {}]>}, %arg114: tensor<768xbf16> {sdy.sharding = #sdy.sharding<@mesh, [{}]>}, %arg115: tensor<768xbf16> {sdy.sharding = #sdy.sharding<@mesh, [{}]>}, %arg116: tensor<768xbf16> {sdy.sharding = #sdy.sharding<@mesh, [{}]>}, %arg117: tensor<768x768xbf16> {sdy.sharding = #sdy.sharding<@mesh, [{}, {}]>}, %arg118: tensor<768xbf16> {sdy.sharding = #sdy.sharding<@mesh, [{}]>}, %arg119: tensor<768x768xbf16> {sdy.sharding = #sdy.sharding<@mesh, [{}, {}]>}, %arg120: tensor<768xbf16> {sdy.sharding = #sdy.sharding<@mesh, [{}]>}, %arg121: tensor<768x768xbf16> {sdy.sharding = #sdy.sharding<@mesh, [{}, {}]>}, %arg122: tensor<768xbf16> {sdy.sharding = #sdy.sharding<@mesh, [{}]>}, %arg123: tensor<768x768xbf16> {sdy.sharding = #sdy.sharding<@mesh, [{}, {}]>}, %arg124: tensor<768xbf16> {sdy.sharding = #sdy.sharding<@mesh, [{}]>}, %arg125: tensor<768xbf16> {sdy.sharding = #sdy.sharding<@mesh, [{}]>}, %arg126: tensor<768xbf16> {sdy.sharding = #sdy.sharding<@mesh, [{}]>}, %arg127: tensor<3072x768xbf16> {sdy.sharding = #sdy.sharding<@mesh, [{}, {}]>}, %arg128: tensor<3072xbf16> {sdy.sharding = #sdy.sharding<@mesh, [{}]>}, %arg129: tensor<768x3072xbf16> {sdy.sharding = #sdy.sharding<@mesh, [{}, {}]>}, %arg130: tensor<768xbf16> {sdy.sharding = #sdy.sharding<@mesh, [{}]>}, %arg131: tensor<768xbf16> {sdy.sharding = #sdy.sharding<@mesh, [{}]>}, %arg132: tensor<768xbf16> {sdy.sharding = #sdy.sharding<@mesh, [{}]>}, %arg133: tensor<768x768xbf16> {sdy.sharding = #sdy.sharding<@mesh, [{}, {}]>}, %arg134: tensor<768xbf16> {sdy.sharding = #sdy.sharding<@mesh, [{}]>}, %arg135: tensor<768x768xbf16> {sdy.sharding = #sdy.sharding<@mesh, [{}, {}]>}, %arg136: tensor<768xbf16> {sdy.sharding = #sdy.sharding<@mesh, [{}]>}, %arg137: tensor<768x768xbf16> {sdy.sharding = #sdy.sharding<@mesh, [{}, {}]>}, %arg138: tensor<768xbf16> {sdy.sharding = #sdy.sharding<@mesh, [{}]>}, %arg139: tensor<768x768xbf16> {sdy.sharding = #sdy.sharding<@mesh, [{}, {}]>}, %arg140: tensor<768xbf16> {sdy.sharding = #sdy.sharding<@mesh, [{}]>}, %arg141: tensor<768xbf16> {sdy.sharding = #sdy.sharding<@mesh, [{}]>}, %arg142: tensor<768xbf16> {sdy.sharding = #sdy.sharding<@mesh, [{}]>}, %arg143: tensor<3072x768xbf16> {sdy.sharding = #sdy.sharding<@mesh, [{}, {}]>}, %arg144: tensor<3072xbf16> {sdy.sharding = #sdy.sharding<@mesh, [{}]>}, %arg145: tensor<768x3072xbf16> {sdy.sharding = #sdy.sharding<@mesh, [{}, {}]>}, %arg146: tensor<768xbf16> {sdy.sharding = #sdy.sharding<@mesh, [{}]>}, %arg147: tensor<768xbf16> {sdy.sharding = #sdy.sharding<@mesh, [{}]>}, %arg148: tensor<768xbf16> {sdy.sharding = #sdy.sharding<@mesh, [{}]>}, %arg149: tensor<768x768xbf16> {sdy.sharding = #sdy.sharding<@mesh, [{}, {}]>}, %arg150: tensor<768xbf16> {sdy.sharding = #sdy.sharding<@mesh, [{}]>}, %arg151: tensor<768x768xbf16> {sdy.sharding = #sdy.sharding<@mesh, [{}, {}]>}, %arg152: tensor<768xbf16> {sdy.sharding = #sdy.sharding<@mesh, [{}]>}, %arg153: tensor<768x768xbf16> {sdy.sharding = #sdy.sharding<@mesh, [{}, {}]>}, %arg154: tensor<768xbf16> {sdy.sharding = #sdy.sharding<@mesh, [{}]>}, %arg155: tensor<768x768xbf16> {sdy.sharding = #sdy.sharding<@mesh, [{}, {}]>}, %arg156: tensor<768xbf16> {sdy.sharding = #sdy.sharding<@mesh, [{}]>}, %arg157: tensor<768xbf16> {sdy.sharding = #sdy.sharding<@mesh, [{}]>}, %arg158: tensor<768xbf16> {sdy.sharding = #sdy.sharding<@mesh, [{}]>}, %arg159: tensor<3072x768xbf16> {sdy.sharding = #sdy.sharding<@mesh, [{}, {}]>}, %arg160: tensor<3072xbf16> {sdy.sharding = #sdy.sharding<@mesh, [{}]>}, %arg161: tensor<768x3072xbf16> {sdy.sharding = #sdy.sharding<@mesh, [{}, {}]>}, %arg162: tensor<768xbf16> {sdy.sharding = #sdy.sharding<@mesh, [{}]>}, %arg163: tensor<768xbf16> {sdy.sharding = #sdy.sharding<@mesh, [{}]>}, %arg164: tensor<768xbf16> {sdy.sharding = #sdy.sharding<@mesh, [{}]>}, %arg165: tensor<768x768xbf16> {sdy.sharding = #sdy.sharding<@mesh, [{}, {}]>}, %arg166: tensor<768xbf16> {sdy.sharding = #sdy.sharding<@mesh, [{}]>}, %arg167: tensor<768x768xbf16> {sdy.sharding = #sdy.sharding<@mesh, [{}, {}]>}, %arg168: tensor<768xbf16> {sdy.sharding = #sdy.sharding<@mesh, [{}]>}, %arg169: tensor<768x768xbf16> {sdy.sharding = #sdy.sharding<@mesh, [{}, {}]>}, %arg170: tensor<768xbf16> {sdy.sharding = #sdy.sharding<@mesh, [{}]>}, %arg171: tensor<768x768xbf16> {sdy.sharding = #sdy.sharding<@mesh, [{}, {}]>}, %arg172: tensor<768xbf16> {sdy.sharding = #sdy.sharding<@mesh, [{}]>}, %arg173: tensor<768xbf16> {sdy.sharding = #sdy.sharding<@mesh, [{}]>}, %arg174: tensor<768xbf16> {sdy.sharding = #sdy.sharding<@mesh, [{}]>}, %arg175: tensor<3072x768xbf16> {sdy.sharding = #sdy.sharding<@mesh, [{}, {}]>}, %arg176: tensor<3072xbf16> {sdy.sharding = #sdy.sharding<@mesh, [{}]>}, %arg177: tensor<768x3072xbf16> {sdy.sharding = #sdy.sharding<@mesh, [{}, {}]>}, %arg178: tensor<768xbf16> {sdy.sharding = #sdy.sharding<@mesh, [{}]>}, %arg179: tensor<768xbf16> {sdy.sharding = #sdy.sharding<@mesh, [{}]>}, %arg180: tensor<768xbf16> {sdy.sharding = #sdy.sharding<@mesh, [{}]>}, %arg181: tensor<768x768xbf16> {sdy.sharding = #sdy.sharding<@mesh, [{}, {}]>}, %arg182: tensor<768xbf16> {sdy.sharding = #sdy.sharding<@mesh, [{}]>}, %arg183: tensor<768x768xbf16> {sdy.sharding = #sdy.sharding<@mesh, [{}, {}]>}, %arg184: tensor<768xbf16> {sdy.sharding = #sdy.sharding<@mesh, [{}]>}, %arg185: tensor<768x768xbf16> {sdy.sharding = #sdy.sharding<@mesh, [{}, {}]>}, %arg186: tensor<768xbf16> {sdy.sharding = #sdy.sharding<@mesh, [{}]>}, %arg187: tensor<768x768xbf16> {sdy.sharding = #sdy.sharding<@mesh, [{}, {}]>}, %arg188: tensor<768xbf16> {sdy.sharding = #sdy.sharding<@mesh, [{}]>}, %arg189: tensor<768xbf16> {sdy.sharding = #sdy.sharding<@mesh, [{}]>}, %arg190: tensor<768xbf16> {sdy.sharding = #sdy.sharding<@mesh, [{}]>}, %arg191: tensor<3072x768xbf16> {sdy.sharding = #sdy.sharding<@mesh, [{}, {}]>}, %arg192: tensor<3072xbf16> {sdy.sharding = #sdy.sharding<@mesh, [{}]>}, %arg193: tensor<768x3072xbf16> {sdy.sharding = #sdy.sharding<@mesh, [{}, {}]>}, %arg194: tensor<768xbf16> {sdy.sharding = #sdy.sharding<@mesh, [{}]>}, %arg195: tensor<768xbf16> {sdy.sharding = #sdy.sharding<@mesh, [{}]>}, %arg196: tensor<768xbf16> {sdy.sharding = #sdy.sharding<@mesh, [{}]>}, %arg197: tensor<768x768xbf16> {sdy.sharding = #sdy.sharding<@mesh, [{}, {}]>}, %arg198: tensor<768xbf16> {sdy.sharding = #sdy.sharding<@mesh, [{}]>}, %arg199: tensor<768xbf16> {sdy.sharding = #sdy.sharding<@mesh, [{}]>}, %arg200: tensor<768xbf16> {sdy.sharding = #sdy.sharding<@mesh, [{}]>}, %arg201: tensor<30522xbf16> {sdy.sharding = #sdy.sharding<@mesh, [{}]>}, %arg202: tensor<i32>, %arg203: tensor<30522x768xbf16> {sdy.sharding = #sdy.sharding<@mesh, [{}, {}]>}, %arg204: tensor<512x768xbf16> {sdy.sharding = #sdy.sharding<@mesh, [{}, {}]>}, %arg205: tensor<2x768xbf16> {sdy.sharding = #sdy.sharding<@mesh, [{}, {}]>}, %arg206: tensor<768xbf16> {sdy.sharding = #sdy.sharding<@mesh, [{}]>}, %arg207: tensor<768xbf16> {sdy.sharding = #sdy.sharding<@mesh, [{}]>}, %arg208: tensor<768x768xbf16> {sdy.sharding = #sdy.sharding<@mesh, [{}, {}]>}, %arg209: tensor<768xbf16> {sdy.sharding = #sdy.sharding<@mesh, [{}]>}, %arg210: tensor<768x768xbf16> {sdy.sharding = #sdy.sharding<@mesh, [{}, {}]>}, %arg211: tensor<768xbf16> {sdy.sharding = #sdy.sharding<@mesh, [{}]>}, %arg212: tensor<768x768xbf16> {sdy.sharding = #sdy.sharding<@mesh, [{}, {}]>}, %arg213: tensor<768xbf16> {sdy.sharding = #sdy.sharding<@mesh, [{}]>}, %arg214: tensor<768x768xbf16> {sdy.sharding = #sdy.sharding<@mesh, [{}, {}]>}, %arg215: tensor<768xbf16> {sdy.sharding = #sdy.sharding<@mesh, [{}]>}, %arg216: tensor<768xbf16> {sdy.sharding = #sdy.sharding<@mesh, [{}]>}, %arg217: tensor<768xbf16> {sdy.sharding = #sdy.sharding<@mesh, [{}]>}, %arg218: tensor<3072x768xbf16> {sdy.sharding = #sdy.sharding<@mesh, [{}, {}]>}, %arg219: tensor<3072xbf16> {sdy.sharding = #sdy.sharding<@mesh, [{}]>}, %arg220: tensor<768x3072xbf16> {sdy.sharding = #sdy.sharding<@mesh, [{}, {}]>}, %arg221: tensor<768xbf16> {sdy.sharding = #sdy.sharding<@mesh, [{}]>}, %arg222: tensor<768xbf16> {sdy.sharding = #sdy.sharding<@mesh, [{}]>}, %arg223: tensor<768xbf16> {sdy.sharding = #sdy.sharding<@mesh, [{}]>}, %arg224: tensor<768x768xbf16> {sdy.sharding = #sdy.sharding<@mesh, [{}, {}]>}, %arg225: tensor<768xbf16> {sdy.sharding = #sdy.sharding<@mesh, [{}]>}, %arg226: tensor<768x768xbf16> {sdy.sharding = #sdy.sharding<@mesh, [{}, {}]>}, %arg227: tensor<768xbf16> {sdy.sharding = #sdy.sharding<@mesh, [{}]>}, %arg228: tensor<768x768xbf16> {sdy.sharding = #sdy.sharding<@mesh, [{}, {}]>}, %arg229: tensor<768xbf16> {sdy.sharding = #sdy.sharding<@mesh, [{}]>}, %arg230: tensor<768x768xbf16> {sdy.sharding = #sdy.sharding<@mesh, [{}, {}]>}, %arg231: tensor<768xbf16> {sdy.sharding = #sdy.sharding<@mesh, [{}]>}, %arg232: tensor<768xbf16> {sdy.sharding = #sdy.sharding<@mesh, [{}]>}, %arg233: tensor<768xbf16> {sdy.sharding = #sdy.sharding<@mesh, [{}]>}, %arg234: tensor<3072x768xbf16> {sdy.sharding = #sdy.sharding<@mesh, [{}, {}]>}, %arg235: tensor<3072xbf16> {sdy.sharding = #sdy.sharding<@mesh, [{}]>}, %arg236: tensor<768x3072xbf16> {sdy.sharding = #sdy.sharding<@mesh, [{}, {}]>}, %arg237: tensor<768xbf16> {sdy.sharding = #sdy.sharding<@mesh, [{}]>}, %arg238: tensor<768xbf16> {sdy.sharding = #sdy.sharding<@mesh, [{}]>}, %arg239: tensor<768xbf16> {sdy.sharding = #sdy.sharding<@mesh, [{}]>}, %arg240: tensor<768x768xbf16> {sdy.sharding = #sdy.sharding<@mesh, [{}, {}]>}, %arg241: tensor<768xbf16> {sdy.sharding = #sdy.sharding<@mesh, [{}]>}, %arg242: tensor<768x768xbf16> {sdy.sharding = #sdy.sharding<@mesh, [{}, {}]>}, %arg243: tensor<768xbf16> {sdy.sharding = #sdy.sharding<@mesh, [{}]>}, %arg244: tensor<768x768xbf16> {sdy.sharding = #sdy.sharding<@mesh, [{}, {}]>}, %arg245: tensor<768xbf16> {sdy.sharding = #sdy.sharding<@mesh, [{}]>}, %arg246: tensor<768x768xbf16> {sdy.sharding = #sdy.sharding<@mesh, [{}, {}]>}, %arg247: tensor<768xbf16> {sdy.sharding = #sdy.sharding<@mesh, [{}]>}, %arg248: tensor<768xbf16> {sdy.sharding = #sdy.sharding<@mesh, [{}]>}, %arg249: tensor<768xbf16> {sdy.sharding = #sdy.sharding<@mesh, [{}]>}, %arg250: tensor<3072x768xbf16> {sdy.sharding = #sdy.sharding<@mesh, [{}, {}]>}, %arg251: tensor<3072xbf16> {sdy.sharding = #sdy.sharding<@mesh, [{}]>}, %arg252: tensor<768x3072xbf16> {sdy.sharding = #sdy.sharding<@mesh, [{}, {}]>}, %arg253: tensor<768xbf16> {sdy.sharding = #sdy.sharding<@mesh, [{}]>}, %arg254: tensor<768xbf16> {sdy.sharding = #sdy.sharding<@mesh, [{}]>}, %arg255: tensor<768xbf16> {sdy.sharding = #sdy.sharding<@mesh, [{}]>}, %arg256: tensor<768x768xbf16> {sdy.sharding = #sdy.sharding<@mesh, [{}, {}]>}, %arg257: tensor<768xbf16> {sdy.sharding = #sdy.sharding<@mesh, [{}]>}, %arg258: tensor<768x768xbf16> {sdy.sharding = #sdy.sharding<@mesh, [{}, {}]>}, %arg259: tensor<768xbf16> {sdy.sharding = #sdy.sharding<@mesh, [{}]>}, %arg260: tensor<768x768xbf16> {sdy.sharding = #sdy.sharding<@mesh, [{}, {}]>}, %arg261: tensor<768xbf16> {sdy.sharding = #sdy.sharding<@mesh, [{}]>}, %arg262: tensor<768x768xbf16> {sdy.sharding = #sdy.sharding<@mesh, [{}, {}]>}, %arg263: tensor<768xbf16> {sdy.sharding = #sdy.sharding<@mesh, [{}]>}, %arg264: tensor<768xbf16> {sdy.sharding = #sdy.sharding<@mesh, [{}]>}, %arg265: tensor<768xbf16> {sdy.sharding = #sdy.sharding<@mesh, [{}]>}, %arg266: tensor<3072x768xbf16> {sdy.sharding = #sdy.sharding<@mesh, [{}, {}]>}, %arg267: tensor<3072xbf16> {sdy.sharding = #sdy.sharding<@mesh, [{}]>}, %arg268: tensor<768x3072xbf16> {sdy.sharding = #sdy.sharding<@mesh, [{}, {}]>}, %arg269: tensor<768xbf16> {sdy.sharding = #sdy.sharding<@mesh, [{}]>}, %arg270: tensor<768xbf16> {sdy.sharding = #sdy.sharding<@mesh, [{}]>}, %arg271: tensor<768xbf16> {sdy.sharding = #sdy.sharding<@mesh, [{}]>}, %arg272: tensor<768x768xbf16> {sdy.sharding = #sdy.sharding<@mesh, [{}, {}]>}, %arg273: tensor<768xbf16> {sdy.sharding = #sdy.sharding<@mesh, [{}]>}, %arg274: tensor<768x768xbf16> {sdy.sharding = #sdy.sharding<@mesh, [{}, {}]>}, %arg275: tensor<768xbf16> {sdy.sharding = #sdy.sharding<@mesh, [{}]>}, %arg276: tensor<768x768xbf16> {sdy.sharding = #sdy.sharding<@mesh, [{}, {}]>}, %arg277: tensor<768xbf16> {sdy.sharding = #sdy.sharding<@mesh, [{}]>}, %arg278: tensor<768x768xbf16> {sdy.sharding = #sdy.sharding<@mesh, [{}, {}]>}, %arg279: tensor<768xbf16> {sdy.sharding = #sdy.sharding<@mesh, [{}]>}, %arg280: tensor<768xbf16> {sdy.sharding = #sdy.sharding<@mesh, [{}]>}, %arg281: tensor<768xbf16> {sdy.sharding = #sdy.sharding<@mesh, [{}]>}, %arg282: tensor<3072x768xbf16> {sdy.sharding = #sdy.sharding<@mesh, [{}, {}]>}, %arg283: tensor<3072xbf16> {sdy.sharding = #sdy.sharding<@mesh, [{}]>}, %arg284: tensor<768x3072xbf16> {sdy.sharding = #sdy.sharding<@mesh, [{}, {}]>}, %arg285: tensor<768xbf16> {sdy.sharding = #sdy.sharding<@mesh, [{}]>}, %arg286: tensor<768xbf16> {sdy.sharding = #sdy.sharding<@mesh, [{}]>}, %arg287: tensor<768xbf16> {sdy.sharding = #sdy.sharding<@mesh, [{}]>}, %arg288: tensor<768x768xbf16> {sdy.sharding = #sdy.sharding<@mesh, [{}, {}]>}, %arg289: tensor<768xbf16> {sdy.sharding = #sdy.sharding<@mesh, [{}]>}, %arg290: tensor<768x768xbf16> {sdy.sharding = #sdy.sharding<@mesh, [{}, {}]>}, %arg291: tensor<768xbf16> {sdy.sharding = #sdy.sharding<@mesh, [{}]>}, %arg292: tensor<768x768xbf16> {sdy.sharding = #sdy.sharding<@mesh, [{}, {}]>}, %arg293: tensor<768xbf16> {sdy.sharding = #sdy.sharding<@mesh, [{}]>}, %arg294: tensor<768x768xbf16> {sdy.sharding = #sdy.sharding<@mesh, [{}, {}]>}, %arg295: tensor<768xbf16> {sdy.sharding = #sdy.sharding<@mesh, [{}]>}, %arg296: tensor<768xbf16> {sdy.sharding = #sdy.sharding<@mesh, [{}]>}, %arg297: tensor<768xbf16> {sdy.sharding = #sdy.sharding<@mesh, [{}]>}, %arg298: tensor<3072x768xbf16> {sdy.sharding = #sdy.sharding<@mesh, [{}, {}]>}, %arg299: tensor<3072xbf16> {sdy.sharding = #sdy.sharding<@mesh, [{}]>}, %arg300: tensor<768x3072xbf16> {sdy.sharding = #sdy.sharding<@mesh, [{}, {}]>}, %arg301: tensor<768xbf16> {sdy.sharding = #sdy.sharding<@mesh, [{}]>}, %arg302: tensor<768xbf16> {sdy.sharding = #sdy.sharding<@mesh, [{}]>}, %arg303: tensor<768xbf16> {sdy.sharding = #sdy.sharding<@mesh, [{}]>}, %arg304: tensor<768x768xbf16> {sdy.sharding = #sdy.sharding<@mesh, [{}, {}]>}, %arg305: tensor<768xbf16> {sdy.sharding = #sdy.sharding<@mesh, [{}]>}, %arg306: tensor<768x768xbf16> {sdy.sharding = #sdy.sharding<@mesh, [{}, {}]>}, %arg307: tensor<768xbf16> {sdy.sharding = #sdy.sharding<@mesh, [{}]>}, %arg308: tensor<768x768xbf16> {sdy.sharding = #sdy.sharding<@mesh, [{}, {}]>}, %arg309: tensor<768xbf16> {sdy.sharding = #sdy.sharding<@mesh, [{}]>}, %arg310: tensor<768x768xbf16> {sdy.sharding = #sdy.sharding<@mesh, [{}, {}]>}, %arg311: tensor<768xbf16> {sdy.sharding = #sdy.sharding<@mesh, [{}]>}, %arg312: tensor<768xbf16> {sdy.sharding = #sdy.sharding<@mesh, [{}]>}, %arg313: tensor<768xbf16> {sdy.sharding = #sdy.sharding<@mesh, [{}]>}, %arg314: tensor<3072x768xbf16> {sdy.sharding = #sdy.sharding<@mesh, [{}, {}]>}, %arg315: tensor<3072xbf16> {sdy.sharding = #sdy.sharding<@mesh, [{}]>}, %arg316: tensor<768x3072xbf16> {sdy.sharding = #sdy.sharding<@mesh, [{}, {}]>}, %arg317: tensor<768xbf16> {sdy.sharding = #sdy.sharding<@mesh, [{}]>}, %arg318: tensor<768xbf16> {sdy.sharding = #sdy.sharding<@mesh, [{}]>}, %arg319: tensor<768xbf16> {sdy.sharding = #sdy.sharding<@mesh, [{}]>}, %arg320: tensor<768x768xbf16> {sdy.sharding = #sdy.sharding<@mesh, [{}, {}]>}, %arg321: tensor<768xbf16> {sdy.sharding = #sdy.sharding<@mesh, [{}]>}, %arg322: tensor<768x768xbf16> {sdy.sharding = #sdy.sharding<@mesh, [{}, {}]>}, %arg323: tensor<768xbf16> {sdy.sharding = #sdy.sharding<@mesh, [{}]>}, %arg324: tensor<768x768xbf16> {sdy.sharding = #sdy.sharding<@mesh, [{}, {}]>}, %arg325: tensor<768xbf16> {sdy.sharding = #sdy.sharding<@mesh, [{}]>}, %arg326: tensor<768x768xbf16> {sdy.sharding = #sdy.sharding<@mesh, [{}, {}]>}, %arg327: tensor<768xbf16> {sdy.sharding = #sdy.sharding<@mesh, [{}]>}, %arg328: tensor<768xbf16> {sdy.sharding = #sdy.sharding<@mesh, [{}]>}, %arg329: tensor<768xbf16> {sdy.sharding = #sdy.sharding<@mesh, [{}]>}, %arg330: tensor<3072x768xbf16> {sdy.sharding = #sdy.sharding<@mesh, [{}, {}]>}, %arg331: tensor<3072xbf16> {sdy.sharding = #sdy.sharding<@mesh, [{}]>}, %arg332: tensor<768x3072xbf16> {sdy.sharding = #sdy.sharding<@mesh, [{}, {}]>}, %arg333: tensor<768xbf16> {sdy.sharding = #sdy.sharding<@mesh, [{}]>}, %arg334: tensor<768xbf16> {sdy.sharding = #sdy.sharding<@mesh, [{}]>}, %arg335: tensor<768xbf16> {sdy.sharding = #sdy.sharding<@mesh, [{}]>}, %arg336: tensor<768x768xbf16> {sdy.sharding = #sdy.sharding<@mesh, [{}, {}]>}, %arg337: tensor<768xbf16> {sdy.sharding = #sdy.sharding<@mesh, [{}]>}, %arg338: tensor<768x768xbf16> {sdy.sharding = #sdy.sharding<@mesh, [{}, {}]>}, %arg339: tensor<768xbf16> {sdy.sharding = #sdy.sharding<@mesh, [{}]>}, %arg340: tensor<768x768xbf16> {sdy.sharding = #sdy.sharding<@mesh, [{}, {}]>}, %arg341: tensor<768xbf16> {sdy.sharding = #sdy.sharding<@mesh, [{}]>}, %arg342: tensor<768x768xbf16> {sdy.sharding = #sdy.sharding<@mesh, [{}, {}]>}, %arg343: tensor<768xbf16> {sdy.sharding = #sdy.sharding<@mesh, [{}]>}, %arg344: tensor<768xbf16> {sdy.sharding = #sdy.sharding<@mesh, [{}]>}, %arg345: tensor<768xbf16> {sdy.sharding = #sdy.sharding<@mesh, [{}]>}, %arg346: tensor<3072x768xbf16> {sdy.sharding = #sdy.sharding<@mesh, [{}, {}]>}, %arg347: tensor<3072xbf16> {sdy.sharding = #sdy.sharding<@mesh, [{}]>}, %arg348: tensor<768x3072xbf16> {sdy.sharding = #sdy.sharding<@mesh, [{}, {}]>}, %arg349: tensor<768xbf16> {sdy.sharding = #sdy.sharding<@mesh, [{}]>}, %arg350: tensor<768xbf16> {sdy.sharding = #sdy.sharding<@mesh, [{}]>}, %arg351: tensor<768xbf16> {sdy.sharding = #sdy.sharding<@mesh, [{}]>}, %arg352: tensor<768x768xbf16> {sdy.sharding = #sdy.sharding<@mesh, [{}, {}]>}, %arg353: tensor<768xbf16> {sdy.sharding = #sdy.sharding<@mesh, [{}]>}, %arg354: tensor<768x768xbf16> {sdy.sharding = #sdy.sharding<@mesh, [{}, {}]>}, %arg355: tensor<768xbf16> {sdy.sharding = #sdy.sharding<@mesh, [{}]>}, %arg356: tensor<768x768xbf16> {sdy.sharding = #sdy.sharding<@mesh, [{}, {}]>}, %arg357: tensor<768xbf16> {sdy.sharding = #sdy.sharding<@mesh, [{}]>}, %arg358: tensor<768x768xbf16> {sdy.sharding = #sdy.sharding<@mesh, [{}, {}]>}, %arg359: tensor<768xbf16> {sdy.sharding = #sdy.sharding<@mesh, [{}]>}, %arg360: tensor<768xbf16> {sdy.sharding = #sdy.sharding<@mesh, [{}]>}, %arg361: tensor<768xbf16> {sdy.sharding = #sdy.sharding<@mesh, [{}]>}, %arg362: tensor<3072x768xbf16> {sdy.sharding = #sdy.sharding<@mesh, [{}, {}]>}, %arg363: tensor<3072xbf16> {sdy.sharding = #sdy.sharding<@mesh, [{}]>}, %arg364: tensor<768x3072xbf16> {sdy.sharding = #sdy.sharding<@mesh, [{}, {}]>}, %arg365: tensor<768xbf16> {sdy.sharding = #sdy.sharding<@mesh, [{}]>}, %arg366: tensor<768xbf16> {sdy.sharding = #sdy.sharding<@mesh, [{}]>}, %arg367: tensor<768xbf16> {sdy.sharding = #sdy.sharding<@mesh, [{}]>}, %arg368: tensor<768x768xbf16> {sdy.sharding = #sdy.sharding<@mesh, [{}, {}]>}, %arg369: tensor<768xbf16> {sdy.sharding = #sdy.sharding<@mesh, [{}]>}, %arg370: tensor<768x768xbf16> {sdy.sharding = #sdy.sharding<@mesh, [{}, {}]>}, %arg371: tensor<768xbf16> {sdy.sharding = #sdy.sharding<@mesh, [{}]>}, %arg372: tensor<768x768xbf16> {sdy.sharding = #sdy.sharding<@mesh, [{}, {}]>}, %arg373: tensor<768xbf16> {sdy.sharding = #sdy.sharding<@mesh, [{}]>}, %arg374: tensor<768x768xbf16> {sdy.sharding = #sdy.sharding<@mesh, [{}, {}]>}, %arg375: tensor<768xbf16> {sdy.sharding = #sdy.sharding<@mesh, [{}]>}, %arg376: tensor<768xbf16> {sdy.sharding = #sdy.sharding<@mesh, [{}]>}, %arg377: tensor<768xbf16> {sdy.sharding = #sdy.sharding<@mesh, [{}]>}, %arg378: tensor<3072x768xbf16> {sdy.sharding = #sdy.sharding<@mesh, [{}, {}]>}, %arg379: tensor<3072xbf16> {sdy.sharding = #sdy.sharding<@mesh, [{}]>}, %arg380: tensor<768x3072xbf16> {sdy.sharding = #sdy.sharding<@mesh, [{}, {}]>}, %arg381: tensor<768xbf16> {sdy.sharding = #sdy.sharding<@mesh, [{}]>}, %arg382: tensor<768xbf16> {sdy.sharding = #sdy.sharding<@mesh, [{}]>}, %arg383: tensor<768xbf16> {sdy.sharding = #sdy.sharding<@mesh, [{}]>}, %arg384: tensor<768x768xbf16> {sdy.sharding = #sdy.sharding<@mesh, [{}, {}]>}, %arg385: tensor<768xbf16> {sdy.sharding = #sdy.sharding<@mesh, [{}]>}, %arg386: tensor<768x768xbf16> {sdy.sharding = #sdy.sharding<@mesh, [{}, {}]>}, %arg387: tensor<768xbf16> {sdy.sharding = #sdy.sharding<@mesh, [{}]>}, %arg388: tensor<768x768xbf16> {sdy.sharding = #sdy.sharding<@mesh, [{}, {}]>}, %arg389: tensor<768xbf16> {sdy.sharding = #sdy.sharding<@mesh, [{}]>}, %arg390: tensor<768x768xbf16> {sdy.sharding = #sdy.sharding<@mesh, [{}, {}]>}, %arg391: tensor<768xbf16> {sdy.sharding = #sdy.sharding<@mesh, [{}]>}, %arg392: tensor<768xbf16> {sdy.sharding = #sdy.sharding<@mesh, [{}]>}, %arg393: tensor<768xbf16> {sdy.sharding = #sdy.sharding<@mesh, [{}]>}, %arg394: tensor<3072x768xbf16> {sdy.sharding = #sdy.sharding<@mesh, [{}, {}]>}, %arg395: tensor<3072xbf16> {sdy.sharding = #sdy.sharding<@mesh, [{}]>}, %arg396: tensor<768x3072xbf16> {sdy.sharding = #sdy.sharding<@mesh, [{}, {}]>}, %arg397: tensor<768xbf16> {sdy.sharding = #sdy.sharding<@mesh, [{}]>}, %arg398: tensor<768xbf16> {sdy.sharding = #sdy.sharding<@mesh, [{}]>}, %arg399: tensor<768xbf16> {sdy.sharding = #sdy.sharding<@mesh, [{}]>}, %arg400: tensor<768x768xbf16> {sdy.sharding = #sdy.sharding<@mesh, [{}, {}]>}, %arg401: tensor<768xbf16> {sdy.sharding = #sdy.sharding<@mesh, [{}]>}, %arg402: tensor<768xbf16> {sdy.sharding = #sdy.sharding<@mesh, [{}]>}, %arg403: tensor<768xbf16> {sdy.sharding = #sdy.sharding<@mesh, [{}]>}, %arg404: tensor<30522xbf16> {sdy.sharding = #sdy.sharding<@mesh, [{}]>}, %arg405: tensor<30522x768xbf16> {sdy.sharding = #sdy.sharding<@mesh, [{}, {}]>}, %arg406: tensor<512x768xbf16> {sdy.sharding = #sdy.sharding<@mesh, [{}, {}]>}, %arg407: tensor<2x768xbf16> {sdy.sharding = #sdy.sharding<@mesh, [{}, {}]>}, %arg408: tensor<768xbf16> {sdy.sharding = #sdy.sharding<@mesh, [{}]>}, %arg409: tensor<768xbf16> {sdy.sharding = #sdy.sharding<@mesh, [{}]>}, %arg410: tensor<768x768xbf16> {sdy.sharding = #sdy.sharding<@mesh, [{}, {}]>}, %arg411: tensor<768xbf16> {sdy.sharding = #sdy.sharding<@mesh, [{}]>}, %arg412: tensor<768x768xbf16> {sdy.sharding = #sdy.sharding<@mesh, [{}, {}]>}, %arg413: tensor<768xbf16> {sdy.sharding = #sdy.sharding<@mesh, [{}]>}, %arg414: tensor<768x768xbf16> {sdy.sharding = #sdy.sharding<@mesh, [{}, {}]>}, %arg415: tensor<768xbf16> {sdy.sharding = #sdy.sharding<@mesh, [{}]>}, %arg416: tensor<768x768xbf16> {sdy.sharding = #sdy.sharding<@mesh, [{}, {}]>}, %arg417: tensor<768xbf16> {sdy.sharding = #sdy.sharding<@mesh, [{}]>}, %arg418: tensor<768xbf16> {sdy.sharding = #sdy.sharding<@mesh, [{}]>}, %arg419: tensor<768xbf16> {sdy.sharding = #sdy.sharding<@mesh, [{}]>}, %arg420: tensor<3072x768xbf16> {sdy.sharding = #sdy.sharding<@mesh, [{}, {}]>}, %arg421: tensor<3072xbf16> {sdy.sharding = #sdy.sharding<@mesh, [{}]>}, %arg422: tensor<768x3072xbf16> {sdy.sharding = #sdy.sharding<@mesh, [{}, {}]>}, %arg423: tensor<768xbf16> {sdy.sharding = #sdy.sharding<@mesh, [{}]>}, %arg424: tensor<768xbf16> {sdy.sharding = #sdy.sharding<@mesh, [{}]>}, %arg425: tensor<768xbf16> {sdy.sharding = #sdy.sharding<@mesh, [{}]>}, %arg426: tensor<768x768xbf16> {sdy.sharding = #sdy.sharding<@mesh, [{}, {}]>}, %arg427: tensor<768xbf16> {sdy.sharding = #sdy.sharding<@mesh, [{}]>}, %arg428: tensor<768x768xbf16> {sdy.sharding = #sdy.sharding<@mesh, [{}, {}]>}, %arg429: tensor<768xbf16> {sdy.sharding = #sdy.sharding<@mesh, [{}]>}, %arg430: tensor<768x768xbf16> {sdy.sharding = #sdy.sharding<@mesh, [{}, {}]>}, %arg431: tensor<768xbf16> {sdy.sharding = #sdy.sharding<@mesh, [{}]>}, %arg432: tensor<768x768xbf16> {sdy.sharding = #sdy.sharding<@mesh, [{}, {}]>}, %arg433: tensor<768xbf16> {sdy.sharding = #sdy.sharding<@mesh, [{}]>}, %arg434: tensor<768xbf16> {sdy.sharding = #sdy.sharding<@mesh, [{}]>}, %arg435: tensor<768xbf16> {sdy.sharding = #sdy.sharding<@mesh, [{}]>}, %arg436: tensor<3072x768xbf16> {sdy.sharding = #sdy.sharding<@mesh, [{}, {}]>}, %arg437: tensor<3072xbf16> {sdy.sharding = #sdy.sharding<@mesh, [{}]>}, %arg438: tensor<768x3072xbf16> {sdy.sharding = #sdy.sharding<@mesh, [{}, {}]>}, %arg439: tensor<768xbf16> {sdy.sharding = #sdy.sharding<@mesh, [{}]>}, %arg440: tensor<768xbf16> {sdy.sharding = #sdy.sharding<@mesh, [{}]>}, %arg441: tensor<768xbf16> {sdy.sharding = #sdy.sharding<@mesh, [{}]>}, %arg442: tensor<768x768xbf16> {sdy.sharding = #sdy.sharding<@mesh, [{}, {}]>}, %arg443: tensor<768xbf16> {sdy.sharding = #sdy.sharding<@mesh, [{}]>}, %arg444: tensor<768x768xbf16> {sdy.sharding = #sdy.sharding<@mesh, [{}, {}]>}, %arg445: tensor<768xbf16> {sdy.sharding = #sdy.sharding<@mesh, [{}]>}, %arg446: tensor<768x768xbf16> {sdy.sharding = #sdy.sharding<@mesh, [{}, {}]>}, %arg447: tensor<768xbf16> {sdy.sharding = #sdy.sharding<@mesh, [{}]>}, %arg448: tensor<768x768xbf16> {sdy.sharding = #sdy.sharding<@mesh, [{}, {}]>}, %arg449: tensor<768xbf16> {sdy.sharding = #sdy.sharding<@mesh, [{}]>}, %arg450: tensor<768xbf16> {sdy.sharding = #sdy.sharding<@mesh, [{}]>}, %arg451: tensor<768xbf16> {sdy.sharding = #sdy.sharding<@mesh, [{}]>}, %arg452: tensor<3072x768xbf16> {sdy.sharding = #sdy.sharding<@mesh, [{}, {}]>}, %arg453: tensor<3072xbf16> {sdy.sharding = #sdy.sharding<@mesh, [{}]>}, %arg454: tensor<768x3072xbf16> {sdy.sharding = #sdy.sharding<@mesh, [{}, {}]>}, %arg455: tensor<768xbf16> {sdy.sharding = #sdy.sharding<@mesh, [{}]>}, %arg456: tensor<768xbf16> {sdy.sharding = #sdy.sharding<@mesh, [{}]>}, %arg457: tensor<768xbf16> {sdy.sharding = #sdy.sharding<@mesh, [{}]>}, %arg458: tensor<768x768xbf16> {sdy.sharding = #sdy.sharding<@mesh, [{}, {}]>}, %arg459: tensor<768xbf16> {sdy.sharding = #sdy.sharding<@mesh, [{}]>}, %arg460: tensor<768x768xbf16> {sdy.sharding = #sdy.sharding<@mesh, [{}, {}]>}, %arg461: tensor<768xbf16> {sdy.sharding = #sdy.sharding<@mesh, [{}]>}, %arg462: tensor<768x768xbf16> {sdy.sharding = #sdy.sharding<@mesh, [{}, {}]>}, %arg463: tensor<768xbf16> {sdy.sharding = #sdy.sharding<@mesh, [{}]>}, %arg464: tensor<768x768xbf16> {sdy.sharding = #sdy.sharding<@mesh, [{}, {}]>}, %arg465: tensor<768xbf16> {sdy.sharding = #sdy.sharding<@mesh, [{}]>}, %arg466: tensor<768xbf16> {sdy.sharding = #sdy.sharding<@mesh, [{}]>}, %arg467: tensor<768xbf16> {sdy.sharding = #sdy.sharding<@mesh, [{}]>}, %arg468: tensor<3072x768xbf16> {sdy.sharding = #sdy.sharding<@mesh, [{}, {}]>}, %arg469: tensor<3072xbf16> {sdy.sharding = #sdy.sharding<@mesh, [{}]>}, %arg470: tensor<768x3072xbf16> {sdy.sharding = #sdy.sharding<@mesh, [{}, {}]>}, %arg471: tensor<768xbf16> {sdy.sharding = #sdy.sharding<@mesh, [{}]>}, %arg472: tensor<768xbf16> {sdy.sharding = #sdy.sharding<@mesh, [{}]>}, %arg473: tensor<768xbf16> {sdy.sharding = #sdy.sharding<@mesh, [{}]>}, %arg474: tensor<768x768xbf16> {sdy.sharding = #sdy.sharding<@mesh, [{}, {}]>}, %arg475: tensor<768xbf16> {sdy.sharding = #sdy.sharding<@mesh, [{}]>}, %arg476: tensor<768x768xbf16> {sdy.sharding = #sdy.sharding<@mesh, [{}, {}]>}, %arg477: tensor<768xbf16> {sdy.sharding = #sdy.sharding<@mesh, [{}]>}, %arg478: tensor<768x768xbf16> {sdy.sharding = #sdy.sharding<@mesh, [{}, {}]>}, %arg479: tensor<768xbf16> {sdy.sharding = #sdy.sharding<@mesh, [{}]>}, %arg480: tensor<768x768xbf16> {sdy.sharding = #sdy.sharding<@mesh, [{}, {}]>}, %arg481: tensor<768xbf16> {sdy.sharding = #sdy.sharding<@mesh, [{}]>}, %arg482: tensor<768xbf16> {sdy.sharding = #sdy.sharding<@mesh, [{}]>}, %arg483: tensor<768xbf16> {sdy.sharding = #sdy.sharding<@mesh, [{}]>}, %arg484: tensor<3072x768xbf16> {sdy.sharding = #sdy.sharding<@mesh, [{}, {}]>}, %arg485: tensor<3072xbf16> {sdy.sharding = #sdy.sharding<@mesh, [{}]>}, %arg486: tensor<768x3072xbf16> {sdy.sharding = #sdy.sharding<@mesh, [{}, {}]>}, %arg487: tensor<768xbf16> {sdy.sharding = #sdy.sharding<@mesh, [{}]>}, %arg488: tensor<768xbf16> {sdy.sharding = #sdy.sharding<@mesh, [{}]>}, %arg489: tensor<768xbf16> {sdy.sharding = #sdy.sharding<@mesh, [{}]>}, %arg490: tensor<768x768xbf16> {sdy.sharding = #sdy.sharding<@mesh, [{}, {}]>}, %arg491: tensor<768xbf16> {sdy.sharding = #sdy.sharding<@mesh, [{}]>}, %arg492: tensor<768x768xbf16> {sdy.sharding = #sdy.sharding<@mesh, [{}, {}]>}, %arg493: tensor<768xbf16> {sdy.sharding = #sdy.sharding<@mesh, [{}]>}, %arg494: tensor<768x768xbf16> {sdy.sharding = #sdy.sharding<@mesh, [{}, {}]>}, %arg495: tensor<768xbf16> {sdy.sharding = #sdy.sharding<@mesh, [{}]>}, %arg496: tensor<768x768xbf16> {sdy.sharding = #sdy.sharding<@mesh, [{}, {}]>}, %arg497: tensor<768xbf16> {sdy.sharding = #sdy.sharding<@mesh, [{}]>}, %arg498: tensor<768xbf16> {sdy.sharding = #sdy.sharding<@mesh, [{}]>}, %arg499: tensor<768xbf16> {sdy.sharding = #sdy.sharding<@mesh, [{}]>}, %arg500: tensor<3072x768xbf16> {sdy.sharding = #sdy.sharding<@mesh, [{}, {}]>}, %arg501: tensor<3072xbf16> {sdy.sharding = #sdy.sharding<@mesh, [{}]>}, %arg502: tensor<768x3072xbf16> {sdy.sharding = #sdy.sharding<@mesh, [{}, {}]>}, %arg503: tensor<768xbf16> {sdy.sharding = #sdy.sharding<@mesh, [{}]>}, %arg504: tensor<768xbf16> {sdy.sharding = #sdy.sharding<@mesh, [{}]>}, %arg505: tensor<768xbf16> {sdy.sharding = #sdy.sharding<@mesh, [{}]>}, %arg506: tensor<768x768xbf16> {sdy.sharding = #sdy.sharding<@mesh, [{}, {}]>}, %arg507: tensor<768xbf16> {sdy.sharding = #sdy.sharding<@mesh, [{}]>}, %arg508: tensor<768x768xbf16> {sdy.sharding = #sdy.sharding<@mesh, [{}, {}]>}, %arg509: tensor<768xbf16> {sdy.sharding = #sdy.sharding<@mesh, [{}]>}, %arg510: tensor<768x768xbf16> {sdy.sharding = #sdy.sharding<@mesh, [{}, {}]>}, %arg511: tensor<768xbf16> {sdy.sharding = #sdy.sharding<@mesh, [{}]>}, %arg512: tensor<768x768xbf16> {sdy.sharding = #sdy.sharding<@mesh, [{}, {}]>}, %arg513: tensor<768xbf16> {sdy.sharding = #sdy.sharding<@mesh, [{}]>}, %arg514: tensor<768xbf16> {sdy.sharding = #sdy.sharding<@mesh, [{}]>}, %arg515: tensor<768xbf16> {sdy.sharding = #sdy.sharding<@mesh, [{}]>}, %arg516: tensor<3072x768xbf16> {sdy.sharding = #sdy.sharding<@mesh, [{}, {}]>}, %arg517: tensor<3072xbf16> {sdy.sharding = #sdy.sharding<@mesh, [{}]>}, %arg518: tensor<768x3072xbf16> {sdy.sharding = #sdy.sharding<@mesh, [{}, {}]>}, %arg519: tensor<768xbf16> {sdy.sharding = #sdy.sharding<@mesh, [{}]>}, %arg520: tensor<768xbf16> {sdy.sharding = #sdy.sharding<@mesh, [{}]>}, %arg521: tensor<768xbf16> {sdy.sharding = #sdy.sharding<@mesh, [{}]>}, %arg522: tensor<768x768xbf16> {sdy.sharding = #sdy.sharding<@mesh, [{}, {}]>}, %arg523: tensor<768xbf16> {sdy.sharding = #sdy.sharding<@mesh, [{}]>}, %arg524: tensor<768x768xbf16> {sdy.sharding = #sdy.sharding<@mesh, [{}, {}]>}, %arg525: tensor<768xbf16> {sdy.sharding = #sdy.sharding<@mesh, [{}]>}, %arg526: tensor<768x768xbf16> {sdy.sharding = #sdy.sharding<@mesh, [{}, {}]>}, %arg527: tensor<768xbf16> {sdy.sharding = #sdy.sharding<@mesh, [{}]>}, %arg528: tensor<768x768xbf16> {sdy.sharding = #sdy.sharding<@mesh, [{}, {}]>}, %arg529: tensor<768xbf16> {sdy.sharding = #sdy.sharding<@mesh, [{}]>}, %arg530: tensor<768xbf16> {sdy.sharding = #sdy.sharding<@mesh, [{}]>}, %arg531: tensor<768xbf16> {sdy.sharding = #sdy.sharding<@mesh, [{}]>}, %arg532: tensor<3072x768xbf16> {sdy.sharding = #sdy.sharding<@mesh, [{}, {}]>}, %arg533: tensor<3072xbf16> {sdy.sharding = #sdy.sharding<@mesh, [{}]>}, %arg534: tensor<768x3072xbf16> {sdy.sharding = #sdy.sharding<@mesh, [{}, {}]>}, %arg535: tensor<768xbf16> {sdy.sharding = #sdy.sharding<@mesh, [{}]>}, %arg536: tensor<768xbf16> {sdy.sharding = #sdy.sharding<@mesh, [{}]>}, %arg537: tensor<768xbf16> {sdy.sharding = #sdy.sharding<@mesh, [{}]>}, %arg538: tensor<768x768xbf16> {sdy.sharding = #sdy.sharding<@mesh, [{}, {}]>}, %arg539: tensor<768xbf16> {sdy.sharding = #sdy.sharding<@mesh, [{}]>}, %arg540: tensor<768x768xbf16> {sdy.sharding = #sdy.sharding<@mesh, [{}, {}]>}, %arg541: tensor<768xbf16> {sdy.sharding = #sdy.sharding<@mesh, [{}]>}, %arg542: tensor<768x768xbf16> {sdy.sharding = #sdy.sharding<@mesh, [{}, {}]>}, %arg543: tensor<768xbf16> {sdy.sharding = #sdy.sharding<@mesh, [{}]>}, %arg544: tensor<768x768xbf16> {sdy.sharding = #sdy.sharding<@mesh, [{}, {}]>}, %arg545: tensor<768xbf16> {sdy.sharding = #sdy.sharding<@mesh, [{}]>}, %arg546: tensor<768xbf16> {sdy.sharding = #sdy.sharding<@mesh, [{}]>}, %arg547: tensor<768xbf16> {sdy.sharding = #sdy.sharding<@mesh, [{}]>}, %arg548: tensor<3072x768xbf16> {sdy.sharding = #sdy.sharding<@mesh, [{}, {}]>}, %arg549: tensor<3072xbf16> {sdy.sharding = #sdy.sharding<@mesh, [{}]>}, %arg550: tensor<768x3072xbf16> {sdy.sharding = #sdy.sharding<@mesh, [{}, {}]>}, %arg551: tensor<768xbf16> {sdy.sharding = #sdy.sharding<@mesh, [{}]>}, %arg552: tensor<768xbf16> {sdy.sharding = #sdy.sharding<@mesh, [{}]>}, %arg553: tensor<768xbf16> {sdy.sharding = #sdy.sharding<@mesh, [{}]>}, %arg554: tensor<768x768xbf16> {sdy.sharding = #sdy.sharding<@mesh, [{}, {}]>}, %arg555: tensor<768xbf16> {sdy.sharding = #sdy.sharding<@mesh, [{}]>}, %arg556: tensor<768x768xbf16> {sdy.sharding = #sdy.sharding<@mesh, [{}, {}]>}, %arg557: tensor<768xbf16> {sdy.sharding = #sdy.sharding<@mesh, [{}]>}, %arg558: tensor<768x768xbf16> {sdy.sharding = #sdy.sharding<@mesh, [{}, {}]>}, %arg559: tensor<768xbf16> {sdy.sharding = #sdy.sharding<@mesh, [{}]>}, %arg560: tensor<768x768xbf16> {sdy.sharding = #sdy.sharding<@mesh, [{}, {}]>}, %arg561: tensor<768xbf16> {sdy.sharding = #sdy.sharding<@mesh, [{}]>}, %arg562: tensor<768xbf16> {sdy.sharding = #sdy.sharding<@mesh, [{}]>}, %arg563: tensor<768xbf16> {sdy.sharding = #sdy.sharding<@mesh, [{}]>}, %arg564: tensor<3072x768xbf16> {sdy.sharding = #sdy.sharding<@mesh, [{}, {}]>}, %arg565: tensor<3072xbf16> {sdy.sharding = #sdy.sharding<@mesh, [{}]>}, %arg566: tensor<768x3072xbf16> {sdy.sharding = #sdy.sharding<@mesh, [{}, {}]>}, %arg567: tensor<768xbf16> {sdy.sharding = #sdy.sharding<@mesh, [{}]>}, %arg568: tensor<768xbf16> {sdy.sharding = #sdy.sharding<@mesh, [{}]>}, %arg569: tensor<768xbf16> {sdy.sharding = #sdy.sharding<@mesh, [{}]>}, %arg570: tensor<768x768xbf16> {sdy.sharding = #sdy.sharding<@mesh, [{}, {}]>}, %arg571: tensor<768xbf16> {sdy.sharding = #sdy.sharding<@mesh, [{}]>}, %arg572: tensor<768x768xbf16> {sdy.sharding = #sdy.sharding<@mesh, [{}, {}]>}, %arg573: tensor<768xbf16> {sdy.sharding = #sdy.sharding<@mesh, [{}]>}, %arg574: tensor<768x768xbf16> {sdy.sharding = #sdy.sharding<@mesh, [{}, {}]>}, %arg575: tensor<768xbf16> {sdy.sharding = #sdy.sharding<@mesh, [{}]>}, %arg576: tensor<768x768xbf16> {sdy.sharding = #sdy.sharding<@mesh, [{}, {}]>}, %arg577: tensor<768xbf16> {sdy.sharding = #sdy.sharding<@mesh, [{}]>}, %arg578: tensor<768xbf16> {sdy.sharding = #sdy.sharding<@mesh, [{}]>}, %arg579: tensor<768xbf16> {sdy.sharding = #sdy.sharding<@mesh, [{}]>}, %arg580: tensor<3072x768xbf16> {sdy.sharding = #sdy.sharding<@mesh, [{}, {}]>}, %arg581: tensor<3072xbf16> {sdy.sharding = #sdy.sharding<@mesh, [{}]>}, %arg582: tensor<768x3072xbf16> {sdy.sharding = #sdy.sharding<@mesh, [{}, {}]>}, %arg583: tensor<768xbf16> {sdy.sharding = #sdy.sharding<@mesh, [{}]>}, %arg584: tensor<768xbf16> {sdy.sharding = #sdy.sharding<@mesh, [{}]>}, %arg585: tensor<768xbf16> {sdy.sharding = #sdy.sharding<@mesh, [{}]>}, %arg586: tensor<768x768xbf16> {sdy.sharding = #sdy.sharding<@mesh, [{}, {}]>}, %arg587: tensor<768xbf16> {sdy.sharding = #sdy.sharding<@mesh, [{}]>}, %arg588: tensor<768x768xbf16> {sdy.sharding = #sdy.sharding<@mesh, [{}, {}]>}, %arg589: tensor<768xbf16> {sdy.sharding = #sdy.sharding<@mesh, [{}]>}, %arg590: tensor<768x768xbf16> {sdy.sharding = #sdy.sharding<@mesh, [{}, {}]>}, %arg591: tensor<768xbf16> {sdy.sharding = #sdy.sharding<@mesh, [{}]>}, %arg592: tensor<768x768xbf16> {sdy.sharding = #sdy.sharding<@mesh, [{}, {}]>}, %arg593: tensor<768xbf16> {sdy.sharding = #sdy.sharding<@mesh, [{}]>}, %arg594: tensor<768xbf16> {sdy.sharding = #sdy.sharding<@mesh, [{}]>}, %arg595: tensor<768xbf16> {sdy.sharding = #sdy.sharding<@mesh, [{}]>}, %arg596: tensor<3072x768xbf16> {sdy.sharding = #sdy.sharding<@mesh, [{}, {}]>}, %arg597: tensor<3072xbf16> {sdy.sharding = #sdy.sharding<@mesh, [{}]>}, %arg598: tensor<768x3072xbf16> {sdy.sharding = #sdy.sharding<@mesh, [{}, {}]>}, %arg599: tensor<768xbf16> {sdy.sharding = #sdy.sharding<@mesh, [{}]>}, %arg600: tensor<768xbf16> {sdy.sharding = #sdy.sharding<@mesh, [{}]>}, %arg601: tensor<768xbf16> {sdy.sharding = #sdy.sharding<@mesh, [{}]>}, %arg602: tensor<768x768xbf16> {sdy.sharding = #sdy.sharding<@mesh, [{}, {}]>}, %arg603: tensor<768xbf16> {sdy.sharding = #sdy.sharding<@mesh, [{}]>}, %arg604: tensor<768xbf16> {sdy.sharding = #sdy.sharding<@mesh, [{}]>}, %arg605: tensor<768xbf16> {sdy.sharding = #sdy.sharding<@mesh, [{}]>}, %arg606: tensor<30522xbf16> {sdy.sharding = #sdy.sharding<@mesh, [{}]>}, %arg607: tensor<i32>, %arg608: tensor<64x512xi32> {sdy.sharding = #sdy.sharding<@mesh, [{"dp"}, {}]>}, %arg609: tensor<64x512xi32> {sdy.sharding = #sdy.sharding<@mesh, [{"dp"}, {}]>}, %arg610: tensor<64x512xi32> {sdy.sharding = #sdy.sharding<@mesh, [{"dp"}, {}]>}, %arg611: tensor<64x512xi32> {sdy.sharding = #sdy.sharding<@mesh, [{"dp"}, {}]>}, %arg612: tensor<2xui32>, %arg613: tensor<i32>) -> (tensor<i32> {jax.result_info = "result[0]"}, tensor<30522x768xbf16> {jax.result_info = "result[1][0].bert.embeddings.word_embeddings.weight"}, tensor<512x768xbf16> {jax.result_info = "result[1][0].bert.embeddings.position_embeddings.weight"}, tensor<2x768xbf16> {jax.result_info = "result[1][0].bert.embeddings.token_type_embeddings.weight"}, tensor<768xbf16> {jax.result_info = "result[1][0].bert.embeddings.LayerNorm.weight"}, tensor<768xbf16> {jax.result_info = "result[1][0].bert.embeddings.LayerNorm.bias"}, tensor<768x768xbf16> {jax.result_info = "result[1][0].bert.encoder.layer[0].attention.self.query.weight"}, tensor<768xbf16> {jax.result_info = "result[1][0].bert.encoder.layer[0].attention.self.query.bias"}, tensor<768x768xbf16> {jax.result_info = "result[1][0].bert.encoder.layer[0].attention.self.value.weight"}, tensor<768xbf16> {jax.result_info = "result[1][0].bert.encoder.layer[0].attention.self.value.bias"}, tensor<768x768xbf16> {jax.result_info = "result[1][0].bert.encoder.layer[0].attention.self.key.weight"}, tensor<768xbf16> {jax.result_info = "result[1][0].bert.encoder.layer[0].attention.self.key.bias"}, tensor<768x768xbf16> {jax.result_info = "result[1][0].bert.encoder.layer[0].attention.output.dense.weight"}, tensor<768xbf16> {jax.result_info = "result[1][0].bert.encoder.layer[0].attention.output.dense.bias"}, tensor<768xbf16> {jax.result_info = "result[1][0].bert.encoder.layer[0].attention.output.LayerNorm.weight"}, tensor<768xbf16> {jax.result_info = "result[1][0].bert.encoder.layer[0].attention.output.LayerNorm.bias"}, tensor<3072x768xbf16> {jax.result_info = "result[1][0].bert.encoder.layer[0].intermediate.dense.weight"}, tensor<3072xbf16> {jax.result_info = "result[1][0].bert.encoder.layer[0].intermediate.dense.bias"}, tensor<768x3072xbf16> {jax.result_info = "result[1][0].bert.encoder.layer[0].output.dense.weight"}, tensor<768xbf16> {jax.result_info = "result[1][0].bert.encoder.layer[0].output.dense.bias"}, tensor<768xbf16> {jax.result_info = "result[1][0].bert.encoder.layer[0].output.LayerNorm.weight"}, tensor<768xbf16> {jax.result_info = "result[1][0].bert.encoder.layer[0].output.LayerNorm.bias"}, tensor<768x768xbf16> {jax.result_info = "result[1][0].bert.encoder.layer[1].attention.self.query.weight"}, tensor<768xbf16> {jax.result_info = "result[1][0].bert.encoder.layer[1].attention.self.query.bias"}, tensor<768x768xbf16> {jax.result_info = "result[1][0].bert.encoder.layer[1].attention.self.value.weight"}, tensor<768xbf16> {jax.result_info = "result[1][0].bert.encoder.layer[1].attention.self.value.bias"}, tensor<768x768xbf16> {jax.result_info = "result[1][0].bert.encoder.layer[1].attention.self.key.weight"}, tensor<768xbf16> {jax.result_info = "result[1][0].bert.encoder.layer[1].attention.self.key.bias"}, tensor<768x768xbf16> {jax.result_info = "result[1][0].bert.encoder.layer[1].attention.output.dense.weight"}, tensor<768xbf16> {jax.result_info = "result[1][0].bert.encoder.layer[1].attention.output.dense.bias"}, tensor<768xbf16> {jax.result_info = "result[1][0].bert.encoder.layer[1].attention.output.LayerNorm.weight"}, tensor<768xbf16> {jax.result_info = "result[1][0].bert.encoder.layer[1].attention.output.LayerNorm.bias"}, tensor<3072x768xbf16> {jax.result_info = "result[1][0].bert.encoder.layer[1].intermediate.dense.weight"}, tensor<3072xbf16> {jax.result_info = "result[1][0].bert.encoder.layer[1].intermediate.dense.bias"}, tensor<768x3072xbf16> {jax.result_info = "result[1][0].bert.encoder.layer[1].output.dense.weight"}, tensor<768xbf16> {jax.result_info = "result[1][0].bert.encoder.layer[1].output.dense.bias"}, tensor<768xbf16> {jax.result_info = "result[1][0].bert.encoder.layer[1].output.LayerNorm.weight"}, tensor<768xbf16> {jax.result_info = "result[1][0].bert.encoder.layer[1].output.LayerNorm.bias"}, tensor<768x768xbf16> {jax.result_info = "result[1][0].bert.encoder.layer[2].attention.self.query.weight"}, tensor<768xbf16> {jax.result_info = "result[1][0].bert.encoder.layer[2].attention.self.query.bias"}, tensor<768x768xbf16> {jax.result_info = "result[1][0].bert.encoder.layer[2].attention.self.value.weight"}, tensor<768xbf16> {jax.result_info = "result[1][0].bert.encoder.layer[2].attention.self.value.bias"}, tensor<768x768xbf16> {jax.result_info = "result[1][0].bert.encoder.layer[2].attention.self.key.weight"}, tensor<768xbf16> {jax.result_info = "result[1][0].bert.encoder.layer[2].attention.self.key.bias"}, tensor<768x768xbf16> {jax.result_info = "result[1][0].bert.encoder.layer[2].attention.output.dense.weight"}, tensor<768xbf16> {jax.result_info = "result[1][0].bert.encoder.layer[2].attention.output.dense.bias"}, tensor<768xbf16> {jax.result_info = "result[1][0].bert.encoder.layer[2].attention.output.LayerNorm.weight"}, tensor<768xbf16> {jax.result_info = "result[1][0].bert.encoder.layer[2].attention.output.LayerNorm.bias"}, tensor<3072x768xbf16> {jax.result_info = "result[1][0].bert.encoder.layer[2].intermediate.dense.weight"}, tensor<3072xbf16> {jax.result_info = "result[1][0].bert.encoder.layer[2].intermediate.dense.bias"}, tensor<768x3072xbf16> {jax.result_info = "result[1][0].bert.encoder.layer[2].output.dense.weight"}, tensor<768xbf16> {jax.result_info = "result[1][0].bert.encoder.layer[2].output.dense.bias"}, tensor<768xbf16> {jax.result_info = "result[1][0].bert.encoder.layer[2].output.LayerNorm.weight"}, tensor<768xbf16> {jax.result_info = "result[1][0].bert.encoder.layer[2].output.LayerNorm.bias"}, tensor<768x768xbf16> {jax.result_info = "result[1][0].bert.encoder.layer[3].attention.self.query.weight"}, tensor<768xbf16> {jax.result_info = "result[1][0].bert.encoder.layer[3].attention.self.query.bias"}, tensor<768x768xbf16> {jax.result_info = "result[1][0].bert.encoder.layer[3].attention.self.value.weight"}, tensor<768xbf16> {jax.result_info = "result[1][0].bert.encoder.layer[3].attention.self.value.bias"}, tensor<768x768xbf16> {jax.result_info = "result[1][0].bert.encoder.layer[3].attention.self.key.weight"}, tensor<768xbf16> {jax.result_info = "result[1][0].bert.encoder.layer[3].attention.self.key.bias"}, tensor<768x768xbf16> {jax.result_info = "result[1][0].bert.encoder.layer[3].attention.output.dense.weight"}, tensor<768xbf16> {jax.result_info = "result[1][0].bert.encoder.layer[3].attention.output.dense.bias"}, tensor<768xbf16> {jax.result_info = "result[1][0].bert.encoder.layer[3].attention.output.LayerNorm.weight"}, tensor<768xbf16> {jax.result_info = "result[1][0].bert.encoder.layer[3].attention.output.LayerNorm.bias"}, tensor<3072x768xbf16> {jax.result_info = "result[1][0].bert.encoder.layer[3].intermediate.dense.weight"}, tensor<3072xbf16> {jax.result_info = "result[1][0].bert.encoder.layer[3].intermediate.dense.bias"}, tensor<768x3072xbf16> {jax.result_info = "result[1][0].bert.encoder.layer[3].output.dense.weight"}, tensor<768xbf16> {jax.result_info = "result[1][0].bert.encoder.layer[3].output.dense.bias"}, tensor<768xbf16> {jax.result_info = "result[1][0].bert.encoder.layer[3].output.LayerNorm.weight"}, tensor<768xbf16> {jax.result_info = "result[1][0].bert.encoder.layer[3].output.LayerNorm.bias"}, tensor<768x768xbf16> {jax.result_info = "result[1][0].bert.encoder.layer[4].attention.self.query.weight"}, tensor<768xbf16> {jax.result_info = "result[1][0].bert.encoder.layer[4].attention.self.query.bias"}, tensor<768x768xbf16> {jax.result_info = "result[1][0].bert.encoder.layer[4].attention.self.value.weight"}, tensor<768xbf16> {jax.result_info = "result[1][0].bert.encoder.layer[4].attention.self.value.bias"}, tensor<768x768xbf16> {jax.result_info = "result[1][0].bert.encoder.layer[4].attention.self.key.weight"}, tensor<768xbf16> {jax.result_info = "result[1][0].bert.encoder.layer[4].attention.self.key.bias"}, tensor<768x768xbf16> {jax.result_info = "result[1][0].bert.encoder.layer[4].attention.output.dense.weight"}, tensor<768xbf16> {jax.result_info = "result[1][0].bert.encoder.layer[4].attention.output.dense.bias"}, tensor<768xbf16> {jax.result_info = "result[1][0].bert.encoder.layer[4].attention.output.LayerNorm.weight"}, tensor<768xbf16> {jax.result_info = "result[1][0].bert.encoder.layer[4].attention.output.LayerNorm.bias"}, tensor<3072x768xbf16> {jax.result_info = "result[1][0].bert.encoder.layer[4].intermediate.dense.weight"}, tensor<3072xbf16> {jax.result_info = "result[1][0].bert.encoder.layer[4].intermediate.dense.bias"}, tensor<768x3072xbf16> {jax.result_info = "result[1][0].bert.encoder.layer[4].output.dense.weight"}, tensor<768xbf16> {jax.result_info = "result[1][0].bert.encoder.layer[4].output.dense.bias"}, tensor<768xbf16> {jax.result_info = "result[1][0].bert.encoder.layer[4].output.LayerNorm.weight"}, tensor<768xbf16> {jax.result_info = "result[1][0].bert.encoder.layer[4].output.LayerNorm.bias"}, tensor<768x768xbf16> {jax.result_info = "result[1][0].bert.encoder.layer[5].attention.self.query.weight"}, tensor<768xbf16> {jax.result_info = "result[1][0].bert.encoder.layer[5].attention.self.query.bias"}, tensor<768x768xbf16> {jax.result_info = "result[1][0].bert.encoder.layer[5].attention.self.value.weight"}, tensor<768xbf16> {jax.result_info = "result[1][0].bert.encoder.layer[5].attention.self.value.bias"}, tensor<768x768xbf16> {jax.result_info = "result[1][0].bert.encoder.layer[5].attention.self.key.weight"}, tensor<768xbf16> {jax.result_info = "result[1][0].bert.encoder.layer[5].attention.self.key.bias"}, tensor<768x768xbf16> {jax.result_info = "result[1][0].bert.encoder.layer[5].attention.output.dense.weight"}, tensor<768xbf16> {jax.result_info = "result[1][0].bert.encoder.layer[5].attention.output.dense.bias"}, tensor<768xbf16> {jax.result_info = "result[1][0].bert.encoder.layer[5].attention.output.LayerNorm.weight"}, tensor<768xbf16> {jax.result_info = "result[1][0].bert.encoder.layer[5].attention.output.LayerNorm.bias"}, tensor<3072x768xbf16> {jax.result_info = "result[1][0].bert.encoder.layer[5].intermediate.dense.weight"}, tensor<3072xbf16> {jax.result_info = "result[1][0].bert.encoder.layer[5].intermediate.dense.bias"}, tensor<768x3072xbf16> {jax.result_info = "result[1][0].bert.encoder.layer[5].output.dense.weight"}, tensor<768xbf16> {jax.result_info = "result[1][0].bert.encoder.layer[5].output.dense.bias"}, tensor<768xbf16> {jax.result_info = "result[1][0].bert.encoder.layer[5].output.LayerNorm.weight"}, tensor<768xbf16> {jax.result_info = "result[1][0].bert.encoder.layer[5].output.LayerNorm.bias"}, tensor<768x768xbf16> {jax.result_info = "result[1][0].bert.encoder.layer[6].attention.self.query.weight"}, tensor<768xbf16> {jax.result_info = "result[1][0].bert.encoder.layer[6].attention.self.query.bias"}, tensor<768x768xbf16> {jax.result_info = "result[1][0].bert.encoder.layer[6].attention.self.value.weight"}, tensor<768xbf16> {jax.result_info = "result[1][0].bert.encoder.layer[6].attention.self.value.bias"}, tensor<768x768xbf16> {jax.result_info = "result[1][0].bert.encoder.layer[6].attention.self.key.weight"}, tensor<768xbf16> {jax.result_info = "result[1][0].bert.encoder.layer[6].attention.self.key.bias"}, tensor<768x768xbf16> {jax.result_info = "result[1][0].bert.encoder.layer[6].attention.output.dense.weight"}, tensor<768xbf16> {jax.result_info = "result[1][0].bert.encoder.layer[6].attention.output.dense.bias"}, tensor<768xbf16> {jax.result_info = "result[1][0].bert.encoder.layer[6].attention.output.LayerNorm.weight"}, tensor<768xbf16> {jax.result_info = "result[1][0].bert.encoder.layer[6].attention.output.LayerNorm.bias"}, tensor<3072x768xbf16> {jax.result_info = "result[1][0].bert.encoder.layer[6].intermediate.dense.weight"}, tensor<3072xbf16> {jax.result_info = "result[1][0].bert.encoder.layer[6].intermediate.dense.bias"}, tensor<768x3072xbf16> {jax.result_info = "result[1][0].bert.encoder.layer[6].output.dense.weight"}, tensor<768xbf16> {jax.result_info = "result[1][0].bert.encoder.layer[6].output.dense.bias"}, tensor<768xbf16> {jax.result_info = "result[1][0].bert.encoder.layer[6].output.LayerNorm.weight"}, tensor<768xbf16> {jax.result_info = "result[1][0].bert.encoder.layer[6].output.LayerNorm.bias"}, tensor<768x768xbf16> {jax.result_info = "result[1][0].bert.encoder.layer[7].attention.self.query.weight"}, tensor<768xbf16> {jax.result_info = "result[1][0].bert.encoder.layer[7].attention.self.query.bias"}, tensor<768x768xbf16> {jax.result_info = "result[1][0].bert.encoder.layer[7].attention.self.value.weight"}, tensor<768xbf16> {jax.result_info = "result[1][0].bert.encoder.layer[7].attention.self.value.bias"}, tensor<768x768xbf16> {jax.result_info = "result[1][0].bert.encoder.layer[7].attention.self.key.weight"}, tensor<768xbf16> {jax.result_info = "result[1][0].bert.encoder.layer[7].attention.self.key.bias"}, tensor<768x768xbf16> {jax.result_info = "result[1][0].bert.encoder.layer[7].attention.output.dense.weight"}, tensor<768xbf16> {jax.result_info = "result[1][0].bert.encoder.layer[7].attention.output.dense.bias"}, tensor<768xbf16> {jax.result_info = "result[1][0].bert.encoder.layer[7].attention.output.LayerNorm.weight"}, tensor<768xbf16> {jax.result_info = "result[1][0].bert.encoder.layer[7].attention.output.LayerNorm.bias"}, tensor<3072x768xbf16> {jax.result_info = "result[1][0].bert.encoder.layer[7].intermediate.dense.weight"}, tensor<3072xbf16> {jax.result_info = "result[1][0].bert.encoder.layer[7].intermediate.dense.bias"}, tensor<768x3072xbf16> {jax.result_info = "result[1][0].bert.encoder.layer[7].output.dense.weight"}, tensor<768xbf16> {jax.result_info = "result[1][0].bert.encoder.layer[7].output.dense.bias"}, tensor<768xbf16> {jax.result_info = "result[1][0].bert.encoder.layer[7].output.LayerNorm.weight"}, tensor<768xbf16> {jax.result_info = "result[1][0].bert.encoder.layer[7].output.LayerNorm.bias"}, tensor<768x768xbf16> {jax.result_info = "result[1][0].bert.encoder.layer[8].attention.self.query.weight"}, tensor<768xbf16> {jax.result_info = "result[1][0].bert.encoder.layer[8].attention.self.query.bias"}, tensor<768x768xbf16> {jax.result_info = "result[1][0].bert.encoder.layer[8].attention.self.value.weight"}, tensor<768xbf16> {jax.result_info = "result[1][0].bert.encoder.layer[8].attention.self.value.bias"}, tensor<768x768xbf16> {jax.result_info = "result[1][0].bert.encoder.layer[8].attention.self.key.weight"}, tensor<768xbf16> {jax.result_info = "result[1][0].bert.encoder.layer[8].attention.self.key.bias"}, tensor<768x768xbf16> {jax.result_info = "result[1][0].bert.encoder.layer[8].attention.output.dense.weight"}, tensor<768xbf16> {jax.result_info = "result[1][0].bert.encoder.layer[8].attention.output.dense.bias"}, tensor<768xbf16> {jax.result_info = "result[1][0].bert.encoder.layer[8].attention.output.LayerNorm.weight"}, tensor<768xbf16> {jax.result_info = "result[1][0].bert.encoder.layer[8].attention.output.LayerNorm.bias"}, tensor<3072x768xbf16> {jax.result_info = "result[1][0].bert.encoder.layer[8].intermediate.dense.weight"}, tensor<3072xbf16> {jax.result_info = "result[1][0].bert.encoder.layer[8].intermediate.dense.bias"}, tensor<768x3072xbf16> {jax.result_info = "result[1][0].bert.encoder.layer[8].output.dense.weight"}, tensor<768xbf16> {jax.result_info = "result[1][0].bert.encoder.layer[8].output.dense.bias"}, tensor<768xbf16> {jax.result_info = "result[1][0].bert.encoder.layer[8].output.LayerNorm.weight"}, tensor<768xbf16> {jax.result_info = "result[1][0].bert.encoder.layer[8].output.LayerNorm.bias"}, tensor<768x768xbf16> {jax.result_info = "result[1][0].bert.encoder.layer[9].attention.self.query.weight"}, tensor<768xbf16> {jax.result_info = "result[1][0].bert.encoder.layer[9].attention.self.query.bias"}, tensor<768x768xbf16> {jax.result_info = "result[1][0].bert.encoder.layer[9].attention.self.value.weight"}, tensor<768xbf16> {jax.result_info = "result[1][0].bert.encoder.layer[9].attention.self.value.bias"}, tensor<768x768xbf16> {jax.result_info = "result[1][0].bert.encoder.layer[9].attention.self.key.weight"}, tensor<768xbf16> {jax.result_info = "result[1][0].bert.encoder.layer[9].attention.self.key.bias"}, tensor<768x768xbf16> {jax.result_info = "result[1][0].bert.encoder.layer[9].attention.output.dense.weight"}, tensor<768xbf16> {jax.result_info = "result[1][0].bert.encoder.layer[9].attention.output.dense.bias"}, tensor<768xbf16> {jax.result_info = "result[1][0].bert.encoder.layer[9].attention.output.LayerNorm.weight"}, tensor<768xbf16> {jax.result_info = "result[1][0].bert.encoder.layer[9].attention.output.LayerNorm.bias"}, tensor<3072x768xbf16> {jax.result_info = "result[1][0].bert.encoder.layer[9].intermediate.dense.weight"}, tensor<3072xbf16> {jax.result_info = "result[1][0].bert.encoder.layer[9].intermediate.dense.bias"}, tensor<768x3072xbf16> {jax.result_info = "result[1][0].bert.encoder.layer[9].output.dense.weight"}, tensor<768xbf16> {jax.result_info = "result[1][0].bert.encoder.layer[9].output.dense.bias"}, tensor<768xbf16> {jax.result_info = "result[1][0].bert.encoder.layer[9].output.LayerNorm.weight"}, tensor<768xbf16> {jax.result_info = "result[1][0].bert.encoder.layer[9].output.LayerNorm.bias"}, tensor<768x768xbf16> {jax.result_info = "result[1][0].bert.encoder.layer[10].attention.self.query.weight"}, tensor<768xbf16> {jax.result_info = "result[1][0].bert.encoder.layer[10].attention.self.query.bias"}, tensor<768x768xbf16> {jax.result_info = "result[1][0].bert.encoder.layer[10].attention.self.value.weight"}, tensor<768xbf16> {jax.result_info = "result[1][0].bert.encoder.layer[10].attention.self.value.bias"}, tensor<768x768xbf16> {jax.result_info = "result[1][0].bert.encoder.layer[10].attention.self.key.weight"}, tensor<768xbf16> {jax.result_info = "result[1][0].bert.encoder.layer[10].attention.self.key.bias"}, tensor<768x768xbf16> {jax.result_info = "result[1][0].bert.encoder.layer[10].attention.output.dense.weight"}, tensor<768xbf16> {jax.result_info = "result[1][0].bert.encoder.layer[10].attention.output.dense.bias"}, tensor<768xbf16> {jax.result_info = "result[1][0].bert.encoder.layer[10].attention.output.LayerNorm.weight"}, tensor<768xbf16> {jax.result_info = "result[1][0].bert.encoder.layer[10].attention.output.LayerNorm.bias"}, tensor<3072x768xbf16> {jax.result_info = "result[1][0].bert.encoder.layer[10].intermediate.dense.weight"}, tensor<3072xbf16> {jax.result_info = "result[1][0].bert.encoder.layer[10].intermediate.dense.bias"}, tensor<768x3072xbf16> {jax.result_info = "result[1][0].bert.encoder.layer[10].output.dense.weight"}, tensor<768xbf16> {jax.result_info = "result[1][0].bert.encoder.layer[10].output.dense.bias"}, tensor<768xbf16> {jax.result_info = "result[1][0].bert.encoder.layer[10].output.LayerNorm.weight"}, tensor<768xbf16> {jax.result_info = "result[1][0].bert.encoder.layer[10].output.LayerNorm.bias"}, tensor<768x768xbf16> {jax.result_info = "result[1][0].bert.encoder.layer[11].attention.self.query.weight"}, tensor<768xbf16> {jax.result_info = "result[1][0].bert.encoder.layer[11].attention.self.query.bias"}, tensor<768x768xbf16> {jax.result_info = "result[1][0].bert.encoder.layer[11].attention.self.value.weight"}, tensor<768xbf16> {jax.result_info = "result[1][0].bert.encoder.layer[11].attention.self.value.bias"}, tensor<768x768xbf16> {jax.result_info = "result[1][0].bert.encoder.layer[11].attention.self.key.weight"}, tensor<768xbf16> {jax.result_info = "result[1][0].bert.encoder.layer[11].attention.self.key.bias"}, tensor<768x768xbf16> {jax.result_info = "result[1][0].bert.encoder.layer[11].attention.output.dense.weight"}, tensor<768xbf16> {jax.result_info = "result[1][0].bert.encoder.layer[11].attention.output.dense.bias"}, tensor<768xbf16> {jax.result_info = "result[1][0].bert.encoder.layer[11].attention.output.LayerNorm.weight"}, tensor<768xbf16> {jax.result_info = "result[1][0].bert.encoder.layer[11].attention.output.LayerNorm.bias"}, tensor<3072x768xbf16> {jax.result_info = "result[1][0].bert.encoder.layer[11].intermediate.dense.weight"}, tensor<3072xbf16> {jax.result_info = "result[1][0].bert.encoder.layer[11].intermediate.dense.bias"}, tensor<768x3072xbf16> {jax.result_info = "result[1][0].bert.encoder.layer[11].output.dense.weight"}, tensor<768xbf16> {jax.result_info = "result[1][0].bert.encoder.layer[11].output.dense.bias"}, tensor<768xbf16> {jax.result_info = "result[1][0].bert.encoder.layer[11].output.LayerNorm.weight"}, tensor<768xbf16> {jax.result_info = "result[1][0].bert.encoder.layer[11].output.LayerNorm.bias"}, tensor<768x768xbf16> {jax.result_info = "result[1][0].cls.predictions.transform.dense.weight"}, tensor<768xbf16> {jax.result_info = "result[1][0].cls.predictions.transform.dense.bias"}, tensor<768xbf16> {jax.result_info = "result[1][0].cls.predictions.transform.LayerNorm.weight"}, tensor<768xbf16> {jax.result_info = "result[1][0].cls.predictions.transform.LayerNorm.bias"}, tensor<30522xbf16> {jax.result_info = "result[1][0].cls.predictions.bias"}, tensor<i32> {jax.result_info = "result[1][1].opt_state[1][0].count"}, tensor<30522x768xbf16> {jax.result_info = "result[1][1].opt_state[1][0].mu.bert.embeddings.word_embeddings.weight"}, tensor<512x768xbf16> {jax.result_info = "result[1][1].opt_state[1][0].mu.bert.embeddings.position_embeddings.weight"}, tensor<2x768xbf16> {jax.result_info = "result[1][1].opt_state[1][0].mu.bert.embeddings.token_type_embeddings.weight"}, tensor<768xbf16> {jax.result_info = "result[1][1].opt_state[1][0].mu.bert.embeddings.LayerNorm.weight"}, tensor<768xbf16> {jax.result_info = "result[1][1].opt_state[1][0].mu.bert.embeddings.LayerNorm.bias"}, tensor<768x768xbf16> {jax.result_info = "result[1][1].opt_state[1][0].mu.bert.encoder.layer[0].attention.self.query.weight"}, tensor<768xbf16> {jax.result_info = "result[1][1].opt_state[1][0].mu.bert.encoder.layer[0].attention.self.query.bias"}, tensor<768x768xbf16> {jax.result_info = "result[1][1].opt_state[1][0].mu.bert.encoder.layer[0].attention.self.value.weight"}, tensor<768xbf16> {jax.result_info = "result[1][1].opt_state[1][0].mu.bert.encoder.layer[0].attention.self.value.bias"}, tensor<768x768xbf16> {jax.result_info = "result[1][1].opt_state[1][0].mu.bert.encoder.layer[0].attention.self.key.weight"}, tensor<768xbf16> {jax.result_info = "result[1][1].opt_state[1][0].mu.bert.encoder.layer[0].attention.self.key.bias"}, tensor<768x768xbf16> {jax.result_info = "result[1][1].opt_state[1][0].mu.bert.encoder.layer[0].attention.output.dense.weight"}, tensor<768xbf16> {jax.result_info = "result[1][1].opt_state[1][0].mu.bert.encoder.layer[0].attention.output.dense.bias"}, tensor<768xbf16> {jax.result_info = "result[1][1].opt_state[1][0].mu.bert.encoder.layer[0].attention.output.LayerNorm.weight"}, tensor<768xbf16> {jax.result_info = "result[1][1].opt_state[1][0].mu.bert.encoder.layer[0].attention.output.LayerNorm.bias"}, tensor<3072x768xbf16> {jax.result_info = "result[1][1].opt_state[1][0].mu.bert.encoder.layer[0].intermediate.dense.weight"}, tensor<3072xbf16> {jax.result_info = "result[1][1].opt_state[1][0].mu.bert.encoder.layer[0].intermediate.dense.bias"}, tensor<768x3072xbf16> {jax.result_info = "result[1][1].opt_state[1][0].mu.bert.encoder.layer[0].output.dense.weight"}, tensor<768xbf16> {jax.result_info = "result[1][1].opt_state[1][0].mu.bert.encoder.layer[0].output.dense.bias"}, tensor<768xbf16> {jax.result_info = "result[1][1].opt_state[1][0].mu.bert.encoder.layer[0].output.LayerNorm.weight"}, tensor<768xbf16> {jax.result_info = "result[1][1].opt_state[1][0].mu.bert.encoder.layer[0].output.LayerNorm.bias"}, tensor<768x768xbf16> {jax.result_info = "result[1][1].opt_state[1][0].mu.bert.encoder.layer[1].attention.self.query.weight"}, tensor<768xbf16> {jax.result_info = "result[1][1].opt_state[1][0].mu.bert.encoder.layer[1].attention.self.query.bias"}, tensor<768x768xbf16> {jax.result_info = "result[1][1].opt_state[1][0].mu.bert.encoder.layer[1].attention.self.value.weight"}, tensor<768xbf16> {jax.result_info = "result[1][1].opt_state[1][0].mu.bert.encoder.layer[1].attention.self.value.bias"}, tensor<768x768xbf16> {jax.result_info = "result[1][1].opt_state[1][0].mu.bert.encoder.layer[1].attention.self.key.weight"}, tensor<768xbf16> {jax.result_info = "result[1][1].opt_state[1][0].mu.bert.encoder.layer[1].attention.self.key.bias"}, tensor<768x768xbf16> {jax.result_info = "result[1][1].opt_state[1][0].mu.bert.encoder.layer[1].attention.output.dense.weight"}, tensor<768xbf16> {jax.result_info = "result[1][1].opt_state[1][0].mu.bert.encoder.layer[1].attention.output.dense.bias"}, tensor<768xbf16> {jax.result_info = "result[1][1].opt_state[1][0].mu.bert.encoder.layer[1].attention.output.LayerNorm.weight"}, tensor<768xbf16> {jax.result_info = "result[1][1].opt_state[1][0].mu.bert.encoder.layer[1].attention.output.LayerNorm.bias"}, tensor<3072x768xbf16> {jax.result_info = "result[1][1].opt_state[1][0].mu.bert.encoder.layer[1].intermediate.dense.weight"}, tensor<3072xbf16> {jax.result_info = "result[1][1].opt_state[1][0].mu.bert.encoder.layer[1].intermediate.dense.bias"}, tensor<768x3072xbf16> {jax.result_info = "result[1][1].opt_state[1][0].mu.bert.encoder.layer[1].output.dense.weight"}, tensor<768xbf16> {jax.result_info = "result[1][1].opt_state[1][0].mu.bert.encoder.layer[1].output.dense.bias"}, tensor<768xbf16> {jax.result_info = "result[1][1].opt_state[1][0].mu.bert.encoder.layer[1].output.LayerNorm.weight"}, tensor<768xbf16> {jax.result_info = "result[1][1].opt_state[1][0].mu.bert.encoder.layer[1].output.LayerNorm.bias"}, tensor<768x768xbf16> {jax.result_info = "result[1][1].opt_state[1][0].mu.bert.encoder.layer[2].attention.self.query.weight"}, tensor<768xbf16> {jax.result_info = "result[1][1].opt_state[1][0].mu.bert.encoder.layer[2].attention.self.query.bias"}, tensor<768x768xbf16> {jax.result_info = "result[1][1].opt_state[1][0].mu.bert.encoder.layer[2].attention.self.value.weight"}, tensor<768xbf16> {jax.result_info = "result[1][1].opt_state[1][0].mu.bert.encoder.layer[2].attention.self.value.bias"}, tensor<768x768xbf16> {jax.result_info = "result[1][1].opt_state[1][0].mu.bert.encoder.layer[2].attention.self.key.weight"}, tensor<768xbf16> {jax.result_info = "result[1][1].opt_state[1][0].mu.bert.encoder.layer[2].attention.self.key.bias"}, tensor<768x768xbf16> {jax.result_info = "result[1][1].opt_state[1][0].mu.bert.encoder.layer[2].attention.output.dense.weight"}, tensor<768xbf16> {jax.result_info = "result[1][1].opt_state[1][0].mu.bert.encoder.layer[2].attention.output.dense.bias"}, tensor<768xbf16> {jax.result_info = "result[1][1].opt_state[1][0].mu.bert.encoder.layer[2].attention.output.LayerNorm.weight"}, tensor<768xbf16> {jax.result_info = "result[1][1].opt_state[1][0].mu.bert.encoder.layer[2].attention.output.LayerNorm.bias"}, tensor<3072x768xbf16> {jax.result_info = "result[1][1].opt_state[1][0].mu.bert.encoder.layer[2].intermediate.dense.weight"}, tensor<3072xbf16> {jax.result_info = "result[1][1].opt_state[1][0].mu.bert.encoder.layer[2].intermediate.dense.bias"}, tensor<768x3072xbf16> {jax.result_info = "result[1][1].opt_state[1][0].mu.bert.encoder.layer[2].output.dense.weight"}, tensor<768xbf16> {jax.result_info = "result[1][1].opt_state[1][0].mu.bert.encoder.layer[2].output.dense.bias"}, tensor<768xbf16> {jax.result_info = "result[1][1].opt_state[1][0].mu.bert.encoder.layer[2].output.LayerNorm.weight"}, tensor<768xbf16> {jax.result_info = "result[1][1].opt_state[1][0].mu.bert.encoder.layer[2].output.LayerNorm.bias"}, tensor<768x768xbf16> {jax.result_info = "result[1][1].opt_state[1][0].mu.bert.encoder.layer[3].attention.self.query.weight"}, tensor<768xbf16> {jax.result_info = "result[1][1].opt_state[1][0].mu.bert.encoder.layer[3].attention.self.query.bias"}, tensor<768x768xbf16> {jax.result_info = "result[1][1].opt_state[1][0].mu.bert.encoder.layer[3].attention.self.value.weight"}, tensor<768xbf16> {jax.result_info = "result[1][1].opt_state[1][0].mu.bert.encoder.layer[3].attention.self.value.bias"}, tensor<768x768xbf16> {jax.result_info = "result[1][1].opt_state[1][0].mu.bert.encoder.layer[3].attention.self.key.weight"}, tensor<768xbf16> {jax.result_info = "result[1][1].opt_state[1][0].mu.bert.encoder.layer[3].attention.self.key.bias"}, tensor<768x768xbf16> {jax.result_info = "result[1][1].opt_state[1][0].mu.bert.encoder.layer[3].attention.output.dense.weight"}, tensor<768xbf16> {jax.result_info = "result[1][1].opt_state[1][0].mu.bert.encoder.layer[3].attention.output.dense.bias"}, tensor<768xbf16> {jax.result_info = "result[1][1].opt_state[1][0].mu.bert.encoder.layer[3].attention.output.LayerNorm.weight"}, tensor<768xbf16> {jax.result_info = "result[1][1].opt_state[1][0].mu.bert.encoder.layer[3].attention.output.LayerNorm.bias"}, tensor<3072x768xbf16> {jax.result_info = "result[1][1].opt_state[1][0].mu.bert.encoder.layer[3].intermediate.dense.weight"}, tensor<3072xbf16> {jax.result_info = "result[1][1].opt_state[1][0].mu.bert.encoder.layer[3].intermediate.dense.bias"}, tensor<768x3072xbf16> {jax.result_info = "result[1][1].opt_state[1][0].mu.bert.encoder.layer[3].output.dense.weight"}, tensor<768xbf16> {jax.result_info = "result[1][1].opt_state[1][0].mu.bert.encoder.layer[3].output.dense.bias"}, tensor<768xbf16> {jax.result_info = "result[1][1].opt_state[1][0].mu.bert.encoder.layer[3].output.LayerNorm.weight"}, tensor<768xbf16> {jax.result_info = "result[1][1].opt_state[1][0].mu.bert.encoder.layer[3].output.LayerNorm.bias"}, tensor<768x768xbf16> {jax.result_info = "result[1][1].opt_state[1][0].mu.bert.encoder.layer[4].attention.self.query.weight"}, tensor<768xbf16> {jax.result_info = "result[1][1].opt_state[1][0].mu.bert.encoder.layer[4].attention.self.query.bias"}, tensor<768x768xbf16> {jax.result_info = "result[1][1].opt_state[1][0].mu.bert.encoder.layer[4].attention.self.value.weight"}, tensor<768xbf16> {jax.result_info = "result[1][1].opt_state[1][0].mu.bert.encoder.layer[4].attention.self.value.bias"}, tensor<768x768xbf16> {jax.result_info = "result[1][1].opt_state[1][0].mu.bert.encoder.layer[4].attention.self.key.weight"}, tensor<768xbf16> {jax.result_info = "result[1][1].opt_state[1][0].mu.bert.encoder.layer[4].attention.self.key.bias"}, tensor<768x768xbf16> {jax.result_info = "result[1][1].opt_state[1][0].mu.bert.encoder.layer[4].attention.output.dense.weight"}, tensor<768xbf16> {jax.result_info = "result[1][1].opt_state[1][0].mu.bert.encoder.layer[4].attention.output.dense.bias"}, tensor<768xbf16> {jax.result_info = "result[1][1].opt_state[1][0].mu.bert.encoder.layer[4].attention.output.LayerNorm.weight"}, tensor<768xbf16> {jax.result_info = "result[1][1].opt_state[1][0].mu.bert.encoder.layer[4].attention.output.LayerNorm.bias"}, tensor<3072x768xbf16> {jax.result_info = "result[1][1].opt_state[1][0].mu.bert.encoder.layer[4].intermediate.dense.weight"}, tensor<3072xbf16> {jax.result_info = "result[1][1].opt_state[1][0].mu.bert.encoder.layer[4].intermediate.dense.bias"}, tensor<768x3072xbf16> {jax.result_info = "result[1][1].opt_state[1][0].mu.bert.encoder.layer[4].output.dense.weight"}, tensor<768xbf16> {jax.result_info = "result[1][1].opt_state[1][0].mu.bert.encoder.layer[4].output.dense.bias"}, tensor<768xbf16> {jax.result_info = "result[1][1].opt_state[1][0].mu.bert.encoder.layer[4].output.LayerNorm.weight"}, tensor<768xbf16> {jax.result_info = "result[1][1].opt_state[1][0].mu.bert.encoder.layer[4].output.LayerNorm.bias"}, tensor<768x768xbf16> {jax.result_info = "result[1][1].opt_state[1][0].mu.bert.encoder.layer[5].attention.self.query.weight"}, tensor<768xbf16> {jax.result_info = "result[1][1].opt_state[1][0].mu.bert.encoder.layer[5].attention.self.query.bias"}, tensor<768x768xbf16> {jax.result_info = "result[1][1].opt_state[1][0].mu.bert.encoder.layer[5].attention.self.value.weight"}, tensor<768xbf16> {jax.result_info = "result[1][1].opt_state[1][0].mu.bert.encoder.layer[5].attention.self.value.bias"}, tensor<768x768xbf16> {jax.result_info = "result[1][1].opt_state[1][0].mu.bert.encoder.layer[5].attention.self.key.weight"}, tensor<768xbf16> {jax.result_info = "result[1][1].opt_state[1][0].mu.bert.encoder.layer[5].attention.self.key.bias"}, tensor<768x768xbf16> {jax.result_info = "result[1][1].opt_state[1][0].mu.bert.encoder.layer[5].attention.output.dense.weight"}, tensor<768xbf16> {jax.result_info = "result[1][1].opt_state[1][0].mu.bert.encoder.layer[5].attention.output.dense.bias"}, tensor<768xbf16> {jax.result_info = "result[1][1].opt_state[1][0].mu.bert.encoder.layer[5].attention.output.LayerNorm.weight"}, tensor<768xbf16> {jax.result_info = "result[1][1].opt_state[1][0].mu.bert.encoder.layer[5].attention.output.LayerNorm.bias"}, tensor<3072x768xbf16> {jax.result_info = "result[1][1].opt_state[1][0].mu.bert.encoder.layer[5].intermediate.dense.weight"}, tensor<3072xbf16> {jax.result_info = "result[1][1].opt_state[1][0].mu.bert.encoder.layer[5].intermediate.dense.bias"}, tensor<768x3072xbf16> {jax.result_info = "result[1][1].opt_state[1][0].mu.bert.encoder.layer[5].output.dense.weight"}, tensor<768xbf16> {jax.result_info = "result[1][1].opt_state[1][0].mu.bert.encoder.layer[5].output.dense.bias"}, tensor<768xbf16> {jax.result_info = "result[1][1].opt_state[1][0].mu.bert.encoder.layer[5].output.LayerNorm.weight"}, tensor<768xbf16> {jax.result_info = "result[1][1].opt_state[1][0].mu.bert.encoder.layer[5].output.LayerNorm.bias"}, tensor<768x768xbf16> {jax.result_info = "result[1][1].opt_state[1][0].mu.bert.encoder.layer[6].attention.self.query.weight"}, tensor<768xbf16> {jax.result_info = "result[1][1].opt_state[1][0].mu.bert.encoder.layer[6].attention.self.query.bias"}, tensor<768x768xbf16> {jax.result_info = "result[1][1].opt_state[1][0].mu.bert.encoder.layer[6].attention.self.value.weight"}, tensor<768xbf16> {jax.result_info = "result[1][1].opt_state[1][0].mu.bert.encoder.layer[6].attention.self.value.bias"}, tensor<768x768xbf16> {jax.result_info = "result[1][1].opt_state[1][0].mu.bert.encoder.layer[6].attention.self.key.weight"}, tensor<768xbf16> {jax.result_info = "result[1][1].opt_state[1][0].mu.bert.encoder.layer[6].attention.self.key.bias"}, tensor<768x768xbf16> {jax.result_info = "result[1][1].opt_state[1][0].mu.bert.encoder.layer[6].attention.output.dense.weight"}, tensor<768xbf16> {jax.result_info = "result[1][1].opt_state[1][0].mu.bert.encoder.layer[6].attention.output.dense.bias"}, tensor<768xbf16> {jax.result_info = "result[1][1].opt_state[1][0].mu.bert.encoder.layer[6].attention.output.LayerNorm.weight"}, tensor<768xbf16> {jax.result_info = "result[1][1].opt_state[1][0].mu.bert.encoder.layer[6].attention.output.LayerNorm.bias"}, tensor<3072x768xbf16> {jax.result_info = "result[1][1].opt_state[1][0].mu.bert.encoder.layer[6].intermediate.dense.weight"}, tensor<3072xbf16> {jax.result_info = "result[1][1].opt_state[1][0].mu.bert.encoder.layer[6].intermediate.dense.bias"}, tensor<768x3072xbf16> {jax.result_info = "result[1][1].opt_state[1][0].mu.bert.encoder.layer[6].output.dense.weight"}, tensor<768xbf16> {jax.result_info = "result[1][1].opt_state[1][0].mu.bert.encoder.layer[6].output.dense.bias"}, tensor<768xbf16> {jax.result_info = "result[1][1].opt_state[1][0].mu.bert.encoder.layer[6].output.LayerNorm.weight"}, tensor<768xbf16> {jax.result_info = "result[1][1].opt_state[1][0].mu.bert.encoder.layer[6].output.LayerNorm.bias"}, tensor<768x768xbf16> {jax.result_info = "result[1][1].opt_state[1][0].mu.bert.encoder.layer[7].attention.self.query.weight"}, tensor<768xbf16> {jax.result_info = "result[1][1].opt_state[1][0].mu.bert.encoder.layer[7].attention.self.query.bias"}, tensor<768x768xbf16> {jax.result_info = "result[1][1].opt_state[1][0].mu.bert.encoder.layer[7].attention.self.value.weight"}, tensor<768xbf16> {jax.result_info = "result[1][1].opt_state[1][0].mu.bert.encoder.layer[7].attention.self.value.bias"}, tensor<768x768xbf16> {jax.result_info = "result[1][1].opt_state[1][0].mu.bert.encoder.layer[7].attention.self.key.weight"}, tensor<768xbf16> {jax.result_info = "result[1][1].opt_state[1][0].mu.bert.encoder.layer[7].attention.self.key.bias"}, tensor<768x768xbf16> {jax.result_info = "result[1][1].opt_state[1][0].mu.bert.encoder.layer[7].attention.output.dense.weight"}, tensor<768xbf16> {jax.result_info = "result[1][1].opt_state[1][0].mu.bert.encoder.layer[7].attention.output.dense.bias"}, tensor<768xbf16> {jax.result_info = "result[1][1].opt_state[1][0].mu.bert.encoder.layer[7].attention.output.LayerNorm.weight"}, tensor<768xbf16> {jax.result_info = "result[1][1].opt_state[1][0].mu.bert.encoder.layer[7].attention.output.LayerNorm.bias"}, tensor<3072x768xbf16> {jax.result_info = "result[1][1].opt_state[1][0].mu.bert.encoder.layer[7].intermediate.dense.weight"}, tensor<3072xbf16> {jax.result_info = "result[1][1].opt_state[1][0].mu.bert.encoder.layer[7].intermediate.dense.bias"}, tensor<768x3072xbf16> {jax.result_info = "result[1][1].opt_state[1][0].mu.bert.encoder.layer[7].output.dense.weight"}, tensor<768xbf16> {jax.result_info = "result[1][1].opt_state[1][0].mu.bert.encoder.layer[7].output.dense.bias"}, tensor<768xbf16> {jax.result_info = "result[1][1].opt_state[1][0].mu.bert.encoder.layer[7].output.LayerNorm.weight"}, tensor<768xbf16> {jax.result_info = "result[1][1].opt_state[1][0].mu.bert.encoder.layer[7].output.LayerNorm.bias"}, tensor<768x768xbf16> {jax.result_info = "result[1][1].opt_state[1][0].mu.bert.encoder.layer[8].attention.self.query.weight"}, tensor<768xbf16> {jax.result_info = "result[1][1].opt_state[1][0].mu.bert.encoder.layer[8].attention.self.query.bias"}, tensor<768x768xbf16> {jax.result_info = "result[1][1].opt_state[1][0].mu.bert.encoder.layer[8].attention.self.value.weight"}, tensor<768xbf16> {jax.result_info = "result[1][1].opt_state[1][0].mu.bert.encoder.layer[8].attention.self.value.bias"}, tensor<768x768xbf16> {jax.result_info = "result[1][1].opt_state[1][0].mu.bert.encoder.layer[8].attention.self.key.weight"}, tensor<768xbf16> {jax.result_info = "result[1][1].opt_state[1][0].mu.bert.encoder.layer[8].attention.self.key.bias"}, tensor<768x768xbf16> {jax.result_info = "result[1][1].opt_state[1][0].mu.bert.encoder.layer[8].attention.output.dense.weight"}, tensor<768xbf16> {jax.result_info = "result[1][1].opt_state[1][0].mu.bert.encoder.layer[8].attention.output.dense.bias"}, tensor<768xbf16> {jax.result_info = "result[1][1].opt_state[1][0].mu.bert.encoder.layer[8].attention.output.LayerNorm.weight"}, tensor<768xbf16> {jax.result_info = "result[1][1].opt_state[1][0].mu.bert.encoder.layer[8].attention.output.LayerNorm.bias"}, tensor<3072x768xbf16> {jax.result_info = "result[1][1].opt_state[1][0].mu.bert.encoder.layer[8].intermediate.dense.weight"}, tensor<3072xbf16> {jax.result_info = "result[1][1].opt_state[1][0].mu.bert.encoder.layer[8].intermediate.dense.bias"}, tensor<768x3072xbf16> {jax.result_info = "result[1][1].opt_state[1][0].mu.bert.encoder.layer[8].output.dense.weight"}, tensor<768xbf16> {jax.result_info = "result[1][1].opt_state[1][0].mu.bert.encoder.layer[8].output.dense.bias"}, tensor<768xbf16> {jax.result_info = "result[1][1].opt_state[1][0].mu.bert.encoder.layer[8].output.LayerNorm.weight"}, tensor<768xbf16> {jax.result_info = "result[1][1].opt_state[1][0].mu.bert.encoder.layer[8].output.LayerNorm.bias"}, tensor<768x768xbf16> {jax.result_info = "result[1][1].opt_state[1][0].mu.bert.encoder.layer[9].attention.self.query.weight"}, tensor<768xbf16> {jax.result_info = "result[1][1].opt_state[1][0].mu.bert.encoder.layer[9].attention.self.query.bias"}, tensor<768x768xbf16> {jax.result_info = "result[1][1].opt_state[1][0].mu.bert.encoder.layer[9].attention.self.value.weight"}, tensor<768xbf16> {jax.result_info = "result[1][1].opt_state[1][0].mu.bert.encoder.layer[9].attention.self.value.bias"}, tensor<768x768xbf16> {jax.result_info = "result[1][1].opt_state[1][0].mu.bert.encoder.layer[9].attention.self.key.weight"}, tensor<768xbf16> {jax.result_info = "result[1][1].opt_state[1][0].mu.bert.encoder.layer[9].attention.self.key.bias"}, tensor<768x768xbf16> {jax.result_info = "result[1][1].opt_state[1][0].mu.bert.encoder.layer[9].attention.output.dense.weight"}, tensor<768xbf16> {jax.result_info = "result[1][1].opt_state[1][0].mu.bert.encoder.layer[9].attention.output.dense.bias"}, tensor<768xbf16> {jax.result_info = "result[1][1].opt_state[1][0].mu.bert.encoder.layer[9].attention.output.LayerNorm.weight"}, tensor<768xbf16> {jax.result_info = "result[1][1].opt_state[1][0].mu.bert.encoder.layer[9].attention.output.LayerNorm.bias"}, tensor<3072x768xbf16> {jax.result_info = "result[1][1].opt_state[1][0].mu.bert.encoder.layer[9].intermediate.dense.weight"}, tensor<3072xbf16> {jax.result_info = "result[1][1].opt_state[1][0].mu.bert.encoder.layer[9].intermediate.dense.bias"}, tensor<768x3072xbf16> {jax.result_info = "result[1][1].opt_state[1][0].mu.bert.encoder.layer[9].output.dense.weight"}, tensor<768xbf16> {jax.result_info = "result[1][1].opt_state[1][0].mu.bert.encoder.layer[9].output.dense.bias"}, tensor<768xbf16> {jax.result_info = "result[1][1].opt_state[1][0].mu.bert.encoder.layer[9].output.LayerNorm.weight"}, tensor<768xbf16> {jax.result_info = "result[1][1].opt_state[1][0].mu.bert.encoder.layer[9].output.LayerNorm.bias"}, tensor<768x768xbf16> {jax.result_info = "result[1][1].opt_state[1][0].mu.bert.encoder.layer[10].attention.self.query.weight"}, tensor<768xbf16> {jax.result_info = "result[1][1].opt_state[1][0].mu.bert.encoder.layer[10].attention.self.query.bias"}, tensor<768x768xbf16> {jax.result_info = "result[1][1].opt_state[1][0].mu.bert.encoder.layer[10].attention.self.value.weight"}, tensor<768xbf16> {jax.result_info = "result[1][1].opt_state[1][0].mu.bert.encoder.layer[10].attention.self.value.bias"}, tensor<768x768xbf16> {jax.result_info = "result[1][1].opt_state[1][0].mu.bert.encoder.layer[10].attention.self.key.weight"}, tensor<768xbf16> {jax.result_info = "result[1][1].opt_state[1][0].mu.bert.encoder.layer[10].attention.self.key.bias"}, tensor<768x768xbf16> {jax.result_info = "result[1][1].opt_state[1][0].mu.bert.encoder.layer[10].attention.output.dense.weight"}, tensor<768xbf16> {jax.result_info = "result[1][1].opt_state[1][0].mu.bert.encoder.layer[10].attention.output.dense.bias"}, tensor<768xbf16> {jax.result_info = "result[1][1].opt_state[1][0].mu.bert.encoder.layer[10].attention.output.LayerNorm.weight"}, tensor<768xbf16> {jax.result_info = "result[1][1].opt_state[1][0].mu.bert.encoder.layer[10].attention.output.LayerNorm.bias"}, tensor<3072x768xbf16> {jax.result_info = "result[1][1].opt_state[1][0].mu.bert.encoder.layer[10].intermediate.dense.weight"}, tensor<3072xbf16> {jax.result_info = "result[1][1].opt_state[1][0].mu.bert.encoder.layer[10].intermediate.dense.bias"}, tensor<768x3072xbf16> {jax.result_info = "result[1][1].opt_state[1][0].mu.bert.encoder.layer[10].output.dense.weight"}, tensor<768xbf16> {jax.result_info = "result[1][1].opt_state[1][0].mu.bert.encoder.layer[10].output.dense.bias"}, tensor<768xbf16> {jax.result_info = "result[1][1].opt_state[1][0].mu.bert.encoder.layer[10].output.LayerNorm.weight"}, tensor<768xbf16> {jax.result_info = "result[1][1].opt_state[1][0].mu.bert.encoder.layer[10].output.LayerNorm.bias"}, tensor<768x768xbf16> {jax.result_info = "result[1][1].opt_state[1][0].mu.bert.encoder.layer[11].attention.self.query.weight"}, tensor<768xbf16> {jax.result_info = "result[1][1].opt_state[1][0].mu.bert.encoder.layer[11].attention.self.query.bias"}, tensor<768x768xbf16> {jax.result_info = "result[1][1].opt_state[1][0].mu.bert.encoder.layer[11].attention.self.value.weight"}, tensor<768xbf16> {jax.result_info = "result[1][1].opt_state[1][0].mu.bert.encoder.layer[11].attention.self.value.bias"}, tensor<768x768xbf16> {jax.result_info = "result[1][1].opt_state[1][0].mu.bert.encoder.layer[11].attention.self.key.weight"}, tensor<768xbf16> {jax.result_info = "result[1][1].opt_state[1][0].mu.bert.encoder.layer[11].attention.self.key.bias"}, tensor<768x768xbf16> {jax.result_info = "result[1][1].opt_state[1][0].mu.bert.encoder.layer[11].attention.output.dense.weight"}, tensor<768xbf16> {jax.result_info = "result[1][1].opt_state[1][0].mu.bert.encoder.layer[11].attention.output.dense.bias"}, tensor<768xbf16> {jax.result_info = "result[1][1].opt_state[1][0].mu.bert.encoder.layer[11].attention.output.LayerNorm.weight"}, tensor<768xbf16> {jax.result_info = "result[1][1].opt_state[1][0].mu.bert.encoder.layer[11].attention.output.LayerNorm.bias"}, tensor<3072x768xbf16> {jax.result_info = "result[1][1].opt_state[1][0].mu.bert.encoder.layer[11].intermediate.dense.weight"}, tensor<3072xbf16> {jax.result_info = "result[1][1].opt_state[1][0].mu.bert.encoder.layer[11].intermediate.dense.bias"}, tensor<768x3072xbf16> {jax.result_info = "result[1][1].opt_state[1][0].mu.bert.encoder.layer[11].output.dense.weight"}, tensor<768xbf16> {jax.result_info = "result[1][1].opt_state[1][0].mu.bert.encoder.layer[11].output.dense.bias"}, tensor<768xbf16> {jax.result_info = "result[1][1].opt_state[1][0].mu.bert.encoder.layer[11].output.LayerNorm.weight"}, tensor<768xbf16> {jax.result_info = "result[1][1].opt_state[1][0].mu.bert.encoder.layer[11].output.LayerNorm.bias"}, tensor<768x768xbf16> {jax.result_info = "result[1][1].opt_state[1][0].mu.cls.predictions.transform.dense.weight"}, tensor<768xbf16> {jax.result_info = "result[1][1].opt_state[1][0].mu.cls.predictions.transform.dense.bias"}, tensor<768xbf16> {jax.result_info = "result[1][1].opt_state[1][0].mu.cls.predictions.transform.LayerNorm.weight"}, tensor<768xbf16> {jax.result_info = "result[1][1].opt_state[1][0].mu.cls.predictions.transform.LayerNorm.bias"}, tensor<30522xbf16> {jax.result_info = "result[1][1].opt_state[1][0].mu.cls.predictions.bias"}, tensor<30522x768xbf16> {jax.result_info = "result[1][1].opt_state[1][0].nu.bert.embeddings.word_embeddings.weight"}, tensor<512x768xbf16> {jax.result_info = "result[1][1].opt_state[1][0].nu.bert.embeddings.position_embeddings.weight"}, tensor<2x768xbf16> {jax.result_info = "result[1][1].opt_state[1][0].nu.bert.embeddings.token_type_embeddings.weight"}, tensor<768xbf16> {jax.result_info = "result[1][1].opt_state[1][0].nu.bert.embeddings.LayerNorm.weight"}, tensor<768xbf16> {jax.result_info = "result[1][1].opt_state[1][0].nu.bert.embeddings.LayerNorm.bias"}, tensor<768x768xbf16> {jax.result_info = "result[1][1].opt_state[1][0].nu.bert.encoder.layer[0].attention.self.query.weight"}, tensor<768xbf16> {jax.result_info = "result[1][1].opt_state[1][0].nu.bert.encoder.layer[0].attention.self.query.bias"}, tensor<768x768xbf16> {jax.result_info = "result[1][1].opt_state[1][0].nu.bert.encoder.layer[0].attention.self.value.weight"}, tensor<768xbf16> {jax.result_info = "result[1][1].opt_state[1][0].nu.bert.encoder.layer[0].attention.self.value.bias"}, tensor<768x768xbf16> {jax.result_info = "result[1][1].opt_state[1][0].nu.bert.encoder.layer[0].attention.self.key.weight"}, tensor<768xbf16> {jax.result_info = "result[1][1].opt_state[1][0].nu.bert.encoder.layer[0].attention.self.key.bias"}, tensor<768x768xbf16> {jax.result_info = "result[1][1].opt_state[1][0].nu.bert.encoder.layer[0].attention.output.dense.weight"}, tensor<768xbf16> {jax.result_info = "result[1][1].opt_state[1][0].nu.bert.encoder.layer[0].attention.output.dense.bias"}, tensor<768xbf16> {jax.result_info = "result[1][1].opt_state[1][0].nu.bert.encoder.layer[0].attention.output.LayerNorm.weight"}, tensor<768xbf16> {jax.result_info = "result[1][1].opt_state[1][0].nu.bert.encoder.layer[0].attention.output.LayerNorm.bias"}, tensor<3072x768xbf16> {jax.result_info = "result[1][1].opt_state[1][0].nu.bert.encoder.layer[0].intermediate.dense.weight"}, tensor<3072xbf16> {jax.result_info = "result[1][1].opt_state[1][0].nu.bert.encoder.layer[0].intermediate.dense.bias"}, tensor<768x3072xbf16> {jax.result_info = "result[1][1].opt_state[1][0].nu.bert.encoder.layer[0].output.dense.weight"}, tensor<768xbf16> {jax.result_info = "result[1][1].opt_state[1][0].nu.bert.encoder.layer[0].output.dense.bias"}, tensor<768xbf16> {jax.result_info = "result[1][1].opt_state[1][0].nu.bert.encoder.layer[0].output.LayerNorm.weight"}, tensor<768xbf16> {jax.result_info = "result[1][1].opt_state[1][0].nu.bert.encoder.layer[0].output.LayerNorm.bias"}, tensor<768x768xbf16> {jax.result_info = "result[1][1].opt_state[1][0].nu.bert.encoder.layer[1].attention.self.query.weight"}, tensor<768xbf16> {jax.result_info = "result[1][1].opt_state[1][0].nu.bert.encoder.layer[1].attention.self.query.bias"}, tensor<768x768xbf16> {jax.result_info = "result[1][1].opt_state[1][0].nu.bert.encoder.layer[1].attention.self.value.weight"}, tensor<768xbf16> {jax.result_info = "result[1][1].opt_state[1][0].nu.bert.encoder.layer[1].attention.self.value.bias"}, tensor<768x768xbf16> {jax.result_info = "result[1][1].opt_state[1][0].nu.bert.encoder.layer[1].attention.self.key.weight"}, tensor<768xbf16> {jax.result_info = "result[1][1].opt_state[1][0].nu.bert.encoder.layer[1].attention.self.key.bias"}, tensor<768x768xbf16> {jax.result_info = "result[1][1].opt_state[1][0].nu.bert.encoder.layer[1].attention.output.dense.weight"}, tensor<768xbf16> {jax.result_info = "result[1][1].opt_state[1][0].nu.bert.encoder.layer[1].attention.output.dense.bias"}, tensor<768xbf16> {jax.result_info = "result[1][1].opt_state[1][0].nu.bert.encoder.layer[1].attention.output.LayerNorm.weight"}, tensor<768xbf16> {jax.result_info = "result[1][1].opt_state[1][0].nu.bert.encoder.layer[1].attention.output.LayerNorm.bias"}, tensor<3072x768xbf16> {jax.result_info = "result[1][1].opt_state[1][0].nu.bert.encoder.layer[1].intermediate.dense.weight"}, tensor<3072xbf16> {jax.result_info = "result[1][1].opt_state[1][0].nu.bert.encoder.layer[1].intermediate.dense.bias"}, tensor<768x3072xbf16> {jax.result_info = "result[1][1].opt_state[1][0].nu.bert.encoder.layer[1].output.dense.weight"}, tensor<768xbf16> {jax.result_info = "result[1][1].opt_state[1][0].nu.bert.encoder.layer[1].output.dense.bias"}, tensor<768xbf16> {jax.result_info = "result[1][1].opt_state[1][0].nu.bert.encoder.layer[1].output.LayerNorm.weight"}, tensor<768xbf16> {jax.result_info = "result[1][1].opt_state[1][0].nu.bert.encoder.layer[1].output.LayerNorm.bias"}, tensor<768x768xbf16> {jax.result_info = "result[1][1].opt_state[1][0].nu.bert.encoder.layer[2].attention.self.query.weight"}, tensor<768xbf16> {jax.result_info = "result[1][1].opt_state[1][0].nu.bert.encoder.layer[2].attention.self.query.bias"}, tensor<768x768xbf16> {jax.result_info = "result[1][1].opt_state[1][0].nu.bert.encoder.layer[2].attention.self.value.weight"}, tensor<768xbf16> {jax.result_info = "result[1][1].opt_state[1][0].nu.bert.encoder.layer[2].attention.self.value.bias"}, tensor<768x768xbf16> {jax.result_info = "result[1][1].opt_state[1][0].nu.bert.encoder.layer[2].attention.self.key.weight"}, tensor<768xbf16> {jax.result_info = "result[1][1].opt_state[1][0].nu.bert.encoder.layer[2].attention.self.key.bias"}, tensor<768x768xbf16> {jax.result_info = "result[1][1].opt_state[1][0].nu.bert.encoder.layer[2].attention.output.dense.weight"}, tensor<768xbf16> {jax.result_info = "result[1][1].opt_state[1][0].nu.bert.encoder.layer[2].attention.output.dense.bias"}, tensor<768xbf16> {jax.result_info = "result[1][1].opt_state[1][0].nu.bert.encoder.layer[2].attention.output.LayerNorm.weight"}, tensor<768xbf16> {jax.result_info = "result[1][1].opt_state[1][0].nu.bert.encoder.layer[2].attention.output.LayerNorm.bias"}, tensor<3072x768xbf16> {jax.result_info = "result[1][1].opt_state[1][0].nu.bert.encoder.layer[2].intermediate.dense.weight"}, tensor<3072xbf16> {jax.result_info = "result[1][1].opt_state[1][0].nu.bert.encoder.layer[2].intermediate.dense.bias"}, tensor<768x3072xbf16> {jax.result_info = "result[1][1].opt_state[1][0].nu.bert.encoder.layer[2].output.dense.weight"}, tensor<768xbf16> {jax.result_info = "result[1][1].opt_state[1][0].nu.bert.encoder.layer[2].output.dense.bias"}, tensor<768xbf16> {jax.result_info = "result[1][1].opt_state[1][0].nu.bert.encoder.layer[2].output.LayerNorm.weight"}, tensor<768xbf16> {jax.result_info = "result[1][1].opt_state[1][0].nu.bert.encoder.layer[2].output.LayerNorm.bias"}, tensor<768x768xbf16> {jax.result_info = "result[1][1].opt_state[1][0].nu.bert.encoder.layer[3].attention.self.query.weight"}, tensor<768xbf16> {jax.result_info = "result[1][1].opt_state[1][0].nu.bert.encoder.layer[3].attention.self.query.bias"}, tensor<768x768xbf16> {jax.result_info = "result[1][1].opt_state[1][0].nu.bert.encoder.layer[3].attention.self.value.weight"}, tensor<768xbf16> {jax.result_info = "result[1][1].opt_state[1][0].nu.bert.encoder.layer[3].attention.self.value.bias"}, tensor<768x768xbf16> {jax.result_info = "result[1][1].opt_state[1][0].nu.bert.encoder.layer[3].attention.self.key.weight"}, tensor<768xbf16> {jax.result_info = "result[1][1].opt_state[1][0].nu.bert.encoder.layer[3].attention.self.key.bias"}, tensor<768x768xbf16> {jax.result_info = "result[1][1].opt_state[1][0].nu.bert.encoder.layer[3].attention.output.dense.weight"}, tensor<768xbf16> {jax.result_info = "result[1][1].opt_state[1][0].nu.bert.encoder.layer[3].attention.output.dense.bias"}, tensor<768xbf16> {jax.result_info = "result[1][1].opt_state[1][0].nu.bert.encoder.layer[3].attention.output.LayerNorm.weight"}, tensor<768xbf16> {jax.result_info = "result[1][1].opt_state[1][0].nu.bert.encoder.layer[3].attention.output.LayerNorm.bias"}, tensor<3072x768xbf16> {jax.result_info = "result[1][1].opt_state[1][0].nu.bert.encoder.layer[3].intermediate.dense.weight"}, tensor<3072xbf16> {jax.result_info = "result[1][1].opt_state[1][0].nu.bert.encoder.layer[3].intermediate.dense.bias"}, tensor<768x3072xbf16> {jax.result_info = "result[1][1].opt_state[1][0].nu.bert.encoder.layer[3].output.dense.weight"}, tensor<768xbf16> {jax.result_info = "result[1][1].opt_state[1][0].nu.bert.encoder.layer[3].output.dense.bias"}, tensor<768xbf16> {jax.result_info = "result[1][1].opt_state[1][0].nu.bert.encoder.layer[3].output.LayerNorm.weight"}, tensor<768xbf16> {jax.result_info = "result[1][1].opt_state[1][0].nu.bert.encoder.layer[3].output.LayerNorm.bias"}, tensor<768x768xbf16> {jax.result_info = "result[1][1].opt_state[1][0].nu.bert.encoder.layer[4].attention.self.query.weight"}, tensor<768xbf16> {jax.result_info = "result[1][1].opt_state[1][0].nu.bert.encoder.layer[4].attention.self.query.bias"}, tensor<768x768xbf16> {jax.result_info = "result[1][1].opt_state[1][0].nu.bert.encoder.layer[4].attention.self.value.weight"}, tensor<768xbf16> {jax.result_info = "result[1][1].opt_state[1][0].nu.bert.encoder.layer[4].attention.self.value.bias"}, tensor<768x768xbf16> {jax.result_info = "result[1][1].opt_state[1][0].nu.bert.encoder.layer[4].attention.self.key.weight"}, tensor<768xbf16> {jax.result_info = "result[1][1].opt_state[1][0].nu.bert.encoder.layer[4].attention.self.key.bias"}, tensor<768x768xbf16> {jax.result_info = "result[1][1].opt_state[1][0].nu.bert.encoder.layer[4].attention.output.dense.weight"}, tensor<768xbf16> {jax.result_info = "result[1][1].opt_state[1][0].nu.bert.encoder.layer[4].attention.output.dense.bias"}, tensor<768xbf16> {jax.result_info = "result[1][1].opt_state[1][0].nu.bert.encoder.layer[4].attention.output.LayerNorm.weight"}, tensor<768xbf16> {jax.result_info = "result[1][1].opt_state[1][0].nu.bert.encoder.layer[4].attention.output.LayerNorm.bias"}, tensor<3072x768xbf16> {jax.result_info = "result[1][1].opt_state[1][0].nu.bert.encoder.layer[4].intermediate.dense.weight"}, tensor<3072xbf16> {jax.result_info = "result[1][1].opt_state[1][0].nu.bert.encoder.layer[4].intermediate.dense.bias"}, tensor<768x3072xbf16> {jax.result_info = "result[1][1].opt_state[1][0].nu.bert.encoder.layer[4].output.dense.weight"}, tensor<768xbf16> {jax.result_info = "result[1][1].opt_state[1][0].nu.bert.encoder.layer[4].output.dense.bias"}, tensor<768xbf16> {jax.result_info = "result[1][1].opt_state[1][0].nu.bert.encoder.layer[4].output.LayerNorm.weight"}, tensor<768xbf16> {jax.result_info = "result[1][1].opt_state[1][0].nu.bert.encoder.layer[4].output.LayerNorm.bias"}, tensor<768x768xbf16> {jax.result_info = "result[1][1].opt_state[1][0].nu.bert.encoder.layer[5].attention.self.query.weight"}, tensor<768xbf16> {jax.result_info = "result[1][1].opt_state[1][0].nu.bert.encoder.layer[5].attention.self.query.bias"}, tensor<768x768xbf16> {jax.result_info = "result[1][1].opt_state[1][0].nu.bert.encoder.layer[5].attention.self.value.weight"}, tensor<768xbf16> {jax.result_info = "result[1][1].opt_state[1][0].nu.bert.encoder.layer[5].attention.self.value.bias"}, tensor<768x768xbf16> {jax.result_info = "result[1][1].opt_state[1][0].nu.bert.encoder.layer[5].attention.self.key.weight"}, tensor<768xbf16> {jax.result_info = "result[1][1].opt_state[1][0].nu.bert.encoder.layer[5].attention.self.key.bias"}, tensor<768x768xbf16> {jax.result_info = "result[1][1].opt_state[1][0].nu.bert.encoder.layer[5].attention.output.dense.weight"}, tensor<768xbf16> {jax.result_info = "result[1][1].opt_state[1][0].nu.bert.encoder.layer[5].attention.output.dense.bias"}, tensor<768xbf16> {jax.result_info = "result[1][1].opt_state[1][0].nu.bert.encoder.layer[5].attention.output.LayerNorm.weight"}, tensor<768xbf16> {jax.result_info = "result[1][1].opt_state[1][0].nu.bert.encoder.layer[5].attention.output.LayerNorm.bias"}, tensor<3072x768xbf16> {jax.result_info = "result[1][1].opt_state[1][0].nu.bert.encoder.layer[5].intermediate.dense.weight"}, tensor<3072xbf16> {jax.result_info = "result[1][1].opt_state[1][0].nu.bert.encoder.layer[5].intermediate.dense.bias"}, tensor<768x3072xbf16> {jax.result_info = "result[1][1].opt_state[1][0].nu.bert.encoder.layer[5].output.dense.weight"}, tensor<768xbf16> {jax.result_info = "result[1][1].opt_state[1][0].nu.bert.encoder.layer[5].output.dense.bias"}, tensor<768xbf16> {jax.result_info = "result[1][1].opt_state[1][0].nu.bert.encoder.layer[5].output.LayerNorm.weight"}, tensor<768xbf16> {jax.result_info = "result[1][1].opt_state[1][0].nu.bert.encoder.layer[5].output.LayerNorm.bias"}, tensor<768x768xbf16> {jax.result_info = "result[1][1].opt_state[1][0].nu.bert.encoder.layer[6].attention.self.query.weight"}, tensor<768xbf16> {jax.result_info = "result[1][1].opt_state[1][0].nu.bert.encoder.layer[6].attention.self.query.bias"}, tensor<768x768xbf16> {jax.result_info = "result[1][1].opt_state[1][0].nu.bert.encoder.layer[6].attention.self.value.weight"}, tensor<768xbf16> {jax.result_info = "result[1][1].opt_state[1][0].nu.bert.encoder.layer[6].attention.self.value.bias"}, tensor<768x768xbf16> {jax.result_info = "result[1][1].opt_state[1][0].nu.bert.encoder.layer[6].attention.self.key.weight"}, tensor<768xbf16> {jax.result_info = "result[1][1].opt_state[1][0].nu.bert.encoder.layer[6].attention.self.key.bias"}, tensor<768x768xbf16> {jax.result_info = "result[1][1].opt_state[1][0].nu.bert.encoder.layer[6].attention.output.dense.weight"}, tensor<768xbf16> {jax.result_info = "result[1][1].opt_state[1][0].nu.bert.encoder.layer[6].attention.output.dense.bias"}, tensor<768xbf16> {jax.result_info = "result[1][1].opt_state[1][0].nu.bert.encoder.layer[6].attention.output.LayerNorm.weight"}, tensor<768xbf16> {jax.result_info = "result[1][1].opt_state[1][0].nu.bert.encoder.layer[6].attention.output.LayerNorm.bias"}, tensor<3072x768xbf16> {jax.result_info = "result[1][1].opt_state[1][0].nu.bert.encoder.layer[6].intermediate.dense.weight"}, tensor<3072xbf16> {jax.result_info = "result[1][1].opt_state[1][0].nu.bert.encoder.layer[6].intermediate.dense.bias"}, tensor<768x3072xbf16> {jax.result_info = "result[1][1].opt_state[1][0].nu.bert.encoder.layer[6].output.dense.weight"}, tensor<768xbf16> {jax.result_info = "result[1][1].opt_state[1][0].nu.bert.encoder.layer[6].output.dense.bias"}, tensor<768xbf16> {jax.result_info = "result[1][1].opt_state[1][0].nu.bert.encoder.layer[6].output.LayerNorm.weight"}, tensor<768xbf16> {jax.result_info = "result[1][1].opt_state[1][0].nu.bert.encoder.layer[6].output.LayerNorm.bias"}, tensor<768x768xbf16> {jax.result_info = "result[1][1].opt_state[1][0].nu.bert.encoder.layer[7].attention.self.query.weight"}, tensor<768xbf16> {jax.result_info = "result[1][1].opt_state[1][0].nu.bert.encoder.layer[7].attention.self.query.bias"}, tensor<768x768xbf16> {jax.result_info = "result[1][1].opt_state[1][0].nu.bert.encoder.layer[7].attention.self.value.weight"}, tensor<768xbf16> {jax.result_info = "result[1][1].opt_state[1][0].nu.bert.encoder.layer[7].attention.self.value.bias"}, tensor<768x768xbf16> {jax.result_info = "result[1][1].opt_state[1][0].nu.bert.encoder.layer[7].attention.self.key.weight"}, tensor<768xbf16> {jax.result_info = "result[1][1].opt_state[1][0].nu.bert.encoder.layer[7].attention.self.key.bias"}, tensor<768x768xbf16> {jax.result_info = "result[1][1].opt_state[1][0].nu.bert.encoder.layer[7].attention.output.dense.weight"}, tensor<768xbf16> {jax.result_info = "result[1][1].opt_state[1][0].nu.bert.encoder.layer[7].attention.output.dense.bias"}, tensor<768xbf16> {jax.result_info = "result[1][1].opt_state[1][0].nu.bert.encoder.layer[7].attention.output.LayerNorm.weight"}, tensor<768xbf16> {jax.result_info = "result[1][1].opt_state[1][0].nu.bert.encoder.layer[7].attention.output.LayerNorm.bias"}, tensor<3072x768xbf16> {jax.result_info = "result[1][1].opt_state[1][0].nu.bert.encoder.layer[7].intermediate.dense.weight"}, tensor<3072xbf16> {jax.result_info = "result[1][1].opt_state[1][0].nu.bert.encoder.layer[7].intermediate.dense.bias"}, tensor<768x3072xbf16> {jax.result_info = "result[1][1].opt_state[1][0].nu.bert.encoder.layer[7].output.dense.weight"}, tensor<768xbf16> {jax.result_info = "result[1][1].opt_state[1][0].nu.bert.encoder.layer[7].output.dense.bias"}, tensor<768xbf16> {jax.result_info = "result[1][1].opt_state[1][0].nu.bert.encoder.layer[7].output.LayerNorm.weight"}, tensor<768xbf16> {jax.result_info = "result[1][1].opt_state[1][0].nu.bert.encoder.layer[7].output.LayerNorm.bias"}, tensor<768x768xbf16> {jax.result_info = "result[1][1].opt_state[1][0].nu.bert.encoder.layer[8].attention.self.query.weight"}, tensor<768xbf16> {jax.result_info = "result[1][1].opt_state[1][0].nu.bert.encoder.layer[8].attention.self.query.bias"}, tensor<768x768xbf16> {jax.result_info = "result[1][1].opt_state[1][0].nu.bert.encoder.layer[8].attention.self.value.weight"}, tensor<768xbf16> {jax.result_info = "result[1][1].opt_state[1][0].nu.bert.encoder.layer[8].attention.self.value.bias"}, tensor<768x768xbf16> {jax.result_info = "result[1][1].opt_state[1][0].nu.bert.encoder.layer[8].attention.self.key.weight"}, tensor<768xbf16> {jax.result_info = "result[1][1].opt_state[1][0].nu.bert.encoder.layer[8].attention.self.key.bias"}, tensor<768x768xbf16> {jax.result_info = "result[1][1].opt_state[1][0].nu.bert.encoder.layer[8].attention.output.dense.weight"}, tensor<768xbf16> {jax.result_info = "result[1][1].opt_state[1][0].nu.bert.encoder.layer[8].attention.output.dense.bias"}, tensor<768xbf16> {jax.result_info = "result[1][1].opt_state[1][0].nu.bert.encoder.layer[8].attention.output.LayerNorm.weight"}, tensor<768xbf16> {jax.result_info = "result[1][1].opt_state[1][0].nu.bert.encoder.layer[8].attention.output.LayerNorm.bias"}, tensor<3072x768xbf16> {jax.result_info = "result[1][1].opt_state[1][0].nu.bert.encoder.layer[8].intermediate.dense.weight"}, tensor<3072xbf16> {jax.result_info = "result[1][1].opt_state[1][0].nu.bert.encoder.layer[8].intermediate.dense.bias"}, tensor<768x3072xbf16> {jax.result_info = "result[1][1].opt_state[1][0].nu.bert.encoder.layer[8].output.dense.weight"}, tensor<768xbf16> {jax.result_info = "result[1][1].opt_state[1][0].nu.bert.encoder.layer[8].output.dense.bias"}, tensor<768xbf16> {jax.result_info = "result[1][1].opt_state[1][0].nu.bert.encoder.layer[8].output.LayerNorm.weight"}, tensor<768xbf16> {jax.result_info = "result[1][1].opt_state[1][0].nu.bert.encoder.layer[8].output.LayerNorm.bias"}, tensor<768x768xbf16> {jax.result_info = "result[1][1].opt_state[1][0].nu.bert.encoder.layer[9].attention.self.query.weight"}, tensor<768xbf16> {jax.result_info = "result[1][1].opt_state[1][0].nu.bert.encoder.layer[9].attention.self.query.bias"}, tensor<768x768xbf16> {jax.result_info = "result[1][1].opt_state[1][0].nu.bert.encoder.layer[9].attention.self.value.weight"}, tensor<768xbf16> {jax.result_info = "result[1][1].opt_state[1][0].nu.bert.encoder.layer[9].attention.self.value.bias"}, tensor<768x768xbf16> {jax.result_info = "result[1][1].opt_state[1][0].nu.bert.encoder.layer[9].attention.self.key.weight"}, tensor<768xbf16> {jax.result_info = "result[1][1].opt_state[1][0].nu.bert.encoder.layer[9].attention.self.key.bias"}, tensor<768x768xbf16> {jax.result_info = "result[1][1].opt_state[1][0].nu.bert.encoder.layer[9].attention.output.dense.weight"}, tensor<768xbf16> {jax.result_info = "result[1][1].opt_state[1][0].nu.bert.encoder.layer[9].attention.output.dense.bias"}, tensor<768xbf16> {jax.result_info = "result[1][1].opt_state[1][0].nu.bert.encoder.layer[9].attention.output.LayerNorm.weight"}, tensor<768xbf16> {jax.result_info = "result[1][1].opt_state[1][0].nu.bert.encoder.layer[9].attention.output.LayerNorm.bias"}, tensor<3072x768xbf16> {jax.result_info = "result[1][1].opt_state[1][0].nu.bert.encoder.layer[9].intermediate.dense.weight"}, tensor<3072xbf16> {jax.result_info = "result[1][1].opt_state[1][0].nu.bert.encoder.layer[9].intermediate.dense.bias"}, tensor<768x3072xbf16> {jax.result_info = "result[1][1].opt_state[1][0].nu.bert.encoder.layer[9].output.dense.weight"}, tensor<768xbf16> {jax.result_info = "result[1][1].opt_state[1][0].nu.bert.encoder.layer[9].output.dense.bias"}, tensor<768xbf16> {jax.result_info = "result[1][1].opt_state[1][0].nu.bert.encoder.layer[9].output.LayerNorm.weight"}, tensor<768xbf16> {jax.result_info = "result[1][1].opt_state[1][0].nu.bert.encoder.layer[9].output.LayerNorm.bias"}, tensor<768x768xbf16> {jax.result_info = "result[1][1].opt_state[1][0].nu.bert.encoder.layer[10].attention.self.query.weight"}, tensor<768xbf16> {jax.result_info = "result[1][1].opt_state[1][0].nu.bert.encoder.layer[10].attention.self.query.bias"}, tensor<768x768xbf16> {jax.result_info = "result[1][1].opt_state[1][0].nu.bert.encoder.layer[10].attention.self.value.weight"}, tensor<768xbf16> {jax.result_info = "result[1][1].opt_state[1][0].nu.bert.encoder.layer[10].attention.self.value.bias"}, tensor<768x768xbf16> {jax.result_info = "result[1][1].opt_state[1][0].nu.bert.encoder.layer[10].attention.self.key.weight"}, tensor<768xbf16> {jax.result_info = "result[1][1].opt_state[1][0].nu.bert.encoder.layer[10].attention.self.key.bias"}, tensor<768x768xbf16> {jax.result_info = "result[1][1].opt_state[1][0].nu.bert.encoder.layer[10].attention.output.dense.weight"}, tensor<768xbf16> {jax.result_info = "result[1][1].opt_state[1][0].nu.bert.encoder.layer[10].attention.output.dense.bias"}, tensor<768xbf16> {jax.result_info = "result[1][1].opt_state[1][0].nu.bert.encoder.layer[10].attention.output.LayerNorm.weight"}, tensor<768xbf16> {jax.result_info = "result[1][1].opt_state[1][0].nu.bert.encoder.layer[10].attention.output.LayerNorm.bias"}, tensor<3072x768xbf16> {jax.result_info = "result[1][1].opt_state[1][0].nu.bert.encoder.layer[10].intermediate.dense.weight"}, tensor<3072xbf16> {jax.result_info = "result[1][1].opt_state[1][0].nu.bert.encoder.layer[10].intermediate.dense.bias"}, tensor<768x3072xbf16> {jax.result_info = "result[1][1].opt_state[1][0].nu.bert.encoder.layer[10].output.dense.weight"}, tensor<768xbf16> {jax.result_info = "result[1][1].opt_state[1][0].nu.bert.encoder.layer[10].output.dense.bias"}, tensor<768xbf16> {jax.result_info = "result[1][1].opt_state[1][0].nu.bert.encoder.layer[10].output.LayerNorm.weight"}, tensor<768xbf16> {jax.result_info = "result[1][1].opt_state[1][0].nu.bert.encoder.layer[10].output.LayerNorm.bias"}, tensor<768x768xbf16> {jax.result_info = "result[1][1].opt_state[1][0].nu.bert.encoder.layer[11].attention.self.query.weight"}, tensor<768xbf16> {jax.result_info = "result[1][1].opt_state[1][0].nu.bert.encoder.layer[11].attention.self.query.bias"}, tensor<768x768xbf16> {jax.result_info = "result[1][1].opt_state[1][0].nu.bert.encoder.layer[11].attention.self.value.weight"}, tensor<768xbf16> {jax.result_info = "result[1][1].opt_state[1][0].nu.bert.encoder.layer[11].attention.self.value.bias"}, tensor<768x768xbf16> {jax.result_info = "result[1][1].opt_state[1][0].nu.bert.encoder.layer[11].attention.self.key.weight"}, tensor<768xbf16> {jax.result_info = "result[1][1].opt_state[1][0].nu.bert.encoder.layer[11].attention.self.key.bias"}, tensor<768x768xbf16> {jax.result_info = "result[1][1].opt_state[1][0].nu.bert.encoder.layer[11].attention.output.dense.weight"}, tensor<768xbf16> {jax.result_info = "result[1][1].opt_state[1][0].nu.bert.encoder.layer[11].attention.output.dense.bias"}, tensor<768xbf16> {jax.result_info = "result[1][1].opt_state[1][0].nu.bert.encoder.layer[11].attention.output.LayerNorm.weight"}, tensor<768xbf16> {jax.result_info = "result[1][1].opt_state[1][0].nu.bert.encoder.layer[11].attention.output.LayerNorm.bias"}, tensor<3072x768xbf16> {jax.result_info = "result[1][1].opt_state[1][0].nu.bert.encoder.layer[11].intermediate.dense.weight"}, tensor<3072xbf16> {jax.result_info = "result[1][1].opt_state[1][0].nu.bert.encoder.layer[11].intermediate.dense.bias"}, tensor<768x3072xbf16> {jax.result_info = "result[1][1].opt_state[1][0].nu.bert.encoder.layer[11].output.dense.weight"}, tensor<768xbf16> {jax.result_info = "result[1][1].opt_state[1][0].nu.bert.encoder.layer[11].output.dense.bias"}, tensor<768xbf16> {jax.result_info = "result[1][1].opt_state[1][0].nu.bert.encoder.layer[11].output.LayerNorm.weight"}, tensor<768xbf16> {jax.result_info = "result[1][1].opt_state[1][0].nu.bert.encoder.layer[11].output.LayerNorm.bias"}, tensor<768x768xbf16> {jax.result_info = "result[1][1].opt_state[1][0].nu.cls.predictions.transform.dense.weight"}, tensor<768xbf16> {jax.result_info = "result[1][1].opt_state[1][0].nu.cls.predictions.transform.dense.bias"}, tensor<768xbf16> {jax.result_info = "result[1][1].opt_state[1][0].nu.cls.predictions.transform.LayerNorm.weight"}, tensor<768xbf16> {jax.result_info = "result[1][1].opt_state[1][0].nu.cls.predictions.transform.LayerNorm.bias"}, tensor<30522xbf16> {jax.result_info = "result[1][1].opt_state[1][0].nu.cls.predictions.bias"}, tensor<i32> {jax.result_info = "result[1][1].opt_state[1][2].count"}, tensor<i32> {jax.result_info = "result[1][2]['acc'][0]"}, tensor<i32> {jax.result_info = "result[1][2]['acc'][1]"}, tensor<f32> {jax.result_info = "result[1][2]['loss'][0]"}, tensor<i32> {jax.result_info = "result[1][2]['loss'][1]"}, tensor<i32> {jax.result_info = "result[1][2]['total_token']"}) {
    %0 = stablehlo.iota dim = 0 : tensor<512xi32>
    %1 = stablehlo.broadcast_in_dim %0, dims = [1] : (tensor<512xi32>) -> tensor<1x512xi32>
    %2 = stablehlo.broadcast_in_dim %1, dims = [0, 1] : (tensor<1x512xi32>) -> tensor<64x512xi32>
    %c = stablehlo.constant dense<0> : tensor<i32>
    %3 = stablehlo.broadcast_in_dim %c, dims = [] : (tensor<i32>) -> tensor<64x512xi32>
    %4 = stablehlo.compare  LT, %arg608, %3,  SIGNED : (tensor<64x512xi32>, tensor<64x512xi32>) -> tensor<64x512xi1>
    %c_0 = stablehlo.constant dense<30522> : tensor<i32>
    %5 = stablehlo.broadcast_in_dim %c_0, dims = [] : (tensor<i32>) -> tensor<64x512xi32>
    %6 = stablehlo.add %arg608, %5 : tensor<64x512xi32>
    %7 = stablehlo.select %4, %6, %arg608 : tensor<64x512xi1>, tensor<64x512xi32>
    %8 = stablehlo.broadcast_in_dim %7, dims = [0, 1] : (tensor<64x512xi32>) -> tensor<64x512x1xi32>
    %9 = "stablehlo.gather"(%arg0, %8) <{dimension_numbers = #stablehlo.gather<offset_dims = [2], collapsed_slice_dims = [0], start_index_map = [0], index_vector_dim = 2>, indices_are_sorted = false, slice_sizes = array<i64: 1, 768>}> : (tensor<30522x768xbf16>, tensor<64x512x1xi32>) -> tensor<64x512x768xbf16>
    %10 = stablehlo.broadcast_in_dim %c, dims = [] : (tensor<i32>) -> tensor<64x512xi32>
    %11 = stablehlo.compare  LT, %2, %10,  SIGNED : (tensor<64x512xi32>, tensor<64x512xi32>) -> tensor<64x512xi1>
    %c_1 = stablehlo.constant dense<512> : tensor<i32>
    %12 = stablehlo.broadcast_in_dim %c_1, dims = [] : (tensor<i32>) -> tensor<64x512xi32>
    %13 = stablehlo.add %2, %12 : tensor<64x512xi32>
    %14 = stablehlo.select %11, %13, %2 : tensor<64x512xi1>, tensor<64x512xi32>
    %15 = stablehlo.broadcast_in_dim %14, dims = [0, 1] : (tensor<64x512xi32>) -> tensor<64x512x1xi32>
    %16 = "stablehlo.gather"(%arg1, %15) <{dimension_numbers = #stablehlo.gather<offset_dims = [2], collapsed_slice_dims = [0], start_index_map = [0], index_vector_dim = 2>, indices_are_sorted = false, slice_sizes = array<i64: 1, 768>}> : (tensor<512x768xbf16>, tensor<64x512x1xi32>) -> tensor<64x512x768xbf16>
    %17 = stablehlo.broadcast_in_dim %c, dims = [] : (tensor<i32>) -> tensor<64x512xi32>
    %18 = stablehlo.compare  LT, %arg610, %17,  SIGNED : (tensor<64x512xi32>, tensor<64x512xi32>) -> tensor<64x512xi1>
    %c_2 = stablehlo.constant dense<2> : tensor<i32>
    %19 = stablehlo.broadcast_in_dim %c_2, dims = [] : (tensor<i32>) -> tensor<64x512xi32>
    %20 = stablehlo.add %arg610, %19 : tensor<64x512xi32>
    %21 = stablehlo.select %18, %20, %arg610 : tensor<64x512xi1>, tensor<64x512xi32>
    %22 = stablehlo.broadcast_in_dim %21, dims = [0, 1] : (tensor<64x512xi32>) -> tensor<64x512x1xi32>
    %23 = "stablehlo.gather"(%arg2, %22) <{dimension_numbers = #stablehlo.gather<offset_dims = [2], collapsed_slice_dims = [0], start_index_map = [0], index_vector_dim = 2>, indices_are_sorted = false, slice_sizes = array<i64: 1, 768>}> : (tensor<2x768xbf16>, tensor<64x512x1xi32>) -> tensor<64x512x768xbf16>
    %24 = stablehlo.add %9, %23 : tensor<64x512x768xbf16>
    %25 = stablehlo.add %24, %16 : tensor<64x512x768xbf16>
    %26 = stablehlo.convert %25 : (tensor<64x512x768xbf16>) -> tensor<64x512x768xf32>
    %cst = stablehlo.constant dense<0.000000e+00> : tensor<f32>
    %27 = stablehlo.reduce(%26 init: %cst) applies stablehlo.add across dimensions = [2] : (tensor<64x512x768xf32>, tensor<f32>) -> tensor<64x512xf32>
    %28 = stablehlo.broadcast_in_dim %27, dims = [0, 1] : (tensor<64x512xf32>) -> tensor<64x512x1xf32>
    %cst_3 = stablehlo.constant dense<7.680000e+02> : tensor<f32>
    %29 = stablehlo.broadcast_in_dim %cst_3, dims = [] : (tensor<f32>) -> tensor<64x512x1xf32>
    %30 = stablehlo.divide %28, %29 : tensor<64x512x1xf32>
    %31 = stablehlo.convert %30 : (tensor<64x512x1xf32>) -> tensor<64x512x1xbf16>
    %c_4 = stablehlo.constant dense<0> : tensor<i32>
    %32:4 = call @_var(%25, %c_4) : (tensor<64x512x768xbf16>, tensor<i32>) -> (tensor<64x512x1xbf16>, tensor<64x512x768xf32>, tensor<f32>, tensor<i1>)
    %cst_5 = stablehlo.constant dense<0.000000e+00> : tensor<bf16>
    %33 = stablehlo.broadcast_in_dim %cst_5, dims = [] : (tensor<bf16>) -> tensor<64x512x1xbf16>
    %34 = stablehlo.maximum %32#0, %33 : tensor<64x512x1xbf16>
    %35 = stablehlo.compare  EQ, %32#0, %34,  FLOAT : (tensor<64x512x1xbf16>, tensor<64x512x1xbf16>) -> tensor<64x512x1xi1>
    %cst_6 = stablehlo.constant dense<1.000000e+00> : tensor<bf16>
    %36 = stablehlo.broadcast_in_dim %cst_6, dims = [] : (tensor<bf16>) -> tensor<64x512x1xbf16>
    %37 = stablehlo.broadcast_in_dim %cst_5, dims = [] : (tensor<bf16>) -> tensor<64x512x1xbf16>
    %38 = stablehlo.select %35, %36, %37 : tensor<64x512x1xi1>, tensor<64x512x1xbf16>
    %39 = stablehlo.broadcast_in_dim %cst_5, dims = [] : (tensor<bf16>) -> tensor<64x512x1xbf16>
    %40 = stablehlo.compare  EQ, %39, %34,  FLOAT : (tensor<64x512x1xbf16>, tensor<64x512x1xbf16>) -> tensor<64x512x1xi1>
    %cst_7 = stablehlo.constant dense<2.000000e+00> : tensor<bf16>
    %41 = stablehlo.broadcast_in_dim %cst_7, dims = [] : (tensor<bf16>) -> tensor<64x512x1xbf16>
    %42 = stablehlo.broadcast_in_dim %cst_6, dims = [] : (tensor<bf16>) -> tensor<64x512x1xbf16>
    %43 = stablehlo.select %40, %41, %42 : tensor<64x512x1xi1>, tensor<64x512x1xbf16>
    %44 = stablehlo.divide %38, %43 : tensor<64x512x1xbf16>
    %cst_8 = stablehlo.constant dense<1.001870e-12> : tensor<bf16>
    %45 = stablehlo.broadcast_in_dim %cst_8, dims = [] : (tensor<bf16>) -> tensor<64x512x1xbf16>
    %46 = stablehlo.add %34, %45 : tensor<64x512x1xbf16>
    %47 = stablehlo.rsqrt %46 : tensor<64x512x1xbf16>
    %48 = stablehlo.divide %47, %46 : tensor<64x512x1xbf16>
    %cst_9 = stablehlo.constant dense<-5.000000e-01> : tensor<bf16>
    %49 = stablehlo.broadcast_in_dim %cst_9, dims = [] : (tensor<bf16>) -> tensor<64x512x1xbf16>
    %50 = stablehlo.multiply %49, %48 : tensor<64x512x1xbf16>
    %51 = stablehlo.broadcast_in_dim %31, dims = [0, 1, 2] : (tensor<64x512x1xbf16>) -> tensor<64x512x768xbf16>
    %52 = stablehlo.subtract %25, %51 : tensor<64x512x768xbf16>
    %53 = stablehlo.broadcast_in_dim %47, dims = [0, 1, 2] : (tensor<64x512x1xbf16>) -> tensor<64x512x768xbf16>
    %54 = stablehlo.multiply %52, %53 : tensor<64x512x768xbf16>
    %55 = stablehlo.broadcast_in_dim %arg3, dims = [2] : (tensor<768xbf16>) -> tensor<1x1x768xbf16>
    %56 = stablehlo.broadcast_in_dim %55, dims = [0, 1, 2] : (tensor<1x1x768xbf16>) -> tensor<64x512x768xbf16>
    %57 = stablehlo.multiply %56, %54 : tensor<64x512x768xbf16>
    %58 = stablehlo.broadcast_in_dim %arg4, dims = [2] : (tensor<768xbf16>) -> tensor<1x1x768xbf16>
    %59 = stablehlo.broadcast_in_dim %58, dims = [0, 1, 2] : (tensor<1x1x768xbf16>) -> tensor<64x512x768xbf16>
    %60 = stablehlo.add %57, %59 : tensor<64x512x768xbf16>
    %cst_10 = stablehlo.constant dense<1.000000e-01> : tensor<f32>
    %cst_11 = stablehlo.constant dense<1.000000e+00> : tensor<f32>
    %61 = stablehlo.subtract %cst_11, %cst_10 : tensor<f32>
    %c_12 = stablehlo.constant dense<1> : tensor<i32>
    %62 = stablehlo.add %arg613, %c_12 : tensor<i32>
    %63 = stablehlo.convert %62 : (tensor<i32>) -> tensor<ui32>
    %64 = call @_threefry_fold_in(%arg612, %63) : (tensor<2xui32>, tensor<ui32>) -> tensor<2xui32>
    %65 = stablehlo.convert %61 : tensor<f32>
    %66 = call @_bernoulli(%64, %65) : (tensor<2xui32>, tensor<f32>) -> tensor<64x512x768xi1>
    %67 = stablehlo.convert %61 : (tensor<f32>) -> tensor<bf16>
    %68 = stablehlo.broadcast_in_dim %67, dims = [] : (tensor<bf16>) -> tensor<64x512x768xbf16>
    %69 = stablehlo.divide %60, %68 : tensor<64x512x768xbf16>
    %70 = stablehlo.broadcast_in_dim %cst_5, dims = [] : (tensor<bf16>) -> tensor<64x512x768xbf16>
    %71 = stablehlo.select %66, %69, %70 : tensor<64x512x768xi1>, tensor<64x512x768xbf16>
    %c_13 = stablehlo.constant dense<true> : tensor<i1>
    %72 = stablehlo.broadcast_in_dim %c_13, dims = [] : (tensor<i1>) -> tensor<512xi1>
    %73 = stablehlo.broadcast_in_dim %72, dims = [1] : (tensor<512xi1>) -> tensor<512x512xi1>
    %74 = stablehlo.broadcast_in_dim %73, dims = [1, 2] : (tensor<512x512xi1>) -> tensor<64x512x512xi1>
    %75 = stablehlo.broadcast_in_dim %arg609, dims = [0, 2] : (tensor<64x512xi32>) -> tensor<64x1x512xi32>
    %76 = stablehlo.convert %74 : (tensor<64x512x512xi1>) -> tensor<64x512x512xi32>
    %77 = stablehlo.broadcast_in_dim %75, dims = [0, 1, 2] : (tensor<64x1x512xi32>) -> tensor<64x512x512xi32>
    %78 = stablehlo.and %76, %77 : tensor<64x512x512xi32>
    %c_14 = stablehlo.constant dense<0> : tensor<i32>
    %79 = stablehlo.broadcast_in_dim %c_14, dims = [] : (tensor<i32>) -> tensor<64x512x512xi32>
    %80 = stablehlo.compare  NE, %78, %79,  SIGNED : (tensor<64x512x512xi32>, tensor<64x512x512xi32>) -> tensor<64x512x512xi1>
    %81 = stablehlo.convert %80 : tensor<64x512x512xi1>
    %82 = stablehlo.broadcast_in_dim %arg5, dims = [1, 2] : (tensor<768x768xbf16>) -> tensor<1x768x768xbf16>
    %83 = stablehlo.broadcast_in_dim %arg21, dims = [1, 2] : (tensor<768x768xbf16>) -> tensor<1x768x768xbf16>
    %84 = stablehlo.broadcast_in_dim %arg37, dims = [1, 2] : (tensor<768x768xbf16>) -> tensor<1x768x768xbf16>
    %85 = stablehlo.broadcast_in_dim %arg53, dims = [1, 2] : (tensor<768x768xbf16>) -> tensor<1x768x768xbf16>
    %86 = stablehlo.broadcast_in_dim %arg69, dims = [1, 2] : (tensor<768x768xbf16>) -> tensor<1x768x768xbf16>
    %87 = stablehlo.broadcast_in_dim %arg85, dims = [1, 2] : (tensor<768x768xbf16>) -> tensor<1x768x768xbf16>
    %88 = stablehlo.broadcast_in_dim %arg101, dims = [1, 2] : (tensor<768x768xbf16>) -> tensor<1x768x768xbf16>
    %89 = stablehlo.broadcast_in_dim %arg117, dims = [1, 2] : (tensor<768x768xbf16>) -> tensor<1x768x768xbf16>
    %90 = stablehlo.broadcast_in_dim %arg133, dims = [1, 2] : (tensor<768x768xbf16>) -> tensor<1x768x768xbf16>
    %91 = stablehlo.broadcast_in_dim %arg149, dims = [1, 2] : (tensor<768x768xbf16>) -> tensor<1x768x768xbf16>
    %92 = stablehlo.broadcast_in_dim %arg165, dims = [1, 2] : (tensor<768x768xbf16>) -> tensor<1x768x768xbf16>
    %93 = stablehlo.broadcast_in_dim %arg181, dims = [1, 2] : (tensor<768x768xbf16>) -> tensor<1x768x768xbf16>
    %94 = stablehlo.concatenate %82, %83, %84, %85, %86, %87, %88, %89, %90, %91, %92, %93, dim = 0 : (tensor<1x768x768xbf16>, tensor<1x768x768xbf16>, tensor<1x768x768xbf16>, tensor<1x768x768xbf16>, tensor<1x768x768xbf16>, tensor<1x768x768xbf16>, tensor<1x768x768xbf16>, tensor<1x768x768xbf16>, tensor<1x768x768xbf16>, tensor<1x768x768xbf16>, tensor<1x768x768xbf16>, tensor<1x768x768xbf16>) -> tensor<12x768x768xbf16>
    %95 = stablehlo.broadcast_in_dim %arg6, dims = [1] : (tensor<768xbf16>) -> tensor<1x768xbf16>
    %96 = stablehlo.broadcast_in_dim %arg22, dims = [1] : (tensor<768xbf16>) -> tensor<1x768xbf16>
    %97 = stablehlo.broadcast_in_dim %arg38, dims = [1] : (tensor<768xbf16>) -> tensor<1x768xbf16>
    %98 = stablehlo.broadcast_in_dim %arg54, dims = [1] : (tensor<768xbf16>) -> tensor<1x768xbf16>
    %99 = stablehlo.broadcast_in_dim %arg70, dims = [1] : (tensor<768xbf16>) -> tensor<1x768xbf16>
    %100 = stablehlo.broadcast_in_dim %arg86, dims = [1] : (tensor<768xbf16>) -> tensor<1x768xbf16>
    %101 = stablehlo.broadcast_in_dim %arg102, dims = [1] : (tensor<768xbf16>) -> tensor<1x768xbf16>
    %102 = stablehlo.broadcast_in_dim %arg118, dims = [1] : (tensor<768xbf16>) -> tensor<1x768xbf16>
    %103 = stablehlo.broadcast_in_dim %arg134, dims = [1] : (tensor<768xbf16>) -> tensor<1x768xbf16>
    %104 = stablehlo.broadcast_in_dim %arg150, dims = [1] : (tensor<768xbf16>) -> tensor<1x768xbf16>
    %105 = stablehlo.broadcast_in_dim %arg166, dims = [1] : (tensor<768xbf16>) -> tensor<1x768xbf16>
    %106 = stablehlo.broadcast_in_dim %arg182, dims = [1] : (tensor<768xbf16>) -> tensor<1x768xbf16>
    %107 = stablehlo.concatenate %95, %96, %97, %98, %99, %100, %101, %102, %103, %104, %105, %106, dim = 0 : (tensor<1x768xbf16>, tensor<1x768xbf16>, tensor<1x768xbf16>, tensor<1x768xbf16>, tensor<1x768xbf16>, tensor<1x768xbf16>, tensor<1x768xbf16>, tensor<1x768xbf16>, tensor<1x768xbf16>, tensor<1x768xbf16>, tensor<1x768xbf16>, tensor<1x768xbf16>) -> tensor<12x768xbf16>
    %108 = stablehlo.broadcast_in_dim %arg7, dims = [1, 2] : (tensor<768x768xbf16>) -> tensor<1x768x768xbf16>
    %109 = stablehlo.broadcast_in_dim %arg23, dims = [1, 2] : (tensor<768x768xbf16>) -> tensor<1x768x768xbf16>
    %110 = stablehlo.broadcast_in_dim %arg39, dims = [1, 2] : (tensor<768x768xbf16>) -> tensor<1x768x768xbf16>
    %111 = stablehlo.broadcast_in_dim %arg55, dims = [1, 2] : (tensor<768x768xbf16>) -> tensor<1x768x768xbf16>
    %112 = stablehlo.broadcast_in_dim %arg71, dims = [1, 2] : (tensor<768x768xbf16>) -> tensor<1x768x768xbf16>
    %113 = stablehlo.broadcast_in_dim %arg87, dims = [1, 2] : (tensor<768x768xbf16>) -> tensor<1x768x768xbf16>
    %114 = stablehlo.broadcast_in_dim %arg103, dims = [1, 2] : (tensor<768x768xbf16>) -> tensor<1x768x768xbf16>
    %115 = stablehlo.broadcast_in_dim %arg119, dims = [1, 2] : (tensor<768x768xbf16>) -> tensor<1x768x768xbf16>
    %116 = stablehlo.broadcast_in_dim %arg135, dims = [1, 2] : (tensor<768x768xbf16>) -> tensor<1x768x768xbf16>
    %117 = stablehlo.broadcast_in_dim %arg151, dims = [1, 2] : (tensor<768x768xbf16>) -> tensor<1x768x768xbf16>
    %118 = stablehlo.broadcast_in_dim %arg167, dims = [1, 2] : (tensor<768x768xbf16>) -> tensor<1x768x768xbf16>
    %119 = stablehlo.broadcast_in_dim %arg183, dims = [1, 2] : (tensor<768x768xbf16>) -> tensor<1x768x768xbf16>
    %120 = stablehlo.concatenate %108, %109, %110, %111, %112, %113, %114, %115, %116, %117, %118, %119, dim = 0 : (tensor<1x768x768xbf16>, tensor<1x768x768xbf16>, tensor<1x768x768xbf16>, tensor<1x768x768xbf16>, tensor<1x768x768xbf16>, tensor<1x768x768xbf16>, tensor<1x768x768xbf16>, tensor<1x768x768xbf16>, tensor<1x768x768xbf16>, tensor<1x768x768xbf16>, tensor<1x768x768xbf16>, tensor<1x768x768xbf16>) -> tensor<12x768x768xbf16>
    %121 = stablehlo.broadcast_in_dim %arg8, dims = [1] : (tensor<768xbf16>) -> tensor<1x768xbf16>
    %122 = stablehlo.broadcast_in_dim %arg24, dims = [1] : (tensor<768xbf16>) -> tensor<1x768xbf16>
    %123 = stablehlo.broadcast_in_dim %arg40, dims = [1] : (tensor<768xbf16>) -> tensor<1x768xbf16>
    %124 = stablehlo.broadcast_in_dim %arg56, dims = [1] : (tensor<768xbf16>) -> tensor<1x768xbf16>
    %125 = stablehlo.broadcast_in_dim %arg72, dims = [1] : (tensor<768xbf16>) -> tensor<1x768xbf16>
    %126 = stablehlo.broadcast_in_dim %arg88, dims = [1] : (tensor<768xbf16>) -> tensor<1x768xbf16>
    %127 = stablehlo.broadcast_in_dim %arg104, dims = [1] : (tensor<768xbf16>) -> tensor<1x768xbf16>
    %128 = stablehlo.broadcast_in_dim %arg120, dims = [1] : (tensor<768xbf16>) -> tensor<1x768xbf16>
    %129 = stablehlo.broadcast_in_dim %arg136, dims = [1] : (tensor<768xbf16>) -> tensor<1x768xbf16>
    %130 = stablehlo.broadcast_in_dim %arg152, dims = [1] : (tensor<768xbf16>) -> tensor<1x768xbf16>
    %131 = stablehlo.broadcast_in_dim %arg168, dims = [1] : (tensor<768xbf16>) -> tensor<1x768xbf16>
    %132 = stablehlo.broadcast_in_dim %arg184, dims = [1] : (tensor<768xbf16>) -> tensor<1x768xbf16>
    %133 = stablehlo.concatenate %121, %122, %123, %124, %125, %126, %127, %128, %129, %130, %131, %132, dim = 0 : (tensor<1x768xbf16>, tensor<1x768xbf16>, tensor<1x768xbf16>, tensor<1x768xbf16>, tensor<1x768xbf16>, tensor<1x768xbf16>, tensor<1x768xbf16>, tensor<1x768xbf16>, tensor<1x768xbf16>, tensor<1x768xbf16>, tensor<1x768xbf16>, tensor<1x768xbf16>) -> tensor<12x768xbf16>
    %134 = stablehlo.broadcast_in_dim %arg9, dims = [1, 2] : (tensor<768x768xbf16>) -> tensor<1x768x768xbf16>
    %135 = stablehlo.broadcast_in_dim %arg25, dims = [1, 2] : (tensor<768x768xbf16>) -> tensor<1x768x768xbf16>
    %136 = stablehlo.broadcast_in_dim %arg41, dims = [1, 2] : (tensor<768x768xbf16>) -> tensor<1x768x768xbf16>
    %137 = stablehlo.broadcast_in_dim %arg57, dims = [1, 2] : (tensor<768x768xbf16>) -> tensor<1x768x768xbf16>
    %138 = stablehlo.broadcast_in_dim %arg73, dims = [1, 2] : (tensor<768x768xbf16>) -> tensor<1x768x768xbf16>
    %139 = stablehlo.broadcast_in_dim %arg89, dims = [1, 2] : (tensor<768x768xbf16>) -> tensor<1x768x768xbf16>
    %140 = stablehlo.broadcast_in_dim %arg105, dims = [1, 2] : (tensor<768x768xbf16>) -> tensor<1x768x768xbf16>
    %141 = stablehlo.broadcast_in_dim %arg121, dims = [1, 2] : (tensor<768x768xbf16>) -> tensor<1x768x768xbf16>
    %142 = stablehlo.broadcast_in_dim %arg137, dims = [1, 2] : (tensor<768x768xbf16>) -> tensor<1x768x768xbf16>
    %143 = stablehlo.broadcast_in_dim %arg153, dims = [1, 2] : (tensor<768x768xbf16>) -> tensor<1x768x768xbf16>
    %144 = stablehlo.broadcast_in_dim %arg169, dims = [1, 2] : (tensor<768x768xbf16>) -> tensor<1x768x768xbf16>
    %145 = stablehlo.broadcast_in_dim %arg185, dims = [1, 2] : (tensor<768x768xbf16>) -> tensor<1x768x768xbf16>
    %146 = stablehlo.concatenate %134, %135, %136, %137, %138, %139, %140, %141, %142, %143, %144, %145, dim = 0 : (tensor<1x768x768xbf16>, tensor<1x768x768xbf16>, tensor<1x768x768xbf16>, tensor<1x768x768xbf16>, tensor<1x768x768xbf16>, tensor<1x768x768xbf16>, tensor<1x768x768xbf16>, tensor<1x768x768xbf16>, tensor<1x768x768xbf16>, tensor<1x768x768xbf16>, tensor<1x768x768xbf16>, tensor<1x768x768xbf16>) -> tensor<12x768x768xbf16>
    %147 = stablehlo.broadcast_in_dim %arg10, dims = [1] : (tensor<768xbf16>) -> tensor<1x768xbf16>
    %148 = stablehlo.broadcast_in_dim %arg26, dims = [1] : (tensor<768xbf16>) -> tensor<1x768xbf16>
    %149 = stablehlo.broadcast_in_dim %arg42, dims = [1] : (tensor<768xbf16>) -> tensor<1x768xbf16>
    %150 = stablehlo.broadcast_in_dim %arg58, dims = [1] : (tensor<768xbf16>) -> tensor<1x768xbf16>
    %151 = stablehlo.broadcast_in_dim %arg74, dims = [1] : (tensor<768xbf16>) -> tensor<1x768xbf16>
    %152 = stablehlo.broadcast_in_dim %arg90, dims = [1] : (tensor<768xbf16>) -> tensor<1x768xbf16>
    %153 = stablehlo.broadcast_in_dim %arg106, dims = [1] : (tensor<768xbf16>) -> tensor<1x768xbf16>
    %154 = stablehlo.broadcast_in_dim %arg122, dims = [1] : (tensor<768xbf16>) -> tensor<1x768xbf16>
    %155 = stablehlo.broadcast_in_dim %arg138, dims = [1] : (tensor<768xbf16>) -> tensor<1x768xbf16>
    %156 = stablehlo.broadcast_in_dim %arg154, dims = [1] : (tensor<768xbf16>) -> tensor<1x768xbf16>
    %157 = stablehlo.broadcast_in_dim %arg170, dims = [1] : (tensor<768xbf16>) -> tensor<1x768xbf16>
    %158 = stablehlo.broadcast_in_dim %arg186, dims = [1] : (tensor<768xbf16>) -> tensor<1x768xbf16>
    %159 = stablehlo.concatenate %147, %148, %149, %150, %151, %152, %153, %154, %155, %156, %157, %158, dim = 0 : (tensor<1x768xbf16>, tensor<1x768xbf16>, tensor<1x768xbf16>, tensor<1x768xbf16>, tensor<1x768xbf16>, tensor<1x768xbf16>, tensor<1x768xbf16>, tensor<1x768xbf16>, tensor<1x768xbf16>, tensor<1x768xbf16>, tensor<1x768xbf16>, tensor<1x768xbf16>) -> tensor<12x768xbf16>
    %160 = stablehlo.broadcast_in_dim %arg11, dims = [1, 2] : (tensor<768x768xbf16>) -> tensor<1x768x768xbf16>
    %161 = stablehlo.broadcast_in_dim %arg27, dims = [1, 2] : (tensor<768x768xbf16>) -> tensor<1x768x768xbf16>
    %162 = stablehlo.broadcast_in_dim %arg43, dims = [1, 2] : (tensor<768x768xbf16>) -> tensor<1x768x768xbf16>
    %163 = stablehlo.broadcast_in_dim %arg59, dims = [1, 2] : (tensor<768x768xbf16>) -> tensor<1x768x768xbf16>
    %164 = stablehlo.broadcast_in_dim %arg75, dims = [1, 2] : (tensor<768x768xbf16>) -> tensor<1x768x768xbf16>
    %165 = stablehlo.broadcast_in_dim %arg91, dims = [1, 2] : (tensor<768x768xbf16>) -> tensor<1x768x768xbf16>
    %166 = stablehlo.broadcast_in_dim %arg107, dims = [1, 2] : (tensor<768x768xbf16>) -> tensor<1x768x768xbf16>
    %167 = stablehlo.broadcast_in_dim %arg123, dims = [1, 2] : (tensor<768x768xbf16>) -> tensor<1x768x768xbf16>
    %168 = stablehlo.broadcast_in_dim %arg139, dims = [1, 2] : (tensor<768x768xbf16>) -> tensor<1x768x768xbf16>
    %169 = stablehlo.broadcast_in_dim %arg155, dims = [1, 2] : (tensor<768x768xbf16>) -> tensor<1x768x768xbf16>
    %170 = stablehlo.broadcast_in_dim %arg171, dims = [1, 2] : (tensor<768x768xbf16>) -> tensor<1x768x768xbf16>
    %171 = stablehlo.broadcast_in_dim %arg187, dims = [1, 2] : (tensor<768x768xbf16>) -> tensor<1x768x768xbf16>
    %172 = stablehlo.concatenate %160, %161, %162, %163, %164, %165, %166, %167, %168, %169, %170, %171, dim = 0 : (tensor<1x768x768xbf16>, tensor<1x768x768xbf16>, tensor<1x768x768xbf16>, tensor<1x768x768xbf16>, tensor<1x768x768xbf16>, tensor<1x768x768xbf16>, tensor<1x768x768xbf16>, tensor<1x768x768xbf16>, tensor<1x768x768xbf16>, tensor<1x768x768xbf16>, tensor<1x768x768xbf16>, tensor<1x768x768xbf16>) -> tensor<12x768x768xbf16>
    %173 = stablehlo.broadcast_in_dim %arg12, dims = [1] : (tensor<768xbf16>) -> tensor<1x768xbf16>
    %174 = stablehlo.broadcast_in_dim %arg28, dims = [1] : (tensor<768xbf16>) -> tensor<1x768xbf16>
    %175 = stablehlo.broadcast_in_dim %arg44, dims = [1] : (tensor<768xbf16>) -> tensor<1x768xbf16>
    %176 = stablehlo.broadcast_in_dim %arg60, dims = [1] : (tensor<768xbf16>) -> tensor<1x768xbf16>
    %177 = stablehlo.broadcast_in_dim %arg76, dims = [1] : (tensor<768xbf16>) -> tensor<1x768xbf16>
    %178 = stablehlo.broadcast_in_dim %arg92, dims = [1] : (tensor<768xbf16>) -> tensor<1x768xbf16>
    %179 = stablehlo.broadcast_in_dim %arg108, dims = [1] : (tensor<768xbf16>) -> tensor<1x768xbf16>
    %180 = stablehlo.broadcast_in_dim %arg124, dims = [1] : (tensor<768xbf16>) -> tensor<1x768xbf16>
    %181 = stablehlo.broadcast_in_dim %arg140, dims = [1] : (tensor<768xbf16>) -> tensor<1x768xbf16>
    %182 = stablehlo.broadcast_in_dim %arg156, dims = [1] : (tensor<768xbf16>) -> tensor<1x768xbf16>
    %183 = stablehlo.broadcast_in_dim %arg172, dims = [1] : (tensor<768xbf16>) -> tensor<1x768xbf16>
    %184 = stablehlo.broadcast_in_dim %arg188, dims = [1] : (tensor<768xbf16>) -> tensor<1x768xbf16>
    %185 = stablehlo.concatenate %173, %174, %175, %176, %177, %178, %179, %180, %181, %182, %183, %184, dim = 0 : (tensor<1x768xbf16>, tensor<1x768xbf16>, tensor<1x768xbf16>, tensor<1x768xbf16>, tensor<1x768xbf16>, tensor<1x768xbf16>, tensor<1x768xbf16>, tensor<1x768xbf16>, tensor<1x768xbf16>, tensor<1x768xbf16>, tensor<1x768xbf16>, tensor<1x768xbf16>) -> tensor<12x768xbf16>
    %186 = stablehlo.broadcast_in_dim %arg13, dims = [1] : (tensor<768xbf16>) -> tensor<1x768xbf16>
    %187 = stablehlo.broadcast_in_dim %arg29, dims = [1] : (tensor<768xbf16>) -> tensor<1x768xbf16>
    %188 = stablehlo.broadcast_in_dim %arg45, dims = [1] : (tensor<768xbf16>) -> tensor<1x768xbf16>
    %189 = stablehlo.broadcast_in_dim %arg61, dims = [1] : (tensor<768xbf16>) -> tensor<1x768xbf16>
    %190 = stablehlo.broadcast_in_dim %arg77, dims = [1] : (tensor<768xbf16>) -> tensor<1x768xbf16>
    %191 = stablehlo.broadcast_in_dim %arg93, dims = [1] : (tensor<768xbf16>) -> tensor<1x768xbf16>
    %192 = stablehlo.broadcast_in_dim %arg109, dims = [1] : (tensor<768xbf16>) -> tensor<1x768xbf16>
    %193 = stablehlo.broadcast_in_dim %arg125, dims = [1] : (tensor<768xbf16>) -> tensor<1x768xbf16>
    %194 = stablehlo.broadcast_in_dim %arg141, dims = [1] : (tensor<768xbf16>) -> tensor<1x768xbf16>
    %195 = stablehlo.broadcast_in_dim %arg157, dims = [1] : (tensor<768xbf16>) -> tensor<1x768xbf16>
    %196 = stablehlo.broadcast_in_dim %arg173, dims = [1] : (tensor<768xbf16>) -> tensor<1x768xbf16>
    %197 = stablehlo.broadcast_in_dim %arg189, dims = [1] : (tensor<768xbf16>) -> tensor<1x768xbf16>
    %198 = stablehlo.concatenate %186, %187, %188, %189, %190, %191, %192, %193, %194, %195, %196, %197, dim = 0 : (tensor<1x768xbf16>, tensor<1x768xbf16>, tensor<1x768xbf16>, tensor<1x768xbf16>, tensor<1x768xbf16>, tensor<1x768xbf16>, tensor<1x768xbf16>, tensor<1x768xbf16>, tensor<1x768xbf16>, tensor<1x768xbf16>, tensor<1x768xbf16>, tensor<1x768xbf16>) -> tensor<12x768xbf16>
    %199 = stablehlo.broadcast_in_dim %arg14, dims = [1] : (tensor<768xbf16>) -> tensor<1x768xbf16>
    %200 = stablehlo.broadcast_in_dim %arg30, dims = [1] : (tensor<768xbf16>) -> tensor<1x768xbf16>
    %201 = stablehlo.broadcast_in_dim %arg46, dims = [1] : (tensor<768xbf16>) -> tensor<1x768xbf16>
    %202 = stablehlo.broadcast_in_dim %arg62, dims = [1] : (tensor<768xbf16>) -> tensor<1x768xbf16>
    %203 = stablehlo.broadcast_in_dim %arg78, dims = [1] : (tensor<768xbf16>) -> tensor<1x768xbf16>
    %204 = stablehlo.broadcast_in_dim %arg94, dims = [1] : (tensor<768xbf16>) -> tensor<1x768xbf16>
    %205 = stablehlo.broadcast_in_dim %arg110, dims = [1] : (tensor<768xbf16>) -> tensor<1x768xbf16>
    %206 = stablehlo.broadcast_in_dim %arg126, dims = [1] : (tensor<768xbf16>) -> tensor<1x768xbf16>
    %207 = stablehlo.broadcast_in_dim %arg142, dims = [1] : (tensor<768xbf16>) -> tensor<1x768xbf16>
    %208 = stablehlo.broadcast_in_dim %arg158, dims = [1] : (tensor<768xbf16>) -> tensor<1x768xbf16>
    %209 = stablehlo.broadcast_in_dim %arg174, dims = [1] : (tensor<768xbf16>) -> tensor<1x768xbf16>
    %210 = stablehlo.broadcast_in_dim %arg190, dims = [1] : (tensor<768xbf16>) -> tensor<1x768xbf16>
    %211 = stablehlo.concatenate %199, %200, %201, %202, %203, %204, %205, %206, %207, %208, %209, %210, dim = 0 : (tensor<1x768xbf16>, tensor<1x768xbf16>, tensor<1x768xbf16>, tensor<1x768xbf16>, tensor<1x768xbf16>, tensor<1x768xbf16>, tensor<1x768xbf16>, tensor<1x768xbf16>, tensor<1x768xbf16>, tensor<1x768xbf16>, tensor<1x768xbf16>, tensor<1x768xbf16>) -> tensor<12x768xbf16>
    %212 = stablehlo.broadcast_in_dim %arg15, dims = [1, 2] : (tensor<3072x768xbf16>) -> tensor<1x3072x768xbf16>
    %213 = stablehlo.broadcast_in_dim %arg31, dims = [1, 2] : (tensor<3072x768xbf16>) -> tensor<1x3072x768xbf16>
    %214 = stablehlo.broadcast_in_dim %arg47, dims = [1, 2] : (tensor<3072x768xbf16>) -> tensor<1x3072x768xbf16>
    %215 = stablehlo.broadcast_in_dim %arg63, dims = [1, 2] : (tensor<3072x768xbf16>) -> tensor<1x3072x768xbf16>
    %216 = stablehlo.broadcast_in_dim %arg79, dims = [1, 2] : (tensor<3072x768xbf16>) -> tensor<1x3072x768xbf16>
    %217 = stablehlo.broadcast_in_dim %arg95, dims = [1, 2] : (tensor<3072x768xbf16>) -> tensor<1x3072x768xbf16>
    %218 = stablehlo.broadcast_in_dim %arg111, dims = [1, 2] : (tensor<3072x768xbf16>) -> tensor<1x3072x768xbf16>
    %219 = stablehlo.broadcast_in_dim %arg127, dims = [1, 2] : (tensor<3072x768xbf16>) -> tensor<1x3072x768xbf16>
    %220 = stablehlo.broadcast_in_dim %arg143, dims = [1, 2] : (tensor<3072x768xbf16>) -> tensor<1x3072x768xbf16>
    %221 = stablehlo.broadcast_in_dim %arg159, dims = [1, 2] : (tensor<3072x768xbf16>) -> tensor<1x3072x768xbf16>
    %222 = stablehlo.broadcast_in_dim %arg175, dims = [1, 2] : (tensor<3072x768xbf16>) -> tensor<1x3072x768xbf16>
    %223 = stablehlo.broadcast_in_dim %arg191, dims = [1, 2] : (tensor<3072x768xbf16>) -> tensor<1x3072x768xbf16>
    %224 = stablehlo.concatenate %212, %213, %214, %215, %216, %217, %218, %219, %220, %221, %222, %223, dim = 0 : (tensor<1x3072x768xbf16>, tensor<1x3072x768xbf16>, tensor<1x3072x768xbf16>, tensor<1x3072x768xbf16>, tensor<1x3072x768xbf16>, tensor<1x3072x768xbf16>, tensor<1x3072x768xbf16>, tensor<1x3072x768xbf16>, tensor<1x3072x768xbf16>, tensor<1x3072x768xbf16>, tensor<1x3072x768xbf16>, tensor<1x3072x768xbf16>) -> tensor<12x3072x768xbf16>
    %225 = stablehlo.broadcast_in_dim %arg16, dims = [1] : (tensor<3072xbf16>) -> tensor<1x3072xbf16>
    %226 = stablehlo.broadcast_in_dim %arg32, dims = [1] : (tensor<3072xbf16>) -> tensor<1x3072xbf16>
    %227 = stablehlo.broadcast_in_dim %arg48, dims = [1] : (tensor<3072xbf16>) -> tensor<1x3072xbf16>
    %228 = stablehlo.broadcast_in_dim %arg64, dims = [1] : (tensor<3072xbf16>) -> tensor<1x3072xbf16>
    %229 = stablehlo.broadcast_in_dim %arg80, dims = [1] : (tensor<3072xbf16>) -> tensor<1x3072xbf16>
    %230 = stablehlo.broadcast_in_dim %arg96, dims = [1] : (tensor<3072xbf16>) -> tensor<1x3072xbf16>
    %231 = stablehlo.broadcast_in_dim %arg112, dims = [1] : (tensor<3072xbf16>) -> tensor<1x3072xbf16>
    %232 = stablehlo.broadcast_in_dim %arg128, dims = [1] : (tensor<3072xbf16>) -> tensor<1x3072xbf16>
    %233 = stablehlo.broadcast_in_dim %arg144, dims = [1] : (tensor<3072xbf16>) -> tensor<1x3072xbf16>
    %234 = stablehlo.broadcast_in_dim %arg160, dims = [1] : (tensor<3072xbf16>) -> tensor<1x3072xbf16>
    %235 = stablehlo.broadcast_in_dim %arg176, dims = [1] : (tensor<3072xbf16>) -> tensor<1x3072xbf16>
    %236 = stablehlo.broadcast_in_dim %arg192, dims = [1] : (tensor<3072xbf16>) -> tensor<1x3072xbf16>
    %237 = stablehlo.concatenate %225, %226, %227, %228, %229, %230, %231, %232, %233, %234, %235, %236, dim = 0 : (tensor<1x3072xbf16>, tensor<1x3072xbf16>, tensor<1x3072xbf16>, tensor<1x3072xbf16>, tensor<1x3072xbf16>, tensor<1x3072xbf16>, tensor<1x3072xbf16>, tensor<1x3072xbf16>, tensor<1x3072xbf16>, tensor<1x3072xbf16>, tensor<1x3072xbf16>, tensor<1x3072xbf16>) -> tensor<12x3072xbf16>
    %238 = stablehlo.broadcast_in_dim %arg17, dims = [1, 2] : (tensor<768x3072xbf16>) -> tensor<1x768x3072xbf16>
    %239 = stablehlo.broadcast_in_dim %arg33, dims = [1, 2] : (tensor<768x3072xbf16>) -> tensor<1x768x3072xbf16>
    %240 = stablehlo.broadcast_in_dim %arg49, dims = [1, 2] : (tensor<768x3072xbf16>) -> tensor<1x768x3072xbf16>
    %241 = stablehlo.broadcast_in_dim %arg65, dims = [1, 2] : (tensor<768x3072xbf16>) -> tensor<1x768x3072xbf16>
    %242 = stablehlo.broadcast_in_dim %arg81, dims = [1, 2] : (tensor<768x3072xbf16>) -> tensor<1x768x3072xbf16>
    %243 = stablehlo.broadcast_in_dim %arg97, dims = [1, 2] : (tensor<768x3072xbf16>) -> tensor<1x768x3072xbf16>
    %244 = stablehlo.broadcast_in_dim %arg113, dims = [1, 2] : (tensor<768x3072xbf16>) -> tensor<1x768x3072xbf16>
    %245 = stablehlo.broadcast_in_dim %arg129, dims = [1, 2] : (tensor<768x3072xbf16>) -> tensor<1x768x3072xbf16>
    %246 = stablehlo.broadcast_in_dim %arg145, dims = [1, 2] : (tensor<768x3072xbf16>) -> tensor<1x768x3072xbf16>
    %247 = stablehlo.broadcast_in_dim %arg161, dims = [1, 2] : (tensor<768x3072xbf16>) -> tensor<1x768x3072xbf16>
    %248 = stablehlo.broadcast_in_dim %arg177, dims = [1, 2] : (tensor<768x3072xbf16>) -> tensor<1x768x3072xbf16>
    %249 = stablehlo.broadcast_in_dim %arg193, dims = [1, 2] : (tensor<768x3072xbf16>) -> tensor<1x768x3072xbf16>
    %250 = stablehlo.concatenate %238, %239, %240, %241, %242, %243, %244, %245, %246, %247, %248, %249, dim = 0 : (tensor<1x768x3072xbf16>, tensor<1x768x3072xbf16>, tensor<1x768x3072xbf16>, tensor<1x768x3072xbf16>, tensor<1x768x3072xbf16>, tensor<1x768x3072xbf16>, tensor<1x768x3072xbf16>, tensor<1x768x3072xbf16>, tensor<1x768x3072xbf16>, tensor<1x768x3072xbf16>, tensor<1x768x3072xbf16>, tensor<1x768x3072xbf16>) -> tensor<12x768x3072xbf16>
    %251 = stablehlo.broadcast_in_dim %arg18, dims = [1] : (tensor<768xbf16>) -> tensor<1x768xbf16>
    %252 = stablehlo.broadcast_in_dim %arg34, dims = [1] : (tensor<768xbf16>) -> tensor<1x768xbf16>
    %253 = stablehlo.broadcast_in_dim %arg50, dims = [1] : (tensor<768xbf16>) -> tensor<1x768xbf16>
    %254 = stablehlo.broadcast_in_dim %arg66, dims = [1] : (tensor<768xbf16>) -> tensor<1x768xbf16>
    %255 = stablehlo.broadcast_in_dim %arg82, dims = [1] : (tensor<768xbf16>) -> tensor<1x768xbf16>
    %256 = stablehlo.broadcast_in_dim %arg98, dims = [1] : (tensor<768xbf16>) -> tensor<1x768xbf16>
    %257 = stablehlo.broadcast_in_dim %arg114, dims = [1] : (tensor<768xbf16>) -> tensor<1x768xbf16>
    %258 = stablehlo.broadcast_in_dim %arg130, dims = [1] : (tensor<768xbf16>) -> tensor<1x768xbf16>
    %259 = stablehlo.broadcast_in_dim %arg146, dims = [1] : (tensor<768xbf16>) -> tensor<1x768xbf16>
    %260 = stablehlo.broadcast_in_dim %arg162, dims = [1] : (tensor<768xbf16>) -> tensor<1x768xbf16>
    %261 = stablehlo.broadcast_in_dim %arg178, dims = [1] : (tensor<768xbf16>) -> tensor<1x768xbf16>
    %262 = stablehlo.broadcast_in_dim %arg194, dims = [1] : (tensor<768xbf16>) -> tensor<1x768xbf16>
    %263 = stablehlo.concatenate %251, %252, %253, %254, %255, %256, %257, %258, %259, %260, %261, %262, dim = 0 : (tensor<1x768xbf16>, tensor<1x768xbf16>, tensor<1x768xbf16>, tensor<1x768xbf16>, tensor<1x768xbf16>, tensor<1x768xbf16>, tensor<1x768xbf16>, tensor<1x768xbf16>, tensor<1x768xbf16>, tensor<1x768xbf16>, tensor<1x768xbf16>, tensor<1x768xbf16>) -> tensor<12x768xbf16>
    %264 = stablehlo.broadcast_in_dim %arg19, dims = [1] : (tensor<768xbf16>) -> tensor<1x768xbf16>
    %265 = stablehlo.broadcast_in_dim %arg35, dims = [1] : (tensor<768xbf16>) -> tensor<1x768xbf16>
    %266 = stablehlo.broadcast_in_dim %arg51, dims = [1] : (tensor<768xbf16>) -> tensor<1x768xbf16>
    %267 = stablehlo.broadcast_in_dim %arg67, dims = [1] : (tensor<768xbf16>) -> tensor<1x768xbf16>
    %268 = stablehlo.broadcast_in_dim %arg83, dims = [1] : (tensor<768xbf16>) -> tensor<1x768xbf16>
    %269 = stablehlo.broadcast_in_dim %arg99, dims = [1] : (tensor<768xbf16>) -> tensor<1x768xbf16>
    %270 = stablehlo.broadcast_in_dim %arg115, dims = [1] : (tensor<768xbf16>) -> tensor<1x768xbf16>
    %271 = stablehlo.broadcast_in_dim %arg131, dims = [1] : (tensor<768xbf16>) -> tensor<1x768xbf16>
    %272 = stablehlo.broadcast_in_dim %arg147, dims = [1] : (tensor<768xbf16>) -> tensor<1x768xbf16>
    %273 = stablehlo.broadcast_in_dim %arg163, dims = [1] : (tensor<768xbf16>) -> tensor<1x768xbf16>
    %274 = stablehlo.broadcast_in_dim %arg179, dims = [1] : (tensor<768xbf16>) -> tensor<1x768xbf16>
    %275 = stablehlo.broadcast_in_dim %arg195, dims = [1] : (tensor<768xbf16>) -> tensor<1x768xbf16>
    %276 = stablehlo.concatenate %264, %265, %266, %267, %268, %269, %270, %271, %272, %273, %274, %275, dim = 0 : (tensor<1x768xbf16>, tensor<1x768xbf16>, tensor<1x768xbf16>, tensor<1x768xbf16>, tensor<1x768xbf16>, tensor<1x768xbf16>, tensor<1x768xbf16>, tensor<1x768xbf16>, tensor<1x768xbf16>, tensor<1x768xbf16>, tensor<1x768xbf16>, tensor<1x768xbf16>) -> tensor<12x768xbf16>
    %277 = stablehlo.broadcast_in_dim %arg20, dims = [1] : (tensor<768xbf16>) -> tensor<1x768xbf16>
    %278 = stablehlo.broadcast_in_dim %arg36, dims = [1] : (tensor<768xbf16>) -> tensor<1x768xbf16>
    %279 = stablehlo.broadcast_in_dim %arg52, dims = [1] : (tensor<768xbf16>) -> tensor<1x768xbf16>
    %280 = stablehlo.broadcast_in_dim %arg68, dims = [1] : (tensor<768xbf16>) -> tensor<1x768xbf16>
    %281 = stablehlo.broadcast_in_dim %arg84, dims = [1] : (tensor<768xbf16>) -> tensor<1x768xbf16>
    %282 = stablehlo.broadcast_in_dim %arg100, dims = [1] : (tensor<768xbf16>) -> tensor<1x768xbf16>
…
    %18 = stablehlo.broadcast_in_dim %arg4, dims = [] : (tensor<bf16>) -> tensor<64x512x12x64xbf16>
    %19 = stablehlo.divide %15, %18 : tensor<64x512x12x64xbf16>
    %20 = stablehlo.dot_general %16, %19, batching_dims = [0, 2] x [0, 2], contracting_dims = [3] x [3], precision = [DEFAULT, DEFAULT] : (tensor<64x512x12x64xbf16>, tensor<64x512x12x64xbf16>) -> tensor<64x12x512x512xbf16>
    %21 = stablehlo.transpose %20, dims = [0, 3, 1, 2] : (tensor<64x12x512x512xbf16>) -> tensor<64x512x12x512xbf16>
    %22 = call @_where_129(%21, %arg5, %arg6) : (tensor<64x512x12x512xbf16>, tensor<64x512x12x512xi1>, tensor<64x512x12x512xbf16>) -> tensor<64x512x12x512xbf16>
    %23 = stablehlo.convert %22 : (tensor<64x512x12x512xbf16>) -> tensor<64x512x12x512xf32>
    %cst = stablehlo.constant dense<0xFF800000> : tensor<f32>
    %24 = stablehlo.reduce(%23 init: %cst) applies stablehlo.maximum across dimensions = [3] : (tensor<64x512x12x512xf32>, tensor<f32>) -> tensor<64x512x12xf32>
    %cst_0 = stablehlo.constant dense<0xFF800000> : tensor<f32>
    %25 = stablehlo.broadcast_in_dim %cst_0, dims = [] : (tensor<f32>) -> tensor<64x512x12xf32>
    %26 = stablehlo.maximum %25, %24 : tensor<64x512x12xf32>
    %27 = stablehlo.broadcast_in_dim %26, dims = [0, 1, 2] : (tensor<64x512x12xf32>) -> tensor<64x512x12x1xf32>
    %28 = stablehlo.broadcast_in_dim %27, dims = [0, 1, 2, 3] : (tensor<64x512x12x1xf32>) -> tensor<64x512x12x512xf32>
    %29 = stablehlo.subtract %23, %28 : tensor<64x512x12x512xf32>
    %30 = stablehlo.exponential %29 : tensor<64x512x12x512xf32>
    %cst_1 = stablehlo.constant dense<0.000000e+00> : tensor<f32>
    %31 = stablehlo.reduce(%30 init: %cst_1) applies stablehlo.add across dimensions = [3] : (tensor<64x512x12x512xf32>, tensor<f32>) -> tensor<64x512x12xf32>
    %32 = stablehlo.broadcast_in_dim %31, dims = [0, 1, 2] : (tensor<64x512x12xf32>) -> tensor<64x512x12x1xf32>
    %33 = stablehlo.broadcast_in_dim %32, dims = [0, 1, 2, 3] : (tensor<64x512x12x1xf32>) -> tensor<64x512x12x512xf32>
    %34 = stablehlo.divide %30, %33 : tensor<64x512x12x512xf32>
    %35 = stablehlo.multiply %32, %32 : tensor<64x512x12x1xf32>
    %cst_2 = stablehlo.constant dense<1.000000e+00> : tensor<f32>
    %36 = stablehlo.broadcast_in_dim %cst_2, dims = [] : (tensor<f32>) -> tensor<64x512x12x1xf32>
    %37 = stablehlo.divide %36, %35 : tensor<64x512x12x1xf32>
    %38 = stablehlo.convert %34 : (tensor<64x512x12x512xf32>) -> tensor<64x512x12x512xbf16>
    %39 = stablehlo.multiply %38, %arg7 : tensor<64x512x12x512xbf16>
    %40 = stablehlo.dot_general %17, %39, batching_dims = [0, 2] x [0, 2], contracting_dims = [1] x [3], precision = [DEFAULT, DEFAULT] : (tensor<64x512x12x64xbf16>, tensor<64x512x12x512xbf16>) -> tensor<64x12x64x512xbf16>
    %41 = stablehlo.transpose %40, dims = [0, 3, 1, 2] : (tensor<64x12x64x512xbf16>) -> tensor<64x512x12x64xbf16>
    %42 = stablehlo.reshape %41 : (tensor<64x512x12x64xbf16>) -> tensor<64x512x768xbf16>
    %43 = stablehlo.transpose %arg32, dims = [1, 0] : (tensor<768x768xbf16>) -> tensor<768x768xbf16>
    %44 = stablehlo.dot_general %42, %43, contracting_dims = [2] x [0], precision = [DEFAULT, DEFAULT] : (tensor<64x512x768xbf16>, tensor<768x768xbf16>) -> tensor<64x512x768xbf16>
    %45 = stablehlo.broadcast_in_dim %arg33, dims = [2] : (tensor<768xbf16>) -> tensor<1x1x768xbf16>
    %46 = stablehlo.broadcast_in_dim %45, dims = [0, 1, 2] : (tensor<1x1x768xbf16>) -> tensor<64x512x768xbf16>
    %47 = stablehlo.add %44, %46 : tensor<64x512x768xbf16>
    %48 = stablehlo.broadcast_in_dim %arg8, dims = [] : (tensor<bf16>) -> tensor<64x512x768xbf16>
    %49 = stablehlo.divide %47, %48 : tensor<64x512x768xbf16>
    %50 = stablehlo.select %arg2, %49, %arg3 : tensor<64x512x768xi1>, tensor<64x512x768xbf16>
    %51 = stablehlo.add %50, %arg25 : tensor<64x512x768xbf16>
    %52 = stablehlo.convert %51 : (tensor<64x512x768xbf16>) -> tensor<64x512x768xf32>
    %cst_3 = stablehlo.constant dense<0.000000e+00> : tensor<f32>
    %53 = stablehlo.reduce(%52 init: %cst_3) applies stablehlo.add across dimensions = [2] : (tensor<64x512x768xf32>, tensor<f32>) -> tensor<64x512xf32>
    %54 = stablehlo.broadcast_in_dim %53, dims = [0, 1] : (tensor<64x512xf32>) -> tensor<64x512x1xf32>
    %cst_4 = stablehlo.constant dense<7.680000e+02> : tensor<f32>
    %55 = stablehlo.broadcast_in_dim %cst_4, dims = [] : (tensor<f32>) -> tensor<64x512x1xf32>
    %56 = stablehlo.divide %54, %55 : tensor<64x512x1xf32>
    %57 = stablehlo.convert %56 : (tensor<64x512x1xf32>) -> tensor<64x512x1xbf16>
    %58:2 = call @_var_146(%51, %arg9, %arg10, %arg11) : (tensor<64x512x768xbf16>, tensor<f32>, tensor<i1>, tensor<64x512x1xbf16>) -> (tensor<64x512x1xbf16>, tensor<64x512x768xf32>)
    %cst_5 = stablehlo.constant dense<0.000000e+00> : tensor<bf16>
    %59 = stablehlo.broadcast_in_dim %cst_5, dims = [] : (tensor<bf16>) -> tensor<64x512x1xbf16>
    %60 = stablehlo.maximum %58#0, %59 : tensor<64x512x1xbf16>
    %61 = stablehlo.compare  EQ, %58#0, %60,  FLOAT : (tensor<64x512x1xbf16>, tensor<64x512x1xbf16>) -> tensor<64x512x1xi1>
    %62 = stablehlo.select %61, %arg17, %arg16 : tensor<64x512x1xi1>, tensor<64x512x1xbf16>
    %63 = stablehlo.broadcast_in_dim %cst_5, dims = [] : (tensor<bf16>) -> tensor<64x512x1xbf16>
    %64 = stablehlo.compare  EQ, %63, %60,  FLOAT : (tensor<64x512x1xbf16>, tensor<64x512x1xbf16>) -> tensor<64x512x1xi1>
    %65 = stablehlo.select %64, %arg19, %arg18 : tensor<64x512x1xi1>, tensor<64x512x1xbf16>
    %66 = stablehlo.divide %62, %65 : tensor<64x512x1xbf16>
    %cst_6 = stablehlo.constant dense<1.001870e-12> : tensor<bf16>
    %67 = stablehlo.broadcast_in_dim %cst_6, dims = [] : (tensor<bf16>) -> tensor<64x512x1xbf16>
    %68 = stablehlo.add %60, %67 : tensor<64x512x1xbf16>
    %69 = stablehlo.rsqrt %68 : tensor<64x512x1xbf16>
    %70 = stablehlo.divide %69, %68 : tensor<64x512x1xbf16>
    %cst_7 = stablehlo.constant dense<-5.000000e-01> : tensor<bf16>
    %71 = stablehlo.broadcast_in_dim %cst_7, dims = [] : (tensor<bf16>) -> tensor<64x512x1xbf16>
    %72 = stablehlo.multiply %71, %70 : tensor<64x512x1xbf16>
    %73 = stablehlo.broadcast_in_dim %57, dims = [0, 1, 2] : (tensor<64x512x1xbf16>) -> tensor<64x512x768xbf16>
    %74 = stablehlo.subtract %51, %73 : tensor<64x512x768xbf16>
    %75 = stablehlo.broadcast_in_dim %69, dims = [0, 1, 2] : (tensor<64x512x1xbf16>) -> tensor<64x512x768xbf16>
    %76 = stablehlo.multiply %74, %75 : tensor<64x512x768xbf16>
    %77 = stablehlo.broadcast_in_dim %arg34, dims = [2] : (tensor<768xbf16>) -> tensor<1x1x768xbf16>
    %78 = stablehlo.broadcast_in_dim %77, dims = [0, 1, 2] : (tensor<1x1x768xbf16>) -> tensor<64x512x768xbf16>
    %79 = stablehlo.multiply %78, %76 : tensor<64x512x768xbf16>
    %80 = stablehlo.broadcast_in_dim %arg35, dims = [2] : (tensor<768xbf16>) -> tensor<1x1x768xbf16>
    %81 = stablehlo.broadcast_in_dim %80, dims = [0, 1, 2] : (tensor<1x1x768xbf16>) -> tensor<64x512x768xbf16>
    %82 = stablehlo.add %79, %81 : tensor<64x512x768xbf16>
    %83 = stablehlo.transpose %arg36, dims = [1, 0] : (tensor<3072x768xbf16>) -> tensor<768x3072xbf16>
    %84 = stablehlo.dot_general %82, %83, contracting_dims = [2] x [0], precision = [DEFAULT, DEFAULT] : (tensor<64x512x768xbf16>, tensor<768x3072xbf16>) -> tensor<64x512x3072xbf16>
    %85 = stablehlo.broadcast_in_dim %arg37, dims = [2] : (tensor<3072xbf16>) -> tensor<1x1x3072xbf16>
    %86 = stablehlo.broadcast_in_dim %85, dims = [0, 1, 2] : (tensor<1x1x3072xbf16>) -> tensor<64x512x3072xbf16>
    %87 = stablehlo.add %84, %86 : tensor<64x512x3072xbf16>
    %88 = stablehlo.multiply %87, %87 : tensor<64x512x3072xbf16>
    %89 = stablehlo.multiply %88, %87 : tensor<64x512x3072xbf16>
    %90 = stablehlo.multiply %87, %87 : tensor<64x512x3072xbf16>
    %cst_8 = stablehlo.constant dense<3.000000e+00> : tensor<bf16>
    %91 = stablehlo.broadcast_in_dim %cst_8, dims = [] : (tensor<bf16>) -> tensor<64x512x3072xbf16>
    %92 = stablehlo.multiply %91, %90 : tensor<64x512x3072xbf16>
    %cst_9 = stablehlo.constant dense<4.467770e-02> : tensor<bf16>
    %93 = stablehlo.broadcast_in_dim %cst_9, dims = [] : (tensor<bf16>) -> tensor<64x512x3072xbf16>
    %94 = stablehlo.multiply %93, %89 : tensor<64x512x3072xbf16>
    %95 = stablehlo.add %87, %94 : tensor<64x512x3072xbf16>
    %cst_10 = stablehlo.constant dense<7.968750e-01> : tensor<bf16>
    %96 = stablehlo.broadcast_in_dim %cst_10, dims = [] : (tensor<bf16>) -> tensor<64x512x3072xbf16>
    %97 = stablehlo.multiply %96, %95 : tensor<64x512x3072xbf16>
    %98 = stablehlo.tanh %97 : tensor<64x512x3072xbf16>
    %99 = stablehlo.broadcast_in_dim %arg20, dims = [] : (tensor<bf16>) -> tensor<64x512x3072xbf16>
    %100 = stablehlo.subtract %99, %98 : tensor<64x512x3072xbf16>
    %cst_11 = stablehlo.constant dense<1.000000e+00> : tensor<bf16>
    %101 = stablehlo.broadcast_in_dim %cst_11, dims = [] : (tensor<bf16>) -> tensor<64x512x3072xbf16>
    %102 = stablehlo.add %101, %98 : tensor<64x512x3072xbf16>
    %cst_12 = stablehlo.constant dense<5.000000e-01> : tensor<bf16>
    %103 = stablehlo.broadcast_in_dim %cst_12, dims = [] : (tensor<bf16>) -> tensor<64x512x3072xbf16>
    %104 = stablehlo.multiply %103, %102 : tensor<64x512x3072xbf16>
    %105 = stablehlo.multiply %87, %104 : tensor<64x512x3072xbf16>
    %106 = stablehlo.transpose %arg38, dims = [1, 0] : (tensor<768x3072xbf16>) -> tensor<3072x768xbf16>
    %107 = stablehlo.dot_general %105, %106, contracting_dims = [2] x [0], precision = [DEFAULT, DEFAULT] : (tensor<64x512x3072xbf16>, tensor<3072x768xbf16>) -> tensor<64x512x768xbf16>
    %108 = stablehlo.broadcast_in_dim %arg39, dims = [2] : (tensor<768xbf16>) -> tensor<1x1x768xbf16>
    %109 = stablehlo.broadcast_in_dim %108, dims = [0, 1, 2] : (tensor<1x1x768xbf16>) -> tensor<64x512x768xbf16>
    %110 = stablehlo.add %107, %109 : tensor<64x512x768xbf16>
    %111 = stablehlo.broadcast_in_dim %arg12, dims = [] : (tensor<bf16>) -> tensor<64x512x768xbf16>
    %112 = stablehlo.divide %110, %111 : tensor<64x512x768xbf16>
    %113 = stablehlo.select %arg0, %112, %arg1 : tensor<64x512x768xi1>, tensor<64x512x768xbf16>
    %114 = stablehlo.add %113, %82 : tensor<64x512x768xbf16>
    %115 = stablehlo.convert %114 : (tensor<64x512x768xbf16>) -> tensor<64x512x768xf32>
    %cst_13 = stablehlo.constant dense<0.000000e+00> : tensor<f32>
    %116 = stablehlo.reduce(%115 init: %cst_13) applies stablehlo.add across dimensions = [2] : (tensor<64x512x768xf32>, tensor<f32>) -> tensor<64x512xf32>
    %117 = stablehlo.broadcast_in_dim %116, dims = [0, 1] : (tensor<64x512xf32>) -> tensor<64x512x1xf32>
    %118 = stablehlo.broadcast_in_dim %cst_4, dims = [] : (tensor<f32>) -> tensor<64x512x1xf32>
    %119 = stablehlo.divide %117, %118 : tensor<64x512x1xf32>
    %120 = stablehlo.convert %119 : (tensor<64x512x1xf32>) -> tensor<64x512x1xbf16>
    %121:2 = call @_var_146(%114, %arg13, %arg14, %arg15) : (tensor<64x512x768xbf16>, tensor<f32>, tensor<i1>, tensor<64x512x1xbf16>) -> (tensor<64x512x1xbf16>, tensor<64x512x768xf32>)
    %122 = stablehlo.broadcast_in_dim %cst_5, dims = [] : (tensor<bf16>) -> tensor<64x512x1xbf16>
    %123 = stablehlo.maximum %121#0, %122 : tensor<64x512x1xbf16>
    %124 = stablehlo.compare  EQ, %121#0, %123,  FLOAT : (tensor<64x512x1xbf16>, tensor<64x512x1xbf16>) -> tensor<64x512x1xi1>
    %125 = stablehlo.select %124, %arg22, %arg21 : tensor<64x512x1xi1>, tensor<64x512x1xbf16>
    %126 = stablehlo.broadcast_in_dim %cst_5, dims = [] : (tensor<bf16>) -> tensor<64x512x1xbf16>
    %127 = stablehlo.compare  EQ, %126, %123,  FLOAT : (tensor<64x512x1xbf16>, tensor<64x512x1xbf16>) -> tensor<64x512x1xi1>
    %128 = stablehlo.select %127, %arg24, %arg23 : tensor<64x512x1xi1>, tensor<64x512x1xbf16>
    %129 = stablehlo.divide %125, %128 : tensor<64x512x1xbf16>
    %130 = stablehlo.broadcast_in_dim %cst_6, dims = [] : (tensor<bf16>) -> tensor<64x512x1xbf16>
    %131 = stablehlo.add %123, %130 : tensor<64x512x1xbf16>
    %132 = stablehlo.rsqrt %131 : tensor<64x512x1xbf16>
    %133 = stablehlo.divide %132, %131 : tensor<64x512x1xbf16>
    %134 = stablehlo.broadcast_in_dim %cst_7, dims = [] : (tensor<bf16>) -> tensor<64x512x1xbf16>
    %135 = stablehlo.multiply %134, %133 : tensor<64x512x1xbf16>
    %136 = stablehlo.broadcast_in_dim %120, dims = [0, 1, 2] : (tensor<64x512x1xbf16>) -> tensor<64x512x768xbf16>
    %137 = stablehlo.subtract %114, %136 : tensor<64x512x768xbf16>
    %138 = stablehlo.broadcast_in_dim %132, dims = [0, 1, 2] : (tensor<64x512x1xbf16>) -> tensor<64x512x768xbf16>
    %139 = stablehlo.multiply %137, %138 : tensor<64x512x768xbf16>
    %140 = stablehlo.broadcast_in_dim %arg40, dims = [2] : (tensor<768xbf16>) -> tensor<1x1x768xbf16>
    %141 = stablehlo.broadcast_in_dim %140, dims = [0, 1, 2] : (tensor<1x1x768xbf16>) -> tensor<64x512x768xbf16>
    %142 = stablehlo.multiply %141, %139 : tensor<64x512x768xbf16>
    %143 = stablehlo.broadcast_in_dim %arg41, dims = [2] : (tensor<768xbf16>) -> tensor<1x1x768xbf16>
    %144 = stablehlo.broadcast_in_dim %143, dims = [0, 1, 2] : (tensor<1x1x768xbf16>) -> tensor<64x512x768xbf16>
    %145 = stablehlo.add %142, %144 : tensor<64x512x768xbf16>
    return %145, %0, %arg25, %5, %10, %19, %16, %30, %32, %37, %39, %17, %43, %42, %58#1, %66, %72, %69, %74, %76, %77, %83, %82, %92, %98, %100, %104, %87, %106, %105, %121#1, %129, %135, %132, %137, %139, %140 : tensor<64x512x768xbf16>, tensor<768x768xbf16>, tensor<64x512x768xbf16>, tensor<768x768xbf16>, tensor<768x768xbf16>, tensor<64x512x12x64xbf16>, tensor<64x512x12x64xbf16>, tensor<64x512x12x512xf32>, tensor<64x512x12x1xf32>, tensor<64x512x12x1xf32>, tensor<64x512x12x512xbf16>, tensor<64x512x12x64xbf16>, tensor<768x768xbf16>, tensor<64x512x768xbf16>, tensor<64x512x768xf32>, tensor<64x512x1xbf16>, tensor<64x512x1xbf16>, tensor<64x512x1xbf16>, tensor<64x512x768xbf16>, tensor<64x512x768xbf16>, tensor<1x1x768xbf16>, tensor<768x3072xbf16>, tensor<64x512x768xbf16>, tensor<64x512x3072xbf16>, tensor<64x512x3072xbf16>, tensor<64x512x3072xbf16>, tensor<64x512x3072xbf16>, tensor<64x512x3072xbf16>, tensor<3072x768xbf16>, tensor<64x512x3072xbf16>, tensor<64x512x768xf32>, tensor<64x512x1xbf16>, tensor<64x512x1xbf16>, tensor<64x512x1xbf16>, tensor<64x512x768xbf16>, tensor<64x512x768xbf16>, tensor<1x1x768xbf16>
  }
  func.func private @_where_129(%arg0: tensor<64x512x12x512xbf16>, %arg1: tensor<64x512x12x512xi1>, %arg2: tensor<64x512x12x512xbf16>) -> tensor<64x512x12x512xbf16> {
    %0 = stablehlo.select %arg1, %arg0, %arg2 : tensor<64x512x12x512xi1>, tensor<64x512x12x512xbf16>
    return %0 : tensor<64x512x12x512xbf16>
  }
  func.func private @_var_146(%arg0: tensor<64x512x768xbf16>, %arg1: tensor<f32>, %arg2: tensor<i1>, %arg3: tensor<64x512x1xbf16>) -> (tensor<64x512x1xbf16>, tensor<64x512x768xf32>) {
    %0 = stablehlo.convert %arg0 : (tensor<64x512x768xbf16>) -> tensor<64x512x768xf32>
    %cst = stablehlo.constant dense<0.000000e+00> : tensor<f32>
    %1 = stablehlo.reduce(%0 init: %cst) applies stablehlo.add across dimensions = [2] : (tensor<64x512x768xf32>, tensor<f32>) -> tensor<64x512xf32>
    %2 = stablehlo.broadcast_in_dim %1, dims = [0, 1] : (tensor<64x512xf32>) -> tensor<64x512x1xf32>
    %cst_0 = stablehlo.constant dense<7.680000e+02> : tensor<f32>
    %3 = stablehlo.broadcast_in_dim %cst_0, dims = [] : (tensor<f32>) -> tensor<64x512x1xf32>
    %4 = stablehlo.divide %2, %3 : tensor<64x512x1xf32>
    %5 = stablehlo.broadcast_in_dim %4, dims = [0, 1, 2] : (tensor<64x512x1xf32>) -> tensor<64x512x768xf32>
    %6 = stablehlo.subtract %0, %5 : tensor<64x512x768xf32>
    %7 = stablehlo.multiply %6, %6 : tensor<64x512x768xf32>
    %cst_1 = stablehlo.constant dense<2.000000e+00> : tensor<f32>
    %8 = stablehlo.broadcast_in_dim %cst_1, dims = [] : (tensor<f32>) -> tensor<64x512x768xf32>
    %9 = stablehlo.multiply %8, %6 : tensor<64x512x768xf32>
    %cst_2 = stablehlo.constant dense<0.000000e+00> : tensor<f32>
    %10 = stablehlo.reduce(%7 init: %cst_2) applies stablehlo.add across dimensions = [2] : (tensor<64x512x768xf32>, tensor<f32>) -> tensor<64x512xf32>
    %11 = stablehlo.broadcast_in_dim %10, dims = [0, 1] : (tensor<64x512xf32>) -> tensor<64x512x1xf32>
    %12 = stablehlo.broadcast_in_dim %arg1, dims = [] : (tensor<f32>) -> tensor<64x512x1xf32>
    %13 = stablehlo.divide %11, %12 : tensor<64x512x1xf32>
    %14 = stablehlo.convert %13 : (tensor<64x512x1xf32>) -> tensor<64x512x1xbf16>
    %15 = call @_where_147(%14, %arg2, %arg3) : (tensor<64x512x1xbf16>, tensor<i1>, tensor<64x512x1xbf16>) -> tensor<64x512x1xbf16>
    return %15, %9 : tensor<64x512x1xbf16>, tensor<64x512x768xf32>
  }
  func.func private @_where_147(%arg0: tensor<64x512x1xbf16>, %arg1: tensor<i1>, %arg2: tensor<64x512x1xbf16>) -> tensor<64x512x1xbf16> {
    %0 = stablehlo.select %arg1, %arg0, %arg2 : tensor<i1>, tensor<64x512x1xbf16>
    return %0 : tensor<64x512x1xbf16>
  }
  func.func private @_where_193(%arg0: tensor<64x512xi1>, %arg1: tensor<64x512xi32>, %arg2: tensor<i32>) -> tensor<64x512xi32> {
    %0 = stablehlo.convert %arg2 : tensor<i32>
    %1 = stablehlo.broadcast_in_dim %0, dims = [] : (tensor<i32>) -> tensor<64x512xi32>
    %2 = stablehlo.select %arg0, %arg1, %1 : tensor<64x512xi1>, tensor<64x512xi32>
    return %2 : tensor<64x512xi32>
  }
  func.func private @take_along_axis(%arg0: tensor<64x512x30522xf32>, %arg1: tensor<64x512x1xi32>) -> (tensor<64x512x1xf32>, tensor<64x512x1x1xi32>) {
    %c = stablehlo.constant dense<0> : tensor<i32>
    %0 = stablehlo.broadcast_in_dim %c, dims = [] : (tensor<i32>) -> tensor<64x512x1xi32>
    %1 = stablehlo.compare  LT, %arg1, %0,  SIGNED : (tensor<64x512x1xi32>, tensor<64x512x1xi32>) -> tensor<64x512x1xi1>
    %c_0 = stablehlo.constant dense<30522> : tensor<i32>
    %2 = stablehlo.broadcast_in_dim %c_0, dims = [] : (tensor<i32>) -> tensor<64x512x1xi32>
    %3 = stablehlo.add %arg1, %2 : tensor<64x512x1xi32>
    %4 = stablehlo.select %1, %3, %arg1 : tensor<64x512x1xi1>, tensor<64x512x1xi32>
    %5 = stablehlo.reshape %4 : (tensor<64x512x1xi32>) -> tensor<64x512x1x1xi32>
    %c_1 = stablehlo.constant dense<30521> : tensor<1xi32>
    %c_2 = stablehlo.constant dense<0> : tensor<i32>
    %6 = stablehlo.broadcast_in_dim %c_2, dims = [] : (tensor<i32>) -> tensor<64x512x1x1xi32>
    %7 = stablehlo.compare  GE, %5, %6,  SIGNED : (tensor<64x512x1x1xi32>, tensor<64x512x1x1xi32>) -> tensor<64x512x1x1xi1>
    %8 = stablehlo.broadcast_in_dim %c_1, dims = [3] : (tensor<1xi32>) -> tensor<1x1x1x1xi32>
    %9 = stablehlo.broadcast_in_dim %8, dims = [0, 1, 2, 3] : (tensor<1x1x1x1xi32>) -> tensor<64x512x1x1xi32>
    %10 = stablehlo.compare  LE, %5, %9,  SIGNED : (tensor<64x512x1x1xi32>, tensor<64x512x1x1xi32>) -> tensor<64x512x1x1xi1>
    %11 = stablehlo.and %7, %10 : tensor<64x512x1x1xi1>
    %c_3 = stablehlo.constant dense<true> : tensor<i1>
    %12 = stablehlo.reduce(%11 init: %c_3) applies stablehlo.and across dimensions = [3] : (tensor<64x512x1x1xi1>, tensor<i1>) -> tensor<64x512x1xi1>
    %13 = "stablehlo.gather"(%arg0, %5) <{dimension_numbers = #stablehlo.gather<collapsed_slice_dims = [2], operand_batching_dims = [0, 1], start_indices_batching_dims = [0, 1], start_index_map = [2], index_vector_dim = 3>, indices_are_sorted = false, slice_sizes = array<i64: 1, 1, 1>}> : (tensor<64x512x30522xf32>, tensor<64x512x1x1xi32>) -> tensor<64x512x1xf32>
    %cst = stablehlo.constant dense<0x7FC00000> : tensor<f32>
    %14 = stablehlo.broadcast_in_dim %cst, dims = [] : (tensor<f32>) -> tensor<64x512x1xf32>
    %15 = stablehlo.select %12, %13, %14 : tensor<64x512x1xi1>, tensor<64x512x1xf32>
    return %15, %5 : tensor<64x512x1xf32>, tensor<64x512x1x1xi32>
  }
  func.func private @_where_214(%arg0: tensor<64x512xi1>, %arg1: tensor<64x512xf32>, %arg2: tensor<f32>) -> tensor<64x512xf32> {
    %0 = stablehlo.convert %arg2 : tensor<f32>
    %1 = stablehlo.broadcast_in_dim %0, dims = [] : (tensor<f32>) -> tensor<64x512xf32>
    %2 = stablehlo.select %arg0, %arg1, %1 : tensor<64x512xi1>, tensor<64x512xf32>
    return %2 : tensor<64x512xf32>
  }
  func.func private @argmax(%arg0: tensor<64x512x30522xf32>) -> tensor<64x512xi32> {
    %0 = stablehlo.iota dim = 2 : tensor<64x512x30522xi32>
    %cst = stablehlo.constant dense<0xFF800000> : tensor<f32>
    %c = stablehlo.constant dense<0> : tensor<i32>
    %1:2 = stablehlo.reduce(%arg0 init: %cst), (%0 init: %c) across dimensions = [2] : (tensor<64x512x30522xf32>, tensor<64x512x30522xi32>, tensor<f32>, tensor<i32>) -> (tensor<64x512xf32>, tensor<64x512xi32>)
     reducer(%arg1: tensor<f32>, %arg3: tensor<f32>) (%arg2: tensor<i32>, %arg4: tensor<i32>)  {
      %2 = stablehlo.compare  GT, %arg1, %arg3,  FLOAT : (tensor<f32>, tensor<f32>) -> tensor<i1>
      %3 = stablehlo.compare  NE, %arg1, %arg1,  FLOAT : (tensor<f32>, tensor<f32>) -> tensor<i1>
      %4 = stablehlo.or %2, %3 : tensor<i1>
      %5 = stablehlo.compare  EQ, %arg1, %arg3,  FLOAT : (tensor<f32>, tensor<f32>) -> tensor<i1>
      %6 = stablehlo.compare  LT, %arg2, %arg4,  SIGNED : (tensor<i32>, tensor<i32>) -> tensor<i1>
      %7 = stablehlo.and %5, %6 : tensor<i1>
      %8 = stablehlo.or %4, %7 : tensor<i1>
      %9 = stablehlo.select %4, %arg1, %arg3 : tensor<i1>, tensor<f32>
      %10 = stablehlo.select %8, %arg2, %arg4 : tensor<i1>, tensor<i32>
      stablehlo.return %9, %10 : tensor<f32>, tensor<i32>
    }
    return %1#1 : tensor<64x512xi32>
  }
  func.func private @_where_232(%arg0: tensor<64x512xi1>, %arg1: tensor<64x512xf32>) -> tensor<64x512xf32> {
    %cst = stablehlo.constant dense<0.000000e+00> : tensor<f32>
    %0 = stablehlo.broadcast_in_dim %cst, dims = [] : (tensor<f32>) -> tensor<64x512xf32>
    %1 = stablehlo.select %arg0, %arg1, %0 : tensor<64x512xi1>, tensor<64x512xf32>
    return %1 : tensor<64x512xf32>
  }
  func.func private @take_along_axis_233(%arg0: tensor<64x512x1x1xi32>, %arg1: tensor<64x512x1xf32>) -> tensor<64x512x30522xf32> {
    %cst = stablehlo.constant dense<0.000000e+00> : tensor<f32>
    %0 = stablehlo.broadcast_in_dim %cst, dims = [] : (tensor<f32>) -> tensor<64x512x30522xf32>
    %1 = "stablehlo.scatter"(%0, %arg0, %arg1) <{indices_are_sorted = false, scatter_dimension_numbers = #stablehlo.scatter<inserted_window_dims = [2], input_batching_dims = [0, 1], scatter_indices_batching_dims = [0, 1], scatter_dims_to_operand_dims = [2], index_vector_dim = 3>, unique_indices = false}> ({
    ^bb0(%arg2: tensor<f32>, %arg3: tensor<f32>):
      %2 = stablehlo.add %arg2, %arg3 : tensor<f32>
      stablehlo.return %2 : tensor<f32>
    }) : (tensor<64x512x30522xf32>, tensor<64x512x1x1xi32>, tensor<64x512x1xf32>) -> tensor<64x512x30522xf32>
    return %1 : tensor<64x512x30522xf32>
  }
  func.func private @_var_252(%arg0: tensor<64x512x768xf32>, %arg1: tensor<f32>, %arg2: tensor<i1>, %arg3: tensor<64x512x1xbf16>) -> tensor<64x512x768xbf16> {
    %0 = call @_where_253(%arg2, %arg3) : (tensor<i1>, tensor<64x512x1xbf16>) -> tensor<64x512x1xbf16>
    %1 = stablehlo.convert %0 : (tensor<64x512x1xbf16>) -> tensor<64x512x1xf32>
    %2 = stablehlo.broadcast_in_dim %arg1, dims = [] : (tensor<f32>) -> tensor<64x512x1xf32>
    %3 = stablehlo.divide %1, %2 : tensor<64x512x1xf32>
    %cst = stablehlo.constant dense<0.000000e+00> : tensor<f32>
    %4 = stablehlo.reduce(%3 init: %cst) applies stablehlo.add across dimensions = [2] : (tensor<64x512x1xf32>, tensor<f32>) -> tensor<64x512xf32>
    %5 = stablehlo.broadcast_in_dim %4, dims = [0, 1] : (tensor<64x512xf32>) -> tensor<64x512x768xf32>
    %6 = stablehlo.multiply %5, %arg0 : tensor<64x512x768xf32>
    %7 = stablehlo.negate %6 : tensor<64x512x768xf32>
    %cst_0 = stablehlo.constant dense<0.000000e+00> : tensor<f32>
    %8 = stablehlo.reduce(%7 init: %cst_0) applies stablehlo.add across dimensions = [2] : (tensor<64x512x768xf32>, tensor<f32>) -> tensor<64x512xf32>
    %9 = stablehlo.reshape %8 : (tensor<64x512xf32>) -> tensor<64x512x1xf32>
    %cst_1 = stablehlo.constant dense<7.680000e+02> : tensor<f32>
    %10 = stablehlo.broadcast_in_dim %cst_1, dims = [] : (tensor<f32>) -> tensor<64x512x1xf32>
    %11 = stablehlo.divide %9, %10 : tensor<64x512x1xf32>
    %cst_2 = stablehlo.constant dense<0.000000e+00> : tensor<f32>
    %12 = stablehlo.reduce(%11 init: %cst_2) applies stablehlo.add across dimensions = [2] : (tensor<64x512x1xf32>, tensor<f32>) -> tensor<64x512xf32>
    %13 = stablehlo.broadcast_in_dim %12, dims = [0, 1] : (tensor<64x512xf32>) -> tensor<64x512x768xf32>
    %14 = stablehlo.add %6, %13 : tensor<64x512x768xf32>
    %15 = stablehlo.convert %14 : (tensor<64x512x768xf32>) -> tensor<64x512x768xbf16>
    return %15 : tensor<64x512x768xbf16>
  }
  func.func private @_where_253(%arg0: tensor<i1>, %arg1: tensor<64x512x1xbf16>) -> tensor<64x512x1xbf16> {
    %cst = stablehlo.constant dense<0.000000e+00> : tensor<bf16>
    %0 = stablehlo.broadcast_in_dim %cst, dims = [] : (tensor<bf16>) -> tensor<64x512x1xbf16>
    %1 = stablehlo.select %arg0, %arg1, %0 : tensor<i1>, tensor<64x512x1xbf16>
    return %1 : tensor<64x512x1xbf16>
  }
  func.func private @closed_call_288(%arg0: tensor<bf16>, %arg1: tensor<64x512x12x512xi1>, %arg2: tensor<64x512x12x512xbf16>, %arg3: tensor<bf16>, %arg4: tensor<64x512x768xi1>, %arg5: tensor<f32>, %arg6: tensor<i1>, %arg7: tensor<bf16>, %arg8: tensor<64x512x768xi1>, %arg9: tensor<f32>, %arg10: tensor<i1>, %arg11: tensor<64x512x768xbf16>, %arg12: tensor<768x768xbf16>, %arg13: tensor<64x512x768xbf16>, %arg14: tensor<768x768xbf16>, %arg15: tensor<768x768xbf16>, %arg16: tensor<64x512x12x64xbf16>, %arg17: tensor<64x512x12x64xbf16>, %arg18: tensor<64x512x12x512xf32>, %arg19: tensor<64x512x12x1xf32>, %arg20: tensor<64x512x12x1xf32>, %arg21: tensor<64x512x12x512xbf16>, %arg22: tensor<64x512x12x64xbf16>, %arg23: tensor<768x768xbf16>, %arg24: tensor<64x512x768xbf16>, %arg25: tensor<64x512x768xf32>, %arg26: tensor<64x512x1xbf16>, %arg27: tensor<64x512x1xbf16>, %arg28: tensor<64x512x1xbf16>, %arg29: tensor<64x512x768xbf16>, %arg30: tensor<64x512x768xbf16>, %arg31: tensor<1x1x768xbf16>, %arg32: tensor<768x3072xbf16>, %arg33: tensor<64x512x768xbf16>, %arg34: tensor<64x512x3072xbf16>, %arg35: tensor<64x512x3072xbf16>, %arg36: tensor<64x512x3072xbf16>, %arg37: tensor<64x512x3072xbf16>, %arg38: tensor<64x512x3072xbf16>, %arg39: tensor<3072x768xbf16>, %arg40: tensor<64x512x3072xbf16>, %arg41: tensor<64x512x768xf32>, %arg42: tensor<64x512x1xbf16>, %arg43: tensor<64x512x1xbf16>, %arg44: tensor<64x512x1xbf16>, %arg45: tensor<64x512x768xbf16>, %arg46: tensor<64x512x768xbf16>, %arg47: tensor<1x1x768xbf16>) -> (tensor<64x512x768xbf16>, tensor<768x768xbf16>, tensor<768xbf16>, tensor<768x768xbf16>, tensor<768xbf16>, tensor<768x768xbf16>, tensor<768xbf16>, tensor<768x768xbf16>, tensor<768xbf16>, tensor<768xbf16>, tensor<768xbf16>, tensor<3072x768xbf16>, tensor<3072xbf16>, tensor<768x3072xbf16>, tensor<768xbf16>, tensor<768xbf16>, tensor<768xbf16>) {
    %cst = stablehlo.constant dense<0.000000e+00> : tensor<bf16>
    %0 = stablehlo.reduce(%arg11 init: %cst) applies stablehlo.add across dimensions = [0, 1] : (tensor<64x512x768xbf16>, tensor<bf16>) -> tensor<768xbf16>
    %1 = stablehlo.reshape %0 : (tensor<768xbf16>) -> tensor<1x1x768xbf16>
    %cst_0 = stablehlo.constant dense<0.000000e+00> : tensor<bf16>
    %2 = stablehlo.reduce(%1 init: %cst_0) applies stablehlo.add across dimensions = [0, 1] : (tensor<1x1x768xbf16>, tensor<bf16>) -> tensor<768xbf16>
    %3 = stablehlo.broadcast_in_dim %arg47, dims = [0, 1, 2] : (tensor<1x1x768xbf16>) -> tensor<64x512x768xbf16>
    %4 = stablehlo.multiply %3, %arg11 : tensor<64x512x768xbf16>
    %5 = stablehlo.multiply %arg11, %arg46 : tensor<64x512x768xbf16>
    %cst_1 = stablehlo.constant dense<0.000000e+00> : tensor<bf16>
    %6 = stablehlo.reduce(%5 init: %cst_1) applies stablehlo.add across dimensions = [0, 1] : (tensor<64x512x768xbf16>, tensor<bf16>) -> tensor<768xbf16>
    %7 = stablehlo.reshape %6 : (tensor<768xbf16>) -> tensor<1x1x768xbf16>
    %cst_2 = stablehlo.constant dense<0.000000e+00> : tensor<bf16>
    %8 = stablehlo.reduce(%7 init: %cst_2) applies stablehlo.add across dimensions = [0, 1] : (tensor<1x1x768xbf16>, tensor<bf16>) -> tensor<768xbf16>
    %9 = stablehlo.multiply %arg45, %4 : tensor<64x512x768xbf16>
    %cst_3 = stablehlo.constant dense<0.000000e+00> : tensor<bf16>
    %10 = stablehlo.reduce(%9 init: %cst_3) applies stablehlo.add across dimensions = [2] : (tensor<64x512x768xbf16>, tensor<bf16>) -> tensor<64x512xbf16>
    %11 = stablehlo.reshape %10 : (tensor<64x512xbf16>) -> tensor<64x512x1xbf16>
    %12 = stablehlo.broadcast_in_dim %arg44, dims = [0, 1, 2] : (tensor<64x512x1xbf16>) -> tensor<64x512x768xbf16>
    %13 = stablehlo.multiply %4, %12 : tensor<64x512x768xbf16>
    %14 = stablehlo.negate %13 : tensor<64x512x768xbf16>
    %cst_4 = stablehlo.constant dense<0.000000e+00> : tensor<bf16>
    %15 = stablehlo.reduce(%14 init: %cst_4) applies stablehlo.add across dimensions = [2] : (tensor<64x512x768xbf16>, tensor<bf16>) -> tensor<64x512xbf16>
    %16 = stablehlo.reshape %15 : (tensor<64x512xbf16>) -> tensor<64x512x1xbf16>
    %17 = stablehlo.multiply %11, %arg43 : tensor<64x512x1xbf16>
    %18 = stablehlo.multiply %17, %arg42 : tensor<64x512x1xbf16>
    %19 = call @_var_289(%arg41, %arg9, %arg10, %18) : (tensor<64x512x768xf32>, tensor<f32>, tensor<i1>, tensor<64x512x1xbf16>) -> tensor<64x512x768xbf16>
    %20 = stablehlo.add %13, %19 : tensor<64x512x768xbf16>
    %21 = stablehlo.convert %16 : (tensor<64x512x1xbf16>) -> tensor<64x512x1xf32>
    %cst_5 = stablehlo.constant dense<7.680000e+02> : tensor<f32>
    %22 = stablehlo.broadcast_in_dim %cst_5, dims = [] : (tensor<f32>) -> tensor<64x512x1xf32>
    %23 = stablehlo.divide %21, %22 : tensor<64x512x1xf32>
    %cst_6 = stablehlo.constant dense<0.000000e+00> : tensor<f32>
    %24 = stablehlo.reduce(%23 init: %cst_6) applies stablehlo.add across dimensions = [2] : (tensor<64x512x1xf32>, tensor<f32>) -> tensor<64x512xf32>
    %25 = stablehlo.broadcast_in_dim %24, dims = [0, 1] : (tensor<64x512xf32>) -> tensor<64x512x768xf32>
    %26 = stablehlo.convert %25 : (tensor<64x512x768xf32>) -> tensor<64x512x768xbf16>
    %27 = stablehlo.add %20, %26 : tensor<64x512x768xbf16>
    %cst_7 = stablehlo.constant dense<0.000000e+00> : tensor<bf16>
    %28 = stablehlo.broadcast_in_dim %cst_7, dims = [] : (tensor<bf16>) -> tensor<64x512x768xbf16>
    %29 = stablehlo.select %arg8, %27, %28 : tensor<64x512x768xi1>, tensor<64x512x768xbf16>
    %30 = stablehlo.broadcast_in_dim %arg7, dims = [] : (tensor<bf16>) -> tensor<64x512x768xbf16>
    %31 = stablehlo.divide %29, %30 : tensor<64x512x768xbf16>
    %cst_8 = stablehlo.constant dense<0.000000e+00> : tensor<bf16>
    %32 = stablehlo.reduce(%31 init: %cst_8) applies stablehlo.add across dimensions = [0, 1] : (tensor<64x512x768xbf16>, tensor<bf16>) -> tensor<768xbf16>
    %33 = stablehlo.reshape %32 : (tensor<768xbf16>) -> tensor<1x1x768xbf16>
    %cst_9 = stablehlo.constant dense<0.000000e+00> : tensor<bf16>
    %34 = stablehlo.reduce(%33 init: %cst_9) applies stablehlo.add across dimensions = [0, 1] : (tensor<1x1x768xbf16>, tensor<bf16>) -> tensor<768xbf16>
    %35 = stablehlo.dot_general %31, %arg40, contracting_dims = [0, 1] x [0, 1], precision = [DEFAULT, DEFAULT] : (tensor<64x512x768xbf16>, tensor<64x512x3072xbf16>) -> tensor<768x3072xbf16>
    %36 = stablehlo.transpose %35, dims = [1, 0] : (tensor<768x3072xbf16>) -> tensor<3072x768xbf16>
    %37 = stablehlo.dot_general %31, %arg39, contracting_dims = [2] x [1], precision = [DEFAULT, DEFAULT] : (tensor<64x512x768xbf16>, tensor<3072x768xbf16>) -> tensor<64x512x3072xbf16>
    %38 = stablehlo.transpose %36, dims = [1, 0] : (tensor<3072x768xbf16>) -> tensor<768x3072xbf16>
    %39 = stablehlo.multiply %arg38, %37 : tensor<64x512x3072xbf16>
    %40 = stablehlo.multiply %37, %arg37 : tensor<64x512x3072xbf16>
    %cst_10 = stablehlo.constant dense<5.000000e-01> : tensor<bf16>
    %41 = stablehlo.broadcast_in_dim %cst_10, dims = [] : (tensor<bf16>) -> tensor<64x512x3072xbf16>
    %42 = stablehlo.multiply %41, %39 : tensor<64x512x3072xbf16>
    %43 = stablehlo.multiply %42, %arg36 : tensor<64x512x3072xbf16>
    %44 = stablehlo.multiply %43, %arg35 : tensor<64x512x3072xbf16>
    %45 = stablehlo.add %43, %44 : tensor<64x512x3072xbf16>
    %cst_11 = stablehlo.constant dense<7.968750e-01> : tensor<bf16>
    %46 = stablehlo.broadcast_in_dim %cst_11, dims = [] : (tensor<bf16>) -> tensor<64x512x3072xbf16>
    %47 = stablehlo.multiply %46, %45 : tensor<64x512x3072xbf16>
    %48 = stablehlo.add %40, %47 : tensor<64x512x3072xbf16>
    %cst_12 = stablehlo.constant dense<4.467770e-02> : tensor<bf16>
    %49 = stablehlo.broadcast_in_dim %cst_12, dims = [] : (tensor<bf16>) -> tensor<64x512x3072xbf16>
    %50 = stablehlo.multiply %49, %47 : tensor<64x512x3072xbf16>
    %51 = stablehlo.multiply %50, %arg34 : tensor<64x512x3072xbf16>
    %52 = stablehlo.add %48, %51 : tensor<64x512x3072xbf16>
    %cst_13 = stablehlo.constant dense<0.000000e+00> : tensor<bf16>
    %53 = stablehlo.reduce(%52 init: %cst_13) applies stablehlo.add across dimensions = [0, 1] : (tensor<64x512x3072xbf16>, tensor<bf16>) -> tensor<3072xbf16>
    %54 = stablehlo.reshape %53 : (tensor<3072xbf16>) -> tensor<1x1x3072xbf16>
    %cst_14 = stablehlo.constant dense<0.000000e+00> : tensor<bf16>
    %55 = stablehlo.reduce(%54 init: %cst_14) applies stablehlo.add across dimensions = [0, 1] : (tensor<1x1x3072xbf16>, tensor<bf16>) -> tensor<3072xbf16>
    %56 = stablehlo.dot_general %52, %arg33, contracting_dims = [0, 1] x [0, 1], precision = [DEFAULT, DEFAULT] : (tensor<64x512x3072xbf16>, tensor<64x512x768xbf16>) -> tensor<3072x768xbf16>
    %57 = stablehlo.transpose %56, dims = [1, 0] : (tensor<3072x768xbf16>) -> tensor<768x3072xbf16>
    %58 = stablehlo.dot_general %52, %arg32, contracting_dims = [2] x [1], precision = [DEFAULT, DEFAULT] : (tensor<64x512x3072xbf16>, tensor<768x3072xbf16>) -> tensor<64x512x768xbf16>
    %59 = stablehlo.add %27, %58 : tensor<64x512x768xbf16>
    %60 = stablehlo.transpose %57, dims = [1, 0] : (tensor<768x3072xbf16>) -> tensor<3072x768xbf16>
    %cst_15 = stablehlo.constant dense<0.000000e+00> : tensor<bf16>
    %61 = stablehlo.reduce(%59 init: %cst_15) applies stablehlo.add across dimensions = [0, 1] : (tensor<64x512x768xbf16>, tensor<bf16>) -> tensor<768xbf16>
    %62 = stablehlo.reshape %61 : (tensor<768xbf16>) -> tensor<1x1x768xbf16>
    %cst_16 = stablehlo.constant dense<0.000000e+00> : tensor<bf16>
    %63 = stablehlo.reduce(%62 init: %cst_16) applies stablehlo.add across dimensions = [0, 1] : (tensor<1x1x768xbf16>, tensor<bf16>) -> tensor<768xbf16>
    %64 = stablehlo.broadcast_in_dim %arg31, dims = [0, 1, 2] : (tensor<1x1x768xbf16>) -> tensor<64x512x768xbf16>
    %65 = stablehlo.multiply %64, %59 : tensor<64x512x768xbf16>
    %66 = stablehlo.multiply %59, %arg30 : tensor<64x512x768xbf16>
    %cst_17 = stablehlo.constant dense<0.000000e+00> : tensor<bf16>
    %67 = stablehlo.reduce(%66 init: %cst_17) applies stablehlo.add across dimensions = [0, 1] : (tensor<64x512x768xbf16>, tensor<bf16>) -> tensor<768xbf16>
    %68 = stablehlo.reshape %67 : (tensor<768xbf16>) -> tensor<1x1x768xbf16>
    %cst_18 = stablehlo.constant dense<0.000000e+00> : tensor<bf16>
    %69 = stablehlo.reduce(%68 init: %cst_18) applies stablehlo.add across dimensions = [0, 1] : (tensor<1x1x768xbf16>, tensor<bf16>) -> tensor<768xbf16>
    %70 = stablehlo.multiply %arg29, %65 : tensor<64x512x768xbf16>
    %cst_19 = stablehlo.constant dense<0.000000e+00> : tensor<bf16>
    %71 = stablehlo.reduce(%70 init: %cst_19) applies stablehlo.add across dimensions = [2] : (tensor<64x512x768xbf16>, tensor<bf16>) -> tensor<64x512xbf16>
    %72 = stablehlo.reshape %71 : (tensor<64x512xbf16>) -> tensor<64x512x1xbf16>
    %73 = stablehlo.broadcast_in_dim %arg28, dims = [0, 1, 2] : (tensor<64x512x1xbf16>) -> tensor<64x512x768xbf16>
    %74 = stablehlo.multiply %65, %73 : tensor<64x512x768xbf16>
    %75 = stablehlo.negate %74 : tensor<64x512x768xbf16>
    %cst_20 = stablehlo.constant dense<0.000000e+00> : tensor<bf16>
    %76 = stablehlo.reduce(%75 init: %cst_20) applies stablehlo.add across dimensions = [2] : (tensor<64x512x768xbf16>, tensor<bf16>) -> tensor<64x512xbf16>
    %77 = stablehlo.reshape %76 : (tensor<64x512xbf16>) -> tensor<64x512x1xbf16>
    %78 = stablehlo.multiply %72, %arg27 : tensor<64x512x1xbf16>
    %79 = stablehlo.multiply %78, %arg26 : tensor<64x512x1xbf16>
    %80 = call @_var_289(%arg25, %arg5, %arg6, %79) : (tensor<64x512x768xf32>, tensor<f32>, tensor<i1>, tensor<64x512x1xbf16>) -> tensor<64x512x768xbf16>
    %81 = stablehlo.add %74, %80 : tensor<64x512x768xbf16>
    %82 = stablehlo.convert %77 : (tensor<64x512x1xbf16>) -> tensor<64x512x1xf32>
    %83 = stablehlo.broadcast_in_dim %cst_5, dims = [] : (tensor<f32>) -> tensor<64x512x1xf32>
    %84 = stablehlo.divide %82, %83 : tensor<64x512x1xf32>
    %cst_21 = stablehlo.constant dense<0.000000e+00> : tensor<f32>
    %85 = stablehlo.reduce(%84 init: %cst_21) applies stablehlo.add across dimensions = [2] : (tensor<64x512x1xf32>, tensor<f32>) -> tensor<64x512xf32>
    %86 = stablehlo.broadcast_in_dim %85, dims = [0, 1] : (tensor<64x512xf32>) -> tensor<64x512x768xf32>
    %87 = stablehlo.convert %86 : (tensor<64x512x768xf32>) -> tensor<64x512x768xbf16>
    %88 = stablehlo.add %81, %87 : tensor<64x512x768xbf16>
    %89 = stablehlo.broadcast_in_dim %cst_7, dims = [] : (tensor<bf16>) -> tensor<64x512x768xbf16>
    %90 = stablehlo.select %arg4, %88, %89 : tensor<64x512x768xi1>, tensor<64x512x768xbf16>
    %91 = stablehlo.broadcast_in_dim %arg3, dims = [] : (tensor<bf16>) -> tensor<64x512x768xbf16>
    %92 = stablehlo.divide %90, %91 : tensor<64x512x768xbf16>
    %cst_22 = stablehlo.constant dense<0.000000e+00> : tensor<bf16>
    %93 = stablehlo.reduce(%92 init: %cst_22) applies stablehlo.add across dimensions = [0, 1] : (tensor<64x512x768xbf16>, tensor<bf16>) -> tensor<768xbf16>
    %94 = stablehlo.reshape %93 : (tensor<768xbf16>) -> tensor<1x1x768xbf16>
    %cst_23 = stablehlo.constant dense<0.000000e+00> : tensor<bf16>
    %95 = stablehlo.reduce(%94 init: %cst_23) applies stablehlo.add across dimensions = [0, 1] : (tensor<1x1x768xbf16>, tensor<bf16>) -> tensor<768xbf16>
    %96 = stablehlo.dot_general %92, %arg24, contracting_dims = [0, 1] x [0, 1], precision = [DEFAULT, DEFAULT] : (tensor<64x512x768xbf16>, tensor<64x512x768xbf16>) -> tensor<768x768xbf16>
    %97 = stablehlo.transpose %96, dims = [1, 0] : (tensor<768x768xbf16>) -> tensor<768x768xbf16>
    %98 = stablehlo.dot_general %92, %arg23, contracting_dims = [2] x [1], precision = [DEFAULT, DEFAULT] : (tensor<64x512x768xbf16>, tensor<768x768xbf16>) -> tensor<64x512x768xbf16>
    %99 = stablehlo.transpose %97, dims = [1, 0] : (tensor<768x768xbf16>) -> tensor<768x768xbf16>
    %100 = stablehlo.reshape %98 : (tensor<64x512x768xbf16>) -> tensor<64x512x12x64xbf16>
    %101 = stablehlo.transpose %100, dims = [0, 2, 3, 1] : (tensor<64x512x12x64xbf16>) -> tensor<64x12x64x512xbf16>
    %102 = stablehlo.dot_general %101, %arg22, batching_dims = [0, 1] x [0, 2], contracting_dims = [2] x [3], precision = [DEFAULT, DEFAULT] : (tensor<64x12x64x512xbf16>, tensor<64x512x12x64xbf16>) -> tensor<64x12x512x512xbf16>
    %103 = stablehlo.transpose %102, dims = [0, 2, 1, 3] : (tensor<64x12x512x512xbf16>) -> tensor<64x512x12x512xbf16>
    %104 = stablehlo.dot_general %101, %arg21, batching_dims = [0, 1] x [0, 2], contracting_dims = [3] x [1], precision = [DEFAULT, DEFAULT] : (tensor<64x12x64x512xbf16>, tensor<64x512x12x512xbf16>) -> tensor<64x12x64x512xbf16>
    %105 = stablehlo.transpose %104, dims = [0, 3, 1, 2] : (tensor<64x12x64x512xbf16>) -> tensor<64x512x12x64xbf16>
    %106 = stablehlo.multiply %103, %arg2 : tensor<64x512x12x512xbf16>
    %107 = stablehlo.convert %106 : (tensor<64x512x12x512xbf16>) -> tensor<64x512x12x512xf32>
    %108 = stablehlo.broadcast_in_dim %arg20, dims = [0, 1, 2, 3] : (tensor<64x512x12x1xf32>) -> tensor<64x512x12x512xf32>
    %109 = stablehlo.multiply %107, %108 : tensor<64x512x12x512xf32>
    %110 = stablehlo.multiply %109, %arg18 : tensor<64x512x12x512xf32>
    %cst_24 = stablehlo.constant dense<0.000000e+00> : tensor<f32>
    %111 = stablehlo.reduce(%110 init: %cst_24) applies stablehlo.add across dimensions = [3] : (tensor<64x512x12x512xf32>, tensor<f32>) -> tensor<64x512x12xf32>
    %112 = stablehlo.reshape %111 : (tensor<64x512x12xf32>) -> tensor<64x512x12x1xf32>
    %113 = stablehlo.negate %112 : tensor<64x512x12x1xf32>
    %114 = stablehlo.broadcast_in_dim %arg19, dims = [0, 1, 2, 3] : (tensor<64x512x12x1xf32>) -> tensor<64x512x12x512xf32>
    %115 = stablehlo.divide %107, %114 : tensor<64x512x12x512xf32>
    %cst_25 = stablehlo.constant dense<0.000000e+00> : tensor<f32>
    %116 = stablehlo.reduce(%113 init: %cst_25) applies stablehlo.add across dimensions = [3] : (tensor<64x512x12x1xf32>, tensor<f32>) -> tensor<64x512x12xf32>
    %117 = stablehlo.broadcast_in_dim %116, dims = [0, 1, 2] : (tensor<64x512x12xf32>) -> tensor<64x512x12x512xf32>
    %118 = stablehlo.add %115, %117 : tensor<64x512x12x512xf32>
    %119 = stablehlo.multiply %118, %arg18 : tensor<64x512x12x512xf32>
    %120 = stablehlo.convert %119 : (tensor<64x512x12x512xf32>) -> tensor<64x512x12x512xbf16>
    %121 = call @_where_313(%arg1, %120) : (tensor<64x512x12x512xi1>, tensor<64x512x12x512xbf16>) -> tensor<64x512x12x512xbf16>
    %122 = stablehlo.transpose %121, dims = [0, 2, 3, 1] : (tensor<64x512x12x512xbf16>) -> tensor<64x12x512x512xbf16>
    %123 = stablehlo.dot_general %122, %arg17, batching_dims = [0, 1] x [0, 2], contracting_dims = [2] x [1], precision = [DEFAULT, DEFAULT] : (tensor<64x12x512x512xbf16>, tensor<64x512x12x64xbf16>) -> tensor<64x12x512x64xbf16>
    %124 = stablehlo.transpose %123, dims = [0, 2, 1, 3] : (tensor<64x12x512x64xbf16>) -> tensor<64x512x12x64xbf16>
    %125 = stablehlo.dot_general %122, %arg16, batching_dims = [0, 1] x [0, 2], contracting_dims = [3] x [1], precision = [DEFAULT, DEFAULT] : (tensor<64x12x512x512xbf16>, tensor<64x512x12x64xbf16>) -> tensor<64x12x512x64xbf16>
    %126 = stablehlo.transpose %125, dims = [0, 2, 1, 3] : (tensor<64x12x512x64xbf16>) -> tensor<64x512x12x64xbf16>
    %127 = stablehlo.broadcast_in_dim %arg0, dims = [] : (tensor<bf16>) -> tensor<64x512x12x64xbf16>
    %128 = stablehlo.divide %124, %127 : tensor<64x512x12x64xbf16>
    %129 = stablehlo.reshape %105 : (tensor<64x512x12x64xbf16>) -> tensor<64x512x768xbf16>
    %130 = stablehlo.reshape %126 : (tensor<64x512x12x64xbf16>) -> tensor<64x512x768xbf16>
    %131 = stablehlo.reshape %128 : (tensor<64x512x12x64xbf16>) -> tensor<64x512x768xbf16>
    %cst_26 = stablehlo.constant dense<0.000000e+00> : tensor<bf16>
    %132 = stablehlo.reduce(%129 init: %cst_26) applies stablehlo.add across dimensions = [0, 1] : (tensor<64x512x768xbf16>, tensor<bf16>) -> tensor<768xbf16>
    %133 = stablehlo.reshape %132 : (tensor<768xbf16>) -> tensor<1x1x768xbf16>
    %cst_27 = stablehlo.constant dense<0.000000e+00> : tensor<bf16>
    %134 = stablehlo.reduce(%133 init: %cst_27) applies stablehlo.add across dimensions = [0, 1] : (tensor<1x1x768xbf16>, tensor<bf16>) -> tensor<768xbf16>
    %135 = stablehlo.dot_general %129, %arg13, contracting_dims = [0, 1] x [0, 1], precision = [DEFAULT, DEFAULT] : (tensor<64x512x768xbf16>, tensor<64x512x768xbf16>) -> tensor<768x768xbf16>
    %136 = stablehlo.transpose %135, dims = [1, 0] : (tensor<768x768xbf16>) -> tensor<768x768xbf16>
    %137 = stablehlo.dot_general %129, %arg15, contracting_dims = [2] x [1], precision = [DEFAULT, DEFAULT] : (tensor<64x512x768xbf16>, tensor<768x768xbf16>) -> tensor<64x512x768xbf16>
    %138 = stablehlo.add %88, %137 : tensor<64x512x768xbf16>
    %139 = stablehlo.transpose %136, dims = [1, 0] : (tensor<768x768xbf16>) -> tensor<768x768xbf16>
    %cst_28 = stablehlo.constant dense<0.000000e+00> : tensor<bf16>
    %140 = stablehlo.reduce(%130 init: %cst_28) applies stablehlo.add across dimensions = [0, 1] : (tensor<64x512x768xbf16>, tensor<bf16>) -> tensor<768xbf16>
    %141 = stablehlo.reshape %140 : (tensor<768xbf16>) -> tensor<1x1x768xbf16>
    %cst_29 = stablehlo.constant dense<0.000000e+00> : tensor<bf16>
    %142 = stablehlo.reduce(%141 init: %cst_29) applies stablehlo.add across dimensions = [0, 1] : (tensor<1x1x768xbf16>, tensor<bf16>) -> tensor<768xbf16>
    %143 = stablehlo.dot_general %130, %arg13, contracting_dims = [0, 1] x [0, 1], precision = [DEFAULT, DEFAULT] : (tensor<64x512x768xbf16>, tensor<64x512x768xbf16>) -> tensor<768x768xbf16>
    %144 = stablehlo.transpose %143, dims = [1, 0] : (tensor<768x768xbf16>) -> tensor<768x768xbf16>
    %145 = stablehlo.dot_general %130, %arg14, contracting_dims = [2] x [1], precision = [DEFAULT, DEFAULT] : (tensor<64x512x768xbf16>, tensor<768x768xbf16>) -> tensor<64x512x768xbf16>
    %146 = stablehlo.add %138, %145 : tensor<64x512x768xbf16>
    %147 = stablehlo.transpose %144, dims = [1, 0] : (tensor<768x768xbf16>) -> tensor<768x768xbf16>
    %cst_30 = stablehlo.constant dense<0.000000e+00> : tensor<bf16>
    %148 = stablehlo.reduce(%131 init: %cst_30) applies stablehlo.add across dimensions = [0, 1] : (tensor<64x512x768xbf16>, tensor<bf16>) -> tensor<768xbf16>
    %149 = stablehlo.reshape %148 : (tensor<768xbf16>) -> tensor<1x1x768xbf16>
    %cst_31 = stablehlo.constant dense<0.000000e+00> : tensor<bf16>
    %150 = stablehlo.reduce(%149 init: %cst_31) applies stablehlo.add across dimensions = [0, 1] : (tensor<1x1x768xbf16>, tensor<bf16>) -> tensor<768xbf16>
    %151 = stablehlo.dot_general %131, %arg13, contracting_dims = [0, 1] x [0, 1], precision = [DEFAULT, DEFAULT] : (tensor<64x512x768xbf16>, tensor<64x512x768xbf16>) -> tensor<768x768xbf16>
    %152 = stablehlo.transpose %151, dims = [1, 0] : (tensor<768x768xbf16>) -> tensor<768x768xbf16>
    %153 = stablehlo.dot_general %131, %arg12, contracting_dims = [2] x [1], precision = [DEFAULT, DEFAULT] : (tensor<64x512x768xbf16>, tensor<768x768xbf16>) -> tensor<64x512x768xbf16>
    %154 = stablehlo.add %146, %153 : tensor<64x512x768xbf16>
    %155 = stablehlo.transpose %152, dims = [1, 0] : (tensor<768x768xbf16>) -> tensor<768x768xbf16>
    return %154, %155, %150, %139, %134, %147, %142, %99, %95, %69, %63, %60, %55, %38, %34, %8, %2 : tensor<64x512x768xbf16>, tensor<768x768xbf16>, tensor<768xbf16>, tensor<768x768xbf16>, tensor<768xbf16>, tensor<768x768xbf16>, tensor<768xbf16>, tensor<768x768xbf16>, tensor<768xbf16>, tensor<768xbf16>, tensor<768xbf16>, tensor<3072x768xbf16>, tensor<3072xbf16>, tensor<768x3072xbf16>, tensor<768xbf16>, tensor<768xbf16>, tensor<768xbf16>
  }
  func.func private @_var_289(%arg0: tensor<64x512x768xf32>, %arg1: tensor<f32>, %arg2: tensor<i1>, %arg3: tensor<64x512x1xbf16>) -> tensor<64x512x768xbf16> {
    %0 = call @_where_290(%arg2, %arg3) : (tensor<i1>, tensor<64x512x1xbf16>) -> tensor<64x512x1xbf16>
    %1 = stablehlo.convert %0 : (tensor<64x512x1xbf16>) -> tensor<64x512x1xf32>
    %2 = stablehlo.broadcast_in_dim %arg1, dims = [] : (tensor<f32>) -> tensor<64x512x1xf32>
    %3 = stablehlo.divide %1, %2 : tensor<64x512x1xf32>
    %cst = stablehlo.constant dense<0.000000e+00> : tensor<f32>
    %4 = stablehlo.reduce(%3 init: %cst) applies stablehlo.add across dimensions = [2] : (tensor<64x512x1xf32>, tensor<f32>) -> tensor<64x512xf32>
    %5 = stablehlo.broadcast_in_dim %4, dims = [0, 1] : (tensor<64x512xf32>) -> tensor<64x512x768xf32>
    %6 = stablehlo.multiply %5, %arg0 : tensor<64x512x768xf32>
    %7 = stablehlo.negate %6 : tensor<64x512x768xf32>
    %cst_0 = stablehlo.constant dense<0.000000e+00> : tensor<f32>
    %8 = stablehlo.reduce(%7 init: %cst_0) applies stablehlo.add across dimensions = [2] : (tensor<64x512x768xf32>, tensor<f32>) -> tensor<64x512xf32>
    %9 = stablehlo.reshape %8 : (tensor<64x512xf32>) -> tensor<64x512x1xf32>
    %cst_1 = stablehlo.constant dense<7.680000e+02> : tensor<f32>
    %10 = stablehlo.broadcast_in_dim %cst_1, dims = [] : (tensor<f32>) -> tensor<64x512x1xf32>
    %11 = stablehlo.divide %9, %10 : tensor<64x512x1xf32>
    %cst_2 = stablehlo.constant dense<0.000000e+00> : tensor<f32>
    %12 = stablehlo.reduce(%11 init: %cst_2) applies stablehlo.add across dimensions = [2] : (tensor<64x512x1xf32>, tensor<f32>) -> tensor<64x512xf32>
    %13 = stablehlo.broadcast_in_dim %12, dims = [0, 1] : (tensor<64x512xf32>) -> tensor<64x512x768xf32>
    %14 = stablehlo.add %6, %13 : tensor<64x512x768xf32>
    %15 = stablehlo.convert %14 : (tensor<64x512x768xf32>) -> tensor<64x512x768xbf16>
    return %15 : tensor<64x512x768xbf16>
  }
  func.func private @_where_290(%arg0: tensor<i1>, %arg1: tensor<64x512x1xbf16>) -> tensor<64x512x1xbf16> {
    %cst = stablehlo.constant dense<0.000000e+00> : tensor<bf16>
    %0 = stablehlo.broadcast_in_dim %cst, dims = [] : (tensor<bf16>) -> tensor<64x512x1xbf16>
    %1 = stablehlo.select %arg0, %arg1, %0 : tensor<i1>, tensor<64x512x1xbf16>
    return %1 : tensor<64x512x1xbf16>
  }
  func.func private @_where_313(%arg0: tensor<64x512x12x512xi1>, %arg1: tensor<64x512x12x512xbf16>) -> tensor<64x512x12x512xbf16> {
    %cst = stablehlo.constant dense<0.000000e+00> : tensor<bf16>
    %0 = stablehlo.broadcast_in_dim %cst, dims = [] : (tensor<bf16>) -> tensor<64x512x12x512xbf16>
    %1 = stablehlo.select %arg0, %arg1, %0 : tensor<64x512x12x512xi1>, tensor<64x512x12x512xbf16>
    return %1 : tensor<64x512x12x512xbf16>
  }
  func.func private @_where_434(%arg0: tensor<i1>, %arg1: tensor<i32>, %arg2: tensor<i32>) -> tensor<i32> {
    %0 = stablehlo.select %arg0, %arg1, %arg2 : tensor<i1>, tensor<i32>
    return %0 : tensor<i32>
  }
  func.func private @clip(%arg0: tensor<i32>, %arg1: tensor<i32>, %arg2: tensor<i32>) -> tensor<i32> {
    %0 = stablehlo.convert %arg1 : tensor<i32>
    %1 = stablehlo.maximum %0, %arg0 : tensor<i32>
    %2 = stablehlo.convert %arg2 : tensor<i32>
    %3 = stablehlo.minimum %2, %1 : tensor<i32>
    return %3 : tensor<i32>
  }
  func.func private @_where_484(%arg0: tensor<i1>, %arg1: tensor<f32>, %arg2: tensor<f32>) -> tensor<f32> {
    %0 = stablehlo.convert %arg2 : tensor<f32>
    %1 = stablehlo.select %arg0, %arg1, %0 : tensor<i1>, tensor<f32>
    return %1 : tensor<f32>
  }
}
