module @jit_train_step attributes {mhlo.num_partitions = 4 : i32, mhlo.num_replicas = 1 : i32} {
  sdy.mesh @mesh = <["dp"=4]>
  func.func public @main(%arg0: tensor<512x768xf32> {sdy.sharding = #sdy.sharding<@mesh, [{}, {}]>}, %arg1: tensor<2x768xf32> {sdy.sharding = #sdy.sharding<@mesh, [{}, {}]>}, %arg2: tensor<30522x768xf32> {sdy.sharding = #sdy.sharding<@mesh, [{}, {}]>}, %arg3: tensor<768xf32> {sdy.sharding = #sdy.sharding<@mesh, [{}]>}, %arg4: tensor<768x768xf32> {sdy.sharding = #sdy.sharding<@mesh, [{}, {}]>}, %arg5: tensor<768xf32> {sdy.sharding = #sdy.sharding<@mesh, [{}]>}, %arg6: tensor<768x768xf32> {sdy.sharding = #sdy.sharding<@mesh, [{}, {}]>}, %arg7: tensor<768xf32> {sdy.sharding = #sdy.sharding<@mesh, [{}]>}, %arg8: tensor<768x768xf32> {sdy.sharding = #sdy.sharding<@mesh, [{}, {}]>}, %arg9: tensor<768xf32> {sdy.sharding = #sdy.sharding<@mesh, [{}]>}, %arg10: tensor<768x768xf32> {sdy.sharding = #sdy.sharding<@mesh, [{}, {}]>}, %arg11: tensor<768xf32> {sdy.sharding = #sdy.sharding<@mesh, [{}]>}, %arg12: tensor<768xf32> {sdy.sharding = #sdy.sharding<@mesh, [{}]>}, %arg13: tensor<768xf32> {sdy.sharding = #sdy.sharding<@mesh, [{}]>}, %arg14: tensor<3072x768xf32> {sdy.sharding = #sdy.sharding<@mesh, [{}, {}]>}, %arg15: tensor<768xf32> {sdy.sharding = #sdy.sharding<@mesh, [{}]>}, %arg16: tensor<768xf32> {sdy.sharding = #sdy.sharding<@mesh, [{}]>}, %arg17: tensor<3072xf32> {sdy.sharding = #sdy.sharding<@mesh, [{}]>}, %arg18: tensor<768x3072xf32> {sdy.sharding = #sdy.sharding<@mesh, [{}, {}]>}, %arg19: tensor<768xf32> {sdy.sharding = #sdy.sharding<@mesh, [{}]>}, %arg20: tensor<768x768xf32> {sdy.sharding = #sdy.sharding<@mesh, [{}, {}]>}, %arg21: tensor<768xf32> {sdy.sharding = #sdy.sharding<@mesh, [{}]>}, %arg22: tensor<768x768xf32> {sdy.sharding = #sdy.sharding<@mesh, [{}, {}]>}, %arg23: tensor<768xf32> {sdy.sharding = #sdy.sharding<@mesh, [{}]>}, %arg24: tensor<768x768xf32> {sdy.sharding = #sdy.sharding<@mesh, [{}, {}]>}, %arg25: tensor<768xf32> {sdy.sharding = #sdy.sharding<@mesh, [{}]>}, %arg26: tensor<768x768xf32> {sdy.sharding = #sdy.sharding<@mesh, [{}, {}]>}, %arg27: tensor<768xf32> {sdy.sharding = #sdy.sharding<@mesh, [{}]>}, %arg28: tensor<768xf32> {sdy.sharding = #sdy.sharding<@mesh, [{}]>}, %arg29: tensor<768xf32> {sdy.sharding = #sdy.sharding<@mesh, [{}]>}, %arg30: tensor<3072x768xf32> {sdy.sharding = #sdy.sharding<@mesh, [{}, {}]>}, %arg31: tensor<768xf32> {sdy.sharding = #sdy.sharding<@mesh, [{}]>}, %arg32: tensor<768xf32> {sdy.sharding = #sdy.sharding<@mesh, [{}]>}, %arg33: tensor<3072xf32> {sdy.sharding = #sdy.sharding<@mesh, [{}]>}, %arg34: tensor<768x3072xf32> {sdy.sharding = #sdy.sharding<@mesh, [{}, {}]>}, %arg35: tensor<768xf32> {sdy.sharding = #sdy.sharding<@mesh, [{}]>}, %arg36: tensor<768x768xf32> {sdy.sharding = #sdy.sharding<@mesh, [{}, {}]>}, %arg37: tensor<768xf32> {sdy.sharding = #sdy.sharding<@mesh, [{}]>}, %arg38: tensor<768x768xf32> {sdy.sharding = #sdy.sharding<@mesh, [{}, {}]>}, %arg39: tensor<768xf32> {sdy.sharding = #sdy.sharding<@mesh, [{}]>}, %arg40: tensor<768x768xf32> {sdy.sharding = #sdy.sharding<@mesh, [{}, {}]>}, %arg41: tensor<768xf32> {sdy.sharding = #sdy.sharding<@mesh, [{}]>}, %arg42: tensor<768x768xf32> {sdy.sharding = #sdy.sharding<@mesh, [{}, {}]>}, %arg43: tensor<768xf32> {sdy.sharding = #sdy.sharding<@mesh, [{}]>}, %arg44: tensor<768xf32> {sdy.sharding = #sdy.sharding<@mesh, [{}]>}, %arg45: tensor<768xf32> {sdy.sharding = #sdy.sharding<@mesh, [{}]>}, %arg46: tensor<3072x768xf32> {sdy.sharding = #sdy.sharding<@mesh, [{}, {}]>}, %arg47: tensor<768xf32> {sdy.sharding = #sdy.sharding<@mesh, [{}]>}, %arg48: tensor<768xf32> {sdy.sharding = #sdy.sharding<@mesh, [{}]>}, %arg49: tensor<3072xf32> {sdy.sharding = #sdy.sharding<@mesh, [{}]>}, %arg50: tensor<768x3072xf32> {sdy.sharding = #sdy.sharding<@mesh, [{}, {}]>}, %arg51: tensor<768xf32> {sdy.sharding = #sdy.sharding<@mesh, [{}]>}, %arg52: tensor<768x768xf32> {sdy.sharding = #sdy.sharding<@mesh, [{}, {}]>}, %arg53: tensor<768xf32> {sdy.sharding = #sdy.sharding<@mesh, [{}]>}, %arg54: tensor<768x768xf32> {sdy.sharding = #sdy.sharding<@mesh, [{}, {}]>}, %arg55: tensor<768xf32> {sdy.sharding = #sdy.sharding<@mesh, [{}]>}, %arg56: tensor<768x768xf32> {sdy.sharding = #sdy.sharding<@mesh, [{}, {}]>}, %arg57: tensor<768xf32> {sdy.sharding = #sdy.sharding<@mesh, [{}]>}, %arg58: tensor<768x768xf32> {sdy.sharding = #sdy.sharding<@mesh, [{}, {}]>}, %arg59: tensor<768xf32> {sdy.sharding = #sdy.sharding<@mesh, [{}]>}, %arg60: tensor<768xf32> {sdy.sharding = #sdy.sharding<@mesh, [{}]>}, %arg61: tensor<768xf32> {sdy.sharding = #sdy.sharding<@mesh, [{}]>}, %arg62: tensor<3072x768xf32> {sdy.sharding = #sdy.sharding<@mesh, [{}, {}]>}, %arg63: tensor<768xf32> {sdy.sharding = #sdy.sharding<@mesh, [{}]>}, %arg64: tensor<768xf32> {sdy.sharding = #sdy.sharding<@mesh, [{}]>}, %arg65: tensor<3072xf32> {sdy.sharding = #sdy.sharding<@mesh, [{}]>}, %arg66: tensor<768x3072xf32> {sdy.sharding = #sdy.sharding<@mesh, [{}, {}]>}, %arg67: tensor<768xf32> {sdy.sharding = #sdy.sharding<@mesh, [{}]>}, %arg68: tensor<768x768xf32> {sdy.sharding = #sdy.sharding<@mesh, [{}, {}]>}, %arg69: tensor<768xf32> {sdy.sharding = #sdy.sharding<@mesh, [{}]>}, %arg70: tensor<768x768xf32> {sdy.sharding = #sdy.sharding<@mesh, [{}, {}]>}, %arg71: tensor<768xf32> {sdy.sharding = #sdy.sharding<@mesh, [{}]>}, %arg72: tensor<768x768xf32> {sdy.sharding = #sdy.sharding<@mesh, [{}, {}]>}, %arg73: tensor<768xf32> {sdy.sharding = #sdy.sharding<@mesh, [{}]>}, %arg74: tensor<768x768xf32> {sdy.sharding = #sdy.sharding<@mesh, [{}, {}]>}, %arg75: tensor<768xf32> {sdy.sharding = #sdy.sharding<@mesh, [{}]>}, %arg76: tensor<768xf32> {sdy.sharding = #sdy.sharding<@mesh, [{}]>}, %arg77: tensor<768xf32> {sdy.sharding = #sdy.sharding<@mesh, [{}]>}, %arg78: tensor<3072x768xf32> {sdy.sharding = #sdy.sharding<@mesh, [{}, {}]>}, %arg79: tensor<768xf32> {sdy.sharding = #sdy.sharding<@mesh, [{}]>}, %arg80: tensor<768xf32> {sdy.sharding = #sdy.sharding<@mesh, [{}]>}, %arg81: tensor<3072xf32> {sdy.sharding = #sdy.sharding<@mesh, [{}]>}, %arg82: tensor<768x3072xf32> {sdy.sharding = #sdy.sharding<@mesh, [{}, {}]>}, %arg83: tensor<768xf32> {sdy.sharding = #sdy.sharding<@mesh, [{}]>}, %arg84: tensor<768x768xf32> {sdy.sharding = #sdy.sharding<@mesh, [{}, {}]>}, %arg85: tensor<768xf32> {sdy.sharding = #sdy.sharding<@mesh, [{}]>}, %arg86: tensor<768x768xf32> {sdy.sharding = #sdy.sharding<@mesh, [{}, {}]>}, %arg87: tensor<768xf32> {sdy.sharding = #sdy.sharding<@mesh, [{}]>}, %arg88: tensor<768x768xf32> {sdy.sharding = #sdy.sharding<@mesh, [{}, {}]>}, %arg89: tensor<768xf32> {sdy.sharding = #sdy.sharding<@mesh, [{}]>}, %arg90: tensor<768x768xf32> {sdy.sharding = #sdy.sharding<@mesh, [{}, {}]>}, %arg91: tensor<768xf32> {sdy.sharding = #sdy.sharding<@mesh, [{}]>}, %arg92: tensor<768xf32> {sdy.sharding = #sdy.sharding<@mesh, [{}]>}, %arg93: tensor<768xf32> {sdy.sharding = #sdy.sharding<@mesh, [{}]>}, %arg94: tensor<3072x768xf32> {sdy.sharding = #sdy.sharding<@mesh, [{}, {}]>}, %arg95: tensor<768xf32> {sdy.sharding = #sdy.sharding<@mesh, [{}]>}, %arg96: tensor<768xf32> {sdy.sharding = #sdy.sharding<@mesh, [{}]>}, %arg97: tensor<3072xf32> {sdy.sharding = #sdy.sharding<@mesh, [{}]>}, %arg98: tensor<768x3072xf32> {sdy.sharding = #sdy.sharding<@mesh, [{}, {}]>}, %arg99: tensor<768xf32> {sdy.sharding = #sdy.sharding<@mesh, [{}]>}, %arg100: tensor<768x768xf32> {sdy.sharding = #sdy.sharding<@mesh, [{}, {}]>}, %arg101: tensor<768xf32> {sdy.sharding = #sdy.sharding<@mesh, [{}]>}, %arg102: tensor<768x768xf32> {sdy.sharding = #sdy.sharding<@mesh, [{}, {}]>}, %arg103: tensor<768xf32> {sdy.sharding = #sdy.sharding<@mesh, [{}]>}, %arg104: tensor<768x768xf32> {sdy.sharding = #sdy.sharding<@mesh, [{}, {}]>}, %arg105: tensor<768xf32> {sdy.sharding = #sdy.sharding<@mesh, [{}]>}, %arg106: tensor<768x768xf32> {sdy.sharding = #sdy.sharding<@mesh, [{}, {}]>}, %arg107: tensor<768xf32> {sdy.sharding = #sdy.sharding<@mesh, [{}]>}, %arg108: tensor<768xf32> {sdy.sharding = #sdy.sharding<@mesh, [{}]>}, %arg109: tensor<768xf32> {sdy.sharding = #sdy.sharding<@mesh, [{}]>}, %arg110: tensor<3072x768xf32> {sdy.sharding = #sdy.sharding<@mesh, [{}, {}]>}, %arg111: tensor<768xf32> {sdy.sharding = #sdy.sharding<@mesh, [{}]>}, %arg112: tensor<768xf32> {sdy.sharding = #sdy.sharding<@mesh, [{}]>}, %arg113: tensor<3072xf32> {sdy.sharding = #sdy.sharding<@mesh, [{}]>}, %arg114: tensor<768x3072xf32> {sdy.sharding = #sdy.sharding<@mesh, [{}, {}]>}, %arg115: tensor<768xf32> {sdy.sharding = #sdy.sharding<@mesh, [{}]>}, %arg116: tensor<768x768xf32> {sdy.sharding = #sdy.sharding<@mesh, [{}, {}]>}, %arg117: tensor<768xf32> {sdy.sharding = #sdy.sharding<@mesh, [{}]>}, %arg118: tensor<768x768xf32> {sdy.sharding = #sdy.sharding<@mesh, [{}, {}]>}, %arg119: tensor<768xf32> {sdy.sharding = #sdy.sharding<@mesh, [{}]>}, %arg120: tensor<768x768xf32> {sdy.sharding = #sdy.sharding<@mesh, [{}, {}]>}, %arg121: tensor<768xf32> {sdy.sharding = #sdy.sharding<@mesh, [{}]>}, %arg122: tensor<768x768xf32> {sdy.sharding = #sdy.sharding<@mesh, [{}, {}]>}, %arg123: tensor<768xf32> {sdy.sharding = #sdy.sharding<@mesh, [{}]>}, %arg124: tensor<768xf32> {sdy.sharding = #sdy.sharding<@mesh, [{}]>}, %arg125: tensor<768xf32> {sdy.sharding = #sdy.sharding<@mesh, [{}]>}, %arg126: tensor<3072x768xf32> {sdy.sharding = #sdy.sharding<@mesh, [{}, {}]>}, %arg127: tensor<768xf32> {sdy.sharding = #sdy.sharding<@mesh, [{}]>}, %arg128: tensor<768xf32> {sdy.sharding = #sdy.sharding<@mesh, [{}]>}, %arg129: tensor<3072xf32> {sdy.sharding = #sdy.sharding<@mesh, [{}]>}, %arg130: tensor<768x3072xf32> {sdy.sharding = #sdy.sharding<@mesh, [{}, {}]>}, %arg131: tensor<768xf32> {sdy.sharding = #sdy.sharding<@mesh, [{}]>}, %arg132: tensor<768x768xf32> {sdy.sharding = #sdy.sharding<@mesh, [{}, {}]>}, %arg133: tensor<768xf32> {sdy.sharding = #sdy.sharding<@mesh, [{}]>}, %arg134: tensor<768x768xf32> {sdy.sharding = #sdy.sharding<@mesh, [{}, {}]>}, %arg135: tensor<768xf32> {sdy.sharding = #sdy.sharding<@mesh, [{}]>}, %arg136: tensor<768x768xf32> {sdy.sharding = #sdy.sharding<@mesh, [{}, {}]>}, %arg137: tensor<768xf32> {sdy.sharding = #sdy.sharding<@mesh, [{}]>}, %arg138: tensor<768x768xf32> {sdy.sharding = #sdy.sharding<@mesh, [{}, {}]>}, %arg139: tensor<768xf32> {sdy.sharding = #sdy.sharding<@mesh, [{}]>}, %arg140: tensor<768xf32> {sdy.sharding = #sdy.sharding<@mesh, [{}]>}, %arg141: tensor<768xf32> {sdy.sharding = #sdy.sharding<@mesh, [{}]>}, %arg142: tensor<3072x768xf32> {sdy.sharding = #sdy.sharding<@mesh, [{}, {}]>}, %arg143: tensor<768xf32> {sdy.sharding = #sdy.sharding<@mesh, [{}]>}, %arg144: tensor<768xf32> {sdy.sharding = #sdy.sharding<@mesh, [{}]>}, %arg145: tensor<3072xf32> {sdy.sharding = #sdy.sharding<@mesh, [{}]>}, %arg146: tensor<768x3072xf32> {sdy.sharding = #sdy.sharding<@mesh, [{}, {}]>}, %arg147: tensor<768xf32> {sdy.sharding = #sdy.sharding<@mesh, [{}]>}, %arg148: tensor<768x768xf32> {sdy.sharding = #sdy.sharding<@mesh, [{}, {}]>}, %arg149: tensor<768xf32> {sdy.sharding = #sdy.sharding<@mesh, [{}]>}, %arg150: tensor<768x768xf32> {sdy.sharding = #sdy.sharding<@mesh, [{}, {}]>}, %arg151: tensor<768xf32> {sdy.sharding = #sdy.sharding<@mesh, [{}]>}, %arg152: tensor<768x768xf32> {sdy.sharding = #sdy.sharding<@mesh, [{}, {}]>}, %arg153: tensor<768xf32> {sdy.sharding = #sdy.sharding<@mesh, [{}]>}, %arg154: tensor<768x768xf32> {sdy.sharding = #sdy.sharding<@mesh, [{}, {}]>}, %arg155: tensor<768xf32> {sdy.sharding = #sdy.sharding<@mesh, [{}]>}, %arg156: tensor<768xf32> {sdy.sharding = #sdy.sharding<@mesh, [{}]>}, %arg157: tensor<768xf32> {sdy.sharding = #sdy.sharding<@mesh, [{}]>}, %arg158: tensor<3072x768xf32> {sdy.sharding = #sdy.sharding<@mesh, [{}, {}]>}, %arg159: tensor<768xf32> {sdy.sharding = #sdy.sharding<@mesh, [{}]>}, %arg160: tensor<768xf32> {sdy.sharding = #sdy.sharding<@mesh, [{}]>}, %arg161: tensor<3072xf32> {sdy.sharding = #sdy.sharding<@mesh, [{}]>}, %arg162: tensor<768x3072xf32> {sdy.sharding = #sdy.sharding<@mesh, [{}, {}]>}, %arg163: tensor<768xf32> {sdy.sharding = #sdy.sharding<@mesh, [{}]>}, %arg164: tensor<768x768xf32> {sdy.sharding = #sdy.sharding<@mesh, [{}, {}]>}, %arg165: tensor<768xf32> {sdy.sharding = #sdy.sharding<@mesh, [{}]>}, %arg166: tensor<768x768xf32> {sdy.sharding = #sdy.sharding<@mesh, [{}, {}]>}, %arg167: tensor<768xf32> {sdy.sharding = #sdy.sharding<@mesh, [{}]>}, %arg168: tensor<768x768xf32> {sdy.sharding = #sdy.sharding<@mesh, [{}, {}]>}, %arg169: tensor<768xf32> {sdy.sharding = #sdy.sharding<@mesh, [{}]>}, %arg170: tensor<768x768xf32> {sdy.sharding = #sdy.sharding<@mesh, [{}, {}]>}, %arg171: tensor<768xf32> {sdy.sharding = #sdy.sharding<@mesh, [{}]>}, %arg172: tensor<768xf32> {sdy.sharding = #sdy.sharding<@mesh, [{}]>}, %arg173: tensor<768xf32> {sdy.sharding = #sdy.sharding<@mesh, [{}]>}, %arg174: tensor<3072x768xf32> {sdy.sharding = #sdy.sharding<@mesh, [{}, {}]>}, %arg175: tensor<768xf32> {sdy.sharding = #sdy.sharding<@mesh, [{}]>}, %arg176: tensor<768xf32> {sdy.sharding = #sdy.sharding<@mesh, [{}]>}, %arg177: tensor<3072xf32> {sdy.sharding = #sdy.sharding<@mesh, [{}]>}, %arg178: tensor<768x3072xf32> {sdy.sharding = #sdy.sharding<@mesh, [{}, {}]>}, %arg179: tensor<768xf32> {sdy.sharding = #sdy.sharding<@mesh, [{}]>}, %arg180: tensor<768x768xf32> {sdy.sharding = #sdy.sharding<@mesh, [{}, {}]>}, %arg181: tensor<768xf32> {sdy.sharding = #sdy.sharding<@mesh, [{}]>}, %arg182: tensor<768x768xf32> {sdy.sharding = #sdy.sharding<@mesh, [{}, {}]>}, %arg183: tensor<768xf32> {sdy.sharding = #sdy.sharding<@mesh, [{}]>}, %arg184: tensor<768x768xf32> {sdy.sharding = #sdy.sharding<@mesh, [{}, {}]>}, %arg185: tensor<768xf32> {sdy.sharding = #sdy.sharding<@mesh, [{}]>}, %arg186: tensor<768x768xf32> {sdy.sharding = #sdy.sharding<@mesh, [{}, {}]>}, %arg187: tensor<768xf32> {sdy.sharding = #sdy.sharding<@mesh, [{}]>}, %arg188: tensor<768xf32> {sdy.sharding = #sdy.sharding<@mesh, [{}]>}, %arg189: tensor<768xf32> {sdy.sharding = #sdy.sharding<@mesh, [{}]>}, %arg190: tensor<3072x768xf32> {sdy.sharding = #sdy.sharding<@mesh, [{}, {}]>}, %arg191: tensor<768xf32> {sdy.sharding = #sdy.sharding<@mesh, [{}]>}, %arg192: tensor<768xf32> {sdy.sharding = #sdy.sharding<@mesh, [{}]>}, %arg193: tensor<3072xf32> {sdy.sharding = #sdy.sharding<@mesh, [{}]>}, %arg194: tensor<768x3072xf32> {sdy.sharding = #sdy.sharding<@mesh, [{}, {}]>}, %arg195: tensor<768xf32> {sdy.sharding = #sdy.sharding<@mesh, [{}]>}, %arg196: tensor<768xf32> {sdy.sharding = #sdy.sharding<@mesh, [{}]>}, %arg197: tensor<30522xf32> {sdy.sharding = #sdy.sharding<@mesh, [{}]>}, %arg198: tensor<768xf32> {sdy.sharding = #sdy.sharding<@mesh, [{}]>}, %arg199: tensor<768x768xf32> {sdy.sharding = #sdy.sharding<@mesh, [{}, {}]>}, %arg200: tensor<30522x768xf32> {sdy.sharding = #sdy.sharding<@mesh, [{}, {}]>}, %arg201: tensor<768xf32> {sdy.sharding = #sdy.sharding<@mesh, [{}]>}, %arg202: tensor<768xf32> {sdy.sharding = #sdy.sharding<@mesh, [{}]>}, %arg203: tensor<i32>, %arg204: tensor<512x768xf32> {sdy.sharding = #sdy.sharding<@mesh, [{}, {}]>}, %arg205: tensor<2x768xf32> {sdy.sharding = #sdy.sharding<@mesh, [{}, {}]>}, %arg206: tensor<30522x768xf32> {sdy.sharding = #sdy.sharding<@mesh, [{}, {}]>}, %arg207: tensor<768xf32> {sdy.sharding = #sdy.sharding<@mesh, [{}]>}, %arg208: tensor<768x768xf32> {sdy.sharding = #sdy.sharding<@mesh, [{}, {}]>}, %arg209: tensor<768xf32> {sdy.sharding = #sdy.sharding<@mesh, [{}]>}, %arg210: tensor<768x768xf32> {sdy.sharding = #sdy.sharding<@mesh, [{}, {}]>}, %arg211: tensor<768xf32> {sdy.sharding = #sdy.sharding<@mesh, [{}]>}, %arg212: tensor<768x768xf32> {sdy.sharding = #sdy.sharding<@mesh, [{}, {}]>}, %arg213: tensor<768xf32> {sdy.sharding = #sdy.sharding<@mesh, [{}]>}, %arg214: tensor<768x768xf32> {sdy.sharding = #sdy.sharding<@mesh, [{}, {}]>}, %arg215: tensor<768xf32> {sdy.sharding = #sdy.sharding<@mesh, [{}]>}, %arg216: tensor<768xf32> {sdy.sharding = #sdy.sharding<@mesh, [{}]>}, %arg217: tensor<768xf32> {sdy.sharding = #sdy.sharding<@mesh, [{}]>}, %arg218: tensor<3072x768xf32> {sdy.sharding = #sdy.sharding<@mesh, [{}, {}]>}, %arg219: tensor<768xf32> {sdy.sharding = #sdy.sharding<@mesh, [{}]>}, %arg220: tensor<768xf32> {sdy.sharding = #sdy.sharding<@mesh, [{}]>}, %arg221: tensor<3072xf32> {sdy.sharding = #sdy.sharding<@mesh, [{}]>}, %arg222: tensor<768x3072xf32> {sdy.sharding = #sdy.sharding<@mesh, [{}, {}]>}, %arg223: tensor<768xf32> {sdy.sharding = #sdy.sharding<@mesh, [{}]>}, %arg224: tensor<768x768xf32> {sdy.sharding = #sdy.sharding<@mesh, [{}, {}]>}, %arg225: tensor<768xf32> {sdy.sharding = #sdy.sharding<@mesh, [{}]>}, %arg226: tensor<768x768xf32> {sdy.sharding = #sdy.sharding<@mesh, [{}, {}]>}, %arg227: tensor<768xf32> {sdy.sharding = #sdy.sharding<@mesh, [{}]>}, %arg228: tensor<768x768xf32> {sdy.sharding = #sdy.sharding<@mesh, [{}, {}]>}, %arg229: tensor<768xf32> {sdy.sharding = #sdy.sharding<@mesh, [{}]>}, %arg230: tensor<768x768xf32> {sdy.sharding = #sdy.sharding<@mesh, [{}, {}]>}, %arg231: tensor<768xf32> {sdy.sharding = #sdy.sharding<@mesh, [{}]>}, %arg232: tensor<768xf32> {sdy.sharding = #sdy.sharding<@mesh, [{}]>}, %arg233: tensor<768xf32> {sdy.sharding = #sdy.sharding<@mesh, [{}]>}, %arg234: tensor<3072x768xf32> {sdy.sharding = #sdy.sharding<@mesh, [{}, {}]>}, %arg235: tensor<768xf32> {sdy.sharding = #sdy.sharding<@mesh, [{}]>}, %arg236: tensor<768xf32> {sdy.sharding = #sdy.sharding<@mesh, [{}]>}, %arg237: tensor<3072xf32> {sdy.sharding = #sdy.sharding<@mesh, [{}]>}, %arg238: tensor<768x3072xf32> {sdy.sharding = #sdy.sharding<@mesh, [{}, {}]>}, %arg239: tensor<768xf32> {sdy.sharding = #sdy.sharding<@mesh, [{}]>}, %arg240: tensor<768x768xf32> {sdy.sharding = #sdy.sharding<@mesh, [{}, {}]>}, %arg241: tensor<768xf32> {sdy.sharding = #sdy.sharding<@mesh, [{}]>}, %arg242: tensor<768x768xf32> {sdy.sharding = #sdy.sharding<@mesh, [{}, {}]>}, %arg243: tensor<768xf32> {sdy.sharding = #sdy.sharding<@mesh, [{}]>}, %arg244: tensor<768x768xf32> {sdy.sharding = #sdy.sharding<@mesh, [{}, {}]>}, %arg245: tensor<768xf32> {sdy.sharding = #sdy.sharding<@mesh, [{}]>}, %arg246: tensor<768x768xf32> {sdy.sharding = #sdy.sharding<@mesh, [{}, {}]>}, %arg247: tensor<768xf32> {sdy.sharding = #sdy.sharding<@mesh, [{}]>}, %arg248: tensor<768xf32> {sdy.sharding = #sdy.sharding<@mesh, [{}]>}, %arg249: tensor<768xf32> {sdy.sharding = #sdy.sharding<@mesh, [{}]>}, %arg250: tensor<3072x768xf32> {sdy.sharding = #sdy.sharding<@mesh, [{}, {}]>}, %arg251: tensor<768xf32> {sdy.sharding = #sdy.sharding<@mesh, [{}]>}, %arg252: tensor<768xf32> {sdy.sharding = #sdy.sharding<@mesh, [{}]>}, %arg253: tensor<3072xf32> {sdy.sharding = #sdy.sharding<@mesh, [{}]>}, %arg254: tensor<768x3072xf32> {sdy.sharding = #sdy.sharding<@mesh, [{}, {}]>}, %arg255: tensor<768xf32> {sdy.sharding = #sdy.sharding<@mesh, [{}]>}, %arg256: tensor<768x768xf32> {sdy.sharding = #sdy.sharding<@mesh, [{}, {}]>}, %arg257: tensor<768xf32> {sdy.sharding = #sdy.sharding<@mesh, [{}]>}, %arg258: tensor<768x768xf32> {sdy.sharding = #sdy.sharding<@mesh, [{}, {}]>}, %arg259: tensor<768xf32> {sdy.sharding = #sdy.sharding<@mesh, [{}]>}, %arg260: tensor<768x768xf32> {sdy.sharding = #sdy.sharding<@mesh, [{}, {}]>}, %arg261: tensor<768xf32> {sdy.sharding = #sdy.sharding<@mesh, [{}]>}, %arg262: tensor<768x768xf32> {sdy.sharding = #sdy.sharding<@mesh, [{}, {}]>}, %arg263: tensor<768xf32> {sdy.sharding = #sdy.sharding<@mesh, [{}]>}, %arg264: tensor<768xf32> {sdy.sharding = #sdy.sharding<@mesh, [{}]>}, %arg265: tensor<768xf32> {sdy.sharding = #sdy.sharding<@mesh, [{}]>}, %arg266: tensor<3072x768xf32> {sdy.sharding = #sdy.sharding<@mesh, [{}, {}]>}, %arg267: tensor<768xf32> {sdy.sharding = #sdy.sharding<@mesh, [{}]>}, %arg268: tensor<768xf32> {sdy.sharding = #sdy.sharding<@mesh, [{}]>}, %arg269: tensor<3072xf32> {sdy.sharding = #sdy.sharding<@mesh, [{}]>}, %arg270: tensor<768x3072xf32> {sdy.sharding = #sdy.sharding<@mesh, [{}, {}]>}, %arg271: tensor<768xf32> {sdy.sharding = #sdy.sharding<@mesh, [{}]>}, %arg272: tensor<768x768xf32> {sdy.sharding = #sdy.sharding<@mesh, [{}, {}]>}, %arg273: tensor<768xf32> {sdy.sharding = #sdy.sharding<@mesh, [{}]>}, %arg274: tensor<768x768xf32> {sdy.sharding = #sdy.sharding<@mesh, [{}, {}]>}, %arg275: tensor<768xf32> {sdy.sharding = #sdy.sharding<@mesh, [{}]>}, %arg276: tensor<768x768xf32> {sdy.sharding = #sdy.sharding<@mesh, [{}, {}]>}, %arg277: tensor<768xf32> {sdy.sharding = #sdy.sharding<@mesh, [{}]>}, %arg278: tensor<768x768xf32> {sdy.sharding = #sdy.sharding<@mesh, [{}, {}]>}, %arg279: tensor<768xf32> {sdy.sharding = #sdy.sharding<@mesh, [{}]>}, %arg280: tensor<768xf32> {sdy.sharding = #sdy.sharding<@mesh, [{}]>}, %arg281: tensor<768xf32> {sdy.sharding = #sdy.sharding<@mesh, [{}]>}, %arg282: tensor<3072x768xf32> {sdy.sharding = #sdy.sharding<@mesh, [{}, {}]>}, %arg283: tensor<768xf32> {sdy.sharding = #sdy.sharding<@mesh, [{}]>}, %arg284: tensor<768xf32> {sdy.sharding = #sdy.sharding<@mesh, [{}]>}, %arg285: tensor<3072xf32> {sdy.sharding = #sdy.sharding<@mesh, [{}]>}, %arg286: tensor<768x3072xf32> {sdy.sharding = #sdy.sharding<@mesh, [{}, {}]>}, %arg287: tensor<768xf32> {sdy.sharding = #sdy.sharding<@mesh, [{}]>}, %arg288: tensor<768x768xf32> {sdy.sharding = #sdy.sharding<@mesh, [{}, {}]>}, %arg289: tensor<768xf32> {sdy.sharding = #sdy.sharding<@mesh, [{}]>}, %arg290: tensor<768x768xf32> {sdy.sharding = #sdy.sharding<@mesh, [{}, {}]>}, %arg291: tensor<768xf32> {sdy.sharding = #sdy.sharding<@mesh, [{}]>}, %arg292: tensor<768x768xf32> {sdy.sharding = #sdy.sharding<@mesh, [{}, {}]>}, %arg293: tensor<768xf32> {sdy.sharding = #sdy.sharding<@mesh, [{}]>}, %arg294: tensor<768x768xf32> {sdy.sharding = #sdy.sharding<@mesh, [{}, {}]>}, %arg295: tensor<768xf32> {sdy.sharding = #sdy.sharding<@mesh, [{}]>}, %arg296: tensor<768xf32> {sdy.sharding = #sdy.sharding<@mesh, [{}]>}, %arg297: tensor<768xf32> {sdy.sharding = #sdy.sharding<@mesh, [{}]>}, %arg298: tensor<3072x768xf32> {sdy.sharding = #sdy.sharding<@mesh, [{}, {}]>}, %arg299: tensor<768xf32> {sdy.sharding = #sdy.sharding<@mesh, [{}]>}, %arg300: tensor<768xf32> {sdy.sharding = #sdy.sharding<@mesh, [{}]>}, %arg301: tensor<3072xf32> {sdy.sharding = #sdy.sharding<@mesh, [{}]>}, %arg302: tensor<768x3072xf32> {sdy.sharding = #sdy.sharding<@mesh, [{}, {}]>}, %arg303: tensor<768xf32> {sdy.sharding = #sdy.sharding<@mesh, [{}]>}, %arg304: tensor<768x768xf32> {sdy.sharding = #sdy.sharding<@mesh, [{}, {}]>}, %arg305: tensor<768xf32> {sdy.sharding = #sdy.sharding<@mesh, [{}]>}, %arg306: tensor<768x768xf32> {sdy.sharding = #sdy.sharding<@mesh, [{}, {}]>}, %arg307: tensor<768xf32> {sdy.sharding = #sdy.sharding<@mesh, [{}]>}, %arg308: tensor<768x768xf32> {sdy.sharding = #sdy.sharding<@mesh, [{}, {}]>}, %arg309: tensor<768xf32> {sdy.sharding = #sdy.sharding<@mesh, [{}]>}, %arg310: tensor<768x768xf32> {sdy.sharding = #sdy.sharding<@mesh, [{}, {}]>}, %arg311: tensor<768xf32> {sdy.sharding = #sdy.sharding<@mesh, [{}]>}, %arg312: tensor<768xf32> {sdy.sharding = #sdy.sharding<@mesh, [{}]>}, %arg313: tensor<768xf32> {sdy.sharding = #sdy.sharding<@mesh, [{}]>}, %arg314: tensor<3072x768xf32> {sdy.sharding = #sdy.sharding<@mesh, [{}, {}]>}, %arg315: tensor<768xf32> {sdy.sharding = #sdy.sharding<@mesh, [{}]>}, %arg316: tensor<768xf32> {sdy.sharding = #sdy.sharding<@mesh, [{}]>}, %arg317: tensor<3072xf32> {sdy.sharding = #sdy.sharding<@mesh, [{}]>}, %arg318: tensor<768x3072xf32> {sdy.sharding = #sdy.sharding<@mesh, [{}, {}]>}, %arg319: tensor<768xf32> {sdy.sharding = #sdy.sharding<@mesh, [{}]>}, %arg320: tensor<768x768xf32> {sdy.sharding = #sdy.sharding<@mesh, [{}, {}]>}, %arg321: tensor<768xf32> {sdy.sharding = #sdy.sharding<@mesh, [{}]>}, %arg322: tensor<768x768xf32> {sdy.sharding = #sdy.sharding<@mesh, [{}, {}]>}, %arg323: tensor<768xf32> {sdy.sharding = #sdy.sharding<@mesh, [{}]>}, %arg324: tensor<768x768xf32> {sdy.sharding = #sdy.sharding<@mesh, [{}, {}]>}, %arg325: tensor<768xf32> {sdy.sharding = #sdy.sharding<@mesh, [{}]>}, %arg326: tensor<768x768xf32> {sdy.sharding = #sdy.sharding<@mesh, [{}, {}]>}, %arg327: tensor<768xf32> {sdy.sharding = #sdy.sharding<@mesh, [{}]>}, %arg328: tensor<768xf32> {sdy.sharding = #sdy.sharding<@mesh, [{}]>}, %arg329: tensor<768xf32> {sdy.sharding = #sdy.sharding<@mesh, [{}]>}, %arg330: tensor<3072x768xf32> {sdy.sharding = #sdy.sharding<@mesh, [{}, {}]>}, %arg331: tensor<768xf32> {sdy.sharding = #sdy.sharding<@mesh, [{}]>}, %arg332: tensor<768xf32> {sdy.sharding = #sdy.sharding<@mesh, [{}]>}, %arg333: tensor<3072xf32> {sdy.sharding = #sdy.sharding<@mesh, [{}]>}, %arg334: tensor<768x3072xf32> {sdy.sharding = #sdy.sharding<@mesh, [{}, {}]>}, %arg335: tensor<768xf32> {sdy.sharding = #sdy.sharding<@mesh, [{}]>}, %arg336: tensor<768x768xf32> {sdy.sharding = #sdy.sharding<@mesh, [{}, {}]>}, %arg337: tensor<768xf32> {sdy.sharding = #sdy.sharding<@mesh, [{}]>}, %arg338: tensor<768x768xf32> {sdy.sharding = #sdy.sharding<@mesh, [{}, {}]>}, %arg339: tensor<768xf32> {sdy.sharding = #sdy.sharding<@mesh, [{}]>}, %arg340: tensor<768x768xf32> {sdy.sharding = #sdy.sharding<@mesh, [{}, {}]>}, %arg341: tensor<768xf32> {sdy.sharding = #sdy.sharding<@mesh, [{}]>}, %arg342: tensor<768x768xf32> {sdy.sharding = #sdy.sharding<@mesh, [{}, {}]>}, %arg343: tensor<768xf32> {sdy.sharding = #sdy.sharding<@mesh, [{}]>}, %arg344: tensor<768xf32> {sdy.sharding = #sdy.sharding<@mesh, [{}]>}, %arg345: tensor<768xf32> {sdy.sharding = #sdy.sharding<@mesh, [{}]>}, %arg346: tensor<3072x768xf32> {sdy.sharding = #sdy.sharding<@mesh, [{}, {}]>}, %arg347: tensor<768xf32> {sdy.sharding = #sdy.sharding<@mesh, [{}]>}, %arg348: tensor<768xf32> {sdy.sharding = #sdy.sharding<@mesh, [{}]>}, %arg349: tensor<3072xf32> {sdy.sharding = #sdy.sharding<@mesh, [{}]>}, %arg350: tensor<768x3072xf32> {sdy.sharding = #sdy.sharding<@mesh, [{}, {}]>}, %arg351: tensor<768xf32> {sdy.sharding = #sdy.sharding<@mesh, [{}]>}, %arg352: tensor<768x768xf32> {sdy.sharding = #sdy.sharding<@mesh, [{}, {}]>}, %arg353: tensor<768xf32> {sdy.sharding = #sdy.sharding<@mesh, [{}]>}, %arg354: tensor<768x768xf32> {sdy.sharding = #sdy.sharding<@mesh, [{}, {}]>}, %arg355: tensor<768xf32> {sdy.sharding = #sdy.sharding<@mesh, [{}]>}, %arg356: tensor<768x768xf32> {sdy.sharding = #sdy.sharding<@mesh, [{}, {}]>}, %arg357: tensor<768xf32> {sdy.sharding = #sdy.sharding<@mesh, [{}]>}, %arg358: tensor<768x768xf32> {sdy.sharding = #sdy.sharding<@mesh, [{}, {}]>}, %arg359: tensor<768xf32> {sdy.sharding = #sdy.sharding<@mesh, [{}]>}, %arg360: tensor<768xf32> {sdy.sharding = #sdy.sharding<@mesh, [{}]>}, %arg361: tensor<768xf32> {sdy.sharding = #sdy.sharding<@mesh, [{}]>}, %arg362: tensor<3072x768xf32> {sdy.sharding = #sdy.sharding<@mesh, [{}, {}]>}, %arg363: tensor<768xf32> {sdy.sharding = #sdy.sharding<@mesh, [{}]>}, %arg364: tensor<768xf32> {sdy.sharding = #sdy.sharding<@mesh, [{}]>}, %arg365: tensor<3072xf32> {sdy.sharding = #sdy.sharding<@mesh, [{}]>}, %arg366: tensor<768x3072xf32> {sdy.sharding = #sdy.sharding<@mesh, [{}, {}]>}, %arg367: tensor<768xf32> {sdy.sharding = #sdy.sharding<@mesh, [{}]>}, %arg368: tensor<768x768xf32> {sdy.sharding = #sdy.sharding<@mesh, [{}, {}]>}, %arg369: tensor<768xf32> {sdy.sharding = #sdy.sharding<@mesh, [{}]>}, %arg370: tensor<768x768xf32> {sdy.sharding = #sdy.sharding<@mesh, [{}, {}]>}, %arg371: tensor<768xf32> {sdy.sharding = #sdy.sharding<@mesh, [{}]>}, %arg372: tensor<768x768xf32> {sdy.sharding = #sdy.sharding<@mesh, [{}, {}]>}, %arg373: tensor<768xf32> {sdy.sharding = #sdy.sharding<@mesh, [{}]>}, %arg374: tensor<768x768xf32> {sdy.sharding = #sdy.sharding<@mesh, [{}, {}]>}, %arg375: tensor<768xf32> {sdy.sharding = #sdy.sharding<@mesh, [{}]>}, %arg376: tensor<768xf32> {sdy.sharding = #sdy.sharding<@mesh, [{}]>}, %arg377: tensor<768xf32> {sdy.sharding = #sdy.sharding<@mesh, [{}]>}, %arg378: tensor<3072x768xf32> {sdy.sharding = #sdy.sharding<@mesh, [{}, {}]>}, %arg379: tensor<768xf32> {sdy.sharding = #sdy.sharding<@mesh, [{}]>}, %arg380: tensor<768xf32> {sdy.sharding = #sdy.sharding<@mesh, [{}]>}, %arg381: tensor<3072xf32> {sdy.sharding = #sdy.sharding<@mesh, [{}]>}, %arg382: tensor<768x3072xf32> {sdy.sharding = #sdy.sharding<@mesh, [{}, {}]>}, %arg383: tensor<768xf32> {sdy.sharding = #sdy.sharding<@mesh, [{}]>}, %arg384: tensor<768x768xf32> {sdy.sharding = #sdy.sharding<@mesh, [{}, {}]>}, %arg385: tensor<768xf32> {sdy.sharding = #sdy.sharding<@mesh, [{}]>}, %arg386: tensor<768x768xf32> {sdy.sharding = #sdy.sharding<@mesh, [{}, {}]>}, %arg387: tensor<768xf32> {sdy.sharding = #sdy.sharding<@mesh, [{}]>}, %arg388: tensor<768x768xf32> {sdy.sharding = #sdy.sharding<@mesh, [{}, {}]>}, %arg389: tensor<768xf32> {sdy.sharding = #sdy.sharding<@mesh, [{}]>}, %arg390: tensor<768x768xf32> {sdy.sharding = #sdy.sharding<@mesh, [{}, {}]>}, %arg391: tensor<768xf32> {sdy.sharding = #sdy.sharding<@mesh, [{}]>}, %arg392: tensor<768xf32> {sdy.sharding = #sdy.sharding<@mesh, [{}]>}, %arg393: tensor<768xf32> {sdy.sharding = #sdy.sharding<@mesh, [{}]>}, %arg394: tensor<3072x768xf32> {sdy.sharding = #sdy.sharding<@mesh, [{}, {}]>}, %arg395: tensor<768xf32> {sdy.sharding = #sdy.sharding<@mesh, [{}]>}, %arg396: tensor<768xf32> {sdy.sharding = #sdy.sharding<@mesh, [{}]>}, %arg397: tensor<3072xf32> {sdy.sharding = #sdy.sharding<@mesh, [{}]>}, %arg398: tensor<768x3072xf32> {sdy.sharding = #sdy.sharding<@mesh, [{}, {}]>}, %arg399: tensor<768xf32> {sdy.sharding = #sdy.sharding<@mesh, [{}]>}, %arg400: tensor<768xf32> {sdy.sharding = #sdy.sharding<@mesh, [{}]>}, %arg401: tensor<30522xf32> {sdy.sharding = #sdy.sharding<@mesh, [{}]>}, %arg402: tensor<768xf32> {sdy.sharding = #sdy.sharding<@mesh, [{}]>}, %arg403: tensor<768x768xf32> {sdy.sharding = #sdy.sharding<@mesh, [{}, {}]>}, %arg404: tensor<30522x768xf32> {sdy.sharding = #sdy.sharding<@mesh, [{}, {}]>}, %arg405: tensor<768xf32> {sdy.sharding = #sdy.sharding<@mesh, [{}]>}, %arg406: tensor<768xf32> {sdy.sharding = #sdy.sharding<@mesh, [{}]>}, %arg407: tensor<512x768xf32> {sdy.sharding = #sdy.sharding<@mesh, [{}, {}]>}, %arg408: tensor<2x768xf32> {sdy.sharding = #sdy.sharding<@mesh, [{}, {}]>}, %arg409: tensor<30522x768xf32> {sdy.sharding = #sdy.sharding<@mesh, [{}, {}]>}, %arg410: tensor<768xf32> {sdy.sharding = #sdy.sharding<@mesh, [{}]>}, %arg411: tensor<768x768xf32> {sdy.sharding = #sdy.sharding<@mesh, [{}, {}]>}, %arg412: tensor<768xf32> {sdy.sharding = #sdy.sharding<@mesh, [{}]>}, %arg413: tensor<768x768xf32> {sdy.sharding = #sdy.sharding<@mesh, [{}, {}]>}, %arg414: tensor<768xf32> {sdy.sharding = #sdy.sharding<@mesh, [{}]>}, %arg415: tensor<768x768xf32> {sdy.sharding = #sdy.sharding<@mesh, [{}, {}]>}, %arg416: tensor<768xf32> {sdy.sharding = #sdy.sharding<@mesh, [{}]>}, %arg417: tensor<768x768xf32> {sdy.sharding = #sdy.sharding<@mesh, [{}, {}]>}, %arg418: tensor<768xf32> {sdy.sharding = #sdy.sharding<@mesh, [{}]>}, %arg419: tensor<768xf32> {sdy.sharding = #sdy.sharding<@mesh, [{}]>}, %arg420: tensor<768xf32> {sdy.sharding = #sdy.sharding<@mesh, [{}]>}, %arg421: tensor<3072x768xf32> {sdy.sharding = #sdy.sharding<@mesh, [{}, {}]>}, %arg422: tensor<768xf32> {sdy.sharding = #sdy.sharding<@mesh, [{}]>}, %arg423: tensor<768xf32> {sdy.sharding = #sdy.sharding<@mesh, [{}]>}, %arg424: tensor<3072xf32> {sdy.sharding = #sdy.sharding<@mesh, [{}]>}, %arg425: tensor<768x3072xf32> {sdy.sharding = #sdy.sharding<@mesh, [{}, {}]>}, %arg426: tensor<768xf32> {sdy.sharding = #sdy.sharding<@mesh, [{}]>}, %arg427: tensor<768x768xf32> {sdy.sharding = #sdy.sharding<@mesh, [{}, {}]>}, %arg428: tensor<768xf32> {sdy.sharding = #sdy.sharding<@mesh, [{}]>}, %arg429: tensor<768x768xf32> {sdy.sharding = #sdy.sharding<@mesh, [{}, {}]>}, %arg430: tensor<768xf32> {sdy.sharding = #sdy.sharding<@mesh, [{}]>}, %arg431: tensor<768x768xf32> {sdy.sharding = #sdy.sharding<@mesh, [{}, {}]>}, %arg432: tensor<768xf32> {sdy.sharding = #sdy.sharding<@mesh, [{}]>}, %arg433: tensor<768x768xf32> {sdy.sharding = #sdy.sharding<@mesh, [{}, {}]>}, %arg434: tensor<768xf32> {sdy.sharding = #sdy.sharding<@mesh, [{}]>}, %arg435: tensor<768xf32> {sdy.sharding = #sdy.sharding<@mesh, [{}]>}, %arg436: tensor<768xf32> {sdy.sharding = #sdy.sharding<@mesh, [{}]>}, %arg437: tensor<3072x768xf32> {sdy.sharding = #sdy.sharding<@mesh, [{}, {}]>}, %arg438: tensor<768xf32> {sdy.sharding = #sdy.sharding<@mesh, [{}]>}, %arg439: tensor<768xf32> {sdy.sharding = #sdy.sharding<@mesh, [{}]>}, %arg440: tensor<3072xf32> {sdy.sharding = #sdy.sharding<@mesh, [{}]>}, %arg441: tensor<768x3072xf32> {sdy.sharding = #sdy.sharding<@mesh, [{}, {}]>}, %arg442: tensor<768xf32> {sdy.sharding = #sdy.sharding<@mesh, [{}]>}, %arg443: tensor<768x768xf32> {sdy.sharding = #sdy.sharding<@mesh, [{}, {}]>}, %arg444: tensor<768xf32> {sdy.sharding = #sdy.sharding<@mesh, [{}]>}, %arg445: tensor<768x768xf32> {sdy.sharding = #sdy.sharding<@mesh, [{}, {}]>}, %arg446: tensor<768xf32> {sdy.sharding = #sdy.sharding<@mesh, [{}]>}, %arg447: tensor<768x768xf32> {sdy.sharding = #sdy.sharding<@mesh, [{}, {}]>}, %arg448: tensor<768xf32> {sdy.sharding = #sdy.sharding<@mesh, [{}]>}, %arg449: tensor<768x768xf32> {sdy.sharding = #sdy.sharding<@mesh, [{}, {}]>}, %arg450: tensor<768xf32> {sdy.sharding = #sdy.sharding<@mesh, [{}]>}, %arg451: tensor<768xf32> {sdy.sharding = #sdy.sharding<@mesh, [{}]>}, %arg452: tensor<768xf32> {sdy.sharding = #sdy.sharding<@mesh, [{}]>}, %arg453: tensor<3072x768xf32> {sdy.sharding = #sdy.sharding<@mesh, [{}, {}]>}, %arg454: tensor<768xf32> {sdy.sharding = #sdy.sharding<@mesh, [{}]>}, %arg455: tensor<768xf32> {sdy.sharding = #sdy.sharding<@mesh, [{}]>}, %arg456: tensor<3072xf32> {sdy.sharding = #sdy.sharding<@mesh, [{}]>}, %arg457: tensor<768x3072xf32> {sdy.sharding = #sdy.sharding<@mesh, [{}, {}]>}, %arg458: tensor<768xf32> {sdy.sharding = #sdy.sharding<@mesh, [{}]>}, %arg459: tensor<768x768xf32> {sdy.sharding = #sdy.sharding<@mesh, [{}, {}]>}, %arg460: tensor<768xf32> {sdy.sharding = #sdy.sharding<@mesh, [{}]>}, %arg461: tensor<768x768xf32> {sdy.sharding = #sdy.sharding<@mesh, [{}, {}]>}, %arg462: tensor<768xf32> {sdy.sharding = #sdy.sharding<@mesh, [{}]>}, %arg463: tensor<768x768xf32> {sdy.sharding = #sdy.sharding<@mesh, [{}, {}]>}, %arg464: tensor<768xf32> {sdy.sharding = #sdy.sharding<@mesh, [{}]>}, %arg465: tensor<768x768xf32> {sdy.sharding = #sdy.sharding<@mesh, [{}, {}]>}, %arg466: tensor<768xf32> {sdy.sharding = #sdy.sharding<@mesh, [{}]>}, %arg467: tensor<768xf32> {sdy.sharding = #sdy.sharding<@mesh, [{}]>}, %arg468: tensor<768xf32> {sdy.sharding = #sdy.sharding<@mesh, [{}]>}, %arg469: tensor<3072x768xf32> {sdy.sharding = #sdy.sharding<@mesh, [{}, {}]>}, %arg470: tensor<768xf32> {sdy.sharding = #sdy.sharding<@mesh, [{}]>}, %arg471: tensor<768xf32> {sdy.sharding = #sdy.sharding<@mesh, [{}]>}, %arg472: tensor<3072xf32> {sdy.sharding = #sdy.sharding<@mesh, [{}]>}, %arg473: tensor<768x3072xf32> {sdy.sharding = #sdy.sharding<@mesh, [{}, {}]>}, %arg474: tensor<768xf32> {sdy.sharding = #sdy.sharding<@mesh, [{}]>}, %arg475: tensor<768x768xf32> {sdy.sharding = #sdy.sharding<@mesh, [{}, {}]>}, %arg476: tensor<768xf32> {sdy.sharding = #sdy.sharding<@mesh, [{}]>}, %arg477: tensor<768x768xf32> {sdy.sharding = #sdy.sharding<@mesh, [{}, {}]>}, %arg478: tensor<768xf32> {sdy.sharding = #sdy.sharding<@mesh, [{}]>}, %arg479: tensor<768x768xf32> {sdy.sharding = #sdy.sharding<@mesh, [{}, {}]>}, %arg480: tensor<768xf32> {sdy.sharding = #sdy.sharding<@mesh, [{}]>}, %arg481: tensor<768x768xf32> {sdy.sharding = #sdy.sharding<@mesh, [{}, {}]>}, %arg482: tensor<768xf32> {sdy.sharding = #sdy.sharding<@mesh, [{}]>}, %arg483: tensor<768xf32> {sdy.sharding = #sdy.sharding<@mesh, [{}]>}, %arg484: tensor<768xf32> {sdy.sharding = #sdy.sharding<@mesh, [{}]>}, %arg485: tensor<3072x768xf32> {sdy.sharding = #sdy.sharding<@mesh, [{}, {}]>}, %arg486: tensor<768xf32> {sdy.sharding = #sdy.sharding<@mesh, [{}]>}, %arg487: tensor<768xf32> {sdy.sharding = #sdy.sharding<@mesh, [{}]>}, %arg488: tensor<3072xf32> {sdy.sharding = #sdy.sharding<@mesh, [{}]>}, %arg489: tensor<768x3072xf32> {sdy.sharding = #sdy.sharding<@mesh, [{}, {}]>}, %arg490: tensor<768xf32> {sdy.sharding = #sdy.sharding<@mesh, [{}]>}, %arg491: tensor<768x768xf32> {sdy.sharding = #sdy.sharding<@mesh, [{}, {}]>}, %arg492: tensor<768xf32> {sdy.sharding = #sdy.sharding<@mesh, [{}]>}, %arg493: tensor<768x768xf32> {sdy.sharding = #sdy.sharding<@mesh, [{}, {}]>}, %arg494: tensor<768xf32> {sdy.sharding = #sdy.sharding<@mesh, [{}]>}, %arg495: tensor<768x768xf32> {sdy.sharding = #sdy.sharding<@mesh, [{}, {}]>}, %arg496: tensor<768xf32> {sdy.sharding = #sdy.sharding<@mesh, [{}]>}, %arg497: tensor<768x768xf32> {sdy.sharding = #sdy.sharding<@mesh, [{}, {}]>}, %arg498: tensor<768xf32> {sdy.sharding = #sdy.sharding<@mesh, [{}]>}, %arg499: tensor<768xf32> {sdy.sharding = #sdy.sharding<@mesh, [{}]>}, %arg500: tensor<768xf32> {sdy.sharding = #sdy.sharding<@mesh, [{}]>}, %arg501: tensor<3072x768xf32> {sdy.sharding = #sdy.sharding<@mesh, [{}, {}]>}, %arg502: tensor<768xf32> {sdy.sharding = #sdy.sharding<@mesh, [{}]>}, %arg503: tensor<768xf32> {sdy.sharding = #sdy.sharding<@mesh, [{}]>}, %arg504: tensor<3072xf32> {sdy.sharding = #sdy.sharding<@mesh, [{}]>}, %arg505: tensor<768x3072xf32> {sdy.sharding = #sdy.sharding<@mesh, [{}, {}]>}, %arg506: tensor<768xf32> {sdy.sharding = #sdy.sharding<@mesh, [{}]>}, %arg507: tensor<768x768xf32> {sdy.sharding = #sdy.sharding<@mesh, [{}, {}]>}, %arg508: tensor<768xf32> {sdy.sharding = #sdy.sharding<@mesh, [{}]>}, %arg509: tensor<768x768xf32> {sdy.sharding = #sdy.sharding<@mesh, [{}, {}]>}, %arg510: tensor<768xf32> {sdy.sharding = #sdy.sharding<@mesh, [{}]>}, %arg511: tensor<768x768xf32> {sdy.sharding = #sdy.sharding<@mesh, [{}, {}]>}, %arg512: tensor<768xf32> {sdy.sharding = #sdy.sharding<@mesh, [{}]>}, %arg513: tensor<768x768xf32> {sdy.sharding = #sdy.sharding<@mesh, [{}, {}]>}, %arg514: tensor<768xf32> {sdy.sharding = #sdy.sharding<@mesh, [{}]>}, %arg515: tensor<768xf32> {sdy.sharding = #sdy.sharding<@mesh, [{}]>}, %arg516: tensor<768xf32> {sdy.sharding = #sdy.sharding<@mesh, [{}]>}, %arg517: tensor<3072x768xf32> {sdy.sharding = #sdy.sharding<@mesh, [{}, {}]>}, %arg518: tensor<768xf32> {sdy.sharding = #sdy.sharding<@mesh, [{}]>}, %arg519: tensor<768xf32> {sdy.sharding = #sdy.sharding<@mesh, [{}]>}, %arg520: tensor<3072xf32> {sdy.sharding = #sdy.sharding<@mesh, [{}]>}, %arg521: tensor<768x3072xf32> {sdy.sharding = #sdy.sharding<@mesh, [{}, {}]>}, %arg522: tensor<768xf32> {sdy.sharding = #sdy.sharding<@mesh, [{}]>}, %arg523: tensor<768x768xf32> {sdy.sharding = #sdy.sharding<@mesh, [{}, {}]>}, %arg524: tensor<768xf32> {sdy.sharding = #sdy.sharding<@mesh, [{}]>}, %arg525: tensor<768x768xf32> {sdy.sharding = #sdy.sharding<@mesh, [{}, {}]>}, %arg526: tensor<768xf32> {sdy.sharding = #sdy.sharding<@mesh, [{}]>}, %arg527: tensor<768x768xf32> {sdy.sharding = #sdy.sharding<@mesh, [{}, {}]>}, %arg528: tensor<768xf32> {sdy.sharding = #sdy.sharding<@mesh, [{}]>}, %arg529: tensor<768x768xf32> {sdy.sharding = #sdy.sharding<@mesh, [{}, {}]>}, %arg530: tensor<768xf32> {sdy.sharding = #sdy.sharding<@mesh, [{}]>}, %arg531: tensor<768xf32> {sdy.sharding = #sdy.sharding<@mesh, [{}]>}, %arg532: tensor<768xf32> {sdy.sharding = #sdy.sharding<@mesh, [{}]>}, %arg533: tensor<3072x768xf32> {sdy.sharding = #sdy.sharding<@mesh, [{}, {}]>}, %arg534: tensor<768xf32> {sdy.sharding = #sdy.sharding<@mesh, [{}]>}, %arg535: tensor<768xf32> {sdy.sharding = #sdy.sharding<@mesh, [{}]>}, %arg536: tensor<3072xf32> {sdy.sharding = #sdy.sharding<@mesh, [{}]>}, %arg537: tensor<768x3072xf32> {sdy.sharding = #sdy.sharding<@mesh, [{}, {}]>}, %arg538: tensor<768xf32> {sdy.sharding = #sdy.sharding<@mesh, [{}]>}, %arg539: tensor<768x768xf32> {sdy.sharding = #sdy.sharding<@mesh, [{}, {}]>}, %arg540: tensor<768xf32> {sdy.sharding = #sdy.sharding<@mesh, [{}]>}, %arg541: tensor<768x768xf32> {sdy.sharding = #sdy.sharding<@mesh, [{}, {}]>}, %arg542: tensor<768xf32> {sdy.sharding = #sdy.sharding<@mesh, [{}]>}, %arg543: tensor<768x768xf32> {sdy.sharding = #sdy.sharding<@mesh, [{}, {}]>}, %arg544: tensor<768xf32> {sdy.sharding = #sdy.sharding<@mesh, [{}]>}, %arg545: tensor<768x768xf32> {sdy.sharding = #sdy.sharding<@mesh, [{}, {}]>}, %arg546: tensor<768xf32> {sdy.sharding = #sdy.sharding<@mesh, [{}]>}, %arg547: tensor<768xf32> {sdy.sharding = #sdy.sharding<@mesh, [{}]>}, %arg548: tensor<768xf32> {sdy.sharding = #sdy.sharding<@mesh, [{}]>}, %arg549: tensor<3072x768xf32> {sdy.sharding = #sdy.sharding<@mesh, [{}, {}]>}, %arg550: tensor<768xf32> {sdy.sharding = #sdy.sharding<@mesh, [{}]>}, %arg551: tensor<768xf32> {sdy.sharding = #sdy.sharding<@mesh, [{}]>}, %arg552: tensor<3072xf32> {sdy.sharding = #sdy.sharding<@mesh, [{}]>}, %arg553: tensor<768x3072xf32> {sdy.sharding = #sdy.sharding<@mesh, [{}, {}]>}, %arg554: tensor<768xf32> {sdy.sharding = #sdy.sharding<@mesh, [{}]>}, %arg555: tensor<768x768xf32> {sdy.sharding = #sdy.sharding<@mesh, [{}, {}]>}, %arg556: tensor<768xf32> {sdy.sharding = #sdy.sharding<@mesh, [{}]>}, %arg557: tensor<768x768xf32> {sdy.sharding = #sdy.sharding<@mesh, [{}, {}]>}, %arg558: tensor<768xf32> {sdy.sharding = #sdy.sharding<@mesh, [{}]>}, %arg559: tensor<768x768xf32> {sdy.sharding = #sdy.sharding<@mesh, [{}, {}]>}, %arg560: tensor<768xf32> {sdy.sharding = #sdy.sharding<@mesh, [{}]>}, %arg561: tensor<768x768xf32> {sdy.sharding = #sdy.sharding<@mesh, [{}, {}]>}, %arg562: tensor<768xf32> {sdy.sharding = #sdy.sharding<@mesh, [{}]>}, %arg563: tensor<768xf32> {sdy.sharding = #sdy.sharding<@mesh, [{}]>}, %arg564: tensor<768xf32> {sdy.sharding = #sdy.sharding<@mesh, [{}]>}, %arg565: tensor<3072x768xf32> {sdy.sharding = #sdy.sharding<@mesh, [{}, {}]>}, %arg566: tensor<768xf32> {sdy.sharding = #sdy.sharding<@mesh, [{}]>}, %arg567: tensor<768xf32> {sdy.sharding = #sdy.sharding<@mesh, [{}]>}, %arg568: tensor<3072xf32> {sdy.sharding = #sdy.sharding<@mesh, [{}]>}, %arg569: tensor<768x3072xf32> {sdy.sharding = #sdy.sharding<@mesh, [{}, {}]>}, %arg570: tensor<768xf32> {sdy.sharding = #sdy.sharding<@mesh, [{}]>}, %arg571: tensor<768x768xf32> {sdy.sharding = #sdy.sharding<@mesh, [{}, {}]>}, %arg572: tensor<768xf32> {sdy.sharding = #sdy.sharding<@mesh, [{}]>}, %arg573: tensor<768x768xf32> {sdy.sharding = #sdy.sharding<@mesh, [{}, {}]>}, %arg574: tensor<768xf32> {sdy.sharding = #sdy.sharding<@mesh, [{}]>}, %arg575: tensor<768x768xf32> {sdy.sharding = #sdy.sharding<@mesh, [{}, {}]>}, %arg576: tensor<768xf32> {sdy.sharding = #sdy.sharding<@mesh, [{}]>}, %arg577: tensor<768x768xf32> {sdy.sharding = #sdy.sharding<@mesh, [{}, {}]>}, %arg578: tensor<768xf32> {sdy.sharding = #sdy.sharding<@mesh, [{}]>}, %arg579: tensor<768xf32> {sdy.sharding = #sdy.sharding<@mesh, [{}]>}, %arg580: tensor<768xf32> {sdy.sharding = #sdy.sharding<@mesh, [{}]>}, %arg581: tensor<3072x768xf32> {sdy.sharding = #sdy.sharding<@mesh, [{}, {}]>}, %arg582: tensor<768xf32> {sdy.sharding = #sdy.sharding<@mesh, [{}]>}, %arg583: tensor<768xf32> {sdy.sharding = #sdy.sharding<@mesh, [{}]>}, %arg584: tensor<3072xf32> {sdy.sharding = #sdy.sharding<@mesh, [{}]>}, %arg585: tensor<768x3072xf32> {sdy.sharding = #sdy.sharding<@mesh, [{}, {}]>}, %arg586: tensor<768xf32> {sdy.sharding = #sdy.sharding<@mesh, [{}]>}, %arg587: tensor<768x768xf32> {sdy.sharding = #sdy.sharding<@mesh, [{}, {}]>}, %arg588: tensor<768xf32> {sdy.sharding = #sdy.sharding<@mesh, [{}]>}, %arg589: tensor<768x768xf32> {sdy.sharding = #sdy.sharding<@mesh, [{}, {}]>}, %arg590: tensor<768xf32> {sdy.sharding = #sdy.sharding<@mesh, [{}]>}, %arg591: tensor<768x768xf32> {sdy.sharding = #sdy.sharding<@mesh, [{}, {}]>}, %arg592: tensor<768xf32> {sdy.sharding = #sdy.sharding<@mesh, [{}]>}, %arg593: tensor<768x768xf32> {sdy.sharding = #sdy.sharding<@mesh, [{}, {}]>}, %arg594: tensor<768xf32> {sdy.sharding = #sdy.sharding<@mesh, [{}]>}, %arg595: tensor<768xf32> {sdy.sharding = #sdy.sharding<@mesh, [{}]>}, %arg596: tensor<768xf32> {sdy.sharding = #sdy.sharding<@mesh, [{}]>}, %arg597: tensor<3072x768xf32> {sdy.sharding = #sdy.sharding<@mesh, [{}, {}]>}, %arg598: tensor<768xf32> {sdy.sharding = #sdy.sharding<@mesh, [{}]>}, %arg599: tensor<768xf32> {sdy.sharding = #sdy.sharding<@mesh, [{}]>}, %arg600: tensor<3072xf32> {sdy.sharding = #sdy.sharding<@mesh, [{}]>}, %arg601: tensor<768x3072xf32> {sdy.sharding = #sdy.sharding<@mesh, [{}, {}]>}, %arg602: tensor<768xf32> {sdy.sharding = #sdy.sharding<@mesh, [{}]>}, %arg603: tensor<768xf32> {sdy.sharding = #sdy.sharding<@mesh, [{}]>}, %arg604: tensor<30522xf32> {sdy.sharding = #sdy.sharding<@mesh, [{}]>}, %arg605: tensor<768xf32> {sdy.sharding = #sdy.sharding<@mesh, [{}]>}, %arg606: tensor<768x768xf32> {sdy.sharding = #sdy.sharding<@mesh, [{}, {}]>}, %arg607: tensor<30522x768xf32> {sdy.sharding = #sdy.sharding<@mesh, [{}, {}]>}, %arg608: tensor<768xf32> {sdy.sharding = #sdy.sharding<@mesh, [{}]>}, %arg609: tensor<768xf32> {sdy.sharding = #sdy.sharding<@mesh, [{}]>}, %arg610: tensor<i32>, %arg611: tensor<64x512xi32> {sdy.sharding = #sdy.sharding<@mesh, [{"dp"}, {}]>}, %arg612: tensor<64x512xi32> {sdy.sharding = #sdy.sharding<@mesh, [{"dp"}, {}]>}, %arg613: tensor<64x512xi32> {sdy.sharding = #sdy.sharding<@mesh, [{"dp"}, {}]>}, %arg614: tensor<64x512xi32> {sdy.sharding = #sdy.sharding<@mesh, [{"dp"}, {}]>}) -> (tensor<512x768xf32> {jax.result_info = "result[0].params['encoder']['params']['embedder']['embedders_position_ids']['embedding']"}, tensor<2x768xf32> {jax.result_info = "result[0].params['encoder']['params']['embedder']['embedders_segment_ids']['embedding']"}, tensor<30522x768xf32> {jax.result_info = "result[0].params['encoder']['params']['embedder']['embedders_token_ids']['embedding']"}, tensor<768xf32> {jax.result_info = "result[0].params['encoder']['params']['encoder_block']['layer_sequence']['layers_0']['attention_block']['attention_layer']['key']['bias']"}, tensor<768x768xf32> {jax.result_info = "result[0].params['encoder']['params']['encoder_block']['layer_sequence']['layers_0']['attention_block']['attention_layer']['key']['kernel']"}, tensor<768xf32> {jax.result_info = "result[0].params['encoder']['params']['encoder_block']['layer_sequence']['layers_0']['attention_block']['attention_layer']['query']['bias']"}, tensor<768x768xf32> {jax.result_info = "result[0].params['encoder']['params']['encoder_block']['layer_sequence']['layers_0']['attention_block']['attention_layer']['query']['kernel']"}, tensor<768xf32> {jax.result_info = "result[0].params['encoder']['params']['encoder_block']['layer_sequence']['layers_0']['attention_block']['attention_layer']['value']['bias']"}, tensor<768x768xf32> {jax.result_info = "result[0].params['encoder']['params']['encoder_block']['layer_sequence']['layers_0']['attention_block']['attention_layer']['value']['kernel']"}, tensor<768xf32> {jax.result_info = "result[0].params['encoder']['params']['encoder_block']['layer_sequence']['layers_0']['attention_block']['dense_layer']['bias']"}, tensor<768x768xf32> {jax.result_info = "result[0].params['encoder']['params']['encoder_block']['layer_sequence']['layers_0']['attention_block']['dense_layer']['kernel']"}, tensor<768xf32> {jax.result_info = "result[0].params['encoder']['params']['encoder_block']['layer_sequence']['layers_0']['attention_block']['layer_norm']['bias']"}, tensor<768xf32> {jax.result_info = "result[0].params['encoder']['params']['encoder_block']['layer_sequence']['layers_0']['attention_block']['layer_norm']['scale']"}, tensor<768xf32> {jax.result_info = "result[0].params['encoder']['params']['encoder_block']['layer_sequence']['layers_0']['mlp_block']['dense_layer']['bias']"}, tensor<3072x768xf32> {jax.result_info = "result[0].params['encoder']['params']['encoder_block']['layer_sequence']['layers_0']['mlp_block']['dense_layer']['kernel']"}, tensor<768xf32> {jax.result_info = "result[0].params['encoder']['params']['encoder_block']['layer_sequence']['layers_0']['mlp_block']['layer_norm']['bias']"}, tensor<768xf32> {jax.result_info = "result[0].params['encoder']['params']['encoder_block']['layer_sequence']['layers_0']['mlp_block']['layer_norm']['scale']"}, tensor<3072xf32> {jax.result_info = "result[0].params['encoder']['params']['encoder_block']['layer_sequence']['layers_0']['mlp_block']['mlp']['dense_layer']['bias']"}, tensor<768x3072xf32> {jax.result_info = "result[0].params['encoder']['params']['encoder_block']['layer_sequence']['layers_0']['mlp_block']['mlp']['dense_layer']['kernel']"}, tensor<768xf32> {jax.result_info = "result[0].params['encoder']['params']['encoder_block']['layer_sequence']['layers_1']['attention_block']['attention_layer']['key']['bias']"}, tensor<768x768xf32> {jax.result_info = "result[0].params['encoder']['params']['encoder_block']['layer_sequence']['layers_1']['attention_block']['attention_layer']['key']['kernel']"}, tensor<768xf32> {jax.result_info = "result[0].params['encoder']['params']['encoder_block']['layer_sequence']['layers_1']['attention_block']['attention_layer']['query']['bias']"}, tensor<768x768xf32> {jax.result_info = "result[0].params['encoder']['params']['encoder_block']['layer_sequence']['layers_1']['attention_block']['attention_layer']['query']['kernel']"}, tensor<768xf32> {jax.result_info = "result[0].params['encoder']['params']['encoder_block']['layer_sequence']['layers_1']['attention_block']['attention_layer']['value']['bias']"}, tensor<768x768xf32> {jax.result_info = "result[0].params['encoder']['params']['encoder_block']['layer_sequence']['layers_1']['attention_block']['attention_layer']['value']['kernel']"}, tensor<768xf32> {jax.result_info = "result[0].params['encoder']['params']['encoder_block']['layer_sequence']['layers_1']['attention_block']['dense_layer']['bias']"}, tensor<768x768xf32> {jax.result_info = "result[0].params['encoder']['params']['encoder_block']['layer_sequence']['layers_1']['attention_block']['dense_layer']['kernel']"}, tensor<768xf32> {jax.result_info = "result[0].params['encoder']['params']['encoder_block']['layer_sequence']['layers_1']['attention_block']['layer_norm']['bias']"}, tensor<768xf32> {jax.result_info = "result[0].params['encoder']['params']['encoder_block']['layer_sequence']['layers_1']['attention_block']['layer_norm']['scale']"}, tensor<768xf32> {jax.result_info = "result[0].params['encoder']['params']['encoder_block']['layer_sequence']['layers_1']['mlp_block']['dense_layer']['bias']"}, tensor<3072x768xf32> {jax.result_info = "result[0].params['encoder']['params']['encoder_block']['layer_sequence']['layers_1']['mlp_block']['dense_layer']['kernel']"}, tensor<768xf32> {jax.result_info = "result[0].params['encoder']['params']['encoder_block']['layer_sequence']['layers_1']['mlp_block']['layer_norm']['bias']"}, tensor<768xf32> {jax.result_info = "result[0].params['encoder']['params']['encoder_block']['layer_sequence']['layers_1']['mlp_block']['layer_norm']['scale']"}, tensor<3072xf32> {jax.result_info = "result[0].params['encoder']['params']['encoder_block']['layer_sequence']['layers_1']['mlp_block']['mlp']['dense_layer']['bias']"}, tensor<768x3072xf32> {jax.result_info = "result[0].params['encoder']['params']['encoder_block']['layer_sequence']['layers_1']['mlp_block']['mlp']['dense_layer']['kernel']"}, tensor<768xf32> {jax.result_info = "result[0].params['encoder']['params']['encoder_block']['layer_sequence']['layers_10']['attention_block']['attention_layer']['key']['bias']"}, tensor<768x768xf32> {jax.result_info = "result[0].params['encoder']['params']['encoder_block']['layer_sequence']['layers_10']['attention_block']['attention_layer']['key']['kernel']"}, tensor<768xf32> {jax.result_info = "result[0].params['encoder']['params']['encoder_block']['layer_sequence']['layers_10']['attention_block']['attention_layer']['query']['bias']"}, tensor<768x768xf32> {jax.result_info = "result[0].params['encoder']['params']['encoder_block']['layer_sequence']['layers_10']['attention_block']['attention_layer']['query']['kernel']"}, tensor<768xf32> {jax.result_info = "result[0].params['encoder']['params']['encoder_block']['layer_sequence']['layers_10']['attention_block']['attention_layer']['value']['bias']"}, tensor<768x768xf32> {jax.result_info = "result[0].params['encoder']['params']['encoder_block']['layer_sequence']['layers_10']['attention_block']['attention_layer']['value']['kernel']"}, tensor<768xf32> {jax.result_info = "result[0].params['encoder']['params']['encoder_block']['layer_sequence']['layers_10']['attention_block']['dense_layer']['bias']"}, tensor<768x768xf32> {jax.result_info = "result[0].params['encoder']['params']['encoder_block']['layer_sequence']['layers_10']['attention_block']['dense_layer']['kernel']"}, tensor<768xf32> {jax.result_info = "result[0].params['encoder']['params']['encoder_block']['layer_sequence']['layers_10']['attention_block']['layer_norm']['bias']"}, tensor<768xf32> {jax.result_info = "result[0].params['encoder']['params']['encoder_block']['layer_sequence']['layers_10']['attention_block']['layer_norm']['scale']"}, tensor<768xf32> {jax.result_info = "result[0].params['encoder']['params']['encoder_block']['layer_sequence']['layers_10']['mlp_block']['dense_layer']['bias']"}, tensor<3072x768xf32> {jax.result_info = "result[0].params['encoder']['params']['encoder_block']['layer_sequence']['layers_10']['mlp_block']['dense_layer']['kernel']"}, tensor<768xf32> {jax.result_info = "result[0].params['encoder']['params']['encoder_block']['layer_sequence']['layers_10']['mlp_block']['layer_norm']['bias']"}, tensor<768xf32> {jax.result_info = "result[0].params['encoder']['params']['encoder_block']['layer_sequence']['layers_10']['mlp_block']['layer_norm']['scale']"}, tensor<3072xf32> {jax.result_info = "result[0].params['encoder']['params']['encoder_block']['layer_sequence']['layers_10']['mlp_block']['mlp']['dense_layer']['bias']"}, tensor<768x3072xf32> {jax.result_info = "result[0].params['encoder']['params']['encoder_block']['layer_sequence']['layers_10']['mlp_block']['mlp']['dense_layer']['kernel']"}, tensor<768xf32> {jax.result_info = "result[0].params['encoder']['params']['encoder_block']['layer_sequence']['layers_11']['attention_block']['attention_layer']['key']['bias']"}, tensor<768x768xf32> {jax.result_info = "result[0].params['encoder']['params']['encoder_block']['layer_sequence']['layers_11']['attention_block']['attention_layer']['key']['kernel']"}, tensor<768xf32> {jax.result_info = "result[0].params['encoder']['params']['encoder_block']['layer_sequence']['layers_11']['attention_block']['attention_layer']['query']['bias']"}, tensor<768x768xf32> {jax.result_info = "result[0].params['encoder']['params']['encoder_block']['layer_sequence']['layers_11']['attention_block']['attention_layer']['query']['kernel']"}, tensor<768xf32> {jax.result_info = "result[0].params['encoder']['params']['encoder_block']['layer_sequence']['layers_11']['attention_block']['attention_layer']['value']['bias']"}, tensor<768x768xf32> {jax.result_info = "result[0].params['encoder']['params']['encoder_block']['layer_sequence']['layers_11']['attention_block']['attention_layer']['value']['kernel']"}, tensor<768xf32> {jax.result_info = "result[0].params['encoder']['params']['encoder_block']['layer_sequence']['layers_11']['attention_block']['dense_layer']['bias']"}, tensor<768x768xf32> {jax.result_info = "result[0].params['encoder']['params']['encoder_block']['layer_sequence']['layers_11']['attention_block']['dense_layer']['kernel']"}, tensor<768xf32> {jax.result_info = "result[0].params['encoder']['params']['encoder_block']['layer_sequence']['layers_11']['attention_block']['layer_norm']['bias']"}, tensor<768xf32> {jax.result_info = "result[0].params['encoder']['params']['encoder_block']['layer_sequence']['layers_11']['attention_block']['layer_norm']['scale']"}, tensor<768xf32> {jax.result_info = "result[0].params['encoder']['params']['encoder_block']['layer_sequence']['layers_11']['mlp_block']['dense_layer']['bias']"}, tensor<3072x768xf32> {jax.result_info = "result[0].params['encoder']['params']['encoder_block']['layer_sequence']['layers_11']['mlp_block']['dense_layer']['kernel']"}, tensor<768xf32> {jax.result_info = "result[0].params['encoder']['params']['encoder_block']['layer_sequence']['layers_11']['mlp_block']['layer_norm']['bias']"}, tensor<768xf32> {jax.result_info = "result[0].params['encoder']['params']['encoder_block']['layer_sequence']['layers_11']['mlp_block']['layer_norm']['scale']"}, tensor<3072xf32> {jax.result_info = "result[0].params['encoder']['params']['encoder_block']['layer_sequence']['layers_11']['mlp_block']['mlp']['dense_layer']['bias']"}, tensor<768x3072xf32> {jax.result_info = "result[0].params['encoder']['params']['encoder_block']['layer_sequence']['layers_11']['mlp_block']['mlp']['dense_layer']['kernel']"}, tensor<768xf32> {jax.result_info = "result[0].params['encoder']['params']['encoder_block']['layer_sequence']['layers_2']['attention_block']['attention_layer']['key']['bias']"}, tensor<768x768xf32> {jax.result_info = "result[0].params['encoder']['params']['encoder_block']['layer_sequence']['layers_2']['attention_block']['attention_layer']['key']['kernel']"}, tensor<768xf32> {jax.result_info = "result[0].params['encoder']['params']['encoder_block']['layer_sequence']['layers_2']['attention_block']['attention_layer']['query']['bias']"}, tensor<768x768xf32> {jax.result_info = "result[0].params['encoder']['params']['encoder_block']['layer_sequence']['layers_2']['attention_block']['attention_layer']['query']['kernel']"}, tensor<768xf32> {jax.result_info = "result[0].params['encoder']['params']['encoder_block']['layer_sequence']['layers_2']['attention_block']['attention_layer']['value']['bias']"}, tensor<768x768xf32> {jax.result_info = "result[0].params['encoder']['params']['encoder_block']['layer_sequence']['layers_2']['attention_block']['attention_layer']['value']['kernel']"}, tensor<768xf32> {jax.result_info = "result[0].params['encoder']['params']['encoder_block']['layer_sequence']['layers_2']['attention_block']['dense_layer']['bias']"}, tensor<768x768xf32> {jax.result_info = "result[0].params['encoder']['params']['encoder_block']['layer_sequence']['layers_2']['attention_block']['dense_layer']['kernel']"}, tensor<768xf32> {jax.result_info = "result[0].params['encoder']['params']['encoder_block']['layer_sequence']['layers_2']['attention_block']['layer_norm']['bias']"}, tensor<768xf32> {jax.result_info = "result[0].params['encoder']['params']['encoder_block']['layer_sequence']['layers_2']['attention_block']['layer_norm']['scale']"}, tensor<768xf32> {jax.result_info = "result[0].params['encoder']['params']['encoder_block']['layer_sequence']['layers_2']['mlp_block']['dense_layer']['bias']"}, tensor<3072x768xf32> {jax.result_info = "result[0].params['encoder']['params']['encoder_block']['layer_sequence']['layers_2']['mlp_block']['dense_layer']['kernel']"}, tensor<768xf32> {jax.result_info = "result[0].params['encoder']['params']['encoder_block']['layer_sequence']['layers_2']['mlp_block']['layer_norm']['bias']"}, tensor<768xf32> {jax.result_info = "result[0].params['encoder']['params']['encoder_block']['layer_sequence']['layers_2']['mlp_block']['layer_norm']['scale']"}, tensor<3072xf32> {jax.result_info = "result[0].params['encoder']['params']['encoder_block']['layer_sequence']['layers_2']['mlp_block']['mlp']['dense_layer']['bias']"}, tensor<768x3072xf32> {jax.result_info = "result[0].params['encoder']['params']['encoder_block']['layer_sequence']['layers_2']['mlp_block']['mlp']['dense_layer']['kernel']"}, tensor<768xf32> {jax.result_info = "result[0].params['encoder']['params']['encoder_block']['layer_sequence']['layers_3']['attention_block']['attention_layer']['key']['bias']"}, tensor<768x768xf32> {jax.result_info = "result[0].params['encoder']['params']['encoder_block']['layer_sequence']['layers_3']['attention_block']['attention_layer']['key']['kernel']"}, tensor<768xf32> {jax.result_info = "result[0].params['encoder']['params']['encoder_block']['layer_sequence']['layers_3']['attention_block']['attention_layer']['query']['bias']"}, tensor<768x768xf32> {jax.result_info = "result[0].params['encoder']['params']['encoder_block']['layer_sequence']['layers_3']['attention_block']['attention_layer']['query']['kernel']"}, tensor<768xf32> {jax.result_info = "result[0].params['encoder']['params']['encoder_block']['layer_sequence']['layers_3']['attention_block']['attention_layer']['value']['bias']"}, tensor<768x768xf32> {jax.result_info = "result[0].params['encoder']['params']['encoder_block']['layer_sequence']['layers_3']['attention_block']['attention_layer']['value']['kernel']"}, tensor<768xf32> {jax.result_info = "result[0].params['encoder']['params']['encoder_block']['layer_sequence']['layers_3']['attention_block']['dense_layer']['bias']"}, tensor<768x768xf32> {jax.result_info = "result[0].params['encoder']['params']['encoder_block']['layer_sequence']['layers_3']['attention_block']['dense_layer']['kernel']"}, tensor<768xf32> {jax.result_info = "result[0].params['encoder']['params']['encoder_block']['layer_sequence']['layers_3']['attention_block']['layer_norm']['bias']"}, tensor<768xf32> {jax.result_info = "result[0].params['encoder']['params']['encoder_block']['layer_sequence']['layers_3']['attention_block']['layer_norm']['scale']"}, tensor<768xf32> {jax.result_info = "result[0].params['encoder']['params']['encoder_block']['layer_sequence']['layers_3']['mlp_block']['dense_layer']['bias']"}, tensor<3072x768xf32> {jax.result_info = "result[0].params['encoder']['params']['encoder_block']['layer_sequence']['layers_3']['mlp_block']['dense_layer']['kernel']"}, tensor<768xf32> {jax.result_info = "result[0].params['encoder']['params']['encoder_block']['layer_sequence']['layers_3']['mlp_block']['layer_norm']['bias']"}, tensor<768xf32> {jax.result_info = "result[0].params['encoder']['params']['encoder_block']['layer_sequence']['layers_3']['mlp_block']['layer_norm']['scale']"}, tensor<3072xf32> {jax.result_info = "result[0].params['encoder']['params']['encoder_block']['layer_sequence']['layers_3']['mlp_block']['mlp']['dense_layer']['bias']"}, tensor<768x3072xf32> {jax.result_info = "result[0].params['encoder']['params']['encoder_block']['layer_sequence']['layers_3']['mlp_block']['mlp']['dense_layer']['kernel']"}, tensor<768xf32> {jax.result_info = "result[0].params['encoder']['params']['encoder_block']['layer_sequence']['layers_4']['attention_block']['attention_layer']['key']['bias']"}, tensor<768x768xf32> {jax.result_info = "result[0].params['encoder']['params']['encoder_block']['layer_sequence']['layers_4']['attention_block']['attention_layer']['key']['kernel']"}, tensor<768xf32> {jax.result_info = "result[0].params['encoder']['params']['encoder_block']['layer_sequence']['layers_4']['attention_block']['attention_layer']['query']['bias']"}, tensor<768x768xf32> {jax.result_info = "result[0].params['encoder']['params']['encoder_block']['layer_sequence']['layers_4']['attention_block']['attention_layer']['query']['kernel']"}, tensor<768xf32> {jax.result_info = "result[0].params['encoder']['params']['encoder_block']['layer_sequence']['layers_4']['attention_block']['attention_layer']['value']['bias']"}, tensor<768x768xf32> {jax.result_info = "result[0].params['encoder']['params']['encoder_block']['layer_sequence']['layers_4']['attention_block']['attention_layer']['value']['kernel']"}, tensor<768xf32> {jax.result_info = "result[0].params['encoder']['params']['encoder_block']['layer_sequence']['layers_4']['attention_block']['dense_layer']['bias']"}, tensor<768x768xf32> {jax.result_info = "result[0].params['encoder']['params']['encoder_block']['layer_sequence']['layers_4']['attention_block']['dense_layer']['kernel']"}, tensor<768xf32> {jax.result_info = "result[0].params['encoder']['params']['encoder_block']['layer_sequence']['layers_4']['attention_block']['layer_norm']['bias']"}, tensor<768xf32> {jax.result_info = "result[0].params['encoder']['params']['encoder_block']['layer_sequence']['layers_4']['attention_block']['layer_norm']['scale']"}, tensor<768xf32> {jax.result_info = "result[0].params['encoder']['params']['encoder_block']['layer_sequence']['layers_4']['mlp_block']['dense_layer']['bias']"}, tensor<3072x768xf32> {jax.result_info = "result[0].params['encoder']['params']['encoder_block']['layer_sequence']['layers_4']['mlp_block']['dense_layer']['kernel']"}, tensor<768xf32> {jax.result_info = "result[0].params['encoder']['params']['encoder_block']['layer_sequence']['layers_4']['mlp_block']['layer_norm']['bias']"}, tensor<768xf32> {jax.result_info = "result[0].params['encoder']['params']['encoder_block']['layer_sequence']['layers_4']['mlp_block']['layer_norm']['scale']"}, tensor<3072xf32> {jax.result_info = "result[0].params['encoder']['params']['encoder_block']['layer_sequence']['layers_4']['mlp_block']['mlp']['dense_layer']['bias']"}, tensor<768x3072xf32> {jax.result_info = "result[0].params['encoder']['params']['encoder_block']['layer_sequence']['layers_4']['mlp_block']['mlp']['dense_layer']['kernel']"}, tensor<768xf32> {jax.result_info = "result[0].params['encoder']['params']['encoder_block']['layer_sequence']['layers_5']['attention_block']['attention_layer']['key']['bias']"}, tensor<768x768xf32> {jax.result_info = "result[0].params['encoder']['params']['encoder_block']['layer_sequence']['layers_5']['attention_block']['attention_layer']['key']['kernel']"}, tensor<768xf32> {jax.result_info = "result[0].params['encoder']['params']['encoder_block']['layer_sequence']['layers_5']['attention_block']['attention_layer']['query']['bias']"}, tensor<768x768xf32> {jax.result_info = "result[0].params['encoder']['params']['encoder_block']['layer_sequence']['layers_5']['attention_block']['attention_layer']['query']['kernel']"}, tensor<768xf32> {jax.result_info = "result[0].params['encoder']['params']['encoder_block']['layer_sequence']['layers_5']['attention_block']['attention_layer']['value']['bias']"}, tensor<768x768xf32> {jax.result_info = "result[0].params['encoder']['params']['encoder_block']['layer_sequence']['layers_5']['attention_block']['attention_layer']['value']['kernel']"}, tensor<768xf32> {jax.result_info = "result[0].params['encoder']['params']['encoder_block']['layer_sequence']['layers_5']['attention_block']['dense_layer']['bias']"}, tensor<768x768xf32> {jax.result_info = "result[0].params['encoder']['params']['encoder_block']['layer_sequence']['layers_5']['attention_block']['dense_layer']['kernel']"}, tensor<768xf32> {jax.result_info = "result[0].params['encoder']['params']['encoder_block']['layer_sequence']['layers_5']['attention_block']['layer_norm']['bias']"}, tensor<768xf32> {jax.result_info = "result[0].params['encoder']['params']['encoder_block']['layer_sequence']['layers_5']['attention_block']['layer_norm']['scale']"}, tensor<768xf32> {jax.result_info = "result[0].params['encoder']['params']['encoder_block']['layer_sequence']['layers_5']['mlp_block']['dense_layer']['bias']"}, tensor<3072x768xf32> {jax.result_info = "result[0].params['encoder']['params']['encoder_block']['layer_sequence']['layers_5']['mlp_block']['dense_layer']['kernel']"}, tensor<768xf32> {jax.result_info = "result[0].params['encoder']['params']['encoder_block']['layer_sequence']['layers_5']['mlp_block']['layer_norm']['bias']"}, tensor<768xf32> {jax.result_info = "result[0].params['encoder']['params']['encoder_block']['layer_sequence']['layers_5']['mlp_block']['layer_norm']['scale']"}, tensor<3072xf32> {jax.result_info = "result[0].params['encoder']['params']['encoder_block']['layer_sequence']['layers_5']['mlp_block']['mlp']['dense_layer']['bias']"}, tensor<768x3072xf32> {jax.result_info = "result[0].params['encoder']['params']['encoder_block']['layer_sequence']['layers_5']['mlp_block']['mlp']['dense_layer']['kernel']"}, tensor<768xf32> {jax.result_info = "result[0].params['encoder']['params']['encoder_block']['layer_sequence']['layers_6']['attention_block']['attention_layer']['key']['bias']"}, tensor<768x768xf32> {jax.result_info = "result[0].params['encoder']['params']['encoder_block']['layer_sequence']['layers_6']['attention_block']['attention_layer']['key']['kernel']"}, tensor<768xf32> {jax.result_info = "result[0].params['encoder']['params']['encoder_block']['layer_sequence']['layers_6']['attention_block']['attention_layer']['query']['bias']"}, tensor<768x768xf32> {jax.result_info = "result[0].params['encoder']['params']['encoder_block']['layer_sequence']['layers_6']['attention_block']['attention_layer']['query']['kernel']"}, tensor<768xf32> {jax.result_info = "result[0].params['encoder']['params']['encoder_block']['layer_sequence']['layers_6']['attention_block']['attention_layer']['value']['bias']"}, tensor<768x768xf32> {jax.result_info = "result[0].params['encoder']['params']['encoder_block']['layer_sequence']['layers_6']['attention_block']['attention_layer']['value']['kernel']"}, tensor<768xf32> {jax.result_info = "result[0].params['encoder']['params']['encoder_block']['layer_sequence']['layers_6']['attention_block']['dense_layer']['bias']"}, tensor<768x768xf32> {jax.result_info = "result[0].params['encoder']['params']['encoder_block']['layer_sequence']['layers_6']['attention_block']['dense_layer']['kernel']"}, tensor<768xf32> {jax.result_info = "result[0].params['encoder']['params']['encoder_block']['layer_sequence']['layers_6']['attention_block']['layer_norm']['bias']"}, tensor<768xf32> {jax.result_info = "result[0].params['encoder']['params']['encoder_block']['layer_sequence']['layers_6']['attention_block']['layer_norm']['scale']"}, tensor<768xf32> {jax.result_info = "result[0].params['encoder']['params']['encoder_block']['layer_sequence']['layers_6']['mlp_block']['dense_layer']['bias']"}, tensor<3072x768xf32> {jax.result_info = "result[0].params['encoder']['params']['encoder_block']['layer_sequence']['layers_6']['mlp_block']['dense_layer']['kernel']"}, tensor<768xf32> {jax.result_info = "result[0].params['encoder']['params']['encoder_block']['layer_sequence']['layers_6']['mlp_block']['layer_norm']['bias']"}, tensor<768xf32> {jax.result_info = "result[0].params['encoder']['params']['encoder_block']['layer_sequence']['layers_6']['mlp_block']['layer_norm']['scale']"}, tensor<3072xf32> {jax.result_info = "result[0].params['encoder']['params']['encoder_block']['layer_sequence']['layers_6']['mlp_block']['mlp']['dense_layer']['bias']"}, tensor<768x3072xf32> {jax.result_info = "result[0].params['encoder']['params']['encoder_block']['layer_sequence']['layers_6']['mlp_block']['mlp']['dense_layer']['kernel']"}, tensor<768xf32> {jax.result_info = "result[0].params['encoder']['params']['encoder_block']['layer_sequence']['layers_7']['attention_block']['attention_layer']['key']['bias']"}, tensor<768x768xf32> {jax.result_info = "result[0].params['encoder']['params']['encoder_block']['layer_sequence']['layers_7']['attention_block']['attention_layer']['key']['kernel']"}, tensor<768xf32> {jax.result_info = "result[0].params['encoder']['params']['encoder_block']['layer_sequence']['layers_7']['attention_block']['attention_layer']['query']['bias']"}, tensor<768x768xf32> {jax.result_info = "result[0].params['encoder']['params']['encoder_block']['layer_sequence']['layers_7']['attention_block']['attention_layer']['query']['kernel']"}, tensor<768xf32> {jax.result_info = "result[0].params['encoder']['params']['encoder_block']['layer_sequence']['layers_7']['attention_block']['attention_layer']['value']['bias']"}, tensor<768x768xf32> {jax.result_info = "result[0].params['encoder']['params']['encoder_block']['layer_sequence']['layers_7']['attention_block']['attention_layer']['value']['kernel']"}, tensor<768xf32> {jax.result_info = "result[0].params['encoder']['params']['encoder_block']['layer_sequence']['layers_7']['attention_block']['dense_layer']['bias']"}, tensor<768x768xf32> {jax.result_info = "result[0].params['encoder']['params']['encoder_block']['layer_sequence']['layers_7']['attention_block']['dense_layer']['kernel']"}, tensor<768xf32> {jax.result_info = "result[0].params['encoder']['params']['encoder_block']['layer_sequence']['layers_7']['attention_block']['layer_norm']['bias']"}, tensor<768xf32> {jax.result_info = "result[0].params['encoder']['params']['encoder_block']['layer_sequence']['layers_7']['attention_block']['layer_norm']['scale']"}, tensor<768xf32> {jax.result_info = "result[0].params['encoder']['params']['encoder_block']['layer_sequence']['layers_7']['mlp_block']['dense_layer']['bias']"}, tensor<3072x768xf32> {jax.result_info = "result[0].params['encoder']['params']['encoder_block']['layer_sequence']['layers_7']['mlp_block']['dense_layer']['kernel']"}, tensor<768xf32> {jax.result_info = "result[0].params['encoder']['params']['encoder_block']['layer_sequence']['layers_7']['mlp_block']['layer_norm']['bias']"}, tensor<768xf32> {jax.result_info = "result[0].params['encoder']['params']['encoder_block']['layer_sequence']['layers_7']['mlp_block']['layer_norm']['scale']"}, tensor<3072xf32> {jax.result_info = "result[0].params['encoder']['params']['encoder_block']['layer_sequence']['layers_7']['mlp_block']['mlp']['dense_layer']['bias']"}, tensor<768x3072xf32> {jax.result_info = "result[0].params['encoder']['params']['encoder_block']['layer_sequence']['layers_7']['mlp_block']['mlp']['dense_layer']['kernel']"}, tensor<768xf32> {jax.result_info = "result[0].params['encoder']['params']['encoder_block']['layer_sequence']['layers_8']['attention_block']['attention_layer']['key']['bias']"}, tensor<768x768xf32> {jax.result_info = "result[0].params['encoder']['params']['encoder_block']['layer_sequence']['layers_8']['attention_block']['attention_layer']['key']['kernel']"}, tensor<768xf32> {jax.result_info = "result[0].params['encoder']['params']['encoder_block']['layer_sequence']['layers_8']['attention_block']['attention_layer']['query']['bias']"}, tensor<768x768xf32> {jax.result_info = "result[0].params['encoder']['params']['encoder_block']['layer_sequence']['layers_8']['attention_block']['attention_layer']['query']['kernel']"}, tensor<768xf32> {jax.result_info = "result[0].params['encoder']['params']['encoder_block']['layer_sequence']['layers_8']['attention_block']['attention_layer']['value']['bias']"}, tensor<768x768xf32> {jax.result_info = "result[0].params['encoder']['params']['encoder_block']['layer_sequence']['layers_8']['attention_block']['attention_layer']['value']['kernel']"}, tensor<768xf32> {jax.result_info = "result[0].params['encoder']['params']['encoder_block']['layer_sequence']['layers_8']['attention_block']['dense_layer']['bias']"}, tensor<768x768xf32> {jax.result_info = "result[0].params['encoder']['params']['encoder_block']['layer_sequence']['layers_8']['attention_block']['dense_layer']['kernel']"}, tensor<768xf32> {jax.result_info = "result[0].params['encoder']['params']['encoder_block']['layer_sequence']['layers_8']['attention_block']['layer_norm']['bias']"}, tensor<768xf32> {jax.result_info = "result[0].params['encoder']['params']['encoder_block']['layer_sequence']['layers_8']['attention_block']['layer_norm']['scale']"}, tensor<768xf32> {jax.result_info = "result[0].params['encoder']['params']['encoder_block']['layer_sequence']['layers_8']['mlp_block']['dense_layer']['bias']"}, tensor<3072x768xf32> {jax.result_info = "result[0].params['encoder']['params']['encoder_block']['layer_sequence']['layers_8']['mlp_block']['dense_layer']['kernel']"}, tensor<768xf32> {jax.result_info = "result[0].params['encoder']['params']['encoder_block']['layer_sequence']['layers_8']['mlp_block']['layer_norm']['bias']"}, tensor<768xf32> {jax.result_info = "result[0].params['encoder']['params']['encoder_block']['layer_sequence']['layers_8']['mlp_block']['layer_norm']['scale']"}, tensor<3072xf32> {jax.result_info = "result[0].params['encoder']['params']['encoder_block']['layer_sequence']['layers_8']['mlp_block']['mlp']['dense_layer']['bias']"}, tensor<768x3072xf32> {jax.result_info = "result[0].params['encoder']['params']['encoder_block']['layer_sequence']['layers_8']['mlp_block']['mlp']['dense_layer']['kernel']"}, tensor<768xf32> {jax.result_info = "result[0].params['encoder']['params']['encoder_block']['layer_sequence']['layers_9']['attention_block']['attention_layer']['key']['bias']"}, tensor<768x768xf32> {jax.result_info = "result[0].params['encoder']['params']['encoder_block']['layer_sequence']['layers_9']['attention_block']['attention_layer']['key']['kernel']"}, tensor<768xf32> {jax.result_info = "result[0].params['encoder']['params']['encoder_block']['layer_sequence']['layers_9']['attention_block']['attention_layer']['query']['bias']"}, tensor<768x768xf32> {jax.result_info = "result[0].params['encoder']['params']['encoder_block']['layer_sequence']['layers_9']['attention_block']['attention_layer']['query']['kernel']"}, tensor<768xf32> {jax.result_info = "result[0].params['encoder']['params']['encoder_block']['layer_sequence']['layers_9']['attention_block']['attention_layer']['value']['bias']"}, tensor<768x768xf32> {jax.result_info = "result[0].params['encoder']['params']['encoder_block']['layer_sequence']['layers_9']['attention_block']['attention_layer']['value']['kernel']"}, tensor<768xf32> {jax.result_info = "result[0].params['encoder']['params']['encoder_block']['layer_sequence']['layers_9']['attention_block']['dense_layer']['bias']"}, tensor<768x768xf32> {jax.result_info = "result[0].params['encoder']['params']['encoder_block']['layer_sequence']['layers_9']['attention_block']['dense_layer']['kernel']"}, tensor<768xf32> {jax.result_info = "result[0].params['encoder']['params']['encoder_block']['layer_sequence']['layers_9']['attention_block']['layer_norm']['bias']"}, tensor<768xf32> {jax.result_info = "result[0].params['encoder']['params']['encoder_block']['layer_sequence']['layers_9']['attention_block']['layer_norm']['scale']"}, tensor<768xf32> {jax.result_info = "result[0].params['encoder']['params']['encoder_block']['layer_sequence']['layers_9']['mlp_block']['dense_layer']['bias']"}, tensor<3072x768xf32> {jax.result_info = "result[0].params['encoder']['params']['encoder_block']['layer_sequence']['layers_9']['mlp_block']['dense_layer']['kernel']"}, tensor<768xf32> {jax.result_info = "result[0].params['encoder']['params']['encoder_block']['layer_sequence']['layers_9']['mlp_block']['layer_norm']['bias']"}, tensor<768xf32> {jax.result_info = "result[0].params['encoder']['params']['encoder_block']['layer_sequence']['layers_9']['mlp_block']['layer_norm']['scale']"}, tensor<3072xf32> {jax.result_info = "result[0].params['encoder']['params']['encoder_block']['layer_sequence']['layers_9']['mlp_block']['mlp']['dense_layer']['bias']"}, tensor<768x3072xf32> {jax.result_info = "result[0].params['encoder']['params']['encoder_block']['layer_sequence']['layers_9']['mlp_block']['mlp']['dense_layer']['kernel']"}, tensor<768xf32> {jax.result_info = "result[0].params['encoder']['params']['layer_norm']['bias']"}, tensor<768xf32> {jax.result_info = "result[0].params['encoder']['params']['layer_norm']['scale']"}, tensor<30522xf32> {jax.result_info = "result[0].params['mlm_head']['params']['bias']"}, tensor<768xf32> {jax.result_info = "result[0].params['mlm_head']['params']['dense']['bias']"}, tensor<768x768xf32> {jax.result_info = "result[0].params['mlm_head']['params']['dense']['kernel']"}, tensor<30522x768xf32> {jax.result_info = "result[0].params['mlm_head']['params']['encoder']['embedder']['embedders_token_ids']['embedding']"}, tensor<768xf32> {jax.result_info = "result[0].params['mlm_head']['params']['layer_norm']['bias']"}, tensor<768xf32> {jax.result_info = "result[0].params['mlm_head']['params']['layer_norm']['scale']"}, tensor<i32> {jax.result_info = "result[0].opt_state[1][0].count"}, tensor<512x768xf32> {jax.result_info = "result[0].opt_state[1][0].mu['encoder']['params']['embedder']['embedders_position_ids']['embedding']"}, tensor<2x768xf32> {jax.result_info = "result[0].opt_state[1][0].mu['encoder']['params']['embedder']['embedders_segment_ids']['embedding']"}, tensor<30522x768xf32> {jax.result_info = "result[0].opt_state[1][0].mu['encoder']['params']['embedder']['embedders_token_ids']['embedding']"}, tensor<768xf32> {jax.result_info = "result[0].opt_state[1][0].mu['encoder']['params']['encoder_block']['layer_sequence']['layers_0']['attention_block']['attention_layer']['key']['bias']"}, tensor<768x768xf32> {jax.result_info = "result[0].opt_state[1][0].mu['encoder']['params']['encoder_block']['layer_sequence']['layers_0']['attention_block']['attention_layer']['key']['kernel']"}, tensor<768xf32> {jax.result_info = "result[0].opt_state[1][0].mu['encoder']['params']['encoder_block']['layer_sequence']['layers_0']['attention_block']['attention_layer']['query']['bias']"}, tensor<768x768xf32> {jax.result_info = "result[0].opt_state[1][0].mu['encoder']['params']['encoder_block']['layer_sequence']['layers_0']['attention_block']['attention_layer']['query']['kernel']"}, tensor<768xf32> {jax.result_info = "result[0].opt_state[1][0].mu['encoder']['params']['encoder_block']['layer_sequence']['layers_0']['attention_block']['attention_layer']['value']['bias']"}, tensor<768x768xf32> {jax.result_info = "result[0].opt_state[1][0].mu['encoder']['params']['encoder_block']['layer_sequence']['layers_0']['attention_block']['attention_layer']['value']['kernel']"}, tensor<768xf32> {jax.result_info = "result[0].opt_state[1][0].mu['encoder']['params']['encoder_block']['layer_sequence']['layers_0']['attention_block']['dense_layer']['bias']"}, tensor<768x768xf32> {jax.result_info = "result[0].opt_state[1][0].mu['encoder']['params']['encoder_block']['layer_sequence']['layers_0']['attention_block']['dense_layer']['kernel']"}, tensor<768xf32> {jax.result_info = "result[0].opt_state[1][0].mu['encoder']['params']['encoder_block']['layer_sequence']['layers_0']['attention_block']['layer_norm']['bias']"}, tensor<768xf32> {jax.result_info = "result[0].opt_state[1][0].mu['encoder']['params']['encoder_block']['layer_sequence']['layers_0']['attention_block']['layer_norm']['scale']"}, tensor<768xf32> {jax.result_info = "result[0].opt_state[1][0].mu['encoder']['params']['encoder_block']['layer_sequence']['layers_0']['mlp_block']['dense_layer']['bias']"}, tensor<3072x768xf32> {jax.result_info = "result[0].opt_state[1][0].mu['encoder']['params']['encoder_block']['layer_sequence']['layers_0']['mlp_block']['dense_layer']['kernel']"}, tensor<768xf32> {jax.result_info = "result[0].opt_state[1][0].mu['encoder']['params']['encoder_block']['layer_sequence']['layers_0']['mlp_block']['layer_norm']['bias']"}, tensor<768xf32> {jax.result_info = "result[0].opt_state[1][0].mu['encoder']['params']['encoder_block']['layer_sequence']['layers_0']['mlp_block']['layer_norm']['scale']"}, tensor<3072xf32> {jax.result_info = "result[0].opt_state[1][0].mu['encoder']['params']['encoder_block']['layer_sequence']['layers_0']['mlp_block']['mlp']['dense_layer']['bias']"}, tensor<768x3072xf32> {jax.result_info = "result[0].opt_state[1][0].mu['encoder']['params']['encoder_block']['layer_sequence']['layers_0']['mlp_block']['mlp']['dense_layer']['kernel']"}, tensor<768xf32> {jax.result_info = "result[0].opt_state[1][0].mu['encoder']['params']['encoder_block']['layer_sequence']['layers_1']['attention_block']['attention_layer']['key']['bias']"}, tensor<768x768xf32> {jax.result_info = "result[0].opt_state[1][0].mu['encoder']['params']['encoder_block']['layer_sequence']['layers_1']['attention_block']['attention_layer']['key']['kernel']"}, tensor<768xf32> {jax.result_info = "result[0].opt_state[1][0].mu['encoder']['params']['encoder_block']['layer_sequence']['layers_1']['attention_block']['attention_layer']['query']['bias']"}, tensor<768x768xf32> {jax.result_info = "result[0].opt_state[1][0].mu['encoder']['params']['encoder_block']['layer_sequence']['layers_1']['attention_block']['attention_layer']['query']['kernel']"}, tensor<768xf32> {jax.result_info = "result[0].opt_state[1][0].mu['encoder']['params']['encoder_block']['layer_sequence']['layers_1']['attention_block']['attention_layer']['value']['bias']"}, tensor<768x768xf32> {jax.result_info = "result[0].opt_state[1][0].mu['encoder']['params']['encoder_block']['layer_sequence']['layers_1']['attention_block']['attention_layer']['value']['kernel']"}, tensor<768xf32> {jax.result_info = "result[0].opt_state[1][0].mu['encoder']['params']['encoder_block']['layer_sequence']['layers_1']['attention_block']['dense_layer']['bias']"}, tensor<768x768xf32> {jax.result_info = "result[0].opt_state[1][0].mu['encoder']['params']['encoder_block']['layer_sequence']['layers_1']['attention_block']['dense_layer']['kernel']"}, tensor<768xf32> {jax.result_info = "result[0].opt_state[1][0].mu['encoder']['params']['encoder_block']['layer_sequence']['layers_1']['attention_block']['layer_norm']['bias']"}, tensor<768xf32> {jax.result_info = "result[0].opt_state[1][0].mu['encoder']['params']['encoder_block']['layer_sequence']['layers_1']['attention_block']['layer_norm']['scale']"}, tensor<768xf32> {jax.result_info = "result[0].opt_state[1][0].mu['encoder']['params']['encoder_block']['layer_sequence']['layers_1']['mlp_block']['dense_layer']['bias']"}, tensor<3072x768xf32> {jax.result_info = "result[0].opt_state[1][0].mu['encoder']['params']['encoder_block']['layer_sequence']['layers_1']['mlp_block']['dense_layer']['kernel']"}, tensor<768xf32> {jax.result_info = "result[0].opt_state[1][0].mu['encoder']['params']['encoder_block']['layer_sequence']['layers_1']['mlp_block']['layer_norm']['bias']"}, tensor<768xf32> {jax.result_info = "result[0].opt_state[1][0].mu['encoder']['params']['encoder_block']['layer_sequence']['layers_1']['mlp_block']['layer_norm']['scale']"}, tensor<3072xf32> {jax.result_info = "result[0].opt_state[1][0].mu['encoder']['params']['encoder_block']['layer_sequence']['layers_1']['mlp_block']['mlp']['dense_layer']['bias']"}, tensor<768x3072xf32> {jax.result_info = "result[0].opt_state[1][0].mu['encoder']['params']['encoder_block']['layer_sequence']['layers_1']['mlp_block']['mlp']['dense_layer']['kernel']"}, tensor<768xf32> {jax.result_info = "result[0].opt_state[1][0].mu['encoder']['params']['encoder_block']['layer_sequence']['layers_10']['attention_block']['attention_layer']['key']['bias']"}, tensor<768x768xf32> {jax.result_info = "result[0].opt_state[1][0].mu['encoder']['params']['encoder_block']['layer_sequence']['layers_10']['attention_block']['attention_layer']['key']['kernel']"}, tensor<768xf32> {jax.result_info = "result[0].opt_state[1][0].mu['encoder']['params']['encoder_block']['layer_sequence']['layers_10']['attention_block']['attention_layer']['query']['bias']"}, tensor<768x768xf32> {jax.result_info = "result[0].opt_state[1][0].mu['encoder']['params']['encoder_block']['layer_sequence']['layers_10']['attention_block']['attention_layer']['query']['kernel']"}, tensor<768xf32> {jax.result_info = "result[0].opt_state[1][0].mu['encoder']['params']['encoder_block']['layer_sequence']['layers_10']['attention_block']['attention_layer']['value']['bias']"}, tensor<768x768xf32> {jax.result_info = "result[0].opt_state[1][0].mu['encoder']['params']['encoder_block']['layer_sequence']['layers_10']['attention_block']['attention_layer']['value']['kernel']"}, tensor<768xf32> {jax.result_info = "result[0].opt_state[1][0].mu['encoder']['params']['encoder_block']['layer_sequence']['layers_10']['attention_block']['dense_layer']['bias']"}, tensor<768x768xf32> {jax.result_info = "result[0].opt_state[1][0].mu['encoder']['params']['encoder_block']['layer_sequence']['layers_10']['attention_block']['dense_layer']['kernel']"}, tensor<768xf32> {jax.result_info = "result[0].opt_state[1][0].mu['encoder']['params']['encoder_block']['layer_sequence']['layers_10']['attention_block']['layer_norm']['bias']"}, tensor<768xf32> {jax.result_info = "result[0].opt_state[1][0].mu['encoder']['params']['encoder_block']['layer_sequence']['layers_10']['attention_block']['layer_norm']['scale']"}, tensor<768xf32> {jax.result_info = "result[0].opt_state[1][0].mu['encoder']['params']['encoder_block']['layer_sequence']['layers_10']['mlp_block']['dense_layer']['bias']"}, tensor<3072x768xf32> {jax.result_info = "result[0].opt_state[1][0].mu['encoder']['params']['encoder_block']['layer_sequence']['layers_10']['mlp_block']['dense_layer']['kernel']"}, tensor<768xf32> {jax.result_info = "result[0].opt_state[1][0].mu['encoder']['params']['encoder_block']['layer_sequence']['layers_10']['mlp_block']['layer_norm']['bias']"}, tensor<768xf32> {jax.result_info = "result[0].opt_state[1][0].mu['encoder']['params']['encoder_block']['layer_sequence']['layers_10']['mlp_block']['layer_norm']['scale']"}, tensor<3072xf32> {jax.result_info = "result[0].opt_state[1][0].mu['encoder']['params']['encoder_block']['layer_sequence']['layers_10']['mlp_block']['mlp']['dense_layer']['bias']"}, tensor<768x3072xf32> {jax.result_info = "result[0].opt_state[1][0].mu['encoder']['params']['encoder_block']['layer_sequence']['layers_10']['mlp_block']['mlp']['dense_layer']['kernel']"}, tensor<768xf32> {jax.result_info = "result[0].opt_state[1][0].mu['encoder']['params']['encoder_block']['layer_sequence']['layers_11']['attention_block']['attention_layer']['key']['bias']"}, tensor<768x768xf32> {jax.result_info = "result[0].opt_state[1][0].mu['encoder']['params']['encoder_block']['layer_sequence']['layers_11']['attention_block']['attention_layer']['key']['kernel']"}, tensor<768xf32> {jax.result_info = "result[0].opt_state[1][0].mu['encoder']['params']['encoder_block']['layer_sequence']['layers_11']['attention_block']['attention_layer']['query']['bias']"}, tensor<768x768xf32> {jax.result_info = "result[0].opt_state[1][0].mu['encoder']['params']['encoder_block']['layer_sequence']['layers_11']['attention_block']['attention_layer']['query']['kernel']"}, tensor<768xf32> {jax.result_info = "result[0].opt_state[1][0].mu['encoder']['params']['encoder_block']['layer_sequence']['layers_11']['attention_block']['attention_layer']['value']['bias']"}, tensor<768x768xf32> {jax.result_info = "result[0].opt_state[1][0].mu['encoder']['params']['encoder_block']['layer_sequence']['layers_11']['attention_block']['attention_layer']['value']['kernel']"}, tensor<768xf32> {jax.result_info = "result[0].opt_state[1][0].mu['encoder']['params']['encoder_block']['layer_sequence']['layers_11']['attention_block']['dense_layer']['bias']"}, tensor<768x768xf32> {jax.result_info = "result[0].opt_state[1][0].mu['encoder']['params']['encoder_block']['layer_sequence']['layers_11']['attention_block']['dense_layer']['kernel']"}, tensor<768xf32> {jax.result_info = "result[0].opt_state[1][0].mu['encoder']['params']['encoder_block']['layer_sequence']['layers_11']['attention_block']['layer_norm']['bias']"}, tensor<768xf32> {jax.result_info = "result[0].opt_state[1][0].mu['encoder']['params']['encoder_block']['layer_sequence']['layers_11']['attention_block']['layer_norm']['scale']"}, tensor<768xf32> {jax.result_info = "result[0].opt_state[1][0].mu['encoder']['params']['encoder_block']['layer_sequence']['layers_11']['mlp_block']['dense_layer']['bias']"}, tensor<3072x768xf32> {jax.result_info = "result[0].opt_state[1][0].mu['encoder']['params']['encoder_block']['layer_sequence']['layers_11']['mlp_block']['dense_layer']['kernel']"}, tensor<768xf32> {jax.result_info = "result[0].opt_state[1][0].mu['encoder']['params']['encoder_block']['layer_sequence']['layers_11']['mlp_block']['layer_norm']['bias']"}, tensor<768xf32> {jax.result_info = "result[0].opt_state[1][0].mu['encoder']['params']['encoder_block']['layer_sequence']['layers_11']['mlp_block']['layer_norm']['scale']"}, tensor<3072xf32> {jax.result_info = "result[0].opt_state[1][0].mu['encoder']['params']['encoder_block']['layer_sequence']['layers_11']['mlp_block']['mlp']['dense_layer']['bias']"}, tensor<768x3072xf32> {jax.result_info = "result[0].opt_state[1][0].mu['encoder']['params']['encoder_block']['layer_sequence']['layers_11']['mlp_block']['mlp']['dense_layer']['kernel']"}, tensor<768xf32> {jax.result_info = "result[0].opt_state[1][0].mu['encoder']['params']['encoder_block']['layer_sequence']['layers_2']['attention_block']['attention_layer']['key']['bias']"}, tensor<768x768xf32> {jax.result_info = "result[0].opt_state[1][0].mu['encoder']['params']['encoder_block']['layer_sequence']['layers_2']['attention_block']['attention_layer']['key']['kernel']"}, tensor<768xf32> {jax.result_info = "result[0].opt_state[1][0].mu['encoder']['params']['encoder_block']['layer_sequence']['layers_2']['attention_block']['attention_layer']['query']['bias']"}, tensor<768x768xf32> {jax.result_info = "result[0].opt_state[1][0].mu['encoder']['params']['encoder_block']['layer_sequence']['layers_2']['attention_block']['attention_layer']['query']['kernel']"}, tensor<768xf32> {jax.result_info = "result[0].opt_state[1][0].mu['encoder']['params']['encoder_block']['layer_sequence']['layers_2']['attention_block']['attention_layer']['value']['bias']"}, tensor<768x768xf32> {jax.result_info = "result[0].opt_state[1][0].mu['encoder']['params']['encoder_block']['layer_sequence']['layers_2']['attention_block']['attention_layer']['value']['kernel']"}, tensor<768xf32> {jax.result_info = "result[0].opt_state[1][0].mu['encoder']['params']['encoder_block']['layer_sequence']['layers_2']['attention_block']['dense_layer']['bias']"}, tensor<768x768xf32> {jax.result_info = "result[0].opt_state[1][0].mu['encoder']['params']['encoder_block']['layer_sequence']['layers_2']['attention_block']['dense_layer']['kernel']"}, tensor<768xf32> {jax.result_info = "result[0].opt_state[1][0].mu['encoder']['params']['encoder_block']['layer_sequence']['layers_2']['attention_block']['layer_norm']['bias']"}, tensor<768xf32> {jax.result_info = "result[0].opt_state[1][0].mu['encoder']['params']['encoder_block']['layer_sequence']['layers_2']['attention_block']['layer_norm']['scale']"}, tensor<768xf32> {jax.result_info = "result[0].opt_state[1][0].mu['encoder']['params']['encoder_block']['layer_sequence']['layers_2']['mlp_block']['dense_layer']['bias']"}, tensor<3072x768xf32> {jax.result_info = "result[0].opt_state[1][0].mu['encoder']['params']['encoder_block']['layer_sequence']['layers_2']['mlp_block']['dense_layer']['kernel']"}, tensor<768xf32> {jax.result_info = "result[0].opt_state[1][0].mu['encoder']['params']['encoder_block']['layer_sequence']['layers_2']['mlp_block']['layer_norm']['bias']"}, tensor<768xf32> {jax.result_info = "result[0].opt_state[1][0].mu['encoder']['params']['encoder_block']['layer_sequence']['layers_2']['mlp_block']['layer_norm']['scale']"}, tensor<3072xf32> {jax.result_info = "result[0].opt_state[1][0].mu['encoder']['params']['encoder_block']['layer_sequence']['layers_2']['mlp_block']['mlp']['dense_layer']['bias']"}, tensor<768x3072xf32> {jax.result_info = "result[0].opt_state[1][0].mu['encoder']['params']['encoder_block']['layer_sequence']['layers_2']['mlp_block']['mlp']['dense_layer']['kernel']"}, tensor<768xf32> {jax.result_info = "result[0].opt_state[1][0].mu['encoder']['params']['encoder_block']['layer_sequence']['layers_3']['attention_block']['attention_layer']['key']['bias']"}, tensor<768x768xf32> {jax.result_info = "result[0].opt_state[1][0].mu['encoder']['params']['encoder_block']['layer_sequence']['layers_3']['attention_block']['attention_layer']['key']['kernel']"}, tensor<768xf32> {jax.result_info = "result[0].opt_state[1][0].mu['encoder']['params']['encoder_block']['layer_sequence']['layers_3']['attention_block']['attention_layer']['query']['bias']"}, tensor<768x768xf32> {jax.result_info = "result[0].opt_state[1][0].mu['encoder']['params']['encoder_block']['layer_sequence']['layers_3']['attention_block']['attention_layer']['query']['kernel']"}, tensor<768xf32> {jax.result_info = "result[0].opt_state[1][0].mu['encoder']['params']['encoder_block']['layer_sequence']['layers_3']['attention_block']['attention_layer']['value']['bias']"}, tensor<768x768xf32> {jax.result_info = "result[0].opt_state[1][0].mu['encoder']['params']['encoder_block']['layer_sequence']['layers_3']['attention_block']['attention_layer']['value']['kernel']"}, tensor<768xf32> {jax.result_info = "result[0].opt_state[1][0].mu['encoder']['params']['encoder_block']['layer_sequence']['layers_3']['attention_block']['dense_layer']['bias']"}, tensor<768x768xf32> {jax.result_info = "result[0].opt_state[1][0].mu['encoder']['params']['encoder_block']['layer_sequence']['layers_3']['attention_block']['dense_layer']['kernel']"}, tensor<768xf32> {jax.result_info = "result[0].opt_state[1][0].mu['encoder']['params']['encoder_block']['layer_sequence']['layers_3']['attention_block']['layer_norm']['bias']"}, tensor<768xf32> {jax.result_info = "result[0].opt_state[1][0].mu['encoder']['params']['encoder_block']['layer_sequence']['layers_3']['attention_block']['layer_norm']['scale']"}, tensor<768xf32> {jax.result_info = "result[0].opt_state[1][0].mu['encoder']['params']['encoder_block']['layer_sequence']['layers_3']['mlp_block']['dense_layer']['bias']"}, tensor<3072x768xf32> {jax.result_info = "result[0].opt_state[1][0].mu['encoder']['params']['encoder_block']['layer_sequence']['layers_3']['mlp_block']['dense_layer']['kernel']"}, tensor<768xf32> {jax.result_info = "result[0].opt_state[1][0].mu['encoder']['params']['encoder_block']['layer_sequence']['layers_3']['mlp_block']['layer_norm']['bias']"}, tensor<768xf32> {jax.result_info = "result[0].opt_state[1][0].mu['encoder']['params']['encoder_block']['layer_sequence']['layers_3']['mlp_block']['layer_norm']['scale']"}, tensor<3072xf32> {jax.result_info = "result[0].opt_state[1][0].mu['encoder']['params']['encoder_block']['layer_sequence']['layers_3']['mlp_block']['mlp']['dense_layer']['bias']"}, tensor<768x3072xf32> {jax.result_info = "result[0].opt_state[1][0].mu['encoder']['params']['encoder_block']['layer_sequence']['layers_3']['mlp_block']['mlp']['dense_layer']['kernel']"}, tensor<768xf32> {jax.result_info = "result[0].opt_state[1][0].mu['encoder']['params']['encoder_block']['layer_sequence']['layers_4']['attention_block']['attention_layer']['key']['bias']"}, tensor<768x768xf32> {jax.result_info = "result[0].opt_state[1][0].mu['encoder']['params']['encoder_block']['layer_sequence']['layers_4']['attention_block']['attention_layer']['key']['kernel']"}, tensor<768xf32> {jax.result_info = "result[0].opt_state[1][0].mu['encoder']['params']['encoder_block']['layer_sequence']['layers_4']['attention_block']['attention_layer']['query']['bias']"}, tensor<768x768xf32> {jax.result_info = "result[0].opt_state[1][0].mu['encoder']['params']['encoder_block']['layer_sequence']['layers_4']['attention_block']['attention_layer']['query']['kernel']"}, tensor<768xf32> {jax.result_info = "result[0].opt_state[1][0].mu['encoder']['params']['encoder_block']['layer_sequence']['layers_4']['attention_block']['attention_layer']['value']['bias']"}, tensor<768x768xf32> {jax.result_info = "result[0].opt_state[1][0].mu['encoder']['params']['encoder_block']['layer_sequence']['layers_4']['attention_block']['attention_layer']['value']['kernel']"}, tensor<768xf32> {jax.result_info = "result[0].opt_state[1][0].mu['encoder']['params']['encoder_block']['layer_sequence']['layers_4']['attention_block']['dense_layer']['bias']"}, tensor<768x768xf32> {jax.result_info = "result[0].opt_state[1][0].mu['encoder']['params']['encoder_block']['layer_sequence']['layers_4']['attention_block']['dense_layer']['kernel']"}, tensor<768xf32> {jax.result_info = "result[0].opt_state[1][0].mu['encoder']['params']['encoder_block']['layer_sequence']['layers_4']['attention_block']['layer_norm']['bias']"}, tensor<768xf32> {jax.result_info = "result[0].opt_state[1][0].mu['encoder']['params']['encoder_block']['layer_sequence']['layers_4']['attention_block']['layer_norm']['scale']"}, tensor<768xf32> {jax.result_info = "result[0].opt_state[1][0].mu['encoder']['params']['encoder_block']['layer_sequence']['layers_4']['mlp_block']['dense_layer']['bias']"}, tensor<3072x768xf32> {jax.result_info = "result[0].opt_state[1][0].mu['encoder']['params']['encoder_block']['layer_sequence']['layers_4']['mlp_block']['dense_layer']['kernel']"}, tensor<768xf32> {jax.result_info = "result[0].opt_state[1][0].mu['encoder']['params']['encoder_block']['layer_sequence']['layers_4']['mlp_block']['layer_norm']['bias']"}, tensor<768xf32> {jax.result_info = "result[0].opt_state[1][0].mu['encoder']['params']['encoder_block']['layer_sequence']['layers_4']['mlp_block']['layer_norm']['scale']"}, tensor<3072xf32> {jax.result_info = "result[0].opt_state[1][0].mu['encoder']['params']['encoder_block']['layer_sequence']['layers_4']['mlp_block']['mlp']['dense_layer']['bias']"}, tensor<768x3072xf32> {jax.result_info = "result[0].opt_state[1][0].mu['encoder']['params']['encoder_block']['layer_sequence']['layers_4']['mlp_block']['mlp']['dense_layer']['kernel']"}, tensor<768xf32> {jax.result_info = "result[0].opt_state[1][0].mu['encoder']['params']['encoder_block']['layer_sequence']['layers_5']['attention_block']['attention_layer']['key']['bias']"}, tensor<768x768xf32> {jax.result_info = "result[0].opt_state[1][0].mu['encoder']['params']['encoder_block']['layer_sequence']['layers_5']['attention_block']['attention_layer']['key']['kernel']"}, tensor<768xf32> {jax.result_info = "result[0].opt_state[1][0].mu['encoder']['params']['encoder_block']['layer_sequence']['layers_5']['attention_block']['attention_layer']['query']['bias']"}, tensor<768x768xf32> {jax.result_info = "result[0].opt_state[1][0].mu['encoder']['params']['encoder_block']['layer_sequence']['layers_5']['attention_block']['attention_layer']['query']['kernel']"}, tensor<768xf32> {jax.result_info = "result[0].opt_state[1][0].mu['encoder']['params']['encoder_block']['layer_sequence']['layers_5']['attention_block']['attention_layer']['value']['bias']"}, tensor<768x768xf32> {jax.result_info = "result[0].opt_state[1][0].mu['encoder']['params']['encoder_block']['layer_sequence']['layers_5']['attention_block']['attention_layer']['value']['kernel']"}, tensor<768xf32> {jax.result_info = "result[0].opt_state[1][0].mu['encoder']['params']['encoder_block']['layer_sequence']['layers_5']['attention_block']['dense_layer']['bias']"}, tensor<768x768xf32> {jax.result_info = "result[0].opt_state[1][0].mu['encoder']['params']['encoder_block']['layer_sequence']['layers_5']['attention_block']['dense_layer']['kernel']"}, tensor<768xf32> {jax.result_info = "result[0].opt_state[1][0].mu['encoder']['params']['encoder_block']['layer_sequence']['layers_5']['attention_block']['layer_norm']['bias']"}, tensor<768xf32> {jax.result_info = "result[0].opt_state[1][0].mu['encoder']['params']['encoder_block']['layer_sequence']['layers_5']['attention_block']['layer_norm']['scale']"}, tensor<768xf32> {jax.result_info = "result[0].opt_state[1][0].mu['encoder']['params']['encoder_block']['layer_sequence']['layers_5']['mlp_block']['dense_layer']['bias']"}, tensor<3072x768xf32> {jax.result_info = "result[0].opt_state[1][0].mu['encoder']['params']['encoder_block']['layer_sequence']['layers_5']['mlp_block']['dense_layer']['kernel']"}, tensor<768xf32> {jax.result_info = "result[0].opt_state[1][0].mu['encoder']['params']['encoder_block']['layer_sequence']['layers_5']['mlp_block']['layer_norm']['bias']"}, tensor<768xf32> {jax.result_info = "result[0].opt_state[1][0].mu['encoder']['params']['encoder_block']['layer_sequence']['layers_5']['mlp_block']['layer_norm']['scale']"}, tensor<3072xf32> {jax.result_info = "result[0].opt_state[1][0].mu['encoder']['params']['encoder_block']['layer_sequence']['layers_5']['mlp_block']['mlp']['dense_layer']['bias']"}, tensor<768x3072xf32> {jax.result_info = "result[0].opt_state[1][0].mu['encoder']['params']['encoder_block']['layer_sequence']['layers_5']['mlp_block']['mlp']['dense_layer']['kernel']"}, tensor<768xf32> {jax.result_info = "result[0].opt_state[1][0].mu['encoder']['params']['encoder_block']['layer_sequence']['layers_6']['attention_block']['attention_layer']['key']['bias']"}, tensor<768x768xf32> {jax.result_info = "result[0].opt_state[1][0].mu['encoder']['params']['encoder_block']['layer_sequence']['layers_6']['attention_block']['attention_layer']['key']['kernel']"}, tensor<768xf32> {jax.result_info = "result[0].opt_state[1][0].mu['encoder']['params']['encoder_block']['layer_sequence']['layers_6']['attention_block']['attention_layer']['query']['bias']"}, tensor<768x768xf32> {jax.result_info = "result[0].opt_state[1][0].mu['encoder']['params']['encoder_block']['layer_sequence']['layers_6']['attention_block']['attention_layer']['query']['kernel']"}, tensor<768xf32> {jax.result_info = "result[0].opt_state[1][0].mu['encoder']['params']['encoder_block']['layer_sequence']['layers_6']['attention_block']['attention_layer']['value']['bias']"}, tensor<768x768xf32> {jax.result_info = "result[0].opt_state[1][0].mu['encoder']['params']['encoder_block']['layer_sequence']['layers_6']['attention_block']['attention_layer']['value']['kernel']"}, tensor<768xf32> {jax.result_info = "result[0].opt_state[1][0].mu['encoder']['params']['encoder_block']['layer_sequence']['layers_6']['attention_block']['dense_layer']['bias']"}, tensor<768x768xf32> {jax.result_info = "result[0].opt_state[1][0].mu['encoder']['params']['encoder_block']['layer_sequence']['layers_6']['attention_block']['dense_layer']['kernel']"}, tensor<768xf32> {jax.result_info = "result[0].opt_state[1][0].mu['encoder']['params']['encoder_block']['layer_sequence']['layers_6']['attention_block']['layer_norm']['bias']"}, tensor<768xf32> {jax.result_info = "result[0].opt_state[1][0].mu['encoder']['params']['encoder_block']['layer_sequence']['layers_6']['attention_block']['layer_norm']['scale']"}, tensor<768xf32> {jax.result_info = "result[0].opt_state[1][0].mu['encoder']['params']['encoder_block']['layer_sequence']['layers_6']['mlp_block']['dense_layer']['bias']"}, tensor<3072x768xf32> {jax.result_info = "result[0].opt_state[1][0].mu['encoder']['params']['encoder_block']['layer_sequence']['layers_6']['mlp_block']['dense_layer']['kernel']"}, tensor<768xf32> {jax.result_info = "result[0].opt_state[1][0].mu['encoder']['params']['encoder_block']['layer_sequence']['layers_6']['mlp_block']['layer_norm']['bias']"}, tensor<768xf32> {jax.result_info = "result[0].opt_state[1][0].mu['encoder']['params']['encoder_block']['layer_sequence']['layers_6']['mlp_block']['layer_norm']['scale']"}, tensor<3072xf32> {jax.result_info = "result[0].opt_state[1][0].mu['encoder']['params']['encoder_block']['layer_sequence']['layers_6']['mlp_block']['mlp']['dense_layer']['bias']"}, tensor<768x3072xf32> {jax.result_info = "result[0].opt_state[1][0].mu['encoder']['params']['encoder_block']['layer_sequence']['layers_6']['mlp_block']['mlp']['dense_layer']['kernel']"}, tensor<768xf32> {jax.result_info = "result[0].opt_state[1][0].mu['encoder']['params']['encoder_block']['layer_sequence']['layers_7']['attention_block']['attention_layer']['key']['bias']"}, tensor<768x768xf32> {jax.result_info = "result[0].opt_state[1][0].mu['encoder']['params']['encoder_block']['layer_sequence']['layers_7']['attention_block']['attention_layer']['key']['kernel']"}, tensor<768xf32> {jax.result_info = "result[0].opt_state[1][0].mu['encoder']['params']['encoder_block']['layer_sequence']['layers_7']['attention_block']['attention_layer']['query']['bias']"}, tensor<768x768xf32> {jax.result_info = "result[0].opt_state[1][0].mu['encoder']['params']['encoder_block']['layer_sequence']['layers_7']['attention_block']['attention_layer']['query']['kernel']"}, tensor<768xf32> {jax.result_info = "result[0].opt_state[1][0].mu['encoder']['params']['encoder_block']['layer_sequence']['layers_7']['attention_block']['attention_layer']['value']['bias']"}, tensor<768x768xf32> {jax.result_info = "result[0].opt_state[1][0].mu['encoder']['params']['encoder_block']['layer_sequence']['layers_7']['attention_block']['attention_layer']['value']['kernel']"}, tensor<768xf32> {jax.result_info = "result[0].opt_state[1][0].mu['encoder']['params']['encoder_block']['layer_sequence']['layers_7']['attention_block']['dense_layer']['bias']"}, tensor<768x768xf32> {jax.result_info = "result[0].opt_state[1][0].mu['encoder']['params']['encoder_block']['layer_sequence']['layers_7']['attention_block']['dense_layer']['kernel']"}, tensor<768xf32> {jax.result_info = "result[0].opt_state[1][0].mu['encoder']['params']['encoder_block']['layer_sequence']['layers_7']['attention_block']['layer_norm']['bias']"}, tensor<768xf32> {jax.result_info = "result[0].opt_state[1][0].mu['encoder']['params']['encoder_block']['layer_sequence']['layers_7']['attention_block']['layer_norm']['scale']"}, tensor<768xf32> {jax.result_info = "result[0].opt_state[1][0].mu['encoder']['params']['encoder_block']['layer_sequence']['layers_7']['mlp_block']['dense_layer']['bias']"}, tensor<3072x768xf32> {jax.result_info = "result[0].opt_state[1][0].mu['encoder']['params']['encoder_block']['layer_sequence']['layers_7']['mlp_block']['dense_layer']['kernel']"}, tensor<768xf32> {jax.result_info = "result[0].opt_state[1][0].mu['encoder']['params']['encoder_block']['layer_sequence']['layers_7']['mlp_block']['layer_norm']['bias']"}, tensor<768xf32> {jax.result_info = "result[0].opt_state[1][0].mu['encoder']['params']['encoder_block']['layer_sequence']['layers_7']['mlp_block']['layer_norm']['scale']"}, tensor<3072xf32> {jax.result_info = "result[0].opt_state[1][0].mu['encoder']['params']['encoder_block']['layer_sequence']['layers_7']['mlp_block']['mlp']['dense_layer']['bias']"}, tensor<768x3072xf32> {jax.result_info = "result[0].opt_state[1][0].mu['encoder']['params']['encoder_block']['layer_sequence']['layers_7']['mlp_block']['mlp']['dense_layer']['kernel']"}, tensor<768xf32> {jax.result_info = "result[0].opt_state[1][0].mu['encoder']['params']['encoder_block']['layer_sequence']['layers_8']['attention_block']['attention_layer']['key']['bias']"}, tensor<768x768xf32> {jax.result_info = "result[0].opt_state[1][0].mu['encoder']['params']['encoder_block']['layer_sequence']['layers_8']['attention_block']['attention_layer']['key']['kernel']"}, tensor<768xf32> {jax.result_info = "result[0].opt_state[1][0].mu['encoder']['params']['encoder_block']['layer_sequence']['layers_8']['attention_block']['attention_layer']['query']['bias']"}, tensor<768x768xf32> {jax.result_info = "result[0].opt_state[1][0].mu['encoder']['params']['encoder_block']['layer_sequence']['layers_8']['attention_block']['attention_layer']['query']['kernel']"}, tensor<768xf32> {jax.result_info = "result[0].opt_state[1][0].mu['encoder']['params']['encoder_block']['layer_sequence']['layers_8']['attention_block']['attention_layer']['value']['bias']"}, tensor<768x768xf32> {jax.result_info = "result[0].opt_state[1][0].mu['encoder']['params']['encoder_block']['layer_sequence']['layers_8']['attention_block']['attention_layer']['value']['kernel']"}, tensor<768xf32> {jax.result_info = "result[0].opt_state[1][0].mu['encoder']['params']['encoder_block']['layer_sequence']['layers_8']['attention_block']['dense_layer']['bias']"}, tensor<768x768xf32> {jax.result_info = "result[0].opt_state[1][0].mu['encoder']['params']['encoder_block']['layer_sequence']['layers_8']['attention_block']['dense_layer']['kernel']"}, tensor<768xf32> {jax.result_info = "result[0].opt_state[1][0].mu['encoder']['params']['encoder_block']['layer_sequence']['layers_8']['attention_block']['layer_norm']['bias']"}, tensor<768xf32> {jax.result_info = "result[0].opt_state[1][0].mu['encoder']['params']['encoder_block']['layer_sequence']['layers_8']['attention_block']['layer_norm']['scale']"}, tensor<768xf32> {jax.result_info = "result[0].opt_state[1][0].mu['encoder']['params']['encoder_block']['layer_sequence']['layers_8']['mlp_block']['dense_layer']['bias']"}, tensor<3072x768xf32> {jax.result_info = "result[0].opt_state[1][0].mu['encoder']['params']['encoder_block']['layer_sequence']['layers_8']['mlp_block']['dense_layer']['kernel']"}, tensor<768xf32> {jax.result_info = "result[0].opt_state[1][0].mu['encoder']['params']['encoder_block']['layer_sequence']['layers_8']['mlp_block']['layer_norm']['bias']"}, tensor<768xf32> {jax.result_info = "result[0].opt_state[1][0].mu['encoder']['params']['encoder_block']['layer_sequence']['layers_8']['mlp_block']['layer_norm']['scale']"}, tensor<3072xf32> {jax.result_info = "result[0].opt_state[1][0].mu['encoder']['params']['encoder_block']['layer_sequence']['layers_8']['mlp_block']['mlp']['dense_layer']['bias']"}, tensor<768x3072xf32> {jax.result_info = "result[0].opt_state[1][0].mu['encoder']['params']['encoder_block']['layer_sequence']['layers_8']['mlp_block']['mlp']['dense_layer']['kernel']"}, tensor<768xf32> {jax.result_info = "result[0].opt_state[1][0].mu['encoder']['params']['encoder_block']['layer_sequence']['layers_9']['attention_block']['attention_layer']['key']['bias']"}, tensor<768x768xf32> {jax.result_info = "result[0].opt_state[1][0].mu['encoder']['params']['encoder_block']['layer_sequence']['layers_9']['attention_block']['attention_layer']['key']['kernel']"}, tensor<768xf32> {jax.result_info = "result[0].opt_state[1][0].mu['encoder']['params']['encoder_block']['layer_sequence']['layers_9']['attention_block']['attention_layer']['query']['bias']"}, tensor<768x768xf32> {jax.result_info = "result[0].opt_state[1][0].mu['encoder']['params']['encoder_block']['layer_sequence']['layers_9']['attention_block']['attention_layer']['query']['kernel']"}, tensor<768xf32> {jax.result_info = "result[0].opt_state[1][0].mu['encoder']['params']['encoder_block']['layer_sequence']['layers_9']['attention_block']['attention_layer']['value']['bias']"}, tensor<768x768xf32> {jax.result_info = "result[0].opt_state[1][0].mu['encoder']['params']['encoder_block']['layer_sequence']['layers_9']['attention_block']['attention_layer']['value']['kernel']"}, tensor<768xf32> {jax.result_info = "result[0].opt_state[1][0].mu['encoder']['params']['encoder_block']['layer_sequence']['layers_9']['attention_block']['dense_layer']['bias']"}, tensor<768x768xf32> {jax.result_info = "result[0].opt_state[1][0].mu['encoder']['params']['encoder_block']['layer_sequence']['layers_9']['attention_block']['dense_layer']['kernel']"}, tensor<768xf32> {jax.result_info = "result[0].opt_state[1][0].mu['encoder']['params']['encoder_block']['layer_sequence']['layers_9']['attention_block']['layer_norm']['bias']"}, tensor<768xf32> {jax.result_info = "result[0].opt_state[1][0].mu['encoder']['params']['encoder_block']['layer_sequence']['layers_9']['attention_block']['layer_norm']['scale']"}, tensor<768xf32> {jax.result_info = "result[0].opt_state[1][0].mu['encoder']['params']['encoder_block']['layer_sequence']['layers_9']['mlp_block']['dense_layer']['bias']"}, tensor<3072x768xf32> {jax.result_info = "result[0].opt_state[1][0].mu['encoder']['params']['encoder_block']['layer_sequence']['layers_9']['mlp_block']['dense_layer']['kernel']"}, tensor<768xf32> {jax.result_info = "result[0].opt_state[1][0].mu['encoder']['params']['encoder_block']['layer_sequence']['layers_9']['mlp_block']['layer_norm']['bias']"}, tensor<768xf32> {jax.result_info = "result[0].opt_state[1][0].mu['encoder']['params']['encoder_block']['layer_sequence']['layers_9']['mlp_block']['layer_norm']['scale']"}, tensor<3072xf32> {jax.result_info = "result[0].opt_state[1][0].mu['encoder']['params']['encoder_block']['layer_sequence']['layers_9']['mlp_block']['mlp']['dense_layer']['bias']"}, tensor<768x3072xf32> {jax.result_info = "result[0].opt_state[1][0].mu['encoder']['params']['encoder_block']['layer_sequence']['layers_9']['mlp_block']['mlp']['dense_layer']['kernel']"}, tensor<768xf32> {jax.result_info = "result[0].opt_state[1][0].mu['encoder']['params']['layer_norm']['bias']"}, tensor<768xf32> {jax.result_info = "result[0].opt_state[1][0].mu['encoder']['params']['layer_norm']['scale']"}, tensor<30522xf32> {jax.result_info = "result[0].opt_state[1][0].mu['mlm_head']['params']['bias']"}, tensor<768xf32> {jax.result_info = "result[0].opt_state[1][0].mu['mlm_head']['params']['dense']['bias']"}, tensor<768x768xf32> {jax.result_info = "result[0].opt_state[1][0].mu['mlm_head']['params']['dense']['kernel']"}, tensor<30522x768xf32> {jax.result_info = "result[0].opt_state[1][0].mu['mlm_head']['params']['encoder']['embedder']['embedders_token_ids']['embedding']"}, tensor<768xf32> {jax.result_info = "result[0].opt_state[1][0].mu['mlm_head']['params']['layer_norm']['bias']"}, tensor<768xf32> {jax.result_info = "result[0].opt_state[1][0].mu['mlm_head']['params']['layer_norm']['scale']"}, tensor<512x768xf32> {jax.result_info = "result[0].opt_state[1][0].nu['encoder']['params']['embedder']['embedders_position_ids']['embedding']"}, tensor<2x768xf32> {jax.result_info = "result[0].opt_state[1][0].nu['encoder']['params']['embedder']['embedders_segment_ids']['embedding']"}, tensor<30522x768xf32> {jax.result_info = "result[0].opt_state[1][0].nu['encoder']['params']['embedder']['embedders_token_ids']['embedding']"}, tensor<768xf32> {jax.result_info = "result[0].opt_state[1][0].nu['encoder']['params']['encoder_block']['layer_sequence']['layers_0']['attention_block']['attention_layer']['key']['bias']"}, tensor<768x768xf32> {jax.result_info = "result[0].opt_state[1][0].nu['encoder']['params']['encoder_block']['layer_sequence']['layers_0']['attention_block']['attention_layer']['key']['kernel']"}, tensor<768xf32> {jax.result_info = "result[0].opt_state[1][0].nu['encoder']['params']['encoder_block']['layer_sequence']['layers_0']['attention_block']['attention_layer']['query']['bias']"}, tensor<768x768xf32> {jax.result_info = "result[0].opt_state[1][0].nu['encoder']['params']['encoder_block']['layer_sequence']['layers_0']['attention_block']['attention_layer']['query']['kernel']"}, tensor<768xf32> {jax.result_info = "result[0].opt_state[1][0].nu['encoder']['params']['encoder_block']['layer_sequence']['layers_0']['attention_block']['attention_layer']['value']['bias']"}, tensor<768x768xf32> {jax.result_info = "result[0].opt_state[1][0].nu['encoder']['params']['encoder_block']['layer_sequence']['layers_0']['attention_block']['attention_layer']['value']['kernel']"}, tensor<768xf32> {jax.result_info = "result[0].opt_state[1][0].nu['encoder']['params']['encoder_block']['layer_sequence']['layers_0']['attention_block']['dense_layer']['bias']"}, tensor<768x768xf32> {jax.result_info = "result[0].opt_state[1][0].nu['encoder']['params']['encoder_block']['layer_sequence']['layers_0']['attention_block']['dense_layer']['kernel']"}, tensor<768xf32> {jax.result_info = "result[0].opt_state[1][0].nu['encoder']['params']['encoder_block']['layer_sequence']['layers_0']['attention_block']['layer_norm']['bias']"}, tensor<768xf32> {jax.result_info = "result[0].opt_state[1][0].nu['encoder']['params']['encoder_block']['layer_sequence']['layers_0']['attention_block']['layer_norm']['scale']"}, tensor<768xf32> {jax.result_info = "result[0].opt_state[1][0].nu['encoder']['params']['encoder_block']['layer_sequence']['layers_0']['mlp_block']['dense_layer']['bias']"}, tensor<3072x768xf32> {jax.result_info = "result[0].opt_state[1][0].nu['encoder']['params']['encoder_block']['layer_sequence']['layers_0']['mlp_block']['dense_layer']['kernel']"}, tensor<768xf32> {jax.result_info = "result[0].opt_state[1][0].nu['encoder']['params']['encoder_block']['layer_sequence']['layers_0']['mlp_block']['layer_norm']['bias']"}, tensor<768xf32> {jax.result_info = "result[0].opt_state[1][0].nu['encoder']['params']['encoder_block']['layer_sequence']['layers_0']['mlp_block']['layer_norm']['scale']"}, tensor<3072xf32> {jax.result_info = "result[0].opt_state[1][0].nu['encoder']['params']['encoder_block']['layer_sequence']['layers_0']['mlp_block']['mlp']['dense_layer']['bias']"}, tensor<768x3072xf32> {jax.result_info = "result[0].opt_state[1][0].nu['encoder']['params']['encoder_block']['layer_sequence']['layers_0']['mlp_block']['mlp']['dense_layer']['kernel']"}, tensor<768xf32> {jax.result_info = "result[0].opt_state[1][0].nu['encoder']['params']['encoder_block']['layer_sequence']['layers_1']['attention_block']['attention_layer']['key']['bias']"}, tensor<768x768xf32> {jax.result_info = "result[0].opt_state[1][0].nu['encoder']['params']['encoder_block']['layer_sequence']['layers_1']['attention_block']['attention_layer']['key']['kernel']"}, tensor<768xf32> {jax.result_info = "result[0].opt_state[1][0].nu['encoder']['params']['encoder_block']['layer_sequence']['layers_1']['attention_block']['attention_layer']['query']['bias']"}, tensor<768x768xf32> {jax.result_info = "result[0].opt_state[1][0].nu['encoder']['params']['encoder_block']['layer_sequence']['layers_1']['attention_block']['attention_layer']['query']['kernel']"}, tensor<768xf32> {jax.result_info = "result[0].opt_state[1][0].nu['encoder']['params']['encoder_block']['layer_sequence']['layers_1']['attention_block']['attention_layer']['value']['bias']"}, tensor<768x768xf32> {jax.result_info = "result[0].opt_state[1][0].nu['encoder']['params']['encoder_block']['layer_sequence']['layers_1']['attention_block']['attention_layer']['value']['kernel']"}, tensor<768xf32> {jax.result_info = "result[0].opt_state[1][0].nu['encoder']['params']['encoder_block']['layer_sequence']['layers_1']['attention_block']['dense_layer']['bias']"}, tensor<768x768xf32> {jax.result_info = "result[0].opt_state[1][0].nu['encoder']['params']['encoder_block']['layer_sequence']['layers_1']['attention_block']['dense_layer']['kernel']"}, tensor<768xf32> {jax.result_info = "result[0].opt_state[1][0].nu['encoder']['params']['encoder_block']['layer_sequence']['layers_1']['attention_block']['layer_norm']['bias']"}, tensor<768xf32> {jax.result_info = "result[0].opt_state[1][0].nu['encoder']['params']['encoder_block']['layer_sequence']['layers_1']['attention_block']['layer_norm']['scale']"}, tensor<768xf32> {jax.result_info = "result[0].opt_state[1][0].nu['encoder']['params']['encoder_block']['layer_sequence']['layers_1']['mlp_block']['dense_layer']['bias']"}, tensor<3072x768xf32> {jax.result_info = "result[0].opt_state[1][0].nu['encoder']['params']['encoder_block']['layer_sequence']['layers_1']['mlp_block']['dense_layer']['kernel']"}, tensor<768xf32> {jax.result_info = "result[0].opt_state[1][0].nu['encoder']['params']['encoder_block']['layer_sequence']['layers_1']['mlp_block']['layer_norm']['bias']"}, tensor<768xf32> {jax.result_info = "result[0].opt_state[1][0].nu['encoder']['params']['encoder_block']['layer_sequence']['layers_1']['mlp_block']['layer_norm']['scale']"}, tensor<3072xf32> {jax.result_info = "result[0].opt_state[1][0].nu['encoder']['params']['encoder_block']['layer_sequence']['layers_1']['mlp_block']['mlp']['dense_layer']['bias']"}, tensor<768x3072xf32> {jax.result_info = "result[0].opt_state[1][0].nu['encoder']['params']['encoder_block']['layer_sequence']['layers_1']['mlp_block']['mlp']['dense_layer']['kernel']"}, tensor<768xf32> {jax.result_info = "result[0].opt_state[1][0].nu['encoder']['params']['encoder_block']['layer_sequence']['layers_10']['attention_block']['attention_layer']['key']['bias']"}, tensor<768x768xf32> {jax.result_info = "result[0].opt_state[1][0].nu['encoder']['params']['encoder_block']['layer_sequence']['layers_10']['attention_block']['attention_layer']['key']['kernel']"}, tensor<768xf32> {jax.result_info = "result[0].opt_state[1][0].nu['encoder']['params']['encoder_block']['layer_sequence']['layers_10']['attention_block']['attention_layer']['query']['bias']"}, tensor<768x768xf32> {jax.result_info = "result[0].opt_state[1][0].nu['encoder']['params']['encoder_block']['layer_sequence']['layers_10']['attention_block']['attention_layer']['query']['kernel']"}, tensor<768xf32> {jax.result_info = "result[0].opt_state[1][0].nu['encoder']['params']['encoder_block']['layer_sequence']['layers_10']['attention_block']['attention_layer']['value']['bias']"}, tensor<768x768xf32> {jax.result_info = "result[0].opt_state[1][0].nu['encoder']['params']['encoder_block']['layer_sequence']['layers_10']['attention_block']['attention_layer']['value']['kernel']"}, tensor<768xf32> {jax.result_info = "result[0].opt_state[1][0].nu['encoder']['params']['encoder_block']['layer_sequence']['layers_10']['attention_block']['dense_layer']['bias']"}, tensor<768x768xf32> {jax.result_info = "result[0].opt_state[1][0].nu['encoder']['params']['encoder_block']['layer_sequence']['layers_10']['attention_block']['dense_layer']['kernel']"}, tensor<768xf32> {jax.result_info = "result[0].opt_state[1][0].nu['encoder']['params']['encoder_block']['layer_sequence']['layers_10']['attention_block']['layer_norm']['bias']"}, tensor<768xf32> {jax.result_info = "result[0].opt_state[1][0].nu['encoder']['params']['encoder_block']['layer_sequence']['layers_10']['attention_block']['layer_norm']['scale']"}, tensor<768xf32> {jax.result_info = "result[0].opt_state[1][0].nu['encoder']['params']['encoder_block']['layer_sequence']['layers_10']['mlp_block']['dense_layer']['bias']"}, tensor<3072x768xf32> {jax.result_info = "result[0].opt_state[1][0].nu['encoder']['params']['encoder_block']['layer_sequence']['layers_10']['mlp_block']['dense_layer']['kernel']"}, tensor<768xf32> {jax.result_info = "result[0].opt_state[1][0].nu['encoder']['params']['encoder_block']['layer_sequence']['layers_10']['mlp_block']['layer_norm']['bias']"}, tensor<768xf32> {jax.result_info = "result[0].opt_state[1][0].nu['encoder']['params']['encoder_block']['layer_sequence']['layers_10']['mlp_block']['layer_norm']['scale']"}, tensor<3072xf32> {jax.result_info = "result[0].opt_state[1][0].nu['encoder']['params']['encoder_block']['layer_sequence']['layers_10']['mlp_block']['mlp']['dense_layer']['bias']"}, tensor<768x3072xf32> {jax.result_info = "result[0].opt_state[1][0].nu['encoder']['params']['encoder_block']['layer_sequence']['layers_10']['mlp_block']['mlp']['dense_layer']['kernel']"}, tensor<768xf32> {jax.result_info = "result[0].opt_state[1][0].nu['encoder']['params']['encoder_block']['layer_sequence']['layers_11']['attention_block']['attention_layer']['key']['bias']"}, tensor<768x768xf32> {jax.result_info = "result[0].opt_state[1][0].nu['encoder']['params']['encoder_block']['layer_sequence']['layers_11']['attention_block']['attention_layer']['key']['kernel']"}, tensor<768xf32> {jax.result_info = "result[0].opt_state[1][0].nu['encoder']['params']['encoder_block']['layer_sequence']['layers_11']['attention_block']['attention_layer']['query']['bias']"}, tensor<768x768xf32> {jax.result_info = "result[0].opt_state[1][0].nu['encoder']['params']['encoder_block']['layer_sequence']['layers_11']['attention_block']['attention_layer']['query']['kernel']"}, tensor<768xf32> {jax.result_info = "result[0].opt_state[1][0].nu['encoder']['params']['encoder_block']['layer_sequence']['layers_11']['attention_block']['attention_layer']['value']['bias']"}, tensor<768x768xf32> {jax.result_info = "result[0].opt_state[1][0].nu['encoder']['params']['encoder_block']['layer_sequence']['layers_11']['attention_block']['attention_layer']['value']['kernel']"}, tensor<768xf32> {jax.result_info = "result[0].opt_state[1][0].nu['encoder']['params']['encoder_block']['layer_sequence']['layers_11']['attention_block']['dense_layer']['bias']"}, tensor<768x768xf32> {jax.result_info = "result[0].opt_state[1][0].nu['encoder']['params']['encoder_block']['layer_sequence']['layers_11']['attention_block']['dense_layer']['kernel']"}, tensor<768xf32> {jax.result_info = "result[0].opt_state[1][0].nu['encoder']['params']['encoder_block']['layer_sequence']['layers_11']['attention_block']['layer_norm']['bias']"}, tensor<768xf32> {jax.result_info = "result[0].opt_state[1][0].nu['encoder']['params']['encoder_block']['layer_sequence']['layers_11']['attention_block']['layer_norm']['scale']"}, tensor<768xf32> {jax.result_info = "result[0].opt_state[1][0].nu['encoder']['params']['encoder_block']['layer_sequence']['layers_11']['mlp_block']['dense_layer']['bias']"}, tensor<3072x768xf32> {jax.result_info = "result[0].opt_state[1][0].nu['encoder']['params']['encoder_block']['layer_sequence']['layers_11']['mlp_block']['dense_layer']['kernel']"}, tensor<768xf32> {jax.result_info = "result[0].opt_state[1][0].nu['encoder']['params']['encoder_block']['layer_sequence']['layers_11']['mlp_block']['layer_norm']['bias']"}, tensor<768xf32> {jax.result_info = "result[0].opt_state[1][0].nu['encoder']['params']['encoder_block']['layer_sequence']['layers_11']['mlp_block']['layer_norm']['scale']"}, tensor<3072xf32> {jax.result_info = "result[0].opt_state[1][0].nu['encoder']['params']['encoder_block']['layer_sequence']['layers_11']['mlp_block']['mlp']['dense_layer']['bias']"}, tensor<768x3072xf32> {jax.result_info = "result[0].opt_state[1][0].nu['encoder']['params']['encoder_block']['layer_sequence']['layers_11']['mlp_block']['mlp']['dense_layer']['kernel']"}, tensor<768xf32> {jax.result_info = "result[0].opt_state[1][0].nu['encoder']['params']['encoder_block']['layer_sequence']['layers_2']['attention_block']['attention_layer']['key']['bias']"}, tensor<768x768xf32> {jax.result_info = "result[0].opt_state[1][0].nu['encoder']['params']['encoder_block']['layer_sequence']['layers_2']['attention_block']['attention_layer']['key']['kernel']"}, tensor<768xf32> {jax.result_info = "result[0].opt_state[1][0].nu['encoder']['params']['encoder_block']['layer_sequence']['layers_2']['attention_block']['attention_layer']['query']['bias']"}, tensor<768x768xf32> {jax.result_info = "result[0].opt_state[1][0].nu['encoder']['params']['encoder_block']['layer_sequence']['layers_2']['attention_block']['attention_layer']['query']['kernel']"}, tensor<768xf32> {jax.result_info = "result[0].opt_state[1][0].nu['encoder']['params']['encoder_block']['layer_sequence']['layers_2']['attention_block']['attention_layer']['value']['bias']"}, tensor<768x768xf32> {jax.result_info = "result[0].opt_state[1][0].nu['encoder']['params']['encoder_block']['layer_sequence']['layers_2']['attention_block']['attention_layer']['value']['kernel']"}, tensor<768xf32> {jax.result_info = "result[0].opt_state[1][0].nu['encoder']['params']['encoder_block']['layer_sequence']['layers_2']['attention_block']['dense_layer']['bias']"}, tensor<768x768xf32> {jax.result_info = "result[0].opt_state[1][0].nu['encoder']['params']['encoder_block']['layer_sequence']['layers_2']['attention_block']['dense_layer']['kernel']"}, tensor<768xf32> {jax.result_info = "result[0].opt_state[1][0].nu['encoder']['params']['encoder_block']['layer_sequence']['layers_2']['attention_block']['layer_norm']['bias']"}, tensor<768xf32> {jax.result_info = "result[0].opt_state[1][0].nu['encoder']['params']['encoder_block']['layer_sequence']['layers_2']['attention_block']['layer_norm']['scale']"}, tensor<768xf32> {jax.result_info = "result[0].opt_state[1][0].nu['encoder']['params']['encoder_block']['layer_sequence']['layers_2']['mlp_block']['dense_layer']['bias']"}, tensor<3072x768xf32> {jax.result_info = "result[0].opt_state[1][0].nu['encoder']['params']['encoder_block']['layer_sequence']['layers_2']['mlp_block']['dense_layer']['kernel']"}, tensor<768xf32> {jax.result_info = "result[0].opt_state[1][0].nu['encoder']['params']['encoder_block']['layer_sequence']['layers_2']['mlp_block']['layer_norm']['bias']"}, tensor<768xf32> {jax.result_info = "result[0].opt_state[1][0].nu['encoder']['params']['encoder_block']['layer_sequence']['layers_2']['mlp_block']['layer_norm']['scale']"}, tensor<3072xf32> {jax.result_info = "result[0].opt_state[1][0].nu['encoder']['params']['encoder_block']['layer_sequence']['layers_2']['mlp_block']['mlp']['dense_layer']['bias']"}, tensor<768x3072xf32> {jax.result_info = "result[0].opt_state[1][0].nu['encoder']['params']['encoder_block']['layer_sequence']['layers_2']['mlp_block']['mlp']['dense_layer']['kernel']"}, tensor<768xf32> {jax.result_info = "result[0].opt_state[1][0].nu['encoder']['params']['encoder_block']['layer_sequence']['layers_3']['attention_block']['attention_layer']['key']['bias']"}, tensor<768x768xf32> {jax.result_info = "result[0].opt_state[1][0].nu['encoder']['params']['encoder_block']['layer_sequence']['layers_3']['attention_block']['attention_layer']['key']['kernel']"}, tensor<768xf32> {jax.result_info = "result[0].opt_state[1][0].nu['encoder']['params']['encoder_block']['layer_sequence']['layers_3']['attention_block']['attention_layer']['query']['bias']"}, tensor<768x768xf32> {jax.result_info = "result[0].opt_state[1][0].nu['encoder']['params']['encoder_block']['layer_sequence']['layers_3']['attention_block']['attention_layer']['query']['kernel']"}, tensor<768xf32> {jax.result_info = "result[0].opt_state[1][0].nu['encoder']['params']['encoder_block']['layer_sequence']['layers_3']['attention_block']['attention_layer']['value']['bias']"}, tensor<768x768xf32> {jax.result_info = "result[0].opt_state[1][0].nu['encoder']['params']['encoder_block']['layer_sequence']['layers_3']['attention_block']['attention_layer']['value']['kernel']"}, tensor<768xf32> {jax.result_info = "result[0].opt_state[1][0].nu['encoder']['params']['encoder_block']['layer_sequence']['layers_3']['attention_block']['dense_layer']['bias']"}, tensor<768x768xf32> {jax.result_info = "result[0].opt_state[1][0].nu['encoder']['params']['encoder_block']['layer_sequence']['layers_3']['attention_block']['dense_layer']['kernel']"}, tensor<768xf32> {jax.result_info = "result[0].opt_state[1][0].nu['encoder']['params']['encoder_block']['layer_sequence']['layers_3']['attention_block']['layer_norm']['bias']"}, tensor<768xf32> {jax.result_info = "result[0].opt_state[1][0].nu['encoder']['params']['encoder_block']['layer_sequence']['layers_3']['attention_block']['layer_norm']['scale']"}, tensor<768xf32> {jax.result_info = "result[0].opt_state[1][0].nu['encoder']['params']['encoder_block']['layer_sequence']['layers_3']['mlp_block']['dense_layer']['bias']"}, tensor<3072x768xf32> {jax.result_info = "result[0].opt_state[1][0].nu['encoder']['params']['encoder_block']['layer_sequence']['layers_3']['mlp_block']['dense_layer']['kernel']"}, tensor<768xf32> {jax.result_info = "result[0].opt_state[1][0].nu['encoder']['params']['encoder_block']['layer_sequence']['layers_3']['mlp_block']['layer_norm']['bias']"}, tensor<768xf32> {jax.result_info = "result[0].opt_state[1][0].nu['encoder']['params']['encoder_block']['layer_sequence']['layers_3']['mlp_block']['layer_norm']['scale']"}, tensor<3072xf32> {jax.result_info = "result[0].opt_state[1][0].nu['encoder']['params']['encoder_block']['layer_sequence']['layers_3']['mlp_block']['mlp']['dense_layer']['bias']"}, tensor<768x3072xf32> {jax.result_info = "result[0].opt_state[1][0].nu['encoder']['params']['encoder_block']['layer_sequence']['layers_3']['mlp_block']['mlp']['dense_layer']['kernel']"}, tensor<768xf32> {jax.result_info = "result[0].opt_state[1][0].nu['encoder']['params']['encoder_block']['layer_sequence']['layers_4']['attention_block']['attention_layer']['key']['bias']"}, tensor<768x768xf32> {jax.result_info = "result[0].opt_state[1][0].nu['encoder']['params']['encoder_block']['layer_sequence']['layers_4']['attention_block']['attention_layer']['key']['kernel']"}, tensor<768xf32> {jax.result_info = "result[0].opt_state[1][0].nu['encoder']['params']['encoder_block']['layer_sequence']['layers_4']['attention_block']['attention_layer']['query']['bias']"}, tensor<768x768xf32> {jax.result_info = "result[0].opt_state[1][0].nu['encoder']['params']['encoder_block']['layer_sequence']['layers_4']['attention_block']['attention_layer']['query']['kernel']"}, tensor<768xf32> {jax.result_info = "result[0].opt_state[1][0].nu['encoder']['params']['encoder_block']['layer_sequence']['layers_4']['attention_block']['attention_layer']['value']['bias']"}, tensor<768x768xf32> {jax.result_info = "result[0].opt_state[1][0].nu['encoder']['params']['encoder_block']['layer_sequence']['layers_4']['attention_block']['attention_layer']['value']['kernel']"}, tensor<768xf32> {jax.result_info = "result[0].opt_state[1][0].nu['encoder']['params']['encoder_block']['layer_sequence']['layers_4']['attention_block']['dense_layer']['bias']"}, tensor<768x768xf32> {jax.result_info = "result[0].opt_state[1][0].nu['encoder']['params']['encoder_block']['layer_sequence']['layers_4']['attention_block']['dense_layer']['kernel']"}, tensor<768xf32> {jax.result_info = "result[0].opt_state[1][0].nu['encoder']['params']['encoder_block']['layer_sequence']['layers_4']['attention_block']['layer_norm']['bias']"}, tensor<768xf32> {jax.result_info = "result[0].opt_state[1][0].nu['encoder']['params']['encoder_block']['layer_sequence']['layers_4']['attention_block']['layer_norm']['scale']"}, tensor<768xf32> {jax.result_info = "result[0].opt_state[1][0].nu['encoder']['params']['encoder_block']['layer_sequence']['layers_4']['mlp_block']['dense_layer']['bias']"}, tensor<3072x768xf32> {jax.result_info = "result[0].opt_state[1][0].nu['encoder']['params']['encoder_block']['layer_sequence']['layers_4']['mlp_block']['dense_layer']['kernel']"}, tensor<768xf32> {jax.result_info = "result[0].opt_state[1][0].nu['encoder']['params']['encoder_block']['layer_sequence']['layers_4']['mlp_block']['layer_norm']['bias']"}, tensor<768xf32> {jax.result_info = "result[0].opt_state[1][0].nu['encoder']['params']['encoder_block']['layer_sequence']['layers_4']['mlp_block']['layer_norm']['scale']"}, tensor<3072xf32> {jax.result_info = "result[0].opt_state[1][0].nu['encoder']['params']['encoder_block']['layer_sequence']['layers_4']['mlp_block']['mlp']['dense_layer']['bias']"}, tensor<768x3072xf32> {jax.result_info = "result[0].opt_state[1][0].nu['encoder']['params']['encoder_block']['layer_sequence']['layers_4']['mlp_block']['mlp']['dense_layer']['kernel']"}, tensor<768xf32> {jax.result_info = "result[0].opt_state[1][0].nu['encoder']['params']['encoder_block']['layer_sequence']['layers_5']['attention_block']['attention_layer']['key']['bias']"}, tensor<768x768xf32> {jax.result_info = "result[0].opt_state[1][0].nu['encoder']['params']['encoder_block']['layer_sequence']['layers_5']['attention_block']['attention_layer']['key']['kernel']"}, tensor<768xf32> {jax.result_info = "result[0].opt_state[1][0].nu['encoder']['params']['encoder_block']['layer_sequence']['layers_5']['attention_block']['attention_layer']['query']['bias']"}, tensor<768x768xf32> {jax.result_info = "result[0].opt_state[1][0].nu['encoder']['params']['encoder_block']['layer_sequence']['layers_5']['attention_block']['attention_layer']['query']['kernel']"}, tensor<768xf32> {jax.result_info = "result[0].opt_state[1][0].nu['encoder']['params']['encoder_block']['layer_sequence']['layers_5']['attention_block']['attention_layer']['value']['bias']"}, tensor<768x768xf32> {jax.result_info = "result[0].opt_state[1][0].nu['encoder']['params']['encoder_block']['layer_sequence']['layers_5']['attention_block']['attention_layer']['value']['kernel']"}, tensor<768xf32> {jax.result_info = "result[0].opt_state[1][0].nu['encoder']['params']['encoder_block']['layer_sequence']['layers_5']['attention_block']['dense_layer']['bias']"}, tensor<768x768xf32> {jax.result_info = "result[0].opt_state[1][0].nu['encoder']['params']['encoder_block']['layer_sequence']['layers_5']['attention_block']['dense_layer']['kernel']"}, tensor<768xf32> {jax.result_info = "result[0].opt_state[1][0].nu['encoder']['params']['encoder_block']['layer_sequence']['layers_5']['attention_block']['layer_norm']['bias']"}, tensor<768xf32> {jax.result_info = "result[0].opt_state[1][0].nu['encoder']['params']['encoder_block']['layer_sequence']['layers_5']['attention_block']['layer_norm']['scale']"}, tensor<768xf32> {jax.result_info = "result[0].opt_state[1][0].nu['encoder']['params']['encoder_block']['layer_sequence']['layers_5']['mlp_block']['dense_layer']['bias']"}, tensor<3072x768xf32> {jax.result_info = "result[0].opt_state[1][0].nu['encoder']['params']['encoder_block']['layer_sequence']['layers_5']['mlp_block']['dense_layer']['kernel']"}, tensor<768xf32> {jax.result_info = "result[0].opt_state[1][0].nu['encoder']['params']['encoder_block']['layer_sequence']['layers_5']['mlp_block']['layer_norm']['bias']"}, tensor<768xf32> {jax.result_info = "result[0].opt_state[1][0].nu['encoder']['params']['encoder_block']['layer_sequence']['layers_5']['mlp_block']['layer_norm']['scale']"}, tensor<3072xf32> {jax.result_info = "result[0].opt_state[1][0].nu['encoder']['params']['encoder_block']['layer_sequence']['layers_5']['mlp_block']['mlp']['dense_layer']['bias']"}, tensor<768x3072xf32> {jax.result_info = "result[0].opt_state[1][0].nu['encoder']['params']['encoder_block']['layer_sequence']['layers_5']['mlp_block']['mlp']['dense_layer']['kernel']"}, tensor<768xf32> {jax.result_info = "result[0].opt_state[1][0].nu['encoder']['params']['encoder_block']['layer_sequence']['layers_6']['attention_block']['attention_layer']['key']['bias']"}, tensor<768x768xf32> {jax.result_info = "result[0].opt_state[1][0].nu['encoder']['params']['encoder_block']['layer_sequence']['layers_6']['attention_block']['attention_layer']['key']['kernel']"}, tensor<768xf32> {jax.result_info = "result[0].opt_state[1][0].nu['encoder']['params']['encoder_block']['layer_sequence']['layers_6']['attention_block']['attention_layer']['query']['bias']"}, tensor<768x768xf32> {jax.result_info = "result[0].opt_state[1][0].nu['encoder']['params']['encoder_block']['layer_sequence']['layers_6']['attention_block']['attention_layer']['query']['kernel']"}, tensor<768xf32> {jax.result_info = "result[0].opt_state[1][0].nu['encoder']['params']['encoder_block']['layer_sequence']['layers_6']['attention_block']['attention_layer']['value']['bias']"}, tensor<768x768xf32> {jax.result_info = "result[0].opt_state[1][0].nu['encoder']['params']['encoder_block']['layer_sequence']['layers_6']['attention_block']['attention_layer']['value']['kernel']"}, tensor<768xf32> {jax.result_info = "result[0].opt_state[1][0].nu['encoder']['params']['encoder_block']['layer_sequence']['layers_6']['attention_block']['dense_layer']['bias']"}, tensor<768x768xf32> {jax.result_info = "result[0].opt_state[1][0].nu['encoder']['params']['encoder_block']['layer_sequence']['layers_6']['attention_block']['dense_layer']['kernel']"}, tensor<768xf32> {jax.result_info = "result[0].opt_state[1][0].nu['encoder']['params']['encoder_block']['layer_sequence']['layers_6']['attention_block']['layer_norm']['bias']"}, tensor<768xf32> {jax.result_info = "result[0].opt_state[1][0].nu['encoder']['params']['encoder_block']['layer_sequence']['layers_6']['attention_block']['layer_norm']['scale']"}, tensor<768xf32> {jax.result_info = "result[0].opt_state[1][0].nu['encoder']['params']['encoder_block']['layer_sequence']['layers_6']['mlp_block']['dense_layer']['bias']"}, tensor<3072x768xf32> {jax.result_info = "result[0].opt_state[1][0].nu['encoder']['params']['encoder_block']['layer_sequence']['layers_6']['mlp_block']['dense_layer']['kernel']"}, tensor<768xf32> {jax.result_info = "result[0].opt_state[1][0].nu['encoder']['params']['encoder_block']['layer_sequence']['layers_6']['mlp_block']['layer_norm']['bias']"}, tensor<768xf32> {jax.result_info = "result[0].opt_state[1][0].nu['encoder']['params']['encoder_block']['layer_sequence']['layers_6']['mlp_block']['layer_norm']['scale']"}, tensor<3072xf32> {jax.result_info = "result[0].opt_state[1][0].nu['encoder']['params']['encoder_block']['layer_sequence']['layers_6']['mlp_block']['mlp']['dense_layer']['bias']"}, tensor<768x3072xf32> {jax.result_info = "result[0].opt_state[1][0].nu['encoder']['params']['encoder_block']['layer_sequence']['layers_6']['mlp_block']['mlp']['dense_layer']['kernel']"}, tensor<768xf32> {jax.result_info = "result[0].opt_state[1][0].nu['encoder']['params']['encoder_block']['layer_sequence']['layers_7']['attention_block']['attention_layer']['key']['bias']"}, tensor<768x768xf32> {jax.result_info = "result[0].opt_state[1][0].nu['encoder']['params']['encoder_block']['layer_sequence']['layers_7']['attention_block']['attention_layer']['key']['kernel']"}, tensor<768xf32> {jax.result_info = "result[0].opt_state[1][0].nu['encoder']['params']['encoder_block']['layer_sequence']['layers_7']['attention_block']['attention_layer']['query']['bias']"}, tensor<768x768xf32> {jax.result_info = "result[0].opt_state[1][0].nu['encoder']['params']['encoder_block']['layer_sequence']['layers_7']['attention_block']['attention_layer']['query']['kernel']"}, tensor<768xf32> {jax.result_info = "result[0].opt_state[1][0].nu['encoder']['params']['encoder_block']['layer_sequence']['layers_7']['attention_block']['attention_layer']['value']['bias']"}, tensor<768x768xf32> {jax.result_info = "result[0].opt_state[1][0].nu['encoder']['params']['encoder_block']['layer_sequence']['layers_7']['attention_block']['attention_layer']['value']['kernel']"}, tensor<768xf32> {jax.result_info = "result[0].opt_state[1][0].nu['encoder']['params']['encoder_block']['layer_sequence']['layers_7']['attention_block']['dense_layer']['bias']"}, tensor<768x768xf32> {jax.result_info = "result[0].opt_state[1][0].nu['encoder']['params']['encoder_block']['layer_sequence']['layers_7']['attention_block']['dense_layer']['kernel']"}, tensor<768xf32> {jax.result_info = "result[0].opt_state[1][0].nu['encoder']['params']['encoder_block']['layer_sequence']['layers_7']['attention_block']['layer_norm']['bias']"}, tensor<768xf32> {jax.result_info = "result[0].opt_state[1][0].nu['encoder']['params']['encoder_block']['layer_sequence']['layers_7']['attention_block']['layer_norm']['scale']"}, tensor<768xf32> {jax.result_info = "result[0].opt_state[1][0].nu['encoder']['params']['encoder_block']['layer_sequence']['layers_7']['mlp_block']['dense_layer']['bias']"}, tensor<3072x768xf32> {jax.result_info = "result[0].opt_state[1][0].nu['encoder']['params']['encoder_block']['layer_sequence']['layers_7']['mlp_block']['dense_layer']['kernel']"}, tensor<768xf32> {jax.result_info = "result[0].opt_state[1][0].nu['encoder']['params']['encoder_block']['layer_sequence']['layers_7']['mlp_block']['layer_norm']['bias']"}, tensor<768xf32> {jax.result_info = "result[0].opt_state[1][0].nu['encoder']['params']['encoder_block']['layer_sequence']['layers_7']['mlp_block']['layer_norm']['scale']"}, tensor<3072xf32> {jax.result_info = "result[0].opt_state[1][0].nu['encoder']['params']['encoder_block']['layer_sequence']['layers_7']['mlp_block']['mlp']['dense_layer']['bias']"}, tensor<768x3072xf32> {jax.result_info = "result[0].opt_state[1][0].nu['encoder']['params']['encoder_block']['layer_sequence']['layers_7']['mlp_block']['mlp']['dense_layer']['kernel']"}, tensor<768xf32> {jax.result_info = "result[0].opt_state[1][0].nu['encoder']['params']['encoder_block']['layer_sequence']['layers_8']['attention_block']['attention_layer']['key']['bias']"}, tensor<768x768xf32> {jax.result_info = "result[0].opt_state[1][0].nu['encoder']['params']['encoder_block']['layer_sequence']['layers_8']['attention_block']['attention_layer']['key']['kernel']"}, tensor<768xf32> {jax.result_info = "result[0].opt_state[1][0].nu['encoder']['params']['encoder_block']['layer_sequence']['layers_8']['attention_block']['attention_layer']['query']['bias']"}, tensor<768x768xf32> {jax.result_info = "result[0].opt_state[1][0].nu['encoder']['params']['encoder_block']['layer_sequence']['layers_8']['attention_block']['attention_layer']['query']['kernel']"}, tensor<768xf32> {jax.result_info = "result[0].opt_state[1][0].nu['encoder']['params']['encoder_block']['layer_sequence']['layers_8']['attention_block']['attention_layer']['value']['bias']"}, tensor<768x768xf32> {jax.result_info = "result[0].opt_state[1][0].nu['encoder']['params']['encoder_block']['layer_sequence']['layers_8']['attention_block']['attention_layer']['value']['kernel']"}, tensor<768xf32> {jax.result_info = "result[0].opt_state[1][0].nu['encoder']['params']['encoder_block']['layer_sequence']['layers_8']['attention_block']['dense_layer']['bias']"}, tensor<768x768xf32> {jax.result_info = "result[0].opt_state[1][0].nu['encoder']['params']['encoder_block']['layer_sequence']['layers_8']['attention_block']['dense_layer']['kernel']"}, tensor<768xf32> {jax.result_info = "result[0].opt_state[1][0].nu['encoder']['params']['encoder_block']['layer_sequence']['layers_8']['attention_block']['layer_norm']['bias']"}, tensor<768xf32> {jax.result_info = "result[0].opt_state[1][0].nu['encoder']['params']['encoder_block']['layer_sequence']['layers_8']['attention_block']['layer_norm']['scale']"}, tensor<768xf32> {jax.result_info = "result[0].opt_state[1][0].nu['encoder']['params']['encoder_block']['layer_sequence']['layers_8']['mlp_block']['dense_layer']['bias']"}, tensor<3072x768xf32> {jax.result_info = "result[0].opt_state[1][0].nu['encoder']['params']['encoder_block']['layer_sequence']['layers_8']['mlp_block']['dense_layer']['kernel']"}, tensor<768xf32> {jax.result_info = "result[0].opt_state[1][0].nu['encoder']['params']['encoder_block']['layer_sequence']['layers_8']['mlp_block']['layer_norm']['bias']"}, tensor<768xf32> {jax.result_info = "result[0].opt_state[1][0].nu['encoder']['params']['encoder_block']['layer_sequence']['layers_8']['mlp_block']['layer_norm']['scale']"}, tensor<3072xf32> {jax.result_info = "result[0].opt_state[1][0].nu['encoder']['params']['encoder_block']['layer_sequence']['layers_8']['mlp_block']['mlp']['dense_layer']['bias']"}, tensor<768x3072xf32> {jax.result_info = "result[0].opt_state[1][0].nu['encoder']['params']['encoder_block']['layer_sequence']['layers_8']['mlp_block']['mlp']['dense_layer']['kernel']"}, tensor<768xf32> {jax.result_info = "result[0].opt_state[1][0].nu['encoder']['params']['encoder_block']['layer_sequence']['layers_9']['attention_block']['attention_layer']['key']['bias']"}, tensor<768x768xf32> {jax.result_info = "result[0].opt_state[1][0].nu['encoder']['params']['encoder_block']['layer_sequence']['layers_9']['attention_block']['attention_layer']['key']['kernel']"}, tensor<768xf32> {jax.result_info = "result[0].opt_state[1][0].nu['encoder']['params']['encoder_block']['layer_sequence']['layers_9']['attention_block']['attention_layer']['query']['bias']"}, tensor<768x768xf32> {jax.result_info = "result[0].opt_state[1][0].nu['encoder']['params']['encoder_block']['layer_sequence']['layers_9']['attention_block']['attention_layer']['query']['kernel']"}, tensor<768xf32> {jax.result_info = "result[0].opt_state[1][0].nu['encoder']['params']['encoder_block']['layer_sequence']['layers_9']['attention_block']['attention_layer']['value']['bias']"}, tensor<768x768xf32> {jax.result_info = "result[0].opt_state[1][0].nu['encoder']['params']['encoder_block']['layer_sequence']['layers_9']['attention_block']['attention_layer']['value']['kernel']"}, tensor<768xf32> {jax.result_info = "result[0].opt_state[1][0].nu['encoder']['params']['encoder_block']['layer_sequence']['layers_9']['attention_block']['dense_layer']['bias']"}…
    %11060 = stablehlo.broadcast_in_dim %10833, dims = [] : (tensor<f32>) -> tensor<3072xf32>
    %11061 = stablehlo.multiply %11060, %10544 : tensor<3072xf32>
    %11062 = stablehlo.broadcast_in_dim %10833, dims = [] : (tensor<f32>) -> tensor<768x3072xf32>
    %11063 = stablehlo.multiply %11062, %10547 : tensor<768x3072xf32>
    %11064 = stablehlo.broadcast_in_dim %10833, dims = [] : (tensor<f32>) -> tensor<768xf32>
    %11065 = stablehlo.multiply %11064, %10550 : tensor<768xf32>
    %11066 = stablehlo.broadcast_in_dim %10833, dims = [] : (tensor<f32>) -> tensor<768x768xf32>
    %11067 = stablehlo.multiply %11066, %10553 : tensor<768x768xf32>
    %11068 = stablehlo.broadcast_in_dim %10833, dims = [] : (tensor<f32>) -> tensor<768xf32>
    %11069 = stablehlo.multiply %11068, %10556 : tensor<768xf32>
    %11070 = stablehlo.broadcast_in_dim %10833, dims = [] : (tensor<f32>) -> tensor<768x768xf32>
    %11071 = stablehlo.multiply %11070, %10559 : tensor<768x768xf32>
    %11072 = stablehlo.broadcast_in_dim %10833, dims = [] : (tensor<f32>) -> tensor<768xf32>
    %11073 = stablehlo.multiply %11072, %10562 : tensor<768xf32>
    %11074 = stablehlo.broadcast_in_dim %10833, dims = [] : (tensor<f32>) -> tensor<768x768xf32>
    %11075 = stablehlo.multiply %11074, %10565 : tensor<768x768xf32>
    %11076 = stablehlo.broadcast_in_dim %10833, dims = [] : (tensor<f32>) -> tensor<768xf32>
    %11077 = stablehlo.multiply %11076, %10568 : tensor<768xf32>
    %11078 = stablehlo.broadcast_in_dim %10833, dims = [] : (tensor<f32>) -> tensor<768x768xf32>
    %11079 = stablehlo.multiply %11078, %10571 : tensor<768x768xf32>
    %11080 = stablehlo.broadcast_in_dim %10833, dims = [] : (tensor<f32>) -> tensor<768xf32>
    %11081 = stablehlo.multiply %11080, %10574 : tensor<768xf32>
    %11082 = stablehlo.broadcast_in_dim %10833, dims = [] : (tensor<f32>) -> tensor<768xf32>
    %11083 = stablehlo.multiply %11082, %10577 : tensor<768xf32>
    %11084 = stablehlo.broadcast_in_dim %10833, dims = [] : (tensor<f32>) -> tensor<768xf32>
    %11085 = stablehlo.multiply %11084, %10580 : tensor<768xf32>
    %11086 = stablehlo.broadcast_in_dim %10833, dims = [] : (tensor<f32>) -> tensor<3072x768xf32>
    %11087 = stablehlo.multiply %11086, %10583 : tensor<3072x768xf32>
    %11088 = stablehlo.broadcast_in_dim %10833, dims = [] : (tensor<f32>) -> tensor<768xf32>
    %11089 = stablehlo.multiply %11088, %10586 : tensor<768xf32>
    %11090 = stablehlo.broadcast_in_dim %10833, dims = [] : (tensor<f32>) -> tensor<768xf32>
    %11091 = stablehlo.multiply %11090, %10589 : tensor<768xf32>
    %11092 = stablehlo.broadcast_in_dim %10833, dims = [] : (tensor<f32>) -> tensor<3072xf32>
    %11093 = stablehlo.multiply %11092, %10592 : tensor<3072xf32>
    %11094 = stablehlo.broadcast_in_dim %10833, dims = [] : (tensor<f32>) -> tensor<768x3072xf32>
    %11095 = stablehlo.multiply %11094, %10595 : tensor<768x3072xf32>
    %11096 = stablehlo.broadcast_in_dim %10833, dims = [] : (tensor<f32>) -> tensor<768xf32>
    %11097 = stablehlo.multiply %11096, %10598 : tensor<768xf32>
    %11098 = stablehlo.broadcast_in_dim %10833, dims = [] : (tensor<f32>) -> tensor<768x768xf32>
    %11099 = stablehlo.multiply %11098, %10601 : tensor<768x768xf32>
    %11100 = stablehlo.broadcast_in_dim %10833, dims = [] : (tensor<f32>) -> tensor<768xf32>
    %11101 = stablehlo.multiply %11100, %10604 : tensor<768xf32>
    %11102 = stablehlo.broadcast_in_dim %10833, dims = [] : (tensor<f32>) -> tensor<768x768xf32>
    %11103 = stablehlo.multiply %11102, %10607 : tensor<768x768xf32>
    %11104 = stablehlo.broadcast_in_dim %10833, dims = [] : (tensor<f32>) -> tensor<768xf32>
    %11105 = stablehlo.multiply %11104, %10610 : tensor<768xf32>
    %11106 = stablehlo.broadcast_in_dim %10833, dims = [] : (tensor<f32>) -> tensor<768x768xf32>
    %11107 = stablehlo.multiply %11106, %10613 : tensor<768x768xf32>
    %11108 = stablehlo.broadcast_in_dim %10833, dims = [] : (tensor<f32>) -> tensor<768xf32>
    %11109 = stablehlo.multiply %11108, %10616 : tensor<768xf32>
    %11110 = stablehlo.broadcast_in_dim %10833, dims = [] : (tensor<f32>) -> tensor<768x768xf32>
    %11111 = stablehlo.multiply %11110, %10619 : tensor<768x768xf32>
    %11112 = stablehlo.broadcast_in_dim %10833, dims = [] : (tensor<f32>) -> tensor<768xf32>
    %11113 = stablehlo.multiply %11112, %10622 : tensor<768xf32>
    %11114 = stablehlo.broadcast_in_dim %10833, dims = [] : (tensor<f32>) -> tensor<768xf32>
    %11115 = stablehlo.multiply %11114, %10625 : tensor<768xf32>
    %11116 = stablehlo.broadcast_in_dim %10833, dims = [] : (tensor<f32>) -> tensor<768xf32>
    %11117 = stablehlo.multiply %11116, %10628 : tensor<768xf32>
    %11118 = stablehlo.broadcast_in_dim %10833, dims = [] : (tensor<f32>) -> tensor<3072x768xf32>
    %11119 = stablehlo.multiply %11118, %10631 : tensor<3072x768xf32>
    %11120 = stablehlo.broadcast_in_dim %10833, dims = [] : (tensor<f32>) -> tensor<768xf32>
    %11121 = stablehlo.multiply %11120, %10634 : tensor<768xf32>
    %11122 = stablehlo.broadcast_in_dim %10833, dims = [] : (tensor<f32>) -> tensor<768xf32>
    %11123 = stablehlo.multiply %11122, %10637 : tensor<768xf32>
    %11124 = stablehlo.broadcast_in_dim %10833, dims = [] : (tensor<f32>) -> tensor<3072xf32>
    %11125 = stablehlo.multiply %11124, %10640 : tensor<3072xf32>
    %11126 = stablehlo.broadcast_in_dim %10833, dims = [] : (tensor<f32>) -> tensor<768x3072xf32>
    %11127 = stablehlo.multiply %11126, %10643 : tensor<768x3072xf32>
    %11128 = stablehlo.broadcast_in_dim %10833, dims = [] : (tensor<f32>) -> tensor<768xf32>
    %11129 = stablehlo.multiply %11128, %10646 : tensor<768xf32>
    %11130 = stablehlo.broadcast_in_dim %10833, dims = [] : (tensor<f32>) -> tensor<768x768xf32>
    %11131 = stablehlo.multiply %11130, %10649 : tensor<768x768xf32>
    %11132 = stablehlo.broadcast_in_dim %10833, dims = [] : (tensor<f32>) -> tensor<768xf32>
    %11133 = stablehlo.multiply %11132, %10652 : tensor<768xf32>
    %11134 = stablehlo.broadcast_in_dim %10833, dims = [] : (tensor<f32>) -> tensor<768x768xf32>
    %11135 = stablehlo.multiply %11134, %10655 : tensor<768x768xf32>
    %11136 = stablehlo.broadcast_in_dim %10833, dims = [] : (tensor<f32>) -> tensor<768xf32>
    %11137 = stablehlo.multiply %11136, %10658 : tensor<768xf32>
    %11138 = stablehlo.broadcast_in_dim %10833, dims = [] : (tensor<f32>) -> tensor<768x768xf32>
    %11139 = stablehlo.multiply %11138, %10661 : tensor<768x768xf32>
    %11140 = stablehlo.broadcast_in_dim %10833, dims = [] : (tensor<f32>) -> tensor<768xf32>
    %11141 = stablehlo.multiply %11140, %10664 : tensor<768xf32>
    %11142 = stablehlo.broadcast_in_dim %10833, dims = [] : (tensor<f32>) -> tensor<768x768xf32>
    %11143 = stablehlo.multiply %11142, %10667 : tensor<768x768xf32>
    %11144 = stablehlo.broadcast_in_dim %10833, dims = [] : (tensor<f32>) -> tensor<768xf32>
    %11145 = stablehlo.multiply %11144, %10670 : tensor<768xf32>
    %11146 = stablehlo.broadcast_in_dim %10833, dims = [] : (tensor<f32>) -> tensor<768xf32>
    %11147 = stablehlo.multiply %11146, %10673 : tensor<768xf32>
    %11148 = stablehlo.broadcast_in_dim %10833, dims = [] : (tensor<f32>) -> tensor<768xf32>
    %11149 = stablehlo.multiply %11148, %10676 : tensor<768xf32>
    %11150 = stablehlo.broadcast_in_dim %10833, dims = [] : (tensor<f32>) -> tensor<3072x768xf32>
    %11151 = stablehlo.multiply %11150, %10679 : tensor<3072x768xf32>
    %11152 = stablehlo.broadcast_in_dim %10833, dims = [] : (tensor<f32>) -> tensor<768xf32>
    %11153 = stablehlo.multiply %11152, %10682 : tensor<768xf32>
    %11154 = stablehlo.broadcast_in_dim %10833, dims = [] : (tensor<f32>) -> tensor<768xf32>
    %11155 = stablehlo.multiply %11154, %10685 : tensor<768xf32>
    %11156 = stablehlo.broadcast_in_dim %10833, dims = [] : (tensor<f32>) -> tensor<3072xf32>
    %11157 = stablehlo.multiply %11156, %10688 : tensor<3072xf32>
    %11158 = stablehlo.broadcast_in_dim %10833, dims = [] : (tensor<f32>) -> tensor<768x3072xf32>
    %11159 = stablehlo.multiply %11158, %10691 : tensor<768x3072xf32>
    %11160 = stablehlo.broadcast_in_dim %10833, dims = [] : (tensor<f32>) -> tensor<768xf32>
    %11161 = stablehlo.multiply %11160, %10694 : tensor<768xf32>
    %11162 = stablehlo.broadcast_in_dim %10833, dims = [] : (tensor<f32>) -> tensor<768x768xf32>
    %11163 = stablehlo.multiply %11162, %10697 : tensor<768x768xf32>
    %11164 = stablehlo.broadcast_in_dim %10833, dims = [] : (tensor<f32>) -> tensor<768xf32>
    %11165 = stablehlo.multiply %11164, %10700 : tensor<768xf32>
    %11166 = stablehlo.broadcast_in_dim %10833, dims = [] : (tensor<f32>) -> tensor<768x768xf32>
    %11167 = stablehlo.multiply %11166, %10703 : tensor<768x768xf32>
    %11168 = stablehlo.broadcast_in_dim %10833, dims = [] : (tensor<f32>) -> tensor<768xf32>
    %11169 = stablehlo.multiply %11168, %10706 : tensor<768xf32>
    %11170 = stablehlo.broadcast_in_dim %10833, dims = [] : (tensor<f32>) -> tensor<768x768xf32>
    %11171 = stablehlo.multiply %11170, %10709 : tensor<768x768xf32>
    %11172 = stablehlo.broadcast_in_dim %10833, dims = [] : (tensor<f32>) -> tensor<768xf32>
    %11173 = stablehlo.multiply %11172, %10712 : tensor<768xf32>
    %11174 = stablehlo.broadcast_in_dim %10833, dims = [] : (tensor<f32>) -> tensor<768x768xf32>
    %11175 = stablehlo.multiply %11174, %10715 : tensor<768x768xf32>
    %11176 = stablehlo.broadcast_in_dim %10833, dims = [] : (tensor<f32>) -> tensor<768xf32>
    %11177 = stablehlo.multiply %11176, %10718 : tensor<768xf32>
    %11178 = stablehlo.broadcast_in_dim %10833, dims = [] : (tensor<f32>) -> tensor<768xf32>
    %11179 = stablehlo.multiply %11178, %10721 : tensor<768xf32>
    %11180 = stablehlo.broadcast_in_dim %10833, dims = [] : (tensor<f32>) -> tensor<768xf32>
    %11181 = stablehlo.multiply %11180, %10724 : tensor<768xf32>
    %11182 = stablehlo.broadcast_in_dim %10833, dims = [] : (tensor<f32>) -> tensor<3072x768xf32>
    %11183 = stablehlo.multiply %11182, %10727 : tensor<3072x768xf32>
    %11184 = stablehlo.broadcast_in_dim %10833, dims = [] : (tensor<f32>) -> tensor<768xf32>
    %11185 = stablehlo.multiply %11184, %10730 : tensor<768xf32>
    %11186 = stablehlo.broadcast_in_dim %10833, dims = [] : (tensor<f32>) -> tensor<768xf32>
    %11187 = stablehlo.multiply %11186, %10733 : tensor<768xf32>
    %11188 = stablehlo.broadcast_in_dim %10833, dims = [] : (tensor<f32>) -> tensor<3072xf32>
    %11189 = stablehlo.multiply %11188, %10736 : tensor<3072xf32>
    %11190 = stablehlo.broadcast_in_dim %10833, dims = [] : (tensor<f32>) -> tensor<768x3072xf32>
    %11191 = stablehlo.multiply %11190, %10739 : tensor<768x3072xf32>
    %11192 = stablehlo.broadcast_in_dim %10833, dims = [] : (tensor<f32>) -> tensor<768xf32>
    %11193 = stablehlo.multiply %11192, %10742 : tensor<768xf32>
    %11194 = stablehlo.broadcast_in_dim %10833, dims = [] : (tensor<f32>) -> tensor<768x768xf32>
    %11195 = stablehlo.multiply %11194, %10745 : tensor<768x768xf32>
    %11196 = stablehlo.broadcast_in_dim %10833, dims = [] : (tensor<f32>) -> tensor<768xf32>
    %11197 = stablehlo.multiply %11196, %10748 : tensor<768xf32>
    %11198 = stablehlo.broadcast_in_dim %10833, dims = [] : (tensor<f32>) -> tensor<768x768xf32>
    %11199 = stablehlo.multiply %11198, %10751 : tensor<768x768xf32>
    %11200 = stablehlo.broadcast_in_dim %10833, dims = [] : (tensor<f32>) -> tensor<768xf32>
    %11201 = stablehlo.multiply %11200, %10754 : tensor<768xf32>
    %11202 = stablehlo.broadcast_in_dim %10833, dims = [] : (tensor<f32>) -> tensor<768x768xf32>
    %11203 = stablehlo.multiply %11202, %10757 : tensor<768x768xf32>
    %11204 = stablehlo.broadcast_in_dim %10833, dims = [] : (tensor<f32>) -> tensor<768xf32>
    %11205 = stablehlo.multiply %11204, %10760 : tensor<768xf32>
    %11206 = stablehlo.broadcast_in_dim %10833, dims = [] : (tensor<f32>) -> tensor<768x768xf32>
    %11207 = stablehlo.multiply %11206, %10763 : tensor<768x768xf32>
    %11208 = stablehlo.broadcast_in_dim %10833, dims = [] : (tensor<f32>) -> tensor<768xf32>
    %11209 = stablehlo.multiply %11208, %10766 : tensor<768xf32>
    %11210 = stablehlo.broadcast_in_dim %10833, dims = [] : (tensor<f32>) -> tensor<768xf32>
    %11211 = stablehlo.multiply %11210, %10769 : tensor<768xf32>
    %11212 = stablehlo.broadcast_in_dim %10833, dims = [] : (tensor<f32>) -> tensor<768xf32>
    %11213 = stablehlo.multiply %11212, %10772 : tensor<768xf32>
    %11214 = stablehlo.broadcast_in_dim %10833, dims = [] : (tensor<f32>) -> tensor<3072x768xf32>
    %11215 = stablehlo.multiply %11214, %10775 : tensor<3072x768xf32>
    %11216 = stablehlo.broadcast_in_dim %10833, dims = [] : (tensor<f32>) -> tensor<768xf32>
    %11217 = stablehlo.multiply %11216, %10778 : tensor<768xf32>
    %11218 = stablehlo.broadcast_in_dim %10833, dims = [] : (tensor<f32>) -> tensor<768xf32>
    %11219 = stablehlo.multiply %11218, %10781 : tensor<768xf32>
    %11220 = stablehlo.broadcast_in_dim %10833, dims = [] : (tensor<f32>) -> tensor<3072xf32>
    %11221 = stablehlo.multiply %11220, %10784 : tensor<3072xf32>
    %11222 = stablehlo.broadcast_in_dim %10833, dims = [] : (tensor<f32>) -> tensor<768x3072xf32>
    %11223 = stablehlo.multiply %11222, %10787 : tensor<768x3072xf32>
    %11224 = stablehlo.broadcast_in_dim %10833, dims = [] : (tensor<f32>) -> tensor<768xf32>
    %11225 = stablehlo.multiply %11224, %10790 : tensor<768xf32>
    %11226 = stablehlo.broadcast_in_dim %10833, dims = [] : (tensor<f32>) -> tensor<768xf32>
    %11227 = stablehlo.multiply %11226, %10793 : tensor<768xf32>
    %11228 = stablehlo.broadcast_in_dim %10833, dims = [] : (tensor<f32>) -> tensor<30522xf32>
    %11229 = stablehlo.multiply %11228, %10796 : tensor<30522xf32>
    %11230 = stablehlo.broadcast_in_dim %10833, dims = [] : (tensor<f32>) -> tensor<768xf32>
    %11231 = stablehlo.multiply %11230, %10799 : tensor<768xf32>
    %11232 = stablehlo.broadcast_in_dim %10833, dims = [] : (tensor<f32>) -> tensor<768x768xf32>
    %11233 = stablehlo.multiply %11232, %10802 : tensor<768x768xf32>
    %11234 = stablehlo.broadcast_in_dim %10833, dims = [] : (tensor<f32>) -> tensor<30522x768xf32>
    %11235 = stablehlo.multiply %11234, %10805 : tensor<30522x768xf32>
    %11236 = stablehlo.broadcast_in_dim %10833, dims = [] : (tensor<f32>) -> tensor<768xf32>
    %11237 = stablehlo.multiply %11236, %10808 : tensor<768xf32>
    %11238 = stablehlo.broadcast_in_dim %10833, dims = [] : (tensor<f32>) -> tensor<768xf32>
    %11239 = stablehlo.multiply %11238, %10811 : tensor<768xf32>
    %11240 = stablehlo.compare  LT, %arg610, %c_719,  SIGNED : (tensor<i32>, tensor<i32>) -> tensor<i1>
    %11241 = stablehlo.add %arg610, %c_720 : tensor<i32>
    %11242 = call @_where_264(%11240, %11241, %c_719) : (tensor<i1>, tensor<i32>, tensor<i32>) -> tensor<i32>
    %11243 = stablehlo.add %arg0, %10835 : tensor<512x768xf32>
    %11244 = stablehlo.add %arg1, %10837 : tensor<2x768xf32>
    %11245 = stablehlo.add %arg2, %10839 : tensor<30522x768xf32>
    %11246 = stablehlo.add %arg3, %10841 : tensor<768xf32>
    %11247 = stablehlo.add %arg4, %10843 : tensor<768x768xf32>
    %11248 = stablehlo.add %arg5, %10845 : tensor<768xf32>
    %11249 = stablehlo.add %arg6, %10847 : tensor<768x768xf32>
    %11250 = stablehlo.add %arg7, %10849 : tensor<768xf32>
    %11251 = stablehlo.add %arg8, %10851 : tensor<768x768xf32>
    %11252 = stablehlo.add %arg9, %10853 : tensor<768xf32>
    %11253 = stablehlo.add %arg10, %10855 : tensor<768x768xf32>
    %11254 = stablehlo.add %arg11, %10857 : tensor<768xf32>
    %11255 = stablehlo.add %arg12, %10859 : tensor<768xf32>
    %11256 = stablehlo.add %arg13, %10861 : tensor<768xf32>
    %11257 = stablehlo.add %arg14, %10863 : tensor<3072x768xf32>
    %11258 = stablehlo.add %arg15, %10865 : tensor<768xf32>
    %11259 = stablehlo.add %arg16, %10867 : tensor<768xf32>
    %11260 = stablehlo.add %arg17, %10869 : tensor<3072xf32>
    %11261 = stablehlo.add %arg18, %10871 : tensor<768x3072xf32>
    %11262 = stablehlo.add %arg19, %10873 : tensor<768xf32>
    %11263 = stablehlo.add %arg20, %10875 : tensor<768x768xf32>
    %11264 = stablehlo.add %arg21, %10877 : tensor<768xf32>
    %11265 = stablehlo.add %arg22, %10879 : tensor<768x768xf32>
    %11266 = stablehlo.add %arg23, %10881 : tensor<768xf32>
    %11267 = stablehlo.add %arg24, %10883 : tensor<768x768xf32>
    %11268 = stablehlo.add %arg25, %10885 : tensor<768xf32>
    %11269 = stablehlo.add %arg26, %10887 : tensor<768x768xf32>
    %11270 = stablehlo.add %arg27, %10889 : tensor<768xf32>
    %11271 = stablehlo.add %arg28, %10891 : tensor<768xf32>
    %11272 = stablehlo.add %arg29, %10893 : tensor<768xf32>
    %11273 = stablehlo.add %arg30, %10895 : tensor<3072x768xf32>
    %11274 = stablehlo.add %arg31, %10897 : tensor<768xf32>
    %11275 = stablehlo.add %arg32, %10899 : tensor<768xf32>
    %11276 = stablehlo.add %arg33, %10901 : tensor<3072xf32>
    %11277 = stablehlo.add %arg34, %10903 : tensor<768x3072xf32>
    %11278 = stablehlo.add %arg35, %10905 : tensor<768xf32>
    %11279 = stablehlo.add %arg36, %10907 : tensor<768x768xf32>
    %11280 = stablehlo.add %arg37, %10909 : tensor<768xf32>
    %11281 = stablehlo.add %arg38, %10911 : tensor<768x768xf32>
    %11282 = stablehlo.add %arg39, %10913 : tensor<768xf32>
    %11283 = stablehlo.add %arg40, %10915 : tensor<768x768xf32>
    %11284 = stablehlo.add %arg41, %10917 : tensor<768xf32>
    %11285 = stablehlo.add %arg42, %10919 : tensor<768x768xf32>
    %11286 = stablehlo.add %arg43, %10921 : tensor<768xf32>
    %11287 = stablehlo.add %arg44, %10923 : tensor<768xf32>
    %11288 = stablehlo.add %arg45, %10925 : tensor<768xf32>
    %11289 = stablehlo.add %arg46, %10927 : tensor<3072x768xf32>
    %11290 = stablehlo.add %arg47, %10929 : tensor<768xf32>
    %11291 = stablehlo.add %arg48, %10931 : tensor<768xf32>
    %11292 = stablehlo.add %arg49, %10933 : tensor<3072xf32>
    %11293 = stablehlo.add %arg50, %10935 : tensor<768x3072xf32>
    %11294 = stablehlo.add %arg51, %10937 : tensor<768xf32>
    %11295 = stablehlo.add %arg52, %10939 : tensor<768x768xf32>
    %11296 = stablehlo.add %arg53, %10941 : tensor<768xf32>
    %11297 = stablehlo.add %arg54, %10943 : tensor<768x768xf32>
    %11298 = stablehlo.add %arg55, %10945 : tensor<768xf32>
    %11299 = stablehlo.add %arg56, %10947 : tensor<768x768xf32>
    %11300 = stablehlo.add %arg57, %10949 : tensor<768xf32>
    %11301 = stablehlo.add %arg58, %10951 : tensor<768x768xf32>
    %11302 = stablehlo.add %arg59, %10953 : tensor<768xf32>
    %11303 = stablehlo.add %arg60, %10955 : tensor<768xf32>
    %11304 = stablehlo.add %arg61, %10957 : tensor<768xf32>
    %11305 = stablehlo.add %arg62, %10959 : tensor<3072x768xf32>
    %11306 = stablehlo.add %arg63, %10961 : tensor<768xf32>
    %11307 = stablehlo.add %arg64, %10963 : tensor<768xf32>
    %11308 = stablehlo.add %arg65, %10965 : tensor<3072xf32>
    %11309 = stablehlo.add %arg66, %10967 : tensor<768x3072xf32>
    %11310 = stablehlo.add %arg67, %10969 : tensor<768xf32>
    %11311 = stablehlo.add %arg68, %10971 : tensor<768x768xf32>
    %11312 = stablehlo.add %arg69, %10973 : tensor<768xf32>
    %11313 = stablehlo.add %arg70, %10975 : tensor<768x768xf32>
    %11314 = stablehlo.add %arg71, %10977 : tensor<768xf32>
    %11315 = stablehlo.add %arg72, %10979 : tensor<768x768xf32>
    %11316 = stablehlo.add %arg73, %10981 : tensor<768xf32>
    %11317 = stablehlo.add %arg74, %10983 : tensor<768x768xf32>
    %11318 = stablehlo.add %arg75, %10985 : tensor<768xf32>
    %11319 = stablehlo.add %arg76, %10987 : tensor<768xf32>
    %11320 = stablehlo.add %arg77, %10989 : tensor<768xf32>
    %11321 = stablehlo.add %arg78, %10991 : tensor<3072x768xf32>
    %11322 = stablehlo.add %arg79, %10993 : tensor<768xf32>
    %11323 = stablehlo.add %arg80, %10995 : tensor<768xf32>
    %11324 = stablehlo.add %arg81, %10997 : tensor<3072xf32>
    %11325 = stablehlo.add %arg82, %10999 : tensor<768x3072xf32>
    %11326 = stablehlo.add %arg83, %11001 : tensor<768xf32>
    %11327 = stablehlo.add %arg84, %11003 : tensor<768x768xf32>
    %11328 = stablehlo.add %arg85, %11005 : tensor<768xf32>
    %11329 = stablehlo.add %arg86, %11007 : tensor<768x768xf32>
    %11330 = stablehlo.add %arg87, %11009 : tensor<768xf32>
    %11331 = stablehlo.add %arg88, %11011 : tensor<768x768xf32>
    %11332 = stablehlo.add %arg89, %11013 : tensor<768xf32>
    %11333 = stablehlo.add %arg90, %11015 : tensor<768x768xf32>
    %11334 = stablehlo.add %arg91, %11017 : tensor<768xf32>
    %11335 = stablehlo.add %arg92, %11019 : tensor<768xf32>
    %11336 = stablehlo.add %arg93, %11021 : tensor<768xf32>
    %11337 = stablehlo.add %arg94, %11023 : tensor<3072x768xf32>
    %11338 = stablehlo.add %arg95, %11025 : tensor<768xf32>
    %11339 = stablehlo.add %arg96, %11027 : tensor<768xf32>
    %11340 = stablehlo.add %arg97, %11029 : tensor<3072xf32>
    %11341 = stablehlo.add %arg98, %11031 : tensor<768x3072xf32>
    %11342 = stablehlo.add %arg99, %11033 : tensor<768xf32>
    %11343 = stablehlo.add %arg100, %11035 : tensor<768x768xf32>
    %11344 = stablehlo.add %arg101, %11037 : tensor<768xf32>
    %11345 = stablehlo.add %arg102, %11039 : tensor<768x768xf32>
    %11346 = stablehlo.add %arg103, %11041 : tensor<768xf32>
    %11347 = stablehlo.add %arg104, %11043 : tensor<768x768xf32>
    %11348 = stablehlo.add %arg105, %11045 : tensor<768xf32>
    %11349 = stablehlo.add %arg106, %11047 : tensor<768x768xf32>
    %11350 = stablehlo.add %arg107, %11049 : tensor<768xf32>
    %11351 = stablehlo.add %arg108, %11051 : tensor<768xf32>
    %11352 = stablehlo.add %arg109, %11053 : tensor<768xf32>
    %11353 = stablehlo.add %arg110, %11055 : tensor<3072x768xf32>
    %11354 = stablehlo.add %arg111, %11057 : tensor<768xf32>
    %11355 = stablehlo.add %arg112, %11059 : tensor<768xf32>
    %11356 = stablehlo.add %arg113, %11061 : tensor<3072xf32>
    %11357 = stablehlo.add %arg114, %11063 : tensor<768x3072xf32>
    %11358 = stablehlo.add %arg115, %11065 : tensor<768xf32>
    %11359 = stablehlo.add %arg116, %11067 : tensor<768x768xf32>
    %11360 = stablehlo.add %arg117, %11069 : tensor<768xf32>
    %11361 = stablehlo.add %arg118, %11071 : tensor<768x768xf32>
    %11362 = stablehlo.add %arg119, %11073 : tensor<768xf32>
    %11363 = stablehlo.add %arg120, %11075 : tensor<768x768xf32>
    %11364 = stablehlo.add %arg121, %11077 : tensor<768xf32>
    %11365 = stablehlo.add %arg122, %11079 : tensor<768x768xf32>
    %11366 = stablehlo.add %arg123, %11081 : tensor<768xf32>
    %11367 = stablehlo.add %arg124, %11083 : tensor<768xf32>
    %11368 = stablehlo.add %arg125, %11085 : tensor<768xf32>
    %11369 = stablehlo.add %arg126, %11087 : tensor<3072x768xf32>
    %11370 = stablehlo.add %arg127, %11089 : tensor<768xf32>
    %11371 = stablehlo.add %arg128, %11091 : tensor<768xf32>
    %11372 = stablehlo.add %arg129, %11093 : tensor<3072xf32>
    %11373 = stablehlo.add %arg130, %11095 : tensor<768x3072xf32>
    %11374 = stablehlo.add %arg131, %11097 : tensor<768xf32>
    %11375 = stablehlo.add %arg132, %11099 : tensor<768x768xf32>
    %11376 = stablehlo.add %arg133, %11101 : tensor<768xf32>
    %11377 = stablehlo.add %arg134, %11103 : tensor<768x768xf32>
    %11378 = stablehlo.add %arg135, %11105 : tensor<768xf32>
    %11379 = stablehlo.add %arg136, %11107 : tensor<768x768xf32>
    %11380 = stablehlo.add %arg137, %11109 : tensor<768xf32>
    %11381 = stablehlo.add %arg138, %11111 : tensor<768x768xf32>
    %11382 = stablehlo.add %arg139, %11113 : tensor<768xf32>
    %11383 = stablehlo.add %arg140, %11115 : tensor<768xf32>
    %11384 = stablehlo.add %arg141, %11117 : tensor<768xf32>
    %11385 = stablehlo.add %arg142, %11119 : tensor<3072x768xf32>
    %11386 = stablehlo.add %arg143, %11121 : tensor<768xf32>
    %11387 = stablehlo.add %arg144, %11123 : tensor<768xf32>
    %11388 = stablehlo.add %arg145, %11125 : tensor<3072xf32>
    %11389 = stablehlo.add %arg146, %11127 : tensor<768x3072xf32>
    %11390 = stablehlo.add %arg147, %11129 : tensor<768xf32>
    %11391 = stablehlo.add %arg148, %11131 : tensor<768x768xf32>
    %11392 = stablehlo.add %arg149, %11133 : tensor<768xf32>
    %11393 = stablehlo.add %arg150, %11135 : tensor<768x768xf32>
    %11394 = stablehlo.add %arg151, %11137 : tensor<768xf32>
    %11395 = stablehlo.add %arg152, %11139 : tensor<768x768xf32>
    %11396 = stablehlo.add %arg153, %11141 : tensor<768xf32>
    %11397 = stablehlo.add %arg154, %11143 : tensor<768x768xf32>
    %11398 = stablehlo.add %arg155, %11145 : tensor<768xf32>
    %11399 = stablehlo.add %arg156, %11147 : tensor<768xf32>
    %11400 = stablehlo.add %arg157, %11149 : tensor<768xf32>
    %11401 = stablehlo.add %arg158, %11151 : tensor<3072x768xf32>
    %11402 = stablehlo.add %arg159, %11153 : tensor<768xf32>
    %11403 = stablehlo.add %arg160, %11155 : tensor<768xf32>
    %11404 = stablehlo.add %arg161, %11157 : tensor<3072xf32>
    %11405 = stablehlo.add %arg162, %11159 : tensor<768x3072xf32>
    %11406 = stablehlo.add %arg163, %11161 : tensor<768xf32>
    %11407 = stablehlo.add %arg164, %11163 : tensor<768x768xf32>
    %11408 = stablehlo.add %arg165, %11165 : tensor<768xf32>
    %11409 = stablehlo.add %arg166, %11167 : tensor<768x768xf32>
    %11410 = stablehlo.add %arg167, %11169 : tensor<768xf32>
    %11411 = stablehlo.add %arg168, %11171 : tensor<768x768xf32>
    %11412 = stablehlo.add %arg169, %11173 : tensor<768xf32>
    %11413 = stablehlo.add %arg170, %11175 : tensor<768x768xf32>
    %11414 = stablehlo.add %arg171, %11177 : tensor<768xf32>
    %11415 = stablehlo.add %arg172, %11179 : tensor<768xf32>
    %11416 = stablehlo.add %arg173, %11181 : tensor<768xf32>
    %11417 = stablehlo.add %arg174, %11183 : tensor<3072x768xf32>
    %11418 = stablehlo.add %arg175, %11185 : tensor<768xf32>
    %11419 = stablehlo.add %arg176, %11187 : tensor<768xf32>
    %11420 = stablehlo.add %arg177, %11189 : tensor<3072xf32>
    %11421 = stablehlo.add %arg178, %11191 : tensor<768x3072xf32>
    %11422 = stablehlo.add %arg179, %11193 : tensor<768xf32>
    %11423 = stablehlo.add %arg180, %11195 : tensor<768x768xf32>
    %11424 = stablehlo.add %arg181, %11197 : tensor<768xf32>
    %11425 = stablehlo.add %arg182, %11199 : tensor<768x768xf32>
    %11426 = stablehlo.add %arg183, %11201 : tensor<768xf32>
    %11427 = stablehlo.add %arg184, %11203 : tensor<768x768xf32>
    %11428 = stablehlo.add %arg185, %11205 : tensor<768xf32>
    %11429 = stablehlo.add %arg186, %11207 : tensor<768x768xf32>
    %11430 = stablehlo.add %arg187, %11209 : tensor<768xf32>
    %11431 = stablehlo.add %arg188, %11211 : tensor<768xf32>
    %11432 = stablehlo.add %arg189, %11213 : tensor<768xf32>
    %11433 = stablehlo.add %arg190, %11215 : tensor<3072x768xf32>
    %11434 = stablehlo.add %arg191, %11217 : tensor<768xf32>
    %11435 = stablehlo.add %arg192, %11219 : tensor<768xf32>
    %11436 = stablehlo.add %arg193, %11221 : tensor<3072xf32>
    %11437 = stablehlo.add %arg194, %11223 : tensor<768x3072xf32>
    %11438 = stablehlo.add %arg195, %11225 : tensor<768xf32>
    %11439 = stablehlo.add %arg196, %11227 : tensor<768xf32>
    %11440 = stablehlo.add %arg197, %11229 : tensor<30522xf32>
    %11441 = stablehlo.add %arg198, %11231 : tensor<768xf32>
    %11442 = stablehlo.add %arg199, %11233 : tensor<768x768xf32>
    %11443 = stablehlo.add %arg200, %11235 : tensor<30522x768xf32>
    %11444 = stablehlo.add %arg201, %11237 : tensor<768xf32>
    %11445 = stablehlo.add %arg202, %11239 : tensor<768xf32>
    return %11243, %11244, %11245, %11246, %11247, %11248, %11249, %11250, %11251, %11252, %11253, %11254, %11255, %11256, %11257, %11258, %11259, %11260, %11261, %11262, %11263, %11264, %11265, %11266, %11267, %11268, %11269, %11270, %11271, %11272, %11273, %11274, %11275, %11276, %11277, %11278, %11279, %11280, %11281, %11282, %11283, %11284, %11285, %11286, %11287, %11288, %11289, %11290, %11291, %11292, %11293, %11294, %11295, %11296, %11297, %11298, %11299, %11300, %11301, %11302, %11303, %11304, %11305, %11306, %11307, %11308, %11309, %11310, %11311, %11312, %11313, %11314, %11315, %11316, %11317, %11318, %11319, %11320, %11321, %11322, %11323, %11324, %11325, %11326, %11327, %11328, %11329, %11330, %11331, %11332, %11333, %11334, %11335, %11336, %11337, %11338, %11339, %11340, %11341, %11342, %11343, %11344, %11345, %11346, %11347, %11348, %11349, %11350, %11351, %11352, %11353, %11354, %11355, %11356, %11357, %11358, %11359, %11360, %11361, %11362, %11363, %11364, %11365, %11366, %11367, %11368, %11369, %11370, %11371, %11372, %11373, %11374, %11375, %11376, %11377, %11378, %11379, %11380, %11381, %11382, %11383, %11384, %11385, %11386, %11387, %11388, %11389, %11390, %11391, %11392, %11393, %11394, %11395, %11396, %11397, %11398, %11399, %11400, %11401, %11402, %11403, %11404, %11405, %11406, %11407, %11408, %11409, %11410, %11411, %11412, %11413, %11414, %11415, %11416, %11417, %11418, %11419, %11420, %11421, %11422, %11423, %11424, %11425, %11426, %11427, %11428, %11429, %11430, %11431, %11432, %11433, %11434, %11435, %11436, %11437, %11438, %11439, %11440, %11441, %11442, %11443, %11444, %11445, %8166, %5935, %5940, %5945, %5950, %5955, %5960, %5965, %5970, %5975, %5980, %5985, %5990, %5995, %6000, %6005, %6010, %6015, %6020, %6025, %6030, %6035, %6040, %6045, %6050, %6055, %6060, %6065, %6070, %6075, %6080, %6085, %6090, %6095, %6100, %6105, %6110, %6115, %6120, %6125, %6130, %6135, %6140, %6145, %6150, %6155, %6160, %6165, %6170, %6175, %6180, %6185, %6190, %6195, %6200, %6205, %6210, %6215, %6220, %6225, %6230, %6235, %6240, %6245, %6250, %6255, %6260, %6265, %6270, %6275, %6280, %6285, %6290, %6295, %6300, %6305, %6310, %6315, %6320, %6325, %6330, %6335, %6340, %6345, %6350, %6355, %6360, %6365, %6370, %6375, %6380, %6385, %6390, %6395, %6400, %6405, %6410, %6415, %6420, %6425, %6430, %6435, %6440, %6445, %6450, %6455, %6460, %6465, %6470, %6475, %6480, %6485, %6490, %6495, %6500, %6505, %6510, %6515, %6520, %6525, %6530, %6535, %6540, %6545, %6550, %6555, %6560, %6565, %6570, %6575, %6580, %6585, %6590, %6595, %6600, %6605, %6610, %6615, %6620, %6625, %6630, %6635, %6640, %6645, %6650, %6655, %6660, %6665, %6670, %6675, %6680, %6685, %6690, %6695, %6700, %6705, %6710, %6715, %6720, %6725, %6730, %6735, %6740, %6745, %6750, %6755, %6760, %6765, %6770, %6775, %6780, %6785, %6790, %6795, %6800, %6805, %6810, %6815, %6820, %6825, %6830, %6835, %6840, %6845, %6850, %6855, %6860, %6865, %6870, %6875, %6880, %6885, %6890, %6895, %6900, %6905, %6910, %6915, %6920, %6925, %6930, %6935, %6940, %6945, %6951, %6957, %6963, %6969, %6975, %6981, %6987, %6993, %6999, %7005, %7011, %7017, %7023, %7029, %7035, %7041, %7047, %7053, %7059, %7065, %7071, %7077, %7083, %7089, %7095, %7101, %7107, %7113, %7119, %7125, %7131, %7137, %7143, %7149, %7155, %7161, %7167, %7173, %7179, %7185, %7191, %7197, %7203, %7209, %7215, %7221, %7227, %7233, %7239, %7245, %7251, %7257, %7263, %7269, %7275, %7281, %7287, %7293, %7299, %7305, %7311, %7317, %7323, %7329, %7335, %7341, %7347, %7353, %7359, %7365, %7371, %7377, %7383, %7389, %7395, %7401, %7407, %7413, %7419, %7425, %7431, %7437, %7443, %7449, %7455, %7461, %7467, %7473, %7479, %7485, %7491, %7497, %7503, %7509, %7515, %7521, %7527, %7533, %7539, %7545, %7551, %7557, %7563, %7569, %7575, %7581, %7587, %7593, %7599, %7605, %7611, %7617, %7623, %7629, %7635, %7641, %7647, %7653, %7659, %7665, %7671, %7677, %7683, %7689, %7695, %7701, %7707, %7713, %7719, %7725, %7731, %7737, %7743, %7749, %7755, %7761, %7767, %7773, %7779, %7785, %7791, %7797, %7803, %7809, %7815, %7821, %7827, %7833, %7839, %7845, %7851, %7857, %7863, %7869, %7875, %7881, %7887, %7893, %7899, %7905, %7911, %7917, %7923, %7929, %7935, %7941, %7947, %7953, %7959, %7965, %7971, %7977, %7983, %7989, %7995, %8001, %8007, %8013, %8019, %8025, %8031, %8037, %8043, %8049, %8055, %8061, %8067, %8073, %8079, %8085, %8091, %8097, %8103, %8109, %8115, %8121, %8127, %8133, %8139, %8145, %8151, %8157, %8163, %11242, %2260, %2255, %2253, %2255, %2255 : tensor<512x768xf32>, tensor<2x768xf32>, tensor<30522x768xf32>, tensor<768xf32>, tensor<768x768xf32>, tensor<768xf32>, tensor<768x768xf32>, tensor<768xf32>, tensor<768x768xf32>, tensor<768xf32>, tensor<768x768xf32>, tensor<768xf32>, tensor<768xf32>, tensor<768xf32>, tensor<3072x768xf32>, tensor<768xf32>, tensor<768xf32>, tensor<3072xf32>, tensor<768x3072xf32>, tensor<768xf32>, tensor<768x768xf32>, tensor<768xf32>, tensor<768x768xf32>, tensor<768xf32>, tensor<768x768xf32>, tensor<768xf32>, tensor<768x768xf32>, tensor<768xf32>, tensor<768xf32>, tensor<768xf32>, tensor<3072x768xf32>, tensor<768xf32>, tensor<768xf32>, tensor<3072xf32>, tensor<768x3072xf32>, tensor<768xf32>, tensor<768x768xf32>, tensor<768xf32>, tensor<768x768xf32>, tensor<768xf32>, tensor<768x768xf32>, tensor<768xf32>, tensor<768x768xf32>, tensor<768xf32>, tensor<768xf32>, tensor<768xf32>, tensor<3072x768xf32>, tensor<768xf32>, tensor<768xf32>, tensor<3072xf32>, tensor<768x3072xf32>, tensor<768xf32>, tensor<768x768xf32>, tensor<768xf32>, tensor<768x768xf32>, tensor<768xf32>, tensor<768x768xf32>, tensor<768xf32>, tensor<768x768xf32>, tensor<768xf32>, tensor<768xf32>, tensor<768xf32>, tensor<3072x768xf32>, tensor<768xf32>, tensor<768xf32>, tensor<3072xf32>, tensor<768x3072xf32>, tensor<768xf32>, tensor<768x768xf32>, tensor<768xf32>, tensor<768x768xf32>, tensor<768xf32>, tensor<768x768xf32>, tensor<768xf32>, tensor<768x768xf32>, tensor<768xf32>, tensor<768xf32>, tensor<768xf32>, tensor<3072x768xf32>, tensor<768xf32>, tensor<768xf32>, tensor<3072xf32>, tensor<768x3072xf32>, tensor<768xf32>, tensor<768x768xf32>, tensor<768xf32>, tensor<768x768xf32>, tensor<768xf32>, tensor<768x768xf32>, tensor<768xf32>, tensor<768x768xf32>, tensor<768xf32>, tensor<768xf32>, tensor<768xf32>, tensor<3072x768xf32>, tensor<768xf32>, tensor<768xf32>, tensor<3072xf32>, tensor<768x3072xf32>, tensor<768xf32>, tensor<768x768xf32>, tensor<768xf32>, tensor<768x768xf32>, tensor<768xf32>, tensor<768x768xf32>, tensor<768xf32>, tensor<768x768xf32>, tensor<768xf32>, tensor<768xf32>, tensor<768xf32>, tensor<3072x768xf32>, tensor<768xf32>, tensor<768xf32>, tensor<3072xf32>, tensor<768x3072xf32>, tensor<768xf32>, tensor<768x768xf32>, tensor<768xf32>, tensor<768x768xf32>, tensor<768xf32>, tensor<768x768xf32>, tensor<768xf32>, tensor<768x768xf32>, tensor<768xf32>, tensor<768xf32>, tensor<768xf32>, tensor<3072x768xf32>, tensor<768xf32>, tensor<768xf32>, tensor<3072xf32>, tensor<768x3072xf32>, tensor<768xf32>, tensor<768x768xf32>, tensor<768xf32>, tensor<768x768xf32>, tensor<768xf32>, tensor<768x768xf32>, tensor<768xf32>, tensor<768x768xf32>, tensor<768xf32>, tensor<768xf32>, tensor<768xf32>, tensor<3072x768xf32>, tensor<768xf32>, tensor<768xf32>, tensor<3072xf32>, tensor<768x3072xf32>, tensor<768xf32>, tensor<768x768xf32>, tensor<768xf32>, tensor<768x768xf32>, tensor<768xf32>, tensor<768x768xf32>, tensor<768xf32>, tensor<768x768xf32>, tensor<768xf32>, tensor<768xf32>, tensor<768xf32>, tensor<3072x768xf32>, tensor<768xf32>, tensor<768xf32>, tensor<3072xf32>, tensor<768x3072xf32>, tensor<768xf32>, tensor<768x768xf32>, tensor<768xf32>, tensor<768x768xf32>, tensor<768xf32>, tensor<768x768xf32>, tensor<768xf32>, tensor<768x768xf32>, tensor<768xf32>, tensor<768xf32>, tensor<768xf32>, tensor<3072x768xf32>, tensor<768xf32>, tensor<768xf32>, tensor<3072xf32>, tensor<768x3072xf32>, tensor<768xf32>, tensor<768x768xf32>, tensor<768xf32>, tensor<768x768xf32>, tensor<768xf32>, tensor<768x768xf32>, tensor<768xf32>, tensor<768x768xf32>, tensor<768xf32>, tensor<768xf32>, tensor<768xf32>, tensor<3072x768xf32>, tensor<768xf32>, tensor<768xf32>, tensor<3072xf32>, tensor<768x3072xf32>, tensor<768xf32>, tensor<768xf32>, tensor<30522xf32>, tensor<768xf32>, tensor<768x768xf32>, tensor<30522x768xf32>, tensor<768xf32>, tensor<768xf32>, tensor<i32>, tensor<512x768xf32>, tensor<2x768xf32>, tensor<30522x768xf32>, tensor<768xf32>, tensor<768x768xf32>, tensor<768xf32>, tensor<768x768xf32>, tensor<768xf32>, tensor<768x768xf32>, tensor<768xf32>, tensor<768x768xf32>, tensor<768xf32>, tensor<768xf32>, tensor<768xf32>, tensor<3072x768xf32>, tensor<768xf32>, tensor<768xf32>, tensor<3072xf32>, tensor<768x3072xf32>, tensor<768xf32>, tensor<768x768xf32>, tensor<768xf32>, tensor<768x768xf32>, tensor<768xf32>, tensor<768x768xf32>, tensor<768xf32>, tensor<768x768xf32>, tensor<768xf32>, tensor<768xf32>, tensor<768xf32>, tensor<3072x768xf32>, tensor<768xf32>, tensor<768xf32>, tensor<3072xf32>, tensor<768x3072xf32>, tensor<768xf32>, tensor<768x768xf32>, tensor<768xf32>, tensor<768x768xf32>, tensor<768xf32>, tensor<768x768xf32>, tensor<768xf32>, tensor<768x768xf32>, tensor<768xf32>, tensor<768xf32>, tensor<768xf32>, tensor<3072x768xf32>, tensor<768xf32>, tensor<768xf32>, tensor<3072xf32>, tensor<768x3072xf32>, tensor<768xf32>, tensor<768x768xf32>, tensor<768xf32>, tensor<768x768xf32>, tensor<768xf32>, tensor<768x768xf32>, tensor<768xf32>, tensor<768x768xf32>, tensor<768xf32>, tensor<768xf32>, tensor<768xf32>, tensor<3072x768xf32>, tensor<768xf32>, tensor<768xf32>, tensor<3072xf32>, tensor<768x3072xf32>, tensor<768xf32>, tensor<768x768xf32>, tensor<768xf32>, tensor<768x768xf32>, tensor<768xf32>, tensor<768x768xf32>, tensor<768xf32>, tensor<768x768xf32>, tensor<768xf32>, tensor<768xf32>, tensor<768xf32>, tensor<3072x768xf32>, tensor<768xf32>, tensor<768xf32>, tensor<3072xf32>, tensor<768x3072xf32>, tensor<768xf32>, tensor<768x768xf32>, tensor<768xf32>, tensor<768x768xf32>, tensor<768xf32>, tensor<768x768xf32>, tensor<768xf32>, tensor<768x768xf32>, tensor<768xf32>, tensor<768xf32>, tensor<768xf32>, tensor<3072x768xf32>, tensor<768xf32>, tensor<768xf32>, tensor<3072xf32>, tensor<768x3072xf32>, tensor<768xf32>, tensor<768x768xf32>, tensor<768xf32>, tensor<768x768xf32>, tensor<768xf32>, tensor<768x768xf32>, tensor<768xf32>, tensor<768x768xf32>, tensor<768xf32>, tensor<768xf32>, tensor<768xf32>, tensor<3072x768xf32>, tensor<768xf32>, tensor<768xf32>, tensor<3072xf32>, tensor<768x3072xf32>, tensor<768xf32>, tensor<768x768xf32>, tensor<768xf32>, tensor<768x768xf32>, tensor<768xf32>, tensor<768x768xf32>, tensor<768xf32>, tensor<768x768xf32>, tensor<768xf32>, tensor<768xf32>, tensor<768xf32>, tensor<3072x768xf32>, tensor<768xf32>, tensor<768xf32>, tensor<3072xf32>, tensor<768x3072xf32>, tensor<768xf32>, tensor<768x768xf32>, tensor<768xf32>, tensor<768x768xf32>, tensor<768xf32>, tensor<768x768xf32>, tensor<768xf32>, tensor<768x768xf32>, tensor<768xf32>, tensor<768xf32>, tensor<768xf32>, tensor<3072x768xf32>, tensor<768xf32>, tensor<768xf32>, tensor<3072xf32>, tensor<768x3072xf32>, tensor<768xf32>, tensor<768x768xf32>, tensor<768xf32>, tensor<768x768xf32>, tensor<768xf32>, tensor<768x768xf32>, tensor<768xf32>, tensor<768x768xf32>, tensor<768xf32>, tensor<768xf32>, tensor<768xf32>, tensor<3072x768xf32>, tensor<768xf32>, tensor<768xf32>, tensor<3072xf32>, tensor<768x3072xf32>, tensor<768xf32>, tensor<768x768xf32>, tensor<768xf32>, tensor<768x768xf32>, tensor<768xf32>, tensor<768x768xf32>, tensor<768xf32>, tensor<768x768xf32>, tensor<768xf32>, tensor<768xf32>, tensor<768xf32>, tensor<3072x768xf32>, tensor<768xf32>, tensor<768xf32>, tensor<3072xf32>, tensor<768x3072xf32>, tensor<768xf32>, tensor<768x768xf32>, tensor<768xf32>, tensor<768x768xf32>, tensor<768xf32>, tensor<768x768xf32>, tensor<768xf32>, tensor<768x768xf32>, tensor<768xf32>, tensor<768xf32>, tensor<768xf32>, tensor<3072x768xf32>, tensor<768xf32>, tensor<768xf32>, tensor<3072xf32>, tensor<768x3072xf32>, tensor<768xf32>, tensor<768xf32>, tensor<30522xf32>, tensor<768xf32>, tensor<768x768xf32>, tensor<30522x768xf32>, tensor<768xf32>, tensor<768xf32>, tensor<512x768xf32>, tensor<2x768xf32>, tensor<30522x768xf32>, tensor<768xf32>, tensor<768x768xf32>, tensor<768xf32>, tensor<768x768xf32>, tensor<768xf32>, tensor<768x768xf32>, tensor<768xf32>, tensor<768x768xf32>, tensor<768xf32>, tensor<768xf32>, tensor<768xf32>, tensor<3072x768xf32>, tensor<768xf32>, tensor<768xf32>, tensor<3072xf32>, tensor<768x3072xf32>, tensor<768xf32>, tensor<768x768xf32>, tensor<768xf32>, tensor<768x768xf32>, tensor<768xf32>, tensor<768x768xf32>, tensor<768xf32>, tensor<768x768xf32>, tensor<768xf32>, tensor<768xf32>, tensor<768xf32>, tensor<3072x768xf32>, tensor<768xf32>, tensor<768xf32>, tensor<3072xf32>, tensor<768x3072xf32>, tensor<768xf32>, tensor<768x768xf32>, tensor<768xf32>, tensor<768x768xf32>, tensor<768xf32>, tensor<768x768xf32>, tensor<768xf32>, tensor<768x768xf32>, tensor<768xf32>, tensor<768xf32>, tensor<768xf32>, tensor<3072x768xf32>, tensor<768xf32>, tensor<768xf32>, tensor<3072xf32>, tensor<768x3072xf32>, tensor<768xf32>, tensor<768x768xf32>, tensor<768xf32>, tensor<768x768xf32>, tensor<768xf32>, tensor<768x768xf32>, tensor<768xf32>, tensor<768x768xf32>, tensor<768xf32>, tensor<768xf32>, tensor<768xf32>, tensor<3072x768xf32>, tensor<768xf32>, tensor<768xf32>, tensor<3072xf32>, tensor<768x3072xf32>, tensor<768xf32>, tensor<768x768xf32>, tensor<768xf32>, tensor<768x768xf32>, tensor<768xf32>, tensor<768x768xf32>, tensor<768xf32>, tensor<768x768xf32>, tensor<768xf32>, tensor<768xf32>, tensor<768xf32>, tensor<3072x768xf32>, tensor<768xf32>, tensor<768xf32>, tensor<3072xf32>, tensor<768x3072xf32>, tensor<768xf32>, tensor<768x768xf32>, tensor<768xf32>, tensor<768x768xf32>, tensor<768xf32>, tensor<768x768xf32>, tensor<768xf32>, tensor<768x768xf32>, tensor<768xf32>, tensor<768xf32>, tensor<768xf32>, tensor<3072x768xf32>, tensor<768xf32>, tensor<768xf32>, tensor<3072xf32>, tensor<768x3072xf32>, tensor<768xf32>, tensor<768x768xf32>, tensor<768xf32>, tensor<768x768xf32>, tensor<768xf32>, tensor<768x768xf32>, tensor<768xf32>, tensor<768x768xf32>, tensor<768xf32>, tensor<768xf32>, tensor<768xf32>, tensor<3072x768xf32>, tensor<768xf32>, tensor<768xf32>, tensor<3072xf32>, tensor<768x3072xf32>, tensor<768xf32>, tensor<768x768xf32>, tensor<768xf32>, tensor<768x768xf32>, tensor<768xf32>, tensor<768x768xf32>, tensor<768xf32>, tensor<768x768xf32>, tensor<768xf32>, tensor<768xf32>, tensor<768xf32>, tensor<3072x768xf32>, tensor<768xf32>, tensor<768xf32>, tensor<3072xf32>, tensor<768x3072xf32>, tensor<768xf32>, tensor<768x768xf32>, tensor<768xf32>, tensor<768x768xf32>, tensor<768xf32>, tensor<768x768xf32>, tensor<768xf32>, tensor<768x768xf32>, tensor<768xf32>, tensor<768xf32>, tensor<768xf32>, tensor<3072x768xf32>, tensor<768xf32>, tensor<768xf32>, tensor<3072xf32>, tensor<768x3072xf32>, tensor<768xf32>, tensor<768x768xf32>, tensor<768xf32>, tensor<768x768xf32>, tensor<768xf32>, tensor<768x768xf32>, tensor<768xf32>, tensor<768x768xf32>, tensor<768xf32>, tensor<768xf32>, tensor<768xf32>, tensor<3072x768xf32>, tensor<768xf32>, tensor<768xf32>, tensor<3072xf32>, tensor<768x3072xf32>, tensor<768xf32>, tensor<768x768xf32>, tensor<768xf32>, tensor<768x768xf32>, tensor<768xf32>, tensor<768x768xf32>, tensor<768xf32>, tensor<768x768xf32>, tensor<768xf32>, tensor<768xf32>, tensor<768xf32>, tensor<3072x768xf32>, tensor<768xf32>, tensor<768xf32>, tensor<3072xf32>, tensor<768x3072xf32>, tensor<768xf32>, tensor<768x768xf32>, tensor<768xf32>, tensor<768x768xf32>, tensor<768xf32>, tensor<768x768xf32>, tensor<768xf32>, tensor<768x768xf32>, tensor<768xf32>, tensor<768xf32>, tensor<768xf32>, tensor<3072x768xf32>, tensor<768xf32>, tensor<768xf32>, tensor<3072xf32>, tensor<768x3072xf32>, tensor<768xf32>, tensor<768xf32>, tensor<30522xf32>, tensor<768xf32>, tensor<768x768xf32>, tensor<30522x768xf32>, tensor<768xf32>, tensor<768xf32>, tensor<i32>, tensor<i32>, tensor<i32>, tensor<f32>, tensor<i32>, tensor<i32>
  }
  func.func private @_where(%arg0: tensor<64x512xi1>, %arg1: tensor<64x512xi32>, %arg2: tensor<i32>) -> tensor<64x512xi32> {
    %0 = stablehlo.convert %arg2 : tensor<i32>
    %1 = stablehlo.broadcast_in_dim %0, dims = [] : (tensor<i32>) -> tensor<64x512xi32>
    %2 = stablehlo.select %arg0, %arg1, %1 : tensor<64x512xi1>, tensor<64x512xi32>
    return %2 : tensor<64x512xi32>
  }
  func.func private @take_along_axis(%arg0: tensor<64x512x30522xf32>, %arg1: tensor<64x512x1xi32>) -> (tensor<64x512x1xf32>, tensor<64x512x1x1xi32>) {
    %c = stablehlo.constant dense<0> : tensor<i32>
    %0 = stablehlo.broadcast_in_dim %c, dims = [] : (tensor<i32>) -> tensor<64x512x1xi32>
    %1 = stablehlo.compare  LT, %arg1, %0,  SIGNED : (tensor<64x512x1xi32>, tensor<64x512x1xi32>) -> tensor<64x512x1xi1>
    %c_0 = stablehlo.constant dense<30522> : tensor<i32>
    %2 = stablehlo.broadcast_in_dim %c_0, dims = [] : (tensor<i32>) -> tensor<64x512x1xi32>
    %3 = stablehlo.add %arg1, %2 : tensor<64x512x1xi32>
    %4 = stablehlo.select %1, %3, %arg1 : tensor<64x512x1xi1>, tensor<64x512x1xi32>
    %5 = stablehlo.reshape %4 : (tensor<64x512x1xi32>) -> tensor<64x512x1x1xi32>
    %c_1 = stablehlo.constant dense<30521> : tensor<1xi32>
    %c_2 = stablehlo.constant dense<0> : tensor<i32>
    %6 = stablehlo.broadcast_in_dim %c_2, dims = [] : (tensor<i32>) -> tensor<64x512x1x1xi32>
    %7 = stablehlo.compare  GE, %5, %6,  SIGNED : (tensor<64x512x1x1xi32>, tensor<64x512x1x1xi32>) -> tensor<64x512x1x1xi1>
    %8 = stablehlo.broadcast_in_dim %c_1, dims = [3] : (tensor<1xi32>) -> tensor<1x1x1x1xi32>
    %9 = stablehlo.broadcast_in_dim %8, dims = [0, 1, 2, 3] : (tensor<1x1x1x1xi32>) -> tensor<64x512x1x1xi32>
    %10 = stablehlo.compare  LE, %5, %9,  SIGNED : (tensor<64x512x1x1xi32>, tensor<64x512x1x1xi32>) -> tensor<64x512x1x1xi1>
    %11 = stablehlo.and %7, %10 : tensor<64x512x1x1xi1>
    %c_3 = stablehlo.constant dense<true> : tensor<i1>
    %12 = stablehlo.reduce(%11 init: %c_3) applies stablehlo.and across dimensions = [3] : (tensor<64x512x1x1xi1>, tensor<i1>) -> tensor<64x512x1xi1>
    %13 = "stablehlo.gather"(%arg0, %5) <{dimension_numbers = #stablehlo.gather<collapsed_slice_dims = [2], operand_batching_dims = [0, 1], start_indices_batching_dims = [0, 1], start_index_map = [2], index_vector_dim = 3>, indices_are_sorted = false, slice_sizes = array<i64: 1, 1, 1>}> : (tensor<64x512x30522xf32>, tensor<64x512x1x1xi32>) -> tensor<64x512x1xf32>
    %cst = stablehlo.constant dense<0x7FC00000> : tensor<f32>
    %14 = stablehlo.broadcast_in_dim %cst, dims = [] : (tensor<f32>) -> tensor<64x512x1xf32>
    %15 = stablehlo.select %12, %13, %14 : tensor<64x512x1xi1>, tensor<64x512x1xf32>
    return %15, %5 : tensor<64x512x1xf32>, tensor<64x512x1x1xi32>
  }
  func.func private @_where_90(%arg0: tensor<64x512xi1>, %arg1: tensor<64x512xf32>, %arg2: tensor<f32>) -> tensor<64x512xf32> {
    %0 = stablehlo.convert %arg2 : tensor<f32>
    %1 = stablehlo.broadcast_in_dim %0, dims = [] : (tensor<f32>) -> tensor<64x512xf32>
    %2 = stablehlo.select %arg0, %arg1, %1 : tensor<64x512xi1>, tensor<64x512xf32>
    return %2 : tensor<64x512xf32>
  }
  func.func private @argmax(%arg0: tensor<64x512x30522xf32>) -> tensor<64x512xi32> {
    %0 = stablehlo.iota dim = 2 : tensor<64x512x30522xi32>
    %cst = stablehlo.constant dense<0xFF800000> : tensor<f32>
    %c = stablehlo.constant dense<0> : tensor<i32>
    %1:2 = stablehlo.reduce(%arg0 init: %cst), (%0 init: %c) across dimensions = [2] : (tensor<64x512x30522xf32>, tensor<64x512x30522xi32>, tensor<f32>, tensor<i32>) -> (tensor<64x512xf32>, tensor<64x512xi32>)
     reducer(%arg1: tensor<f32>, %arg3: tensor<f32>) (%arg2: tensor<i32>, %arg4: tensor<i32>)  {
      %2 = stablehlo.compare  GT, %arg1, %arg3,  FLOAT : (tensor<f32>, tensor<f32>) -> tensor<i1>
      %3 = stablehlo.compare  NE, %arg1, %arg1,  FLOAT : (tensor<f32>, tensor<f32>) -> tensor<i1>
      %4 = stablehlo.or %2, %3 : tensor<i1>
      %5 = stablehlo.compare  EQ, %arg1, %arg3,  FLOAT : (tensor<f32>, tensor<f32>) -> tensor<i1>
      %6 = stablehlo.compare  LT, %arg2, %arg4,  SIGNED : (tensor<i32>, tensor<i32>) -> tensor<i1>
      %7 = stablehlo.and %5, %6 : tensor<i1>
      %8 = stablehlo.or %4, %7 : tensor<i1>
      %9 = stablehlo.select %4, %arg1, %arg3 : tensor<i1>, tensor<f32>
      %10 = stablehlo.select %8, %arg2, %arg4 : tensor<i1>, tensor<i32>
      stablehlo.return %9, %10 : tensor<f32>, tensor<i32>
    }
    return %1#1 : tensor<64x512xi32>
  }
  func.func private @_where_105(%arg0: tensor<64x512xi1>, %arg1: tensor<64x512xf32>) -> tensor<64x512xf32> {
    %cst = stablehlo.constant dense<0.000000e+00> : tensor<f32>
    %0 = stablehlo.broadcast_in_dim %cst, dims = [] : (tensor<f32>) -> tensor<64x512xf32>
    %1 = stablehlo.select %arg0, %arg1, %0 : tensor<64x512xi1>, tensor<64x512xf32>
    return %1 : tensor<64x512xf32>
  }
  func.func private @take_along_axis_106(%arg0: tensor<64x512x1x1xi32>, %arg1: tensor<64x512x1xf32>) -> tensor<64x512x30522xf32> {
    %cst = stablehlo.constant dense<0.000000e+00> : tensor<f32>
    %0 = stablehlo.broadcast_in_dim %cst, dims = [] : (tensor<f32>) -> tensor<64x512x30522xf32>
    %1 = "stablehlo.scatter"(%0, %arg0, %arg1) <{indices_are_sorted = false, scatter_dimension_numbers = #stablehlo.scatter<inserted_window_dims = [2], input_batching_dims = [0, 1], scatter_indices_batching_dims = [0, 1], scatter_dims_to_operand_dims = [2], index_vector_dim = 3>, unique_indices = false}> ({
    ^bb0(%arg2: tensor<f32>, %arg3: tensor<f32>):
      %2 = stablehlo.add %arg2, %arg3 : tensor<f32>
      stablehlo.return %2 : tensor<f32>
    }) : (tensor<64x512x30522xf32>, tensor<64x512x1x1xi32>, tensor<64x512x1xf32>) -> tensor<64x512x30522xf32>
    return %1 : tensor<64x512x30522xf32>
  }
  func.func private @_where_264(%arg0: tensor<i1>, %arg1: tensor<i32>, %arg2: tensor<i32>) -> tensor<i32> {
    %0 = stablehlo.select %arg0, %arg1, %arg2 : tensor<i1>, tensor<i32>
    return %0 : tensor<i32>
  }
  func.func private @clip(%arg0: tensor<i32>, %arg1: tensor<i32>, %arg2: tensor<i32>) -> tensor<i32> {
    %0 = stablehlo.convert %arg1 : tensor<i32>
    %1 = stablehlo.maximum %0, %arg0 : tensor<i32>
    %2 = stablehlo.convert %arg2 : tensor<i32>
    %3 = stablehlo.minimum %2, %1 : tensor<i32>
    return %3 : tensor<i32>
  }
  func.func private @_where_314(%arg0: tensor<i1>, %arg1: tensor<f32>, %arg2: tensor<f32>) -> tensor<f32> {
    %0 = stablehlo.convert %arg2 : tensor<f32>
    %1 = stablehlo.select %arg0, %arg1, %0 : tensor<i1>, tensor<f32>
    return %1 : tensor<f32>
  }
}
