module @jit_train_step attributes {mhlo.num_partitions = 4 : i32, mhlo.num_replicas = 1 : i32} {
  sdy.mesh @mesh = <["dp"=4]>
  sdy.mesh @empty_mesh = <[]>
  func.func public @main(%arg0: tensor<512x768xf32> {sdy.sharding = #sdy.sharding<@mesh, [{}, {}]>}, %arg1: tensor<2x768xf32> {sdy.sharding = #sdy.sharding<@mesh, [{}, {}]>}, %arg2: tensor<30522x768xf32> {sdy.sharding = #sdy.sharding<@mesh, [{}, {}]>}, %arg3: tensor<768xf32> {sdy.sharding = #sdy.sharding<@mesh, [{}]>}, %arg4: tensor<768x768xf32> {sdy.sharding = #sdy.sharding<@mesh, [{}, {}]>}, %arg5: tensor<768xf32> {sdy.sharding = #sdy.sharding<@mesh, [{}]>}, %arg6: tensor<768x768xf32> {sdy.sharding = #sdy.sharding<@mesh, [{}, {}]>}, %arg7: tensor<768xf32> {sdy.sharding = #sdy.sharding<@mesh, [{}]>}, %arg8: tensor<768x768xf32> {sdy.sharding = #sdy.sharding<@mesh, [{}, {}]>}, %arg9: tensor<768xf32> {sdy.sharding = #sdy.sharding<@mesh, [{}]>}, %arg10: tensor<768x768xf32> {sdy.sharding = #sdy.sharding<@mesh, [{}, {}]>}, %arg11: tensor<768xf32> {sdy.sharding = #sdy.sharding<@mesh, [{}]>}, %arg12: tensor<768xf32> {sdy.sharding = #sdy.sharding<@mesh, [{}]>}, %arg13: tensor<768xf32> {sdy.sharding = #sdy.sharding<@mesh, [{}]>}, %arg14: tensor<3072x768xf32> {sdy.sharding = #sdy.sharding<@mesh, [{}, {}]>}, %arg15: tensor<768xf32> {sdy.sharding = #sdy.sharding<@mesh, [{}]>}, %arg16: tensor<768xf32> {sdy.sharding = #sdy.sharding<@mesh, [{}]>}, %arg17: tensor<3072xf32> {sdy.sharding = #sdy.sharding<@mesh, [{}]>}, %arg18: tensor<768x3072xf32> {sdy.sharding = #sdy.sharding<@mesh, [{}, {}]>}, %arg19: tensor<768xf32> {sdy.sharding = #sdy.sharding<@mesh, [{}]>}, %arg20: tensor<768x768xf32> {sdy.sharding = #sdy.sharding<@mesh, [{}, {}]>}, %arg21: tensor<768xf32> {sdy.sharding = #sdy.sharding<@mesh, [{}]>}, %arg22: tensor<768x768xf32> {sdy.sharding = #sdy.sharding<@mesh, [{}, {}]>}, %arg23: tensor<768xf32> {sdy.sharding = #sdy.sharding<@mesh, [{}]>}, %arg24: tensor<768x768xf32> {sdy.sharding = #sdy.sharding<@mesh, [{}, {}]>}, %arg25: tensor<768xf32> {sdy.sharding = #sdy.sharding<@mesh, [{}]>}, %arg26: tensor<768x768xf32> {sdy.sharding = #sdy.sharding<@mesh, [{}, {}]>}, %arg27: tensor<768xf32> {sdy.sharding = #sdy.sharding<@mesh, [{}]>}, %arg28: tensor<768xf32> {sdy.sharding = #sdy.sharding<@mesh, [{}]>}, %arg29: tensor<768xf32> {sdy.sharding = #sdy.sharding<@mesh, [{}]>}, %arg30: tensor<3072x768xf32> {sdy.sharding = #sdy.sharding<@mesh, [{}, {}]>}, %arg31: tensor<768xf32> {sdy.sharding = #sdy.sharding<@mesh, [{}]>}, %arg32: tensor<768xf32> {sdy.sharding = #sdy.sharding<@mesh, [{}]>}, %arg33: tensor<3072xf32> {sdy.sharding = #sdy.sharding<@mesh, [{}]>}, %arg34: tensor<768x3072xf32> {sdy.sharding = #sdy.sharding<@mesh, [{}, {}]>}, %arg35: tensor<768xf32> {sdy.sharding = #sdy.sharding<@mesh, [{}]>}, %arg36: tensor<768x768xf32> {sdy.sharding = #sdy.sharding<@mesh, [{}, {}]>}, %arg37: tensor<768xf32> {sdy.sharding = #sdy.sharding<@mesh, [{}]>}, %arg38: tensor<768x768xf32> {sdy.sharding = #sdy.sharding<@mesh, [{}, {}]>}, %arg39: tensor<768xf32> {sdy.sharding = #sdy.sharding<@mesh, [{}]>}, %arg40: tensor<768x768xf32> {sdy.sharding = #sdy.sharding<@mesh, [{}, {}]>}, %arg41: tensor<768xf32> {sdy.sharding = #sdy.sharding<@mesh, [{}]>}, %arg42: tensor<768x768xf32> {sdy.sharding = #sdy.sharding<@mesh, [{}, {}]>}, %arg43: tensor<768xf32> {sdy.sharding = #sdy.sharding<@mesh, [{}]>}, %arg44: tensor<768xf32> {sdy.sharding = #sdy.sharding<@mesh, [{}]>}, %arg45: tensor<768xf32> {sdy.sharding = #sdy.sharding<@mesh, [{}]>}, %arg46: tensor<3072x768xf32> {sdy.sharding = #sdy.sharding<@mesh, [{}, {}]>}, %arg47: tensor<768xf32> {sdy.sharding = #sdy.sharding<@mesh, [{}]>}, %arg48: tensor<768xf32> {sdy.sharding = #sdy.sharding<@mesh, [{}]>}, %arg49: tensor<3072xf32> {sdy.sharding = #sdy.sharding<@mesh, [{}]>}, %arg50: tensor<768x3072xf32> {sdy.sharding = #sdy.sharding<@mesh, [{}, {}]>}, %arg51: tensor<768xf32> {sdy.sharding = #sdy.sharding<@mesh, [{}]>}, %arg52: tensor<768x768xf32> {sdy.sharding = #sdy.sharding<@mesh, [{}, {}]>}, %arg53: tensor<768xf32> {sdy.sharding = #sdy.sharding<@mesh, [{}]>}, %arg54: tensor<768x768xf32> {sdy.sharding = #sdy.sharding<@mesh, [{}, {}]>}, %arg55: tensor<768xf32> {sdy.sharding = #sdy.sharding<@mesh, [{}]>}, %arg56: tensor<768x768xf32> {sdy.sharding = #sdy.sharding<@mesh, [{}, {}]>}, %arg57: tensor<768xf32> {sdy.sharding = #sdy.sharding<@mesh, [{}]>}, %arg58: tensor<768x768xf32> {sdy.sharding = #sdy.sharding<@mesh, [{}, {}]>}, %arg59: tensor<768xf32> {sdy.sharding = #sdy.sharding<@mesh, [{}]>}, %arg60: tensor<768xf32> {sdy.sharding = #sdy.sharding<@mesh, [{}]>}, %arg61: tensor<768xf32> {sdy.sharding = #sdy.sharding<@mesh, [{}]>}, %arg62: tensor<3072x768xf32> {sdy.sharding = #sdy.sharding<@mesh, [{}, {}]>}, %arg63: tensor<768xf32> {sdy.sharding = #sdy.sharding<@mesh, [{}]>}, %arg64: tensor<768xf32> {sdy.sharding = #sdy.sharding<@mesh, [{}]>}, %arg65: tensor<3072xf32> {sdy.sharding = #sdy.sharding<@mesh, [{}]>}, %arg66: tensor<768x3072xf32> {sdy.sharding = #sdy.sharding<@mesh, [{}, {}]>}, %arg67: tensor<768xf32> {sdy.sharding = #sdy.sharding<@mesh, [{}]>}, %arg68: tensor<768x768xf32> {sdy.sharding = #sdy.sharding<@mesh, [{}, {}]>}, %arg69: tensor<768xf32> {sdy.sharding = #sdy.sharding<@mesh, [{}]>}, %arg70: tensor<768x768xf32> {sdy.sharding = #sdy.sharding<@mesh, [{}, {}]>}, %arg71: tensor<768xf32> {sdy.sharding = #sdy.sharding<@mesh, [{}]>}, %arg72: tensor<768x768xf32> {sdy.sharding = #sdy.sharding<@mesh, [{}, {}]>}, %arg73: tensor<768xf32> {sdy.sharding = #sdy.sharding<@mesh, [{}]>}, %arg74: tensor<768x768xf32> {sdy.sharding = #sdy.sharding<@mesh, [{}, {}]>}, %arg75: tensor<768xf32> {sdy.sharding = #sdy.sharding<@mesh, [{}]>}, %arg76: tensor<768xf32> {sdy.sharding = #sdy.sharding<@mesh, [{}]>}, %arg77: tensor<768xf32> {sdy.sharding = #sdy.sharding<@mesh, [{}]>}, %arg78: tensor<3072x768xf32> {sdy.sharding = #sdy.sharding<@mesh, [{}, {}]>}, %arg79: tensor<768xf32> {sdy.sharding = #sdy.sharding<@mesh, [{}]>}, %arg80: tensor<768xf32> {sdy.sharding = #sdy.sharding<@mesh, [{}]>}, %arg81: tensor<3072xf32> {sdy.sharding = #sdy.sharding<@mesh, [{}]>}, %arg82: tensor<768x3072xf32> {sdy.sharding = #sdy.sharding<@mesh, [{}, {}]>}, %arg83: tensor<768xf32> {sdy.sharding = #sdy.sharding<@mesh, [{}]>}, %arg84: tensor<768x768xf32> {sdy.sharding = #sdy.sharding<@mesh, [{}, {}]>}, %arg85: tensor<768xf32> {sdy.sharding = #sdy.sharding<@mesh, [{}]>}, %arg86: tensor<768x768xf32> {sdy.sharding = #sdy.sharding<@mesh, [{}, {}]>}, %arg87: tensor<768xf32> {sdy.sharding = #sdy.sharding<@mesh, [{}]>}, %arg88: tensor<768x768xf32> {sdy.sharding = #sdy.sharding<@mesh, [{}, {}]>}, %arg89: tensor<768xf32> {sdy.sharding = #sdy.sharding<@mesh, [{}]>}, %arg90: tensor<768x768xf32> {sdy.sharding = #sdy.sharding<@mesh, [{}, {}]>}, %arg91: tensor<768xf32> {sdy.sharding = #sdy.sharding<@mesh, [{}]>}, %arg92: tensor<768xf32> {sdy.sharding = #sdy.sharding<@mesh, [{}]>}, %arg93: tensor<768xf32> {sdy.sharding = #sdy.sharding<@mesh, [{}]>}, %arg94: tensor<3072x768xf32> {sdy.sharding = #sdy.sharding<@mesh, [{}, {}]>}, %arg95: tensor<768xf32> {sdy.sharding = #sdy.sharding<@mesh, [{}]>}, %arg96: tensor<768xf32> {sdy.sharding = #sdy.sharding<@mesh, [{}]>}, %arg97: tensor<3072xf32> {sdy.sharding = #sdy.sharding<@mesh, [{}]>}, %arg98: tensor<768x3072xf32> {sdy.sharding = #sdy.sharding<@mesh, [{}, {}]>}, %arg99: tensor<768xf32> {sdy.sharding = #sdy.sharding<@mesh, [{}]>}, %arg100: tensor<768x768xf32> {sdy.sharding = #sdy.sharding<@mesh, [{}, {}]>}, %arg101: tensor<768xf32> {sdy.sharding = #sdy.sharding<@mesh, [{}]>}, %arg102: tensor<768x768xf32> {sdy.sharding = #sdy.sharding<@mesh, [{}, {}]>}, %arg103: tensor<768xf32> {sdy.sharding = #sdy.sharding<@mesh, [{}]>}, %arg104: tensor<768x768xf32> {sdy.sharding = #sdy.sharding<@mesh, [{}, {}]>}, %arg105: tensor<768xf32> {sdy.sharding = #sdy.sharding<@mesh, [{}]>}, %arg106: tensor<768x768xf32> {sdy.sharding = #sdy.sharding<@mesh, [{}, {}]>}, %arg107: tensor<768xf32> {sdy.sharding = #sdy.sharding<@mesh, [{}]>}, %arg108: tensor<768xf32> {sdy.sharding = #sdy.sharding<@mesh, [{}]>}, %arg109: tensor<768xf32> {sdy.sharding = #sdy.sharding<@mesh, [{}]>}, %arg110: tensor<3072x768xf32> {sdy.sharding = #sdy.sharding<@mesh, [{}, {}]>}, %arg111: tensor<768xf32> {sdy.sharding = #sdy.sharding<@mesh, [{}]>}, %arg112: tensor<768xf32> {sdy.sharding = #sdy.sharding<@mesh, [{}]>}, %arg113: tensor<3072xf32> {sdy.sharding = #sdy.sharding<@mesh, [{}]>}, %arg114: tensor<768x3072xf32> {sdy.sharding = #sdy.sharding<@mesh, [{}, {}]>}, %arg115: tensor<768xf32> {sdy.sharding = #sdy.sharding<@mesh, [{}]>}, %arg116: tensor<768x768xf32> {sdy.sharding = #sdy.sharding<@mesh, [{}, {}]>}, %arg117: tensor<768xf32> {sdy.sharding = #sdy.sharding<@mesh, [{}]>}, %arg118: tensor<768x768xf32> {sdy.sharding = #sdy.sharding<@mesh, [{}, {}]>}, %arg119: tensor<768xf32> {sdy.sharding = #sdy.sharding<@mesh, [{}]>}, %arg120: tensor<768x768xf32> {sdy.sharding = #sdy.sharding<@mesh, [{}, {}]>}, %arg121: tensor<768xf32> {sdy.sharding = #sdy.sharding<@mesh, [{}]>}, %arg122: tensor<768x768xf32> {sdy.sharding = #sdy.sharding<@mesh, [{}, {}]>}, %arg123: tensor<768xf32> {sdy.sharding = #sdy.sharding<@mesh, [{}]>}, %arg124: tensor<768xf32> {sdy.sharding = #sdy.sharding<@mesh, [{}]>}, %arg125: tensor<768xf32> {sdy.sharding = #sdy.sharding<@mesh, [{}]>}, %arg126: tensor<3072x768xf32> {sdy.sharding = #sdy.sharding<@mesh, [{}, {}]>}, %arg127: tensor<768xf32> {sdy.sharding = #sdy.sharding<@mesh, [{}]>}, %arg128: tensor<768xf32> {sdy.sharding = #sdy.sharding<@mesh, [{}]>}, %arg129: tensor<3072xf32> {sdy.sharding = #sdy.sharding<@mesh, [{}]>}, %arg130: tensor<768x3072xf32> {sdy.sharding = #sdy.sharding<@mesh, [{}, {}]>}, %arg131: tensor<768xf32> {sdy.sharding = #sdy.sharding<@mesh, [{}]>}, %arg132: tensor<768x768xf32> {sdy.sharding = #sdy.sharding<@mesh, [{}, {}]>}, %arg133: tensor<768xf32> {sdy.sharding = #sdy.sharding<@mesh, [{}]>}, %arg134: tensor<768x768xf32> {sdy.sharding = #sdy.sharding<@mesh, [{}, {}]>}, %arg135: tensor<768xf32> {sdy.sharding = #sdy.sharding<@mesh, [{}]>}, %arg136: tensor<768x768xf32> {sdy.sharding = #sdy.sharding<@mesh, [{}, {}]>}, %arg137: tensor<768xf32> {sdy.sharding = #sdy.sharding<@mesh, [{}]>}, %arg138: tensor<768x768xf32> {sdy.sharding = #sdy.sharding<@mesh, [{}, {}]>}, %arg139: tensor<768xf32> {sdy.sharding = #sdy.sharding<@mesh, [{}]>}, %arg140: tensor<768xf32> {sdy.sharding = #sdy.sharding<@mesh, [{}]>}, %arg141: tensor<768xf32> {sdy.sharding = #sdy.sharding<@mesh, [{}]>}, %arg142: tensor<3072x768xf32> {sdy.sharding = #sdy.sharding<@mesh, [{}, {}]>}, %arg143: tensor<768xf32> {sdy.sharding = #sdy.sharding<@mesh, [{}]>}, %arg144: tensor<768xf32> {sdy.sharding = #sdy.sharding<@mesh, [{}]>}, %arg145: tensor<3072xf32> {sdy.sharding = #sdy.sharding<@mesh, [{}]>}, %arg146: tensor<768x3072xf32> {sdy.sharding = #sdy.sharding<@mesh, [{}, {}]>}, %arg147: tensor<768xf32> {sdy.sharding = #sdy.sharding<@mesh, [{}]>}, %arg148: tensor<768x768xf32> {sdy.sharding = #sdy.sharding<@mesh, [{}, {}]>}, %arg149: tensor<768xf32> {sdy.sharding = #sdy.sharding<@mesh, [{}]>}, %arg150: tensor<768x768xf32> {sdy.sharding = #sdy.sharding<@mesh, [{}, {}]>}, %arg151: tensor<768xf32> {sdy.sharding = #sdy.sharding<@mesh, [{}]>}, %arg152: tensor<768x768xf32> {sdy.sharding = #sdy.sharding<@mesh, [{}, {}]>}, %arg153: tensor<768xf32> {sdy.sharding = #sdy.sharding<@mesh, [{}]>}, %arg154: tensor<768x768xf32> {sdy.sharding = #sdy.sharding<@mesh, [{}, {}]>}, %arg155: tensor<768xf32> {sdy.sharding = #sdy.sharding<@mesh, [{}]>}, %arg156: tensor<768xf32> {sdy.sharding = #sdy.sharding<@mesh, [{}]>}, %arg157: tensor<768xf32> {sdy.sharding = #sdy.sharding<@mesh, [{}]>}, %arg158: tensor<3072x768xf32> {sdy.sharding = #sdy.sharding<@mesh, [{}, {}]>}, %arg159: tensor<768xf32> {sdy.sharding = #sdy.sharding<@mesh, [{}]>}, %arg160: tensor<768xf32> {sdy.sharding = #sdy.sharding<@mesh, [{}]>}, %arg161: tensor<3072xf32> {sdy.sharding = #sdy.sharding<@mesh, [{}]>}, %arg162: tensor<768x3072xf32> {sdy.sharding = #sdy.sharding<@mesh, [{}, {}]>}, %arg163: tensor<768xf32> {sdy.sharding = #sdy.sharding<@mesh, [{}]>}, %arg164: tensor<768x768xf32> {sdy.sharding = #sdy.sharding<@mesh, [{}, {}]>}, %arg165: tensor<768xf32> {sdy.sharding = #sdy.sharding<@mesh, [{}]>}, %arg166: tensor<768x768xf32> {sdy.sharding = #sdy.sharding<@mesh, [{}, {}]>}, %arg167: tensor<768xf32> {sdy.sharding = #sdy.sharding<@mesh, [{}]>}, %arg168: tensor<768x768xf32> {sdy.sharding = #sdy.sharding<@mesh, [{}, {}]>}, %arg169: tensor<768xf32> {sdy.sharding = #sdy.sharding<@mesh, [{}]>}, %arg170: tensor<768x768xf32> {sdy.sharding = #sdy.sharding<@mesh, [{}, {}]>}, %arg171: tensor<768xf32> {sdy.sharding = #sdy.sharding<@mesh, [{}]>}, %arg172: tensor<768xf32> {sdy.sharding = #sdy.sharding<@mesh, [{}]>}, %arg173: tensor<768xf32> {sdy.sharding = #sdy.sharding<@mesh, [{}]>}, %arg174: tensor<3072x768xf32> {sdy.sharding = #sdy.sharding<@mesh, [{}, {}]>}, %arg175: tensor<768xf32> {sdy.sharding = #sdy.sharding<@mesh, [{}]>}, %arg176: tensor<768xf32> {sdy.sharding = #sdy.sharding<@mesh, [{}]>}, %arg177: tensor<3072xf32> {sdy.sharding = #sdy.sharding<@mesh, [{}]>}, %arg178: tensor<768x3072xf32> {sdy.sharding = #sdy.sharding<@mesh, [{}, {}]>}, %arg179: tensor<768xf32> {sdy.sharding = #sdy.sharding<@mesh, [{}]>}, %arg180: tensor<768x768xf32> {sdy.sharding = #sdy.sharding<@mesh, [{}, {}]>}, %arg181: tensor<768xf32> {sdy.sharding = #sdy.sharding<@mesh, [{}]>}, %arg182: tensor<768x768xf32> {sdy.sharding = #sdy.sharding<@mesh, [{}, {}]>}, %arg183: tensor<768xf32> {sdy.sharding = #sdy.sharding<@mesh, [{}]>}, %arg184: tensor<768x768xf32> {sdy.sharding = #sdy.sharding<@mesh, [{}, {}]>}, %arg185: tensor<768xf32> {sdy.sharding = #sdy.sharding<@mesh, [{}]>}, %arg186: tensor<768x768xf32> {sdy.sharding = #sdy.sharding<@mesh, [{}, {}]>}, %arg187: tensor<768xf32> {sdy.sharding = #sdy.sharding<@mesh, [{}]>}, %arg188: tensor<768xf32> {sdy.sharding = #sdy.sharding<@mesh, [{}]>}, %arg189: tensor<768xf32> {sdy.sharding = #sdy.sharding<@mesh, [{}]>}, %arg190: tensor<3072x768xf32> {sdy.sharding = #sdy.sharding<@mesh, [{}, {}]>}, %arg191: tensor<768xf32> {sdy.sharding = #sdy.sharding<@mesh, [{}]>}, %arg192: tensor<768xf32> {sdy.sharding = #sdy.sharding<@mesh, [{}]>}, %arg193: tensor<3072xf32> {sdy.sharding = #sdy.sharding<@mesh, [{}]>}, %arg194: tensor<768x3072xf32> {sdy.sharding = #sdy.sharding<@mesh, [{}, {}]>}, %arg195: tensor<768xf32> {sdy.sharding = #sdy.sharding<@mesh, [{}]>}, %arg196: tensor<768xf32> {sdy.sharding = #sdy.sharding<@mesh, [{}]>}, %arg197: tensor<30522xf32> {sdy.sharding = #sdy.sharding<@mesh, [{}]>}, %arg198: tensor<768xf32> {sdy.sharding = #sdy.sharding<@mesh, [{}]>}, %arg199: tensor<768x768xf32> {sdy.sharding = #sdy.sharding<@mesh, [{}, {}]>}, %arg200: tensor<30522x768xf32> {sdy.sharding = #sdy.sharding<@mesh, [{}, {}]>}, %arg201: tensor<768xf32> {sdy.sharding = #sdy.sharding<@mesh, [{}]>}, %arg202: tensor<768xf32> {sdy.sharding = #sdy.sharding<@mesh, [{}]>}, %arg203: tensor<i32>, %arg204: tensor<512x768xf32> {sdy.sharding = #sdy.sharding<@mesh, [{}, {}]>}, %arg205: tensor<2x768xf32> {sdy.sharding = #sdy.sharding<@mesh, [{}, {}]>}, %arg206: tensor<30522x768xf32> {sdy.sharding = #sdy.sharding<@mesh, [{}, {}]>}, %arg207: tensor<768xf32> {sdy.sharding = #sdy.sharding<@mesh, [{}]>}, %arg208: tensor<768x768xf32> {sdy.sharding = #sdy.sharding<@mesh, [{}, {}]>}, %arg209: tensor<768xf32> {sdy.sharding = #sdy.sharding<@mesh, [{}]>}, %arg210: tensor<768x768xf32> {sdy.sharding = #sdy.sharding<@mesh, [{}, {}]>}, %arg211: tensor<768xf32> {sdy.sharding = #sdy.sharding<@mesh, [{}]>}, %arg212: tensor<768x768xf32> {sdy.sharding = #sdy.sharding<@mesh, [{}, {}]>}, %arg213: tensor<768xf32> {sdy.sharding = #sdy.sharding<@mesh, [{}]>}, %arg214: tensor<768x768xf32> {sdy.sharding = #sdy.sharding<@mesh, [{}, {}]>}, %arg215: tensor<768xf32> {sdy.sharding = #sdy.sharding<@mesh, [{}]>}, %arg216: tensor<768xf32> {sdy.sharding = #sdy.sharding<@mesh, [{}]>}, %arg217: tensor<768xf32> {sdy.sharding = #sdy.sharding<@mesh, [{}]>}, %arg218: tensor<3072x768xf32> {sdy.sharding = #sdy.sharding<@mesh, [{}, {}]>}, %arg219: tensor<768xf32> {sdy.sharding = #sdy.sharding<@mesh, [{}]>}, %arg220: tensor<768xf32> {sdy.sharding = #sdy.sharding<@mesh, [{}]>}, %arg221: tensor<3072xf32> {sdy.sharding = #sdy.sharding<@mesh, [{}]>}, %arg222: tensor<768x3072xf32> {sdy.sharding = #sdy.sharding<@mesh, [{}, {}]>}, %arg223: tensor<768xf32> {sdy.sharding = #sdy.sharding<@mesh, [{}]>}, %arg224: tensor<768x768xf32> {sdy.sharding = #sdy.sharding<@mesh, [{}, {}]>}, %arg225: tensor<768xf32> {sdy.sharding = #sdy.sharding<@mesh, [{}]>}, %arg226: tensor<768x768xf32> {sdy.sharding = #sdy.sharding<@mesh, [{}, {}]>}, %arg227: tensor<768xf32> {sdy.sharding = #sdy.sharding<@mesh, [{}]>}, %arg228: tensor<768x768xf32> {sdy.sharding = #sdy.sharding<@mesh, [{}, {}]>}, %arg229: tensor<768xf32> {sdy.sharding = #sdy.sharding<@mesh, [{}]>}, %arg230: tensor<768x768xf32> {sdy.sharding = #sdy.sharding<@mesh, [{}, {}]>}, %arg231: tensor<768xf32> {sdy.sharding = #sdy.sharding<@mesh, [{}]>}, %arg232: tensor<768xf32> {sdy.sharding = #sdy.sharding<@mesh, [{}]>}, %arg233: tensor<768xf32> {sdy.sharding = #sdy.sharding<@mesh, [{}]>}, %arg234: tensor<3072x768xf32> {sdy.sharding = #sdy.sharding<@mesh, [{}, {}]>}, %arg235: tensor<768xf32> {sdy.sharding = #sdy.sharding<@mesh, [{}]>}, %arg236: tensor<768xf32> {sdy.sharding = #sdy.sharding<@mesh, [{}]>}, %arg237: tensor<3072xf32> {sdy.sharding = #sdy.sharding<@mesh, [{}]>}, %arg238: tensor<768x3072xf32> {sdy.sharding = #sdy.sharding<@mesh, [{}, {}]>}, %arg239: tensor<768xf32> {sdy.sharding = #sdy.sharding<@mesh, [{}]>}, %arg240: tensor<768x768xf32> {sdy.sharding = #sdy.sharding<@mesh, [{}, {}]>}, %arg241: tensor<768xf32> {sdy.sharding = #sdy.sharding<@mesh, [{}]>}, %arg242: tensor<768x768xf32> {sdy.sharding = #sdy.sharding<@mesh, [{}, {}]>}, %arg243: tensor<768xf32> {sdy.sharding = #sdy.sharding<@mesh, [{}]>}, %arg244: tensor<768x768xf32> {sdy.sharding = #sdy.sharding<@mesh, [{}, {}]>}, %arg245: tensor<768xf32> {sdy.sharding = #sdy.sharding<@mesh, [{}]>}, %arg246: tensor<768x768xf32> {sdy.sharding = #sdy.sharding<@mesh, [{}, {}]>}, %arg247: tensor<768xf32> {sdy.sharding = #sdy.sharding<@mesh, [{}]>}, %arg248: tensor<768xf32> {sdy.sharding = #sdy.sharding<@mesh, [{}]>}, %arg249: tensor<768xf32> {sdy.sharding = #sdy.sharding<@mesh, [{}]>}, %arg250: tensor<3072x768xf32> {sdy.sharding = #sdy.sharding<@mesh, [{}, {}]>}, %arg251: tensor<768xf32> {sdy.sharding = #sdy.sharding<@mesh, [{}]>}, %arg252: tensor<768xf32> {sdy.sharding = #sdy.sharding<@mesh, [{}]>}, %arg253: tensor<3072xf32> {sdy.sharding = #sdy.sharding<@mesh, [{}]>}, %arg254: tensor<768x3072xf32> {sdy.sharding = #sdy.sharding<@mesh, [{}, {}]>}, %arg255: tensor<768xf32> {sdy.sharding = #sdy.sharding<@mesh, [{}]>}, %arg256: tensor<768x768xf32> {sdy.sharding = #sdy.sharding<@mesh, [{}, {}]>}, %arg257: tensor<768xf32> {sdy.sharding = #sdy.sharding<@mesh, [{}]>}, %arg258: tensor<768x768xf32> {sdy.sharding = #sdy.sharding<@mesh, [{}, {}]>}, %arg259: tensor<768xf32> {sdy.sharding = #sdy.sharding<@mesh, [{}]>}, %arg260: tensor<768x768xf32> {sdy.sharding = #sdy.sharding<@mesh, [{}, {}]>}, %arg261: tensor<768xf32> {sdy.sharding = #sdy.sharding<@mesh, [{}]>}, %arg262: tensor<768x768xf32> {sdy.sharding = #sdy.sharding<@mesh, [{}, {}]>}, %arg263: tensor<768xf32> {sdy.sharding = #sdy.sharding<@mesh, [{}]>}, %arg264: tensor<768xf32> {sdy.sharding = #sdy.sharding<@mesh, [{}]>}, %arg265: tensor<768xf32> {sdy.sharding = #sdy.sharding<@mesh, [{}]>}, %arg266: tensor<3072x768xf32> {sdy.sharding = #sdy.sharding<@mesh, [{}, {}]>}, %arg267: tensor<768xf32> {sdy.sharding = #sdy.sharding<@mesh, [{}]>}, %arg268: tensor<768xf32> {sdy.sharding = #sdy.sharding<@mesh, [{}]>}, %arg269: tensor<3072xf32> {sdy.sharding = #sdy.sharding<@mesh, [{}]>}, %arg270: tensor<768x3072xf32> {sdy.sharding = #sdy.sharding<@mesh, [{}, {}]>}, %arg271: tensor<768xf32> {sdy.sharding = #sdy.sharding<@mesh, [{}]>}, %arg272: tensor<768x768xf32> {sdy.sharding = #sdy.sharding<@mesh, [{}, {}]>}, %arg273: tensor<768xf32> {sdy.sharding = #sdy.sharding<@mesh, [{}]>}, %arg274: tensor<768x768xf32> {sdy.sharding = #sdy.sharding<@mesh, [{}, {}]>}, %arg275: tensor<768xf32> {sdy.sharding = #sdy.sharding<@mesh, [{}]>}, %arg276: tensor<768x768xf32> {sdy.sharding = #sdy.sharding<@mesh, [{}, {}]>}, %arg277: tensor<768xf32> {sdy.sharding = #sdy.sharding<@mesh, [{}]>}, %arg278: tensor<768x768xf32> {sdy.sharding = #sdy.sharding<@mesh, [{}, {}]>}, %arg279: tensor<768xf32> {sdy.sharding = #sdy.sharding<@mesh, [{}]>}, %arg280: tensor<768xf32> {sdy.sharding = #sdy.sharding<@mesh, [{}]>}, %arg281: tensor<768xf32> {sdy.sharding = #sdy.sharding<@mesh, [{}]>}, %arg282: tensor<3072x768xf32> {sdy.sharding = #sdy.sharding<@mesh, [{}, {}]>}, %arg283: tensor<768xf32> {sdy.sharding = #sdy.sharding<@mesh, [{}]>}, %arg284: tensor<768xf32> {sdy.sharding = #sdy.sharding<@mesh, [{}]>}, %arg285: tensor<3072xf32> {sdy.sharding = #sdy.sharding<@mesh, [{}]>}, %arg286: tensor<768x3072xf32> {sdy.sharding = #sdy.sharding<@mesh, [{}, {}]>}, %arg287: tensor<768xf32> {sdy.sharding = #sdy.sharding<@mesh, [{}]>}, %arg288: tensor<768x768xf32> {sdy.sharding = #sdy.sharding<@mesh, [{}, {}]>}, %arg289: tensor<768xf32> {sdy.sharding = #sdy.sharding<@mesh, [{}]>}, %arg290: tensor<768x768xf32> {sdy.sharding = #sdy.sharding<@mesh, [{}, {}]>}, %arg291: tensor<768xf32> {sdy.sharding = #sdy.sharding<@mesh, [{}]>}, %arg292: tensor<768x768xf32> {sdy.sharding = #sdy.sharding<@mesh, [{}, {}]>}, %arg293: tensor<768xf32> {sdy.sharding = #sdy.sharding<@mesh, [{}]>}, %arg294: tensor<768x768xf32> {sdy.sharding = #sdy.sharding<@mesh, [{}, {}]>}, %arg295: tensor<768xf32> {sdy.sharding = #sdy.sharding<@mesh, [{}]>}, %arg296: tensor<768xf32> {sdy.sharding = #sdy.sharding<@mesh, [{}]>}, %arg297: tensor<768xf32> {sdy.sharding = #sdy.sharding<@mesh, [{}]>}, %arg298: tensor<3072x768xf32> {sdy.sharding = #sdy.sharding<@mesh, [{}, {}]>}, %arg299: tensor<768xf32> {sdy.sharding = #sdy.sharding<@mesh, [{}]>}, %arg300: tensor<768xf32> {sdy.sharding = #sdy.sharding<@mesh, [{}]>}, %arg301: tensor<3072xf32> {sdy.sharding = #sdy.sharding<@mesh, [{}]>}, %arg302: tensor<768x3072xf32> {sdy.sharding = #sdy.sharding<@mesh, [{}, {}]>}, %arg303: tensor<768xf32> {sdy.sharding = #sdy.sharding<@mesh, [{}]>}, %arg304: tensor<768x768xf32> {sdy.sharding = #sdy.sharding<@mesh, [{}, {}]>}, %arg305: tensor<768xf32> {sdy.sharding = #sdy.sharding<@mesh, [{}]>}, %arg306: tensor<768x768xf32> {sdy.sharding = #sdy.sharding<@mesh, [{}, {}]>}, %arg307: tensor<768xf32> {sdy.sharding = #sdy.sharding<@mesh, [{}]>}, %arg308: tensor<768x768xf32> {sdy.sharding = #sdy.sharding<@mesh, [{}, {}]>}, %arg309: tensor<768xf32> {sdy.sharding = #sdy.sharding<@mesh, [{}]>}, %arg310: tensor<768x768xf32> {sdy.sharding = #sdy.sharding<@mesh, [{}, {}]>}, %arg311: tensor<768xf32> {sdy.sharding = #sdy.sharding<@mesh, [{}]>}, %arg312: tensor<768xf32> {sdy.sharding = #sdy.sharding<@mesh, [{}]>}, %arg313: tensor<768xf32> {sdy.sharding = #sdy.sharding<@mesh, [{}]>}, %arg314: tensor<3072x768xf32> {sdy.sharding = #sdy.sharding<@mesh, [{}, {}]>}, %arg315: tensor<768xf32> {sdy.sharding = #sdy.sharding<@mesh, [{}]>}, %arg316: tensor<768xf32> {sdy.sharding = #sdy.sharding<@mesh, [{}]>}, %arg317: tensor<3072xf32> {sdy.sharding = #sdy.sharding<@mesh, [{}]>}, %arg318: tensor<768x3072xf32> {sdy.sharding = #sdy.sharding<@mesh, [{}, {}]>}, %arg319: tensor<768xf32> {sdy.sharding = #sdy.sharding<@mesh, [{}]>}, %arg320: tensor<768x768xf32> {sdy.sharding = #sdy.sharding<@mesh, [{}, {}]>}, %arg321: tensor<768xf32> {sdy.sharding = #sdy.sharding<@mesh, [{}]>}, %arg322: tensor<768x768xf32> {sdy.sharding = #sdy.sharding<@mesh, [{}, {}]>}, %arg323: tensor<768xf32> {sdy.sharding = #sdy.sharding<@mesh, [{}]>}, %arg324: tensor<768x768xf32> {sdy.sharding = #sdy.sharding<@mesh, [{}, {}]>}, %arg325: tensor<768xf32> {sdy.sharding = #sdy.sharding<@mesh, [{}]>}, %arg326: tensor<768x768xf32> {sdy.sharding = #sdy.sharding<@mesh, [{}, {}]>}, %arg327: tensor<768xf32> {sdy.sharding = #sdy.sharding<@mesh, [{}]>}, %arg328: tensor<768xf32> {sdy.sharding = #sdy.sharding<@mesh, [{}]>}, %arg329: tensor<768xf32> {sdy.sharding = #sdy.sharding<@mesh, [{}]>}, %arg330: tensor<3072x768xf32> {sdy.sharding = #sdy.sharding<@mesh, [{}, {}]>}, %arg331: tensor<768xf32> {sdy.sharding = #sdy.sharding<@mesh, [{}]>}, %arg332: tensor<768xf32> {sdy.sharding = #sdy.sharding<@mesh, [{}]>}, %arg333: tensor<3072xf32> {sdy.sharding = #sdy.sharding<@mesh, [{}]>}, %arg334: tensor<768x3072xf32> {sdy.sharding = #sdy.sharding<@mesh, [{}, {}]>}, %arg335: tensor<768xf32> {sdy.sharding = #sdy.sharding<@mesh, [{}]>}, %arg336: tensor<768x768xf32> {sdy.sharding = #sdy.sharding<@mesh, [{}, {}]>}, %arg337: tensor<768xf32> {sdy.sharding = #sdy.sharding<@mesh, [{}]>}, %arg338: tensor<768x768xf32> {sdy.sharding = #sdy.sharding<@mesh, [{}, {}]>}, %arg339: tensor<768xf32> {sdy.sharding = #sdy.sharding<@mesh, [{}]>}, %arg340: tensor<768x768xf32> {sdy.sharding = #sdy.sharding<@mesh, [{}, {}]>}, %arg341: tensor<768xf32> {sdy.sharding = #sdy.sharding<@mesh, [{}]>}, %arg342: tensor<768x768xf32> {sdy.sharding = #sdy.sharding<@mesh, [{}, {}]>}, %arg343: tensor<768xf32> {sdy.sharding = #sdy.sharding<@mesh, [{}]>}, %arg344: tensor<768xf32> {sdy.sharding = #sdy.sharding<@mesh, [{}]>}, %arg345: tensor<768xf32> {sdy.sharding = #sdy.sharding<@mesh, [{}]>}, %arg346: tensor<3072x768xf32> {sdy.sharding = #sdy.sharding<@mesh, [{}, {}]>}, %arg347: tensor<768xf32> {sdy.sharding = #sdy.sharding<@mesh, [{}]>}, %arg348: tensor<768xf32> {sdy.sharding = #sdy.sharding<@mesh, [{}]>}, %arg349: tensor<3072xf32> {sdy.sharding = #sdy.sharding<@mesh, [{}]>}, %arg350: tensor<768x3072xf32> {sdy.sharding = #sdy.sharding<@mesh, [{}, {}]>}, %arg351: tensor<768xf32> {sdy.sharding = #sdy.sharding<@mesh, [{}]>}, %arg352: tensor<768x768xf32> {sdy.sharding = #sdy.sharding<@mesh, [{}, {}]>}, %arg353: tensor<768xf32> {sdy.sharding = #sdy.sharding<@mesh, [{}]>}, %arg354: tensor<768x768xf32> {sdy.sharding = #sdy.sharding<@mesh, [{}, {}]>}, %arg355: tensor<768xf32> {sdy.sharding = #sdy.sharding<@mesh, [{}]>}, %arg356: tensor<768x768xf32> {sdy.sharding = #sdy.sharding<@mesh, [{}, {}]>}, %arg357: tensor<768xf32> {sdy.sharding = #sdy.sharding<@mesh, [{}]>}, %arg358: tensor<768x768xf32> {sdy.sharding = #sdy.sharding<@mesh, [{}, {}]>}, %arg359: tensor<768xf32> {sdy.sharding = #sdy.sharding<@mesh, [{}]>}, %arg360: tensor<768xf32> {sdy.sharding = #sdy.sharding<@mesh, [{}]>}, %arg361: tensor<768xf32> {sdy.sharding = #sdy.sharding<@mesh, [{}]>}, %arg362: tensor<3072x768xf32> {sdy.sharding = #sdy.sharding<@mesh, [{}, {}]>}, %arg363: tensor<768xf32> {sdy.sharding = #sdy.sharding<@mesh, [{}]>}, %arg364: tensor<768xf32> {sdy.sharding = #sdy.sharding<@mesh, [{}]>}, %arg365: tensor<3072xf32> {sdy.sharding = #sdy.sharding<@mesh, [{}]>}, %arg366: tensor<768x3072xf32> {sdy.sharding = #sdy.sharding<@mesh, [{}, {}]>}, %arg367: tensor<768xf32> {sdy.sharding = #sdy.sharding<@mesh, [{}]>}, %arg368: tensor<768x768xf32> {sdy.sharding = #sdy.sharding<@mesh, [{}, {}]>}, %arg369: tensor<768xf32> {sdy.sharding = #sdy.sharding<@mesh, [{}]>}, %arg370: tensor<768x768xf32> {sdy.sharding = #sdy.sharding<@mesh, [{}, {}]>}, %arg371: tensor<768xf32> {sdy.sharding = #sdy.sharding<@mesh, [{}]>}, %arg372: tensor<768x768xf32> {sdy.sharding = #sdy.sharding<@mesh, [{}, {}]>}, %arg373: tensor<768xf32> {sdy.sharding = #sdy.sharding<@mesh, [{}]>}, %arg374: tensor<768x768xf32> {sdy.sharding = #sdy.sharding<@mesh, [{}, {}]>}, %arg375: tensor<768xf32> {sdy.sharding = #sdy.sharding<@mesh, [{}]>}, %arg376: tensor<768xf32> {sdy.sharding = #sdy.sharding<@mesh, [{}]>}, %arg377: tensor<768xf32> {sdy.sharding = #sdy.sharding<@mesh, [{}]>}, %arg378: tensor<3072x768xf32> {sdy.sharding = #sdy.sharding<@mesh, [{}, {}]>}, %arg379: tensor<768xf32> {sdy.sharding = #sdy.sharding<@mesh, [{}]>}, %arg380: tensor<768xf32> {sdy.sharding = #sdy.sharding<@mesh, [{}]>}, %arg381: tensor<3072xf32> {sdy.sharding = #sdy.sharding<@mesh, [{}]>}, %arg382: tensor<768x3072xf32> {sdy.sharding = #sdy.sharding<@mesh, [{}, {}]>}, %arg383: tensor<768xf32> {sdy.sharding = #sdy.sharding<@mesh, [{}]>}, %arg384: tensor<768x768xf32> {sdy.sharding = #sdy.sharding<@mesh, [{}, {}]>}, %arg385: tensor<768xf32> {sdy.sharding = #sdy.sharding<@mesh, [{}]>}, %arg386: tensor<768x768xf32> {sdy.sharding = #sdy.sharding<@mesh, [{}, {}]>}, %arg387: tensor<768xf32> {sdy.sharding = #sdy.sharding<@mesh, [{}]>}, %arg388: tensor<768x768xf32> {sdy.sharding = #sdy.sharding<@mesh, [{}, {}]>}, %arg389: tensor<768xf32> {sdy.sharding = #sdy.sharding<@mesh, [{}]>}, %arg390: tensor<768x768xf32> {sdy.sharding = #sdy.sharding<@mesh, [{}, {}]>}, %arg391: tensor<768xf32> {sdy.sharding = #sdy.sharding<@mesh, [{}]>}, %arg392: tensor<768xf32> {sdy.sharding = #sdy.sharding<@mesh, [{}]>}, %arg393: tensor<768xf32> {sdy.sharding = #sdy.sharding<@mesh, [{}]>}, %arg394: tensor<3072x768xf32> {sdy.sharding = #sdy.sharding<@mesh, [{}, {}]>}, %arg395: tensor<768xf32> {sdy.sharding = #sdy.sharding<@mesh, [{}]>}, %arg396: tensor<768xf32> {sdy.sharding = #sdy.sharding<@mesh, [{}]>}, %arg397: tensor<3072xf32> {sdy.sharding = #sdy.sharding<@mesh, [{}]>}, %arg398: tensor<768x3072xf32> {sdy.sharding = #sdy.sharding<@mesh, [{}, {}]>}, %arg399: tensor<768xf32> {sdy.sharding = #sdy.sharding<@mesh, [{}]>}, %arg400: tensor<768xf32> {sdy.sharding = #sdy.sharding<@mesh, [{}]>}, %arg401: tensor<30522xf32> {sdy.sharding = #sdy.sharding<@mesh, [{}]>}, %arg402: tensor<768xf32> {sdy.sharding = #sdy.sharding<@mesh, [{}]>}, %arg403: tensor<768x768xf32> {sdy.sharding = #sdy.sharding<@mesh, [{}, {}]>}, %arg404: tensor<30522x768xf32> {sdy.sharding = #sdy.sharding<@mesh, [{}, {}]>}, %arg405: tensor<768xf32> {sdy.sharding = #sdy.sharding<@mesh, [{}]>}, %arg406: tensor<768xf32> {sdy.sharding = #sdy.sharding<@mesh, [{}]>}, %arg407: tensor<512x768xf32> {sdy.sharding = #sdy.sharding<@mesh, [{}, {}]>}, %arg408: tensor<2x768xf32> {sdy.sharding = #sdy.sharding<@mesh, [{}, {}]>}, %arg409: tensor<30522x768xf32> {sdy.sharding = #sdy.sharding<@mesh, [{}, {}]>}, %arg410: tensor<768xf32> {sdy.sharding = #sdy.sharding<@mesh, [{}]>}, %arg411: tensor<768x768xf32> {sdy.sharding = #sdy.sharding<@mesh, [{}, {}]>}, %arg412: tensor<768xf32> {sdy.sharding = #sdy.sharding<@mesh, [{}]>}, %arg413: tensor<768x768xf32> {sdy.sharding = #sdy.sharding<@mesh, [{}, {}]>}, %arg414: tensor<768xf32> {sdy.sharding = #sdy.sharding<@mesh, [{}]>}, %arg415: tensor<768x768xf32> {sdy.sharding = #sdy.sharding<@mesh, [{}, {}]>}, %arg416: tensor<768xf32> {sdy.sharding = #sdy.sharding<@mesh, [{}]>}, %arg417: tensor<768x768xf32> {sdy.sharding = #sdy.sharding<@mesh, [{}, {}]>}, %arg418: tensor<768xf32> {sdy.sharding = #sdy.sharding<@mesh, [{}]>}, %arg419: tensor<768xf32> {sdy.sharding = #sdy.sharding<@mesh, [{}]>}, %arg420: tensor<768xf32> {sdy.sharding = #sdy.sharding<@mesh, [{}]>}, %arg421: tensor<3072x768xf32> {sdy.sharding = #sdy.sharding<@mesh, [{}, {}]>}, %arg422: tensor<768xf32> {sdy.sharding = #sdy.sharding<@mesh, [{}]>}, %arg423: tensor<768xf32> {sdy.sharding = #sdy.sharding<@mesh, [{}]>}, %arg424: tensor<3072xf32> {sdy.sharding = #sdy.sharding<@mesh, [{}]>}, %arg425: tensor<768x3072xf32> {sdy.sharding = #sdy.sharding<@mesh, [{}, {}]>}, %arg426: tensor<768xf32> {sdy.sharding = #sdy.sharding<@mesh, [{}]>}, %arg427: tensor<768x768xf32> {sdy.sharding = #sdy.sharding<@mesh, [{}, {}]>}, %arg428: tensor<768xf32> {sdy.sharding = #sdy.sharding<@mesh, [{}]>}, %arg429: tensor<768x768xf32> {sdy.sharding = #sdy.sharding<@mesh, [{}, {}]>}, %arg430: tensor<768xf32> {sdy.sharding = #sdy.sharding<@mesh, [{}]>}, %arg431: tensor<768x768xf32> {sdy.sharding = #sdy.sharding<@mesh, [{}, {}]>}, %arg432: tensor<768xf32> {sdy.sharding = #sdy.sharding<@mesh, [{}]>}, %arg433: tensor<768x768xf32> {sdy.sharding = #sdy.sharding<@mesh, [{}, {}]>}, %arg434: tensor<768xf32> {sdy.sharding = #sdy.sharding<@mesh, [{}]>}, %arg435: tensor<768xf32> {sdy.sharding = #sdy.sharding<@mesh, [{}]>}, %arg436: tensor<768xf32> {sdy.sharding = #sdy.sharding<@mesh, [{}]>}, %arg437: tensor<3072x768xf32> {sdy.sharding = #sdy.sharding<@mesh, [{}, {}]>}, %arg438: tensor<768xf32> {sdy.sharding = #sdy.sharding<@mesh, [{}]>}, %arg439: tensor<768xf32> {sdy.sharding = #sdy.sharding<@mesh, [{}]>}, %arg440: tensor<3072xf32> {sdy.sharding = #sdy.sharding<@mesh, [{}]>}, %arg441: tensor<768x3072xf32> {sdy.sharding = #sdy.sharding<@mesh, [{}, {}]>}, %arg442: tensor<768xf32> {sdy.sharding = #sdy.sharding<@mesh, [{}]>}, %arg443: tensor<768x768xf32> {sdy.sharding = #sdy.sharding<@mesh, [{}, {}]>}, %arg444: tensor<768xf32> {sdy.sharding = #sdy.sharding<@mesh, [{}]>}, %arg445: tensor<768x768xf32> {sdy.sharding = #sdy.sharding<@mesh, [{}, {}]>}, %arg446: tensor<768xf32> {sdy.sharding = #sdy.sharding<@mesh, [{}]>}, %arg447: tensor<768x768xf32> {sdy.sharding = #sdy.sharding<@mesh, [{}, {}]>}, %arg448: tensor<768xf32> {sdy.sharding = #sdy.sharding<@mesh, [{}]>}, %arg449: tensor<768x768xf32> {sdy.sharding = #sdy.sharding<@mesh, [{}, {}]>}, %arg450: tensor<768xf32> {sdy.sharding = #sdy.sharding<@mesh, [{}]>}, %arg451: tensor<768xf32> {sdy.sharding = #sdy.sharding<@mesh, [{}]>}, %arg452: tensor<768xf32> {sdy.sharding = #sdy.sharding<@mesh, [{}]>}, %arg453: tensor<3072x768xf32> {sdy.sharding = #sdy.sharding<@mesh, [{}, {}]>}, %arg454: tensor<768xf32> {sdy.sharding = #sdy.sharding<@mesh, [{}]>}, %arg455: tensor<768xf32> {sdy.sharding = #sdy.sharding<@mesh, [{}]>}, %arg456: tensor<3072xf32> {sdy.sharding = #sdy.sharding<@mesh, [{}]>}, %arg457: tensor<768x3072xf32> {sdy.sharding = #sdy.sharding<@mesh, [{}, {}]>}, %arg458: tensor<768xf32> {sdy.sharding = #sdy.sharding<@mesh, [{}]>}, %arg459: tensor<768x768xf32> {sdy.sharding = #sdy.sharding<@mesh, [{}, {}]>}, %arg460: tensor<768xf32> {sdy.sharding = #sdy.sharding<@mesh, [{}]>}, %arg461: tensor<768x768xf32> {sdy.sharding = #sdy.sharding<@mesh, [{}, {}]>}, %arg462: tensor<768xf32> {sdy.sharding = #sdy.sharding<@mesh, [{}]>}, %arg463: tensor<768x768xf32> {sdy.sharding = #sdy.sharding<@mesh, [{}, {}]>}, %arg464: tensor<768xf32> {sdy.sharding = #sdy.sharding<@mesh, [{}]>}, %arg465: tensor<768x768xf32> {sdy.sharding = #sdy.sharding<@mesh, [{}, {}]>}, %arg466: tensor<768xf32> {sdy.sharding = #sdy.sharding<@mesh, [{}]>}, %arg467: tensor<768xf32> {sdy.sharding = #sdy.sharding<@mesh, [{}]>}, %arg468: tensor<768xf32> {sdy.sharding = #sdy.sharding<@mesh, [{}]>}, %arg469: tensor<3072x768xf32> {sdy.sharding = #sdy.sharding<@mesh, [{}, {}]>}, %arg470: tensor<768xf32> {sdy.sharding = #sdy.sharding<@mesh, [{}]>}, %arg471: tensor<768xf32> {sdy.sharding = #sdy.sharding<@mesh, [{}]>}, %arg472: tensor<3072xf32> {sdy.sharding = #sdy.sharding<@mesh, [{}]>}, %arg473: tensor<768x3072xf32> {sdy.sharding = #sdy.sharding<@mesh, [{}, {}]>}, %arg474: tensor<768xf32> {sdy.sharding = #sdy.sharding<@mesh, [{}]>}, %arg475: tensor<768x768xf32> {sdy.sharding = #sdy.sharding<@mesh, [{}, {}]>}, %arg476: tensor<768xf32> {sdy.sharding = #sdy.sharding<@mesh, [{}]>}, %arg477: tensor<768x768xf32> {sdy.sharding = #sdy.sharding<@mesh, [{}, {}]>}, %arg478: tensor<768xf32> {sdy.sharding = #sdy.sharding<@mesh, [{}]>}, %arg479: tensor<768x768xf32> {sdy.sharding = #sdy.sharding<@mesh, [{}, {}]>}, %arg480: tensor<768xf32> {sdy.sharding = #sdy.sharding<@mesh, [{}]>}, %arg481: tensor<768x768xf32> {sdy.sharding = #sdy.sharding<@mesh, [{}, {}]>}, %arg482: tensor<768xf32> {sdy.sharding = #sdy.sharding<@mesh, [{}]>}, %arg483: tensor<768xf32> {sdy.sharding = #sdy.sharding<@mesh, [{}]>}, %arg484: tensor<768xf32> {sdy.sharding = #sdy.sharding<@mesh, [{}]>}, %arg485: tensor<3072x768xf32> {sdy.sharding = #sdy.sharding<@mesh, [{}, {}]>}, %arg486: tensor<768xf32> {sdy.sharding = #sdy.sharding<@mesh, [{}]>}, %arg487: tensor<768xf32> {sdy.sharding = #sdy.sharding<@mesh, [{}]>}, %arg488: tensor<3072xf32> {sdy.sharding = #sdy.sharding<@mesh, [{}]>}, %arg489: tensor<768x3072xf32> {sdy.sharding = #sdy.sharding<@mesh, [{}, {}]>}, %arg490: tensor<768xf32> {sdy.sharding = #sdy.sharding<@mesh, [{}]>}, %arg491: tensor<768x768xf32> {sdy.sharding = #sdy.sharding<@mesh, [{}, {}]>}, %arg492: tensor<768xf32> {sdy.sharding = #sdy.sharding<@mesh, [{}]>}, %arg493: tensor<768x768xf32> {sdy.sharding = #sdy.sharding<@mesh, [{}, {}]>}, %arg494: tensor<768xf32> {sdy.sharding = #sdy.sharding<@mesh, [{}]>}, %arg495: tensor<768x768xf32> {sdy.sharding = #sdy.sharding<@mesh, [{}, {}]>}, %arg496: tensor<768xf32> {sdy.sharding = #sdy.sharding<@mesh, [{}]>}, %arg497: tensor<768x768xf32> {sdy.sharding = #sdy.sharding<@mesh, [{}, {}]>}, %arg498: tensor<768xf32> {sdy.sharding = #sdy.sharding<@mesh, [{}]>}, %arg499: tensor<768xf32> {sdy.sharding = #sdy.sharding<@mesh, [{}]>}, %arg500: tensor<768xf32> {sdy.sharding = #sdy.sharding<@mesh, [{}]>}, %arg501: tensor<3072x768xf32> {sdy.sharding = #sdy.sharding<@mesh, [{}, {}]>}, %arg502: tensor<768xf32> {sdy.sharding = #sdy.sharding<@mesh, [{}]>}, %arg503: tensor<768xf32> {sdy.sharding = #sdy.sharding<@mesh, [{}]>}, %arg504: tensor<3072xf32> {sdy.sharding = #sdy.sharding<@mesh, [{}]>}, %arg505: tensor<768x3072xf32> {sdy.sharding = #sdy.sharding<@mesh, [{}, {}]>}, %arg506: tensor<768xf32> {sdy.sharding = #sdy.sharding<@mesh, [{}]>}, %arg507: tensor<768x768xf32> {sdy.sharding = #sdy.sharding<@mesh, [{}, {}]>}, %arg508: tensor<768xf32> {sdy.sharding = #sdy.sharding<@mesh, [{}]>}, %arg509: tensor<768x768xf32> {sdy.sharding = #sdy.sharding<@mesh, [{}, {}]>}, %arg510: tensor<768xf32> {sdy.sharding = #sdy.sharding<@mesh, [{}]>}, %arg511: tensor<768x768xf32> {sdy.sharding = #sdy.sharding<@mesh, [{}, {}]>}, %arg512: tensor<768xf32> {sdy.sharding = #sdy.sharding<@mesh, [{}]>}, %arg513: tensor<768x768xf32> {sdy.sharding = #sdy.sharding<@mesh, [{}, {}]>}, %arg514: tensor<768xf32> {sdy.sharding = #sdy.sharding<@mesh, [{}]>}, %arg515: tensor<768xf32> {sdy.sharding = #sdy.sharding<@mesh, [{}]>}, %arg516: tensor<768xf32> {sdy.sharding = #sdy.sharding<@mesh, [{}]>}, %arg517: tensor<3072x768xf32> {sdy.sharding = #sdy.sharding<@mesh, [{}, {}]>}, %arg518: tensor<768xf32> {sdy.sharding = #sdy.sharding<@mesh, [{}]>}, %arg519: tensor<768xf32> {sdy.sharding = #sdy.sharding<@mesh, [{}]>}, %arg520: tensor<3072xf32> {sdy.sharding = #sdy.sharding<@mesh, [{}]>}, %arg521: tensor<768x3072xf32> {sdy.sharding = #sdy.sharding<@mesh, [{}, {}]>}, %arg522: tensor<768xf32> {sdy.sharding = #sdy.sharding<@mesh, [{}]>}, %arg523: tensor<768x768xf32> {sdy.sharding = #sdy.sharding<@mesh, [{}, {}]>}, %arg524: tensor<768xf32> {sdy.sharding = #sdy.sharding<@mesh, [{}]>}, %arg525: tensor<768x768xf32> {sdy.sharding = #sdy.sharding<@mesh, [{}, {}]>}, %arg526: tensor<768xf32> {sdy.sharding = #sdy.sharding<@mesh, [{}]>}, %arg527: tensor<768x768xf32> {sdy.sharding = #sdy.sharding<@mesh, [{}, {}]>}, %arg528: tensor<768xf32> {sdy.sharding = #sdy.sharding<@mesh, [{}]>}, %arg529: tensor<768x768xf32> {sdy.sharding = #sdy.sharding<@mesh, [{}, {}]>}, %arg530: tensor<768xf32> {sdy.sharding = #sdy.sharding<@mesh, [{}]>}, %arg531: tensor<768xf32> {sdy.sharding = #sdy.sharding<@mesh, [{}]>}, %arg532: tensor<768xf32> {sdy.sharding = #sdy.sharding<@mesh, [{}]>}, %arg533: tensor<3072x768xf32> {sdy.sharding = #sdy.sharding<@mesh, [{}, {}]>}, %arg534: tensor<768xf32> {sdy.sharding = #sdy.sharding<@mesh, [{}]>}, %arg535: tensor<768xf32> {sdy.sharding = #sdy.sharding<@mesh, [{}]>}, %arg536: tensor<3072xf32> {sdy.sharding = #sdy.sharding<@mesh, [{}]>}, %arg537: tensor<768x3072xf32> {sdy.sharding = #sdy.sharding<@mesh, [{}, {}]>}, %arg538: tensor<768xf32> {sdy.sharding = #sdy.sharding<@mesh, [{}]>}, %arg539: tensor<768x768xf32> {sdy.sharding = #sdy.sharding<@mesh, [{}, {}]>}, %arg540: tensor<768xf32> {sdy.sharding = #sdy.sharding<@mesh, [{}]>}, %arg541: tensor<768x768xf32> {sdy.sharding = #sdy.sharding<@mesh, [{}, {}]>}, %arg542: tensor<768xf32> {sdy.sharding = #sdy.sharding<@mesh, [{}]>}, %arg543: tensor<768x768xf32> {sdy.sharding = #sdy.sharding<@mesh, [{}, {}]>}, %arg544: tensor<768xf32> {sdy.sharding = #sdy.sharding<@mesh, [{}]>}, %arg545: tensor<768x768xf32> {sdy.sharding = #sdy.sharding<@mesh, [{}, {}]>}, %arg546: tensor<768xf32> {sdy.sharding = #sdy.sharding<@mesh, [{}]>}, %arg547: tensor<768xf32> {sdy.sharding = #sdy.sharding<@mesh, [{}]>}, %arg548: tensor<768xf32> {sdy.sharding = #sdy.sharding<@mesh, [{}]>}, %arg549: tensor<3072x768xf32> {sdy.sharding = #sdy.sharding<@mesh, [{}, {}]>}, %arg550: tensor<768xf32> {sdy.sharding = #sdy.sharding<@mesh, [{}]>}, %arg551: tensor<768xf32> {sdy.sharding = #sdy.sharding<@mesh, [{}]>}, %arg552: tensor<3072xf32> {sdy.sharding = #sdy.sharding<@mesh, [{}]>}, %arg553: tensor<768x3072xf32> {sdy.sharding = #sdy.sharding<@mesh, [{}, {}]>}, %arg554: tensor<768xf32> {sdy.sharding = #sdy.sharding<@mesh, [{}]>}, %arg555: tensor<768x768xf32> {sdy.sharding = #sdy.sharding<@mesh, [{}, {}]>}, %arg556: tensor<768xf32> {sdy.sharding = #sdy.sharding<@mesh, [{}]>}, %arg557: tensor<768x768xf32> {sdy.sharding = #sdy.sharding<@mesh, [{}, {}]>}, %arg558: tensor<768xf32> {sdy.sharding = #sdy.sharding<@mesh, [{}]>}, %arg559: tensor<768x768xf32> {sdy.sharding = #sdy.sharding<@mesh, [{}, {}]>}, %arg560: tensor<768xf32> {sdy.sharding = #sdy.sharding<@mesh, [{}]>}, %arg561: tensor<768x768xf32> {sdy.sharding = #sdy.sharding<@mesh, [{}, {}]>}, %arg562: tensor<768xf32> {sdy.sharding = #sdy.sharding<@mesh, [{}]>}, %arg563: tensor<768xf32> {sdy.sharding = #sdy.sharding<@mesh, [{}]>}, %arg564: tensor<768xf32> {sdy.sharding = #sdy.sharding<@mesh, [{}]>}, %arg565: tensor<3072x768xf32> {sdy.sharding = #sdy.sharding<@mesh, [{}, {}]>}, %arg566: tensor<768xf32> {sdy.sharding = #sdy.sharding<@mesh, [{}]>}, %arg567: tensor<768xf32> {sdy.sharding = #sdy.sharding<@mesh, [{}]>}, %arg568: tensor<3072xf32> {sdy.sharding = #sdy.sharding<@mesh, [{}]>}, %arg569: tensor<768x3072xf32> {sdy.sharding = #sdy.sharding<@mesh, [{}, {}]>}, %arg570: tensor<768xf32> {sdy.sharding = #sdy.sharding<@mesh, [{}]>}, %arg571: tensor<768x768xf32> {sdy.sharding = #sdy.sharding<@mesh, [{}, {}]>}, %arg572: tensor<768xf32> {sdy.sharding = #sdy.sharding<@mesh, [{}]>}, %arg573: tensor<768x768xf32> {sdy.sharding = #sdy.sharding<@mesh, [{}, {}]>}, %arg574: tensor<768xf32> {sdy.sharding = #sdy.sharding<@mesh, [{}]>}, %arg575: tensor<768x768xf32> {sdy.sharding = #sdy.sharding<@mesh, [{}, {}]>}, %arg576: tensor<768xf32> {sdy.sharding = #sdy.sharding<@mesh, [{}]>}, %arg577: tensor<768x768xf32> {sdy.sharding = #sdy.sharding<@mesh, [{}, {}]>}, %arg578: tensor<768xf32> {sdy.sharding = #sdy.sharding<@mesh, [{}]>}, %arg579: tensor<768xf32> {sdy.sharding = #sdy.sharding<@mesh, [{}]>}, %arg580: tensor<768xf32> {sdy.sharding = #sdy.sharding<@mesh, [{}]>}, %arg581: tensor<3072x768xf32> {sdy.sharding = #sdy.sharding<@mesh, [{}, {}]>}, %arg582: tensor<768xf32> {sdy.sharding = #sdy.sharding<@mesh, [{}]>}, %arg583: tensor<768xf32> {sdy.sharding = #sdy.sharding<@mesh, [{}]>}, %arg584: tensor<3072xf32> {sdy.sharding = #sdy.sharding<@mesh, [{}]>}, %arg585: tensor<768x3072xf32> {sdy.sharding = #sdy.sharding<@mesh, [{}, {}]>}, %arg586: tensor<768xf32> {sdy.sharding = #sdy.sharding<@mesh, [{}]>}, %arg587: tensor<768x768xf32> {sdy.sharding = #sdy.sharding<@mesh, [{}, {}]>}, %arg588: tensor<768xf32> {sdy.sharding = #sdy.sharding<@mesh, [{}]>}, %arg589: tensor<768x768xf32> {sdy.sharding = #sdy.sharding<@mesh, [{}, {}]>}, %arg590: tensor<768xf32> {sdy.sharding = #sdy.sharding<@mesh, [{}]>}, %arg591: tensor<768x768xf32> {sdy.sharding = #sdy.sharding<@mesh, [{}, {}]>}, %arg592: tensor<768xf32> {sdy.sharding = #sdy.sharding<@mesh, [{}]>}, %arg593: tensor<768x768xf32> {sdy.sharding = #sdy.sharding<@mesh, [{}, {}]>}, %arg594: tensor<768xf32> {sdy.sharding = #sdy.sharding<@mesh, [{}]>}, %arg595: tensor<768xf32> {sdy.sharding = #sdy.sharding<@mesh, [{}]>}, %arg596: tensor<768xf32> {sdy.sharding = #sdy.sharding<@mesh, [{}]>}, %arg597: tensor<3072x768xf32> {sdy.sharding = #sdy.sharding<@mesh, [{}, {}]>}, %arg598: tensor<768xf32> {sdy.sharding = #sdy.sharding<@mesh, [{}]>}, %arg599: tensor<768xf32> {sdy.sharding = #sdy.sharding<@mesh, [{}]>}, %arg600: tensor<3072xf32> {sdy.sharding = #sdy.sharding<@mesh, [{}]>}, %arg601: tensor<768x3072xf32> {sdy.sharding = #sdy.sharding<@mesh, [{}, {}]>}, %arg602: tensor<768xf32> {sdy.sharding = #sdy.sharding<@mesh, [{}]>}, %arg603: tensor<768xf32> {sdy.sharding = #sdy.sharding<@mesh, [{}]>}, %arg604: tensor<30522xf32> {sdy.sharding = #sdy.sharding<@mesh, [{}]>}, %arg605: tensor<768xf32> {sdy.sharding = #sdy.sharding<@mesh, [{}]>}, %arg606: tensor<768x768xf32> {sdy.sharding = #sdy.sharding<@mesh, [{}, {}]>}, %arg607: tensor<30522x768xf32> {sdy.sharding = #sdy.sharding<@mesh, [{}, {}]>}, %arg608: tensor<768xf32> {sdy.sharding = #sdy.sharding<@mesh, [{}]>}, %arg609: tensor<768xf32> {sdy.sharding = #sdy.sharding<@mesh, [{}]>}, %arg610: tensor<i32>, %arg611: tensor<64x512xi32> {sdy.sharding = #sdy.sharding<@mesh, [{"dp"}, {}]>}, %arg612: tensor<64x512xi32> {sdy.sharding = #sdy.sharding<@mesh, [{"dp"}, {}]>}, %arg613: tensor<64x512xi32> {sdy.sharding = #sdy.sharding<@mesh, [{"dp"}, {}]>}, %arg614: tensor<64x512xi32> {sdy.sharding = #sdy.sharding<@mesh, [{"dp"}, {}]>}, %arg615: tensor<2xui32>) -> (tensor<512x768xf32> {jax.result_info = "result[0].params['encoder']['params']['embedder']['embedders_position_ids']['embedding']"}, tensor<2x768xf32> {jax.result_info = "result[0].params['encoder']['params']['embedder']['embedders_segment_ids']['embedding']"}, tensor<30522x768xf32> {jax.result_info = "result[0].params['encoder']['params']['embedder']['embedders_token_ids']['embedding']"}, tensor<768xf32> {jax.result_info = "result[0].params['encoder']['params']['encoder_block']['layer_sequence']['layers_0']['attention_block']['attention_layer']['key']['bias']"}, tensor<768x768xf32> {jax.result_info = "result[0].params['encoder']['params']['encoder_block']['layer_sequence']['layers_0']['attention_block']['attention_layer']['key']['kernel']"}, tensor<768xf32> {jax.result_info = "result[0].params['encoder']['params']['encoder_block']['layer_sequence']['layers_0']['attention_block']['attention_layer']['query']['bias']"}, tensor<768x768xf32> {jax.result_info = "result[0].params['encoder']['params']['encoder_block']['layer_sequence']['layers_0']['attention_block']['attention_layer']['query']['kernel']"}, tensor<768xf32> {jax.result_info = "result[0].params['encoder']['params']['encoder_block']['layer_sequence']['layers_0']['attention_block']['attention_layer']['value']['bias']"}, tensor<768x768xf32> {jax.result_info = "result[0].params['encoder']['params']['encoder_block']['layer_sequence']['layers_0']['attention_block']['attention_layer']['value']['kernel']"}, tensor<768xf32> {jax.result_info = "result[0].params['encoder']['params']['encoder_block']['layer_sequence']['layers_0']['attention_block']['dense_layer']['bias']"}, tensor<768x768xf32> {jax.result_info = "result[0].params['encoder']['params']['encoder_block']['layer_sequence']['layers_0']['attention_block']['dense_layer']['kernel']"}, tensor<768xf32> {jax.result_info = "result[0].params['encoder']['params']['encoder_block']['layer_sequence']['layers_0']['attention_block']['layer_norm']['bias']"}, tensor<768xf32> {jax.result_info = "result[0].params['encoder']['params']['encoder_block']['layer_sequence']['layers_0']['attention_block']['layer_norm']['scale']"}, tensor<768xf32> {jax.result_info = "result[0].params['encoder']['params']['encoder_block']['layer_sequence']['layers_0']['mlp_block']['dense_layer']['bias']"}, tensor<3072x768xf32> {jax.result_info = "result[0].params['encoder']['params']['encoder_block']['layer_sequence']['layers_0']['mlp_block']['dense_layer']['kernel']"}, tensor<768xf32> {jax.result_info = "result[0].params['encoder']['params']['encoder_block']['layer_sequence']['layers_0']['mlp_block']['layer_norm']['bias']"}, tensor<768xf32> {jax.result_info = "result[0].params['encoder']['params']['encoder_block']['layer_sequence']['layers_0']['mlp_block']['layer_norm']['scale']"}, tensor<3072xf32> {jax.result_info = "result[0].params['encoder']['params']['encoder_block']['layer_sequence']['layers_0']['mlp_block']['mlp']['dense_layer']['bias']"}, tensor<768x3072xf32> {jax.result_info = "result[0].params['encoder']['params']['encoder_block']['layer_sequence']['layers_0']['mlp_block']['mlp']['dense_layer']['kernel']"}, tensor<768xf32> {jax.result_info = "result[0].params['encoder']['params']['encoder_block']['layer_sequence']['layers_1']['attention_block']['attention_layer']['key']['bias']"}, tensor<768x768xf32> {jax.result_info = "result[0].params['encoder']['params']['encoder_block']['layer_sequence']['layers_1']['attention_block']['attention_layer']['key']['kernel']"}, tensor<768xf32> {jax.result_info = "result[0].params['encoder']['params']['encoder_block']['layer_sequence']['layers_1']['attention_block']['attention_layer']['query']['bias']"}, tensor<768x768xf32> {jax.result_info = "result[0].params['encoder']['params']['encoder_block']['layer_sequence']['layers_1']['attention_block']['attention_layer']['query']['kernel']"}, tensor<768xf32> {jax.result_info = "result[0].params['encoder']['params']['encoder_block']['layer_sequence']['layers_1']['attention_block']['attention_layer']['value']['bias']"}, tensor<768x768xf32> {jax.result_info = "result[0].params['encoder']['params']['encoder_block']['layer_sequence']['layers_1']['attention_block']['attention_layer']['value']['kernel']"}, tensor<768xf32> {jax.result_info = "result[0].params['encoder']['params']['encoder_block']['layer_sequence']['layers_1']['attention_block']['dense_layer']['bias']"}, tensor<768x768xf32> {jax.result_info = "result[0].params['encoder']['params']['encoder_block']['layer_sequence']['layers_1']['attention_block']['dense_layer']['kernel']"}, tensor<768xf32> {jax.result_info = "result[0].params['encoder']['params']['encoder_block']['layer_sequence']['layers_1']['attention_block']['layer_norm']['bias']"}, tensor<768xf32> {jax.result_info = "result[0].params['encoder']['params']['encoder_block']['layer_sequence']['layers_1']['attention_block']['layer_norm']['scale']"}, tensor<768xf32> {jax.result_info = "result[0].params['encoder']['params']['encoder_block']['layer_sequence']['layers_1']['mlp_block']['dense_layer']['bias']"}, tensor<3072x768xf32> {jax.result_info = "result[0].params['encoder']['params']['encoder_block']['layer_sequence']['layers_1']['mlp_block']['dense_layer']['kernel']"}, tensor<768xf32> {jax.result_info = "result[0].params['encoder']['params']['encoder_block']['layer_sequence']['layers_1']['mlp_block']['layer_norm']['bias']"}, tensor<768xf32> {jax.result_info = "result[0].params['encoder']['params']['encoder_block']['layer_sequence']['layers_1']['mlp_block']['layer_norm']['scale']"}, tensor<3072xf32> {jax.result_info = "result[0].params['encoder']['params']['encoder_block']['layer_sequence']['layers_1']['mlp_block']['mlp']['dense_layer']['bias']"}, tensor<768x3072xf32> {jax.result_info = "result[0].params['encoder']['params']['encoder_block']['layer_sequence']['layers_1']['mlp_block']['mlp']['dense_layer']['kernel']"}, tensor<768xf32> {jax.result_info = "result[0].params['encoder']['params']['encoder_block']['layer_sequence']['layers_10']['attention_block']['attention_layer']['key']['bias']"}, tensor<768x768xf32> {jax.result_info = "result[0].params['encoder']['params']['encoder_block']['layer_sequence']['layers_10']['attention_block']['attention_layer']['key']['kernel']"}, tensor<768xf32> {jax.result_info = "result[0].params['encoder']['params']['encoder_block']['layer_sequence']['layers_10']['attention_block']['attention_layer']['query']['bias']"}, tensor<768x768xf32> {jax.result_info = "result[0].params['encoder']['params']['encoder_block']['layer_sequence']['layers_10']['attention_block']['attention_layer']['query']['kernel']"}, tensor<768xf32> {jax.result_info = "result[0].params['encoder']['params']['encoder_block']['layer_sequence']['layers_10']['attention_block']['attention_layer']['value']['bias']"}, tensor<768x768xf32> {jax.result_info = "result[0].params['encoder']['params']['encoder_block']['layer_sequence']['layers_10']['attention_block']['attention_layer']['value']['kernel']"}, tensor<768xf32> {jax.result_info = "result[0].params['encoder']['params']['encoder_block']['layer_sequence']['layers_10']['attention_block']['dense_layer']['bias']"}, tensor<768x768xf32> {jax.result_info = "result[0].params['encoder']['params']['encoder_block']['layer_sequence']['layers_10']['attention_block']['dense_layer']['kernel']"}, tensor<768xf32> {jax.result_info = "result[0].params['encoder']['params']['encoder_block']['layer_sequence']['layers_10']['attention_block']['layer_norm']['bias']"}, tensor<768xf32> {jax.result_info = "result[0].params['encoder']['params']['encoder_block']['layer_sequence']['layers_10']['attention_block']['layer_norm']['scale']"}, tensor<768xf32> {jax.result_info = "result[0].params['encoder']['params']['encoder_block']['layer_sequence']['layers_10']['mlp_block']['dense_layer']['bias']"}, tensor<3072x768xf32> {jax.result_info = "result[0].params['encoder']['params']['encoder_block']['layer_sequence']['layers_10']['mlp_block']['dense_layer']['kernel']"}, tensor<768xf32> {jax.result_info = "result[0].params['encoder']['params']['encoder_block']['layer_sequence']['layers_10']['mlp_block']['layer_norm']['bias']"}, tensor<768xf32> {jax.result_info = "result[0].params['encoder']['params']['encoder_block']['layer_sequence']['layers_10']['mlp_block']['layer_norm']['scale']"}, tensor<3072xf32> {jax.result_info = "result[0].params['encoder']['params']['encoder_block']['layer_sequence']['layers_10']['mlp_block']['mlp']['dense_layer']['bias']"}, tensor<768x3072xf32> {jax.result_info = "result[0].params['encoder']['params']['encoder_block']['layer_sequence']['layers_10']['mlp_block']['mlp']['dense_layer']['kernel']"}, tensor<768xf32> {jax.result_info = "result[0].params['encoder']['params']['encoder_block']['layer_sequence']['layers_11']['attention_block']['attention_layer']['key']['bias']"}, tensor<768x768xf32> {jax.result_info = "result[0].params['encoder']['params']['encoder_block']['layer_sequence']['layers_11']['attention_block']['attention_layer']['key']['kernel']"}, tensor<768xf32> {jax.result_info = "result[0].params['encoder']['params']['encoder_block']['layer_sequence']['layers_11']['attention_block']['attention_layer']['query']['bias']"}, tensor<768x768xf32> {jax.result_info = "result[0].params['encoder']['params']['encoder_block']['layer_sequence']['layers_11']['attention_block']['attention_layer']['query']['kernel']"}, tensor<768xf32> {jax.result_info = "result[0].params['encoder']['params']['encoder_block']['layer_sequence']['layers_11']['attention_block']['attention_layer']['value']['bias']"}, tensor<768x768xf32> {jax.result_info = "result[0].params['encoder']['params']['encoder_block']['layer_sequence']['layers_11']['attention_block']['attention_layer']['value']['kernel']"}, tensor<768xf32> {jax.result_info = "result[0].params['encoder']['params']['encoder_block']['layer_sequence']['layers_11']['attention_block']['dense_layer']['bias']"}, tensor<768x768xf32> {jax.result_info = "result[0].params['encoder']['params']['encoder_block']['layer_sequence']['layers_11']['attention_block']['dense_layer']['kernel']"}, tensor<768xf32> {jax.result_info = "result[0].params['encoder']['params']['encoder_block']['layer_sequence']['layers_11']['attention_block']['layer_norm']['bias']"}, tensor<768xf32> {jax.result_info = "result[0].params['encoder']['params']['encoder_block']['layer_sequence']['layers_11']['attention_block']['layer_norm']['scale']"}, tensor<768xf32> {jax.result_info = "result[0].params['encoder']['params']['encoder_block']['layer_sequence']['layers_11']['mlp_block']['dense_layer']['bias']"}, tensor<3072x768xf32> {jax.result_info = "result[0].params['encoder']['params']['encoder_block']['layer_sequence']['layers_11']['mlp_block']['dense_layer']['kernel']"}, tensor<768xf32> {jax.result_info = "result[0].params['encoder']['params']['encoder_block']['layer_sequence']['layers_11']['mlp_block']['layer_norm']['bias']"}, tensor<768xf32> {jax.result_info = "result[0].params['encoder']['params']['encoder_block']['layer_sequence']['layers_11']['mlp_block']['layer_norm']['scale']"}, tensor<3072xf32> {jax.result_info = "result[0].params['encoder']['params']['encoder_block']['layer_sequence']['layers_11']['mlp_block']['mlp']['dense_layer']['bias']"}, tensor<768x3072xf32> {jax.result_info = "result[0].params['encoder']['params']['encoder_block']['layer_sequence']['layers_11']['mlp_block']['mlp']['dense_layer']['kernel']"}, tensor<768xf32> {jax.result_info = "result[0].params['encoder']['params']['encoder_block']['layer_sequence']['layers_2']['attention_block']['attention_layer']['key']['bias']"}, tensor<768x768xf32> {jax.result_info = "result[0].params['encoder']['params']['encoder_block']['layer_sequence']['layers_2']['attention_block']['attention_layer']['key']['kernel']"}, tensor<768xf32> {jax.result_info = "result[0].params['encoder']['params']['encoder_block']['layer_sequence']['layers_2']['attention_block']['attention_layer']['query']['bias']"}, tensor<768x768xf32> {jax.result_info = "result[0].params['encoder']['params']['encoder_block']['layer_sequence']['layers_2']['attention_block']['attention_layer']['query']['kernel']"}, tensor<768xf32> {jax.result_info = "result[0].params['encoder']['params']['encoder_block']['layer_sequence']['layers_2']['attention_block']['attention_layer']['value']['bias']"}, tensor<768x768xf32> {jax.result_info = "result[0].params['encoder']['params']['encoder_block']['layer_sequence']['layers_2']['attention_block']['attention_layer']['value']['kernel']"}, tensor<768xf32> {jax.result_info = "result[0].params['encoder']['params']['encoder_block']['layer_sequence']['layers_2']['attention_block']['dense_layer']['bias']"}, tensor<768x768xf32> {jax.result_info = "result[0].params['encoder']['params']['encoder_block']['layer_sequence']['layers_2']['attention_block']['dense_layer']['kernel']"}, tensor<768xf32> {jax.result_info = "result[0].params['encoder']['params']['encoder_block']['layer_sequence']['layers_2']['attention_block']['layer_norm']['bias']"}, tensor<768xf32> {jax.result_info = "result[0].params['encoder']['params']['encoder_block']['layer_sequence']['layers_2']['attention_block']['layer_norm']['scale']"}, tensor<768xf32> {jax.result_info = "result[0].params['encoder']['params']['encoder_block']['layer_sequence']['layers_2']['mlp_block']['dense_layer']['bias']"}, tensor<3072x768xf32> {jax.result_info = "result[0].params['encoder']['params']['encoder_block']['layer_sequence']['layers_2']['mlp_block']['dense_layer']['kernel']"}, tensor<768xf32> {jax.result_info = "result[0].params['encoder']['params']['encoder_block']['layer_sequence']['layers_2']['mlp_block']['layer_norm']['bias']"}, tensor<768xf32> {jax.result_info = "result[0].params['encoder']['params']['encoder_block']['layer_sequence']['layers_2']['mlp_block']['layer_norm']['scale']"}, tensor<3072xf32> {jax.result_info = "result[0].params['encoder']['params']['encoder_block']['layer_sequence']['layers_2']['mlp_block']['mlp']['dense_layer']['bias']"}, tensor<768x3072xf32> {jax.result_info = "result[0].params['encoder']['params']['encoder_block']['layer_sequence']['layers_2']['mlp_block']['mlp']['dense_layer']['kernel']"}, tensor<768xf32> {jax.result_info = "result[0].params['encoder']['params']['encoder_block']['layer_sequence']['layers_3']['attention_block']['attention_layer']['key']['bias']"}, tensor<768x768xf32> {jax.result_info = "result[0].params['encoder']['params']['encoder_block']['layer_sequence']['layers_3']['attention_block']['attention_layer']['key']['kernel']"}, tensor<768xf32> {jax.result_info = "result[0].params['encoder']['params']['encoder_block']['layer_sequence']['layers_3']['attention_block']['attention_layer']['query']['bias']"}, tensor<768x768xf32> {jax.result_info = "result[0].params['encoder']['params']['encoder_block']['layer_sequence']['layers_3']['attention_block']['attention_layer']['query']['kernel']"}, tensor<768xf32> {jax.result_info = "result[0].params['encoder']['params']['encoder_block']['layer_sequence']['layers_3']['attention_block']['attention_layer']['value']['bias']"}, tensor<768x768xf32> {jax.result_info = "result[0].params['encoder']['params']['encoder_block']['layer_sequence']['layers_3']['attention_block']['attention_layer']['value']['kernel']"}, tensor<768xf32> {jax.result_info = "result[0].params['encoder']['params']['encoder_block']['layer_sequence']['layers_3']['attention_block']['dense_layer']['bias']"}, tensor<768x768xf32> {jax.result_info = "result[0].params['encoder']['params']['encoder_block']['layer_sequence']['layers_3']['attention_block']['dense_layer']['kernel']"}, tensor<768xf32> {jax.result_info = "result[0].params['encoder']['params']['encoder_block']['layer_sequence']['layers_3']['attention_block']['layer_norm']['bias']"}, tensor<768xf32> {jax.result_info = "result[0].params['encoder']['params']['encoder_block']['layer_sequence']['layers_3']['attention_block']['layer_norm']['scale']"}, tensor<768xf32> {jax.result_info = "result[0].params['encoder']['params']['encoder_block']['layer_sequence']['layers_3']['mlp_block']['dense_layer']['bias']"}, tensor<3072x768xf32> {jax.result_info = "result[0].params['encoder']['params']['encoder_block']['layer_sequence']['layers_3']['mlp_block']['dense_layer']['kernel']"}, tensor<768xf32> {jax.result_info = "result[0].params['encoder']['params']['encoder_block']['layer_sequence']['layers_3']['mlp_block']['layer_norm']['bias']"}, tensor<768xf32> {jax.result_info = "result[0].params['encoder']['params']['encoder_block']['layer_sequence']['layers_3']['mlp_block']['layer_norm']['scale']"}, tensor<3072xf32> {jax.result_info = "result[0].params['encoder']['params']['encoder_block']['layer_sequence']['layers_3']['mlp_block']['mlp']['dense_layer']['bias']"}, tensor<768x3072xf32> {jax.result_info = "result[0].params['encoder']['params']['encoder_block']['layer_sequence']['layers_3']['mlp_block']['mlp']['dense_layer']['kernel']"}, tensor<768xf32> {jax.result_info = "result[0].params['encoder']['params']['encoder_block']['layer_sequence']['layers_4']['attention_block']['attention_layer']['key']['bias']"}, tensor<768x768xf32> {jax.result_info = "result[0].params['encoder']['params']['encoder_block']['layer_sequence']['layers_4']['attention_block']['attention_layer']['key']['kernel']"}, tensor<768xf32> {jax.result_info = "result[0].params['encoder']['params']['encoder_block']['layer_sequence']['layers_4']['attention_block']['attention_layer']['query']['bias']"}, tensor<768x768xf32> {jax.result_info = "result[0].params['encoder']['params']['encoder_block']['layer_sequence']['layers_4']['attention_block']['attention_layer']['query']['kernel']"}, tensor<768xf32> {jax.result_info = "result[0].params['encoder']['params']['encoder_block']['layer_sequence']['layers_4']['attention_block']['attention_layer']['value']['bias']"}, tensor<768x768xf32> {jax.result_info = "result[0].params['encoder']['params']['encoder_block']['layer_sequence']['layers_4']['attention_block']['attention_layer']['value']['kernel']"}, tensor<768xf32> {jax.result_info = "result[0].params['encoder']['params']['encoder_block']['layer_sequence']['layers_4']['attention_block']['dense_layer']['bias']"}, tensor<768x768xf32> {jax.result_info = "result[0].params['encoder']['params']['encoder_block']['layer_sequence']['layers_4']['attention_block']['dense_layer']['kernel']"}, tensor<768xf32> {jax.result_info = "result[0].params['encoder']['params']['encoder_block']['layer_sequence']['layers_4']['attention_block']['layer_norm']['bias']"}, tensor<768xf32> {jax.result_info = "result[0].params['encoder']['params']['encoder_block']['layer_sequence']['layers_4']['attention_block']['layer_norm']['scale']"}, tensor<768xf32> {jax.result_info = "result[0].params['encoder']['params']['encoder_block']['layer_sequence']['layers_4']['mlp_block']['dense_layer']['bias']"}, tensor<3072x768xf32> {jax.result_info = "result[0].params['encoder']['params']['encoder_block']['layer_sequence']['layers_4']['mlp_block']['dense_layer']['kernel']"}, tensor<768xf32> {jax.result_info = "result[0].params['encoder']['params']['encoder_block']['layer_sequence']['layers_4']['mlp_block']['layer_norm']['bias']"}, tensor<768xf32> {jax.result_info = "result[0].params['encoder']['params']['encoder_block']['layer_sequence']['layers_4']['mlp_block']['layer_norm']['scale']"}, tensor<3072xf32> {jax.result_info = "result[0].params['encoder']['params']['encoder_block']['layer_sequence']['layers_4']['mlp_block']['mlp']['dense_layer']['bias']"}, tensor<768x3072xf32> {jax.result_info = "result[0].params['encoder']['params']['encoder_block']['layer_sequence']['layers_4']['mlp_block']['mlp']['dense_layer']['kernel']"}, tensor<768xf32> {jax.result_info = "result[0].params['encoder']['params']['encoder_block']['layer_sequence']['layers_5']['attention_block']['attention_layer']['key']['bias']"}, tensor<768x768xf32> {jax.result_info = "result[0].params['encoder']['params']['encoder_block']['layer_sequence']['layers_5']['attention_block']['attention_layer']['key']['kernel']"}, tensor<768xf32> {jax.result_info = "result[0].params['encoder']['params']['encoder_block']['layer_sequence']['layers_5']['attention_block']['attention_layer']['query']['bias']"}, tensor<768x768xf32> {jax.result_info = "result[0].params['encoder']['params']['encoder_block']['layer_sequence']['layers_5']['attention_block']['attention_layer']['query']['kernel']"}, tensor<768xf32> {jax.result_info = "result[0].params['encoder']['params']['encoder_block']['layer_sequence']['layers_5']['attention_block']['attention_layer']['value']['bias']"}, tensor<768x768xf32> {jax.result_info = "result[0].params['encoder']['params']['encoder_block']['layer_sequence']['layers_5']['attention_block']['attention_layer']['value']['kernel']"}, tensor<768xf32> {jax.result_info = "result[0].params['encoder']['params']['encoder_block']['layer_sequence']['layers_5']['attention_block']['dense_layer']['bias']"}, tensor<768x768xf32> {jax.result_info = "result[0].params['encoder']['params']['encoder_block']['layer_sequence']['layers_5']['attention_block']['dense_layer']['kernel']"}, tensor<768xf32> {jax.result_info = "result[0].params['encoder']['params']['encoder_block']['layer_sequence']['layers_5']['attention_block']['layer_norm']['bias']"}, tensor<768xf32> {jax.result_info = "result[0].params['encoder']['params']['encoder_block']['layer_sequence']['layers_5']['attention_block']['layer_norm']['scale']"}, tensor<768xf32> {jax.result_info = "result[0].params['encoder']['params']['encoder_block']['layer_sequence']['layers_5']['mlp_block']['dense_layer']['bias']"}, tensor<3072x768xf32> {jax.result_info = "result[0].params['encoder']['params']['encoder_block']['layer_sequence']['layers_5']['mlp_block']['dense_layer']['kernel']"}, tensor<768xf32> {jax.result_info = "result[0].params['encoder']['params']['encoder_block']['layer_sequence']['layers_5']['mlp_block']['layer_norm']['bias']"}, tensor<768xf32> {jax.result_info = "result[0].params['encoder']['params']['encoder_block']['layer_sequence']['layers_5']['mlp_block']['layer_norm']['scale']"}, tensor<3072xf32> {jax.result_info = "result[0].params['encoder']['params']['encoder_block']['layer_sequence']['layers_5']['mlp_block']['mlp']['dense_layer']['bias']"}, tensor<768x3072xf32> {jax.result_info = "result[0].params['encoder']['params']['encoder_block']['layer_sequence']['layers_5']['mlp_block']['mlp']['dense_layer']['kernel']"}, tensor<768xf32> {jax.result_info = "result[0].params['encoder']['params']['encoder_block']['layer_sequence']['layers_6']['attention_block']['attention_layer']['key']['bias']"}, tensor<768x768xf32> {jax.result_info = "result[0].params['encoder']['params']['encoder_block']['layer_sequence']['layers_6']['attention_block']['attention_layer']['key']['kernel']"}, tensor<768xf32> {jax.result_info = "result[0].params['encoder']['params']['encoder_block']['layer_sequence']['layers_6']['attention_block']['attention_layer']['query']['bias']"}, tensor<768x768xf32> {jax.result_info = "result[0].params['encoder']['params']['encoder_block']['layer_sequence']['layers_6']['attention_block']['attention_layer']['query']['kernel']"}, tensor<768xf32> {jax.result_info = "result[0].params['encoder']['params']['encoder_block']['layer_sequence']['layers_6']['attention_block']['attention_layer']['value']['bias']"}, tensor<768x768xf32> {jax.result_info = "result[0].params['encoder']['params']['encoder_block']['layer_sequence']['layers_6']['attention_block']['attention_layer']['value']['kernel']"}, tensor<768xf32> {jax.result_info = "result[0].params['encoder']['params']['encoder_block']['layer_sequence']['layers_6']['attention_block']['dense_layer']['bias']"}, tensor<768x768xf32> {jax.result_info = "result[0].params['encoder']['params']['encoder_block']['layer_sequence']['layers_6']['attention_block']['dense_layer']['kernel']"}, tensor<768xf32> {jax.result_info = "result[0].params['encoder']['params']['encoder_block']['layer_sequence']['layers_6']['attention_block']['layer_norm']['bias']"}, tensor<768xf32> {jax.result_info = "result[0].params['encoder']['params']['encoder_block']['layer_sequence']['layers_6']['attention_block']['layer_norm']['scale']"}, tensor<768xf32> {jax.result_info = "result[0].params['encoder']['params']['encoder_block']['layer_sequence']['layers_6']['mlp_block']['dense_layer']['bias']"}, tensor<3072x768xf32> {jax.result_info = "result[0].params['encoder']['params']['encoder_block']['layer_sequence']['layers_6']['mlp_block']['dense_layer']['kernel']"}, tensor<768xf32> {jax.result_info = "result[0].params['encoder']['params']['encoder_block']['layer_sequence']['layers_6']['mlp_block']['layer_norm']['bias']"}, tensor<768xf32> {jax.result_info = "result[0].params['encoder']['params']['encoder_block']['layer_sequence']['layers_6']['mlp_block']['layer_norm']['scale']"}, tensor<3072xf32> {jax.result_info = "result[0].params['encoder']['params']['encoder_block']['layer_sequence']['layers_6']['mlp_block']['mlp']['dense_layer']['bias']"}, tensor<768x3072xf32> {jax.result_info = "result[0].params['encoder']['params']['encoder_block']['layer_sequence']['layers_6']['mlp_block']['mlp']['dense_layer']['kernel']"}, tensor<768xf32> {jax.result_info = "result[0].params['encoder']['params']['encoder_block']['layer_sequence']['layers_7']['attention_block']['attention_layer']['key']['bias']"}, tensor<768x768xf32> {jax.result_info = "result[0].params['encoder']['params']['encoder_block']['layer_sequence']['layers_7']['attention_block']['attention_layer']['key']['kernel']"}, tensor<768xf32> {jax.result_info = "result[0].params['encoder']['params']['encoder_block']['layer_sequence']['layers_7']['attention_block']['attention_layer']['query']['bias']"}, tensor<768x768xf32> {jax.result_info = "result[0].params['encoder']['params']['encoder_block']['layer_sequence']['layers_7']['attention_block']['attention_layer']['query']['kernel']"}, tensor<768xf32> {jax.result_info = "result[0].params['encoder']['params']['encoder_block']['layer_sequence']['layers_7']['attention_block']['attention_layer']['value']['bias']"}, tensor<768x768xf32> {jax.result_info = "result[0].params['encoder']['params']['encoder_block']['layer_sequence']['layers_7']['attention_block']['attention_layer']['value']['kernel']"}, tensor<768xf32> {jax.result_info = "result[0].params['encoder']['params']['encoder_block']['layer_sequence']['layers_7']['attention_block']['dense_layer']['bias']"}, tensor<768x768xf32> {jax.result_info = "result[0].params['encoder']['params']['encoder_block']['layer_sequence']['layers_7']['attention_block']['dense_layer']['kernel']"}, tensor<768xf32> {jax.result_info = "result[0].params['encoder']['params']['encoder_block']['layer_sequence']['layers_7']['attention_block']['layer_norm']['bias']"}, tensor<768xf32> {jax.result_info = "result[0].params['encoder']['params']['encoder_block']['layer_sequence']['layers_7']['attention_block']['layer_norm']['scale']"}, tensor<768xf32> {jax.result_info = "result[0].params['encoder']['params']['encoder_block']['layer_sequence']['layers_7']['mlp_block']['dense_layer']['bias']"}, tensor<3072x768xf32> {jax.result_info = "result[0].params['encoder']['params']['encoder_block']['layer_sequence']['layers_7']['mlp_block']['dense_layer']['kernel']"}, tensor<768xf32> {jax.result_info = "result[0].params['encoder']['params']['encoder_block']['layer_sequence']['layers_7']['mlp_block']['layer_norm']['bias']"}, tensor<768xf32> {jax.result_info = "result[0].params['encoder']['params']['encoder_block']['layer_sequence']['layers_7']['mlp_block']['layer_norm']['scale']"}, tensor<3072xf32> {jax.result_info = "result[0].params['encoder']['params']['encoder_block']['layer_sequence']['layers_7']['mlp_block']['mlp']['dense_layer']['bias']"}, tensor<768x3072xf32> {jax.result_info = "result[0].params['encoder']['params']['encoder_block']['layer_sequence']['layers_7']['mlp_block']['mlp']['dense_layer']['kernel']"}, tensor<768xf32> {jax.result_info = "result[0].params['encoder']['params']['encoder_block']['layer_sequence']['layers_8']['attention_block']['attention_layer']['key']['bias']"}, tensor<768x768xf32> {jax.result_info = "result[0].params['encoder']['params']['encoder_block']['layer_sequence']['layers_8']['attention_block']['attention_layer']['key']['kernel']"}, tensor<768xf32> {jax.result_info = "result[0].params['encoder']['params']['encoder_block']['layer_sequence']['layers_8']['attention_block']['attention_layer']['query']['bias']"}, tensor<768x768xf32> {jax.result_info = "result[0].params['encoder']['params']['encoder_block']['layer_sequence']['layers_8']['attention_block']['attention_layer']['query']['kernel']"}, tensor<768xf32> {jax.result_info = "result[0].params['encoder']['params']['encoder_block']['layer_sequence']['layers_8']['attention_block']['attention_layer']['value']['bias']"}, tensor<768x768xf32> {jax.result_info = "result[0].params['encoder']['params']['encoder_block']['layer_sequence']['layers_8']['attention_block']['attention_layer']['value']['kernel']"}, tensor<768xf32> {jax.result_info = "result[0].params['encoder']['params']['encoder_block']['layer_sequence']['layers_8']['attention_block']['dense_layer']['bias']"}, tensor<768x768xf32> {jax.result_info = "result[0].params['encoder']['params']['encoder_block']['layer_sequence']['layers_8']['attention_block']['dense_layer']['kernel']"}, tensor<768xf32> {jax.result_info = "result[0].params['encoder']['params']['encoder_block']['layer_sequence']['layers_8']['attention_block']['layer_norm']['bias']"}, tensor<768xf32> {jax.result_info = "result[0].params['encoder']['params']['encoder_block']['layer_sequence']['layers_8']['attention_block']['layer_norm']['scale']"}, tensor<768xf32> {jax.result_info = "result[0].params['encoder']['params']['encoder_block']['layer_sequence']['layers_8']['mlp_block']['dense_layer']['bias']"}, tensor<3072x768xf32> {jax.result_info = "result[0].params['encoder']['params']['encoder_block']['layer_sequence']['layers_8']['mlp_block']['dense_layer']['kernel']"}, tensor<768xf32> {jax.result_info = "result[0].params['encoder']['params']['encoder_block']['layer_sequence']['layers_8']['mlp_block']['layer_norm']['bias']"}, tensor<768xf32> {jax.result_info = "result[0].params['encoder']['params']['encoder_block']['layer_sequence']['layers_8']['mlp_block']['layer_norm']['scale']"}, tensor<3072xf32> {jax.result_info = "result[0].params['encoder']['params']['encoder_block']['layer_sequence']['layers_8']['mlp_block']['mlp']['dense_layer']['bias']"}, tensor<768x3072xf32> {jax.result_info = "result[0].params['encoder']['params']['encoder_block']['layer_sequence']['layers_8']['mlp_block']['mlp']['dense_layer']['kernel']"}, tensor<768xf32> {jax.result_info = "result[0].params['encoder']['params']['encoder_block']['layer_sequence']['layers_9']['attention_block']['attention_layer']['key']['bias']"}, tensor<768x768xf32> {jax.result_info = "result[0].params['encoder']['params']['encoder_block']['layer_sequence']['layers_9']['attention_block']['attention_layer']['key']['kernel']"}, tensor<768xf32> {jax.result_info = "result[0].params['encoder']['params']['encoder_block']['layer_sequence']['layers_9']['attention_block']['attention_layer']['query']['bias']"}, tensor<768x768xf32> {jax.result_info = "result[0].params['encoder']['params']['encoder_block']['layer_sequence']['layers_9']['attention_block']['attention_layer']['query']['kernel']"}, tensor<768xf32> {jax.result_info = "result[0].params['encoder']['params']['encoder_block']['layer_sequence']['layers_9']['attention_block']['attention_layer']['value']['bias']"}, tensor<768x768xf32> {jax.result_info = "result[0].params['encoder']['params']['encoder_block']['layer_sequence']['layers_9']['attention_block']['attention_layer']['value']['kernel']"}, tensor<768xf32> {jax.result_info = "result[0].params['encoder']['params']['encoder_block']['layer_sequence']['layers_9']['attention_block']['dense_layer']['bias']"}, tensor<768x768xf32> {jax.result_info = "result[0].params['encoder']['params']['encoder_block']['layer_sequence']['layers_9']['attention_block']['dense_layer']['kernel']"}, tensor<768xf32> {jax.result_info = "result[0].params['encoder']['params']['encoder_block']['layer_sequence']['layers_9']['attention_block']['layer_norm']['bias']"}, tensor<768xf32> {jax.result_info = "result[0].params['encoder']['params']['encoder_block']['layer_sequence']['layers_9']['attention_block']['layer_norm']['scale']"}, tensor<768xf32> {jax.result_info = "result[0].params['encoder']['params']['encoder_block']['layer_sequence']['layers_9']['mlp_block']['dense_layer']['bias']"}, tensor<3072x768xf32> {jax.result_info = "result[0].params['encoder']['params']['encoder_block']['layer_sequence']['layers_9']['mlp_block']['dense_layer']['kernel']"}, tensor<768xf32> {jax.result_info = "result[0].params['encoder']['params']['encoder_block']['layer_sequence']['layers_9']['mlp_block']['layer_norm']['bias']"}, tensor<768xf32> {jax.result_info = "result[0].params['encoder']['params']['encoder_block']['layer_sequence']['layers_9']['mlp_block']['layer_norm']['scale']"}, tensor<3072xf32> {jax.result_info = "result[0].params['encoder']['params']['encoder_block']['layer_sequence']['layers_9']['mlp_block']['mlp']['dense_layer']['bias']"}, tensor<768x3072xf32> {jax.result_info = "result[0].params['encoder']['params']['encoder_block']['layer_sequence']['layers_9']['mlp_block']['mlp']['dense_layer']['kernel']"}, tensor<768xf32> {jax.result_info = "result[0].params['encoder']['params']['layer_norm']['bias']"}, tensor<768xf32> {jax.result_info = "result[0].params['encoder']['params']['layer_norm']['scale']"}, tensor<30522xf32> {jax.result_info = "result[0].params['mlm_head']['params']['bias']"}, tensor<768xf32> {jax.result_info = "result[0].params['mlm_head']['params']['dense']['bias']"}, tensor<768x768xf32> {jax.result_info = "result[0].params['mlm_head']['params']['dense']['kernel']"}, tensor<30522x768xf32> {jax.result_info = "result[0].params['mlm_head']['params']['encoder']['embedder']['embedders_token_ids']['embedding']"}, tensor<768xf32> {jax.result_info = "result[0].params['mlm_head']['params']['layer_norm']['bias']"}, tensor<768xf32> {jax.result_info = "result[0].params['mlm_head']['params']['layer_norm']['scale']"}, tensor<i32> {jax.result_info = "result[0].opt_state[1][0].count"}, tensor<512x768xf32> {jax.result_info = "result[0].opt_state[1][0].mu['encoder']['params']['embedder']['embedders_position_ids']['embedding']"}, tensor<2x768xf32> {jax.result_info = "result[0].opt_state[1][0].mu['encoder']['params']['embedder']['embedders_segment_ids']['embedding']"}, tensor<30522x768xf32> {jax.result_info = "result[0].opt_state[1][0].mu['encoder']['params']['embedder']['embedders_token_ids']['embedding']"}, tensor<768xf32> {jax.result_info = "result[0].opt_state[1][0].mu['encoder']['params']['encoder_block']['layer_sequence']['layers_0']['attention_block']['attention_layer']['key']['bias']"}, tensor<768x768xf32> {jax.result_info = "result[0].opt_state[1][0].mu['encoder']['params']['encoder_block']['layer_sequence']['layers_0']['attention_block']['attention_layer']['key']['kernel']"}, tensor<768xf32> {jax.result_info = "result[0].opt_state[1][0].mu['encoder']['params']['encoder_block']['layer_sequence']['layers_0']['attention_block']['attention_layer']['query']['bias']"}, tensor<768x768xf32> {jax.result_info = "result[0].opt_state[1][0].mu['encoder']['params']['encoder_block']['layer_sequence']['layers_0']['attention_block']['attention_layer']['query']['kernel']"}, tensor<768xf32> {jax.result_info = "result[0].opt_state[1][0].mu['encoder']['params']['encoder_block']['layer_sequence']['layers_0']['attention_block']['attention_layer']['value']['bias']"}, tensor<768x768xf32> {jax.result_info = "result[0].opt_state[1][0].mu['encoder']['params']['encoder_block']['layer_sequence']['layers_0']['attention_block']['attention_layer']['value']['kernel']"}, tensor<768xf32> {jax.result_info = "result[0].opt_state[1][0].mu['encoder']['params']['encoder_block']['layer_sequence']['layers_0']['attention_block']['dense_layer']['bias']"}, tensor<768x768xf32> {jax.result_info = "result[0].opt_state[1][0].mu['encoder']['params']['encoder_block']['layer_sequence']['layers_0']['attention_block']['dense_layer']['kernel']"}, tensor<768xf32> {jax.result_info = "result[0].opt_state[1][0].mu['encoder']['params']['encoder_block']['layer_sequence']['layers_0']['attention_block']['layer_norm']['bias']"}, tensor<768xf32> {jax.result_info = "result[0].opt_state[1][0].mu['encoder']['params']['encoder_block']['layer_sequence']['layers_0']['attention_block']['layer_norm']['scale']"}, tensor<768xf32> {jax.result_info = "result[0].opt_state[1][0].mu['encoder']['params']['encoder_block']['layer_sequence']['layers_0']['mlp_block']['dense_layer']['bias']"}, tensor<3072x768xf32> {jax.result_info = "result[0].opt_state[1][0].mu['encoder']['params']['encoder_block']['layer_sequence']['layers_0']['mlp_block']['dense_layer']['kernel']"}, tensor<768xf32> {jax.result_info = "result[0].opt_state[1][0].mu['encoder']['params']['encoder_block']['layer_sequence']['layers_0']['mlp_block']['layer_norm']['bias']"}, tensor<768xf32> {jax.result_info = "result[0].opt_state[1][0].mu['encoder']['params']['encoder_block']['layer_sequence']['layers_0']['mlp_block']['layer_norm']['scale']"}, tensor<3072xf32> {jax.result_info = "result[0].opt_state[1][0].mu['encoder']['params']['encoder_block']['layer_sequence']['layers_0']['mlp_block']['mlp']['dense_layer']['bias']"}, tensor<768x3072xf32> {jax.result_info = "result[0].opt_state[1][0].mu['encoder']['params']['encoder_block']['layer_sequence']['layers_0']['mlp_block']['mlp']['dense_layer']['kernel']"}, tensor<768xf32> {jax.result_info = "result[0].opt_state[1][0].mu['encoder']['params']['encoder_block']['layer_sequence']['layers_1']['attention_block']['attention_layer']['key']['bias']"}, tensor<768x768xf32> {jax.result_info = "result[0].opt_state[1][0].mu['encoder']['params']['encoder_block']['layer_sequence']['layers_1']['attention_block']['attention_layer']['key']['kernel']"}, tensor<768xf32> {jax.result_info = "result[0].opt_state[1][0].mu['encoder']['params']['encoder_block']['layer_sequence']['layers_1']['attention_block']['attention_layer']['query']['bias']"}, tensor<768x768xf32> {jax.result_info = "result[0].opt_state[1][0].mu['encoder']['params']['encoder_block']['layer_sequence']['layers_1']['attention_block']['attention_layer']['query']['kernel']"}, tensor<768xf32> {jax.result_info = "result[0].opt_state[1][0].mu['encoder']['params']['encoder_block']['layer_sequence']['layers_1']['attention_block']['attention_layer']['value']['bias']"}, tensor<768x768xf32> {jax.result_info = "result[0].opt_state[1][0].mu['encoder']['params']['encoder_block']['layer_sequence']['layers_1']['attention_block']['attention_layer']['value']['kernel']"}, tensor<768xf32> {jax.result_info = "result[0].opt_state[1][0].mu['encoder']['params']['encoder_block']['layer_sequence']['layers_1']['attention_block']['dense_layer']['bias']"}, tensor<768x768xf32> {jax.result_info = "result[0].opt_state[1][0].mu['encoder']['params']['encoder_block']['layer_sequence']['layers_1']['attention_block']['dense_layer']['kernel']"}, tensor<768xf32> {jax.result_info = "result[0].opt_state[1][0].mu['encoder']['params']['encoder_block']['layer_sequence']['layers_1']['attention_block']['layer_norm']['bias']"}, tensor<768xf32> {jax.result_info = "result[0].opt_state[1][0].mu['encoder']['params']['encoder_block']['layer_sequence']['layers_1']['attention_block']['layer_norm']['scale']"}, tensor<768xf32> {jax.result_info = "result[0].opt_state[1][0].mu['encoder']['params']['encoder_block']['layer_sequence']['layers_1']['mlp_block']['dense_layer']['bias']"}, tensor<3072x768xf32> {jax.result_info = "result[0].opt_state[1][0].mu['encoder']['params']['encoder_block']['layer_sequence']['layers_1']['mlp_block']['dense_layer']['kernel']"}, tensor<768xf32> {jax.result_info = "result[0].opt_state[1][0].mu['encoder']['params']['encoder_block']['layer_sequence']['layers_1']['mlp_block']['layer_norm']['bias']"}, tensor<768xf32> {jax.result_info = "result[0].opt_state[1][0].mu['encoder']['params']['encoder_block']['layer_sequence']['layers_1']['mlp_block']['layer_norm']['scale']"}, tensor<3072xf32> {jax.result_info = "result[0].opt_state[1][0].mu['encoder']['params']['encoder_block']['layer_sequence']['layers_1']['mlp_block']['mlp']['dense_layer']['bias']"}, tensor<768x3072xf32> {jax.result_info = "result[0].opt_state[1][0].mu['encoder']['params']['encoder_block']['layer_sequence']['layers_1']['mlp_block']['mlp']['dense_layer']['kernel']"}, tensor<768xf32> {jax.result_info = "result[0].opt_state[1][0].mu['encoder']['params']['encoder_block']['layer_sequence']['layers_10']['attention_block']['attention_layer']['key']['bias']"}, tensor<768x768xf32> {jax.result_info = "result[0].opt_state[1][0].mu['encoder']['params']['encoder_block']['layer_sequence']['layers_10']['attention_block']['attention_layer']['key']['kernel']"}, tensor<768xf32> {jax.result_info = "result[0].opt_state[1][0].mu['encoder']['params']['encoder_block']['layer_sequence']['layers_10']['attention_block']['attention_layer']['query']['bias']"}, tensor<768x768xf32> {jax.result_info = "result[0].opt_state[1][0].mu['encoder']['params']['encoder_block']['layer_sequence']['layers_10']['attention_block']['attention_layer']['query']['kernel']"}, tensor<768xf32> {jax.result_info = "result[0].opt_state[1][0].mu['encoder']['params']['encoder_block']['layer_sequence']['layers_10']['attention_block']['attention_layer']['value']['bias']"}, tensor<768x768xf32> {jax.result_info = "result[0].opt_state[1][0].mu['encoder']['params']['encoder_block']['layer_sequence']['layers_10']['attention_block']['attention_layer']['value']['kernel']"}, tensor<768xf32> {jax.result_info = "result[0].opt_state[1][0].mu['encoder']['params']['encoder_block']['layer_sequence']['layers_10']['attention_block']['dense_layer']['bias']"}, tensor<768x768xf32> {jax.result_info = "result[0].opt_state[1][0].mu['encoder']['params']['encoder_block']['layer_sequence']['layers_10']['attention_block']['dense_layer']['kernel']"}, tensor<768xf32> {jax.result_info = "result[0].opt_state[1][0].mu['encoder']['params']['encoder_block']['layer_sequence']['layers_10']['attention_block']['layer_norm']['bias']"}, tensor<768xf32> {jax.result_info = "result[0].opt_state[1][0].mu['encoder']['params']['encoder_block']['layer_sequence']['layers_10']['attention_block']['layer_norm']['scale']"}, tensor<768xf32> {jax.result_info = "result[0].opt_state[1][0].mu['encoder']['params']['encoder_block']['layer_sequence']['layers_10']['mlp_block']['dense_layer']['bias']"}, tensor<3072x768xf32> {jax.result_info = "result[0].opt_state[1][0].mu['encoder']['params']['encoder_block']['layer_sequence']['layers_10']['mlp_block']['dense_layer']['kernel']"}, tensor<768xf32> {jax.result_info = "result[0].opt_state[1][0].mu['encoder']['params']['encoder_block']['layer_sequence']['layers_10']['mlp_block']['layer_norm']['bias']"}, tensor<768xf32> {jax.result_info = "result[0].opt_state[1][0].mu['encoder']['params']['encoder_block']['layer_sequence']['layers_10']['mlp_block']['layer_norm']['scale']"}, tensor<3072xf32> {jax.result_info = "result[0].opt_state[1][0].mu['encoder']['params']['encoder_block']['layer_sequence']['layers_10']['mlp_block']['mlp']['dense_layer']['bias']"}, tensor<768x3072xf32> {jax.result_info = "result[0].opt_state[1][0].mu['encoder']['params']['encoder_block']['layer_sequence']['layers_10']['mlp_block']['mlp']['dense_layer']['kernel']"}, tensor<768xf32> {jax.result_info = "result[0].opt_state[1][0].mu['encoder']['params']['encoder_block']['layer_sequence']['layers_11']['attention_block']['attention_layer']['key']['bias']"}, tensor<768x768xf32> {jax.result_info = "result[0].opt_state[1][0].mu['encoder']['params']['encoder_block']['layer_sequence']['layers_11']['attention_block']['attention_layer']['key']['kernel']"}, tensor<768xf32> {jax.result_info = "result[0].opt_state[1][0].mu['encoder']['params']['encoder_block']['layer_sequence']['layers_11']['attention_block']['attention_layer']['query']['bias']"}, tensor<768x768xf32> {jax.result_info = "result[0].opt_state[1][0].mu['encoder']['params']['encoder_block']['layer_sequence']['layers_11']['attention_block']['attention_layer']['query']['kernel']"}, tensor<768xf32> {jax.result_info = "result[0].opt_state[1][0].mu['encoder']['params']['encoder_block']['layer_sequence']['layers_11']['attention_block']['attention_layer']['value']['bias']"}, tensor<768x768xf32> {jax.result_info = "result[0].opt_state[1][0].mu['encoder']['params']['encoder_block']['layer_sequence']['layers_11']['attention_block']['attention_layer']['value']['kernel']"}, tensor<768xf32> {jax.result_info = "result[0].opt_state[1][0].mu['encoder']['params']['encoder_block']['layer_sequence']['layers_11']['attention_block']['dense_layer']['bias']"}, tensor<768x768xf32> {jax.result_info = "result[0].opt_state[1][0].mu['encoder']['params']['encoder_block']['layer_sequence']['layers_11']['attention_block']['dense_layer']['kernel']"}, tensor<768xf32> {jax.result_info = "result[0].opt_state[1][0].mu['encoder']['params']['encoder_block']['layer_sequence']['layers_11']['attention_block']['layer_norm']['bias']"}, tensor<768xf32> {jax.result_info = "result[0].opt_state[1][0].mu['encoder']['params']['encoder_block']['layer_sequence']['layers_11']['attention_block']['layer_norm']['scale']"}, tensor<768xf32> {jax.result_info = "result[0].opt_state[1][0].mu['encoder']['params']['encoder_block']['layer_sequence']['layers_11']['mlp_block']['dense_layer']['bias']"}, tensor<3072x768xf32> {jax.result_info = "result[0].opt_state[1][0].mu['encoder']['params']['encoder_block']['layer_sequence']['layers_11']['mlp_block']['dense_layer']['kernel']"}, tensor<768xf32> {jax.result_info = "result[0].opt_state[1][0].mu['encoder']['params']['encoder_block']['layer_sequence']['layers_11']['mlp_block']['layer_norm']['bias']"}, tensor<768xf32> {jax.result_info = "result[0].opt_state[1][0].mu['encoder']['params']['encoder_block']['layer_sequence']['layers_11']['mlp_block']['layer_norm']['scale']"}, tensor<3072xf32> {jax.result_info = "result[0].opt_state[1][0].mu['encoder']['params']['encoder_block']['layer_sequence']['layers_11']['mlp_block']['mlp']['dense_layer']['bias']"}, tensor<768x3072xf32> {jax.result_info = "result[0].opt_state[1][0].mu['encoder']['params']['encoder_block']['layer_sequence']['layers_11']['mlp_block']['mlp']['dense_layer']['kernel']"}, tensor<768xf32> {jax.result_info = "result[0].opt_state[1][0].mu['encoder']['params']['encoder_block']['layer_sequence']['layers_2']['attention_block']['attention_layer']['key']['bias']"}, tensor<768x768xf32> {jax.result_info = "result[0].opt_state[1][0].mu['encoder']['params']['encoder_block']['layer_sequence']['layers_2']['attention_block']['attention_layer']['key']['kernel']"}, tensor<768xf32> {jax.result_info = "result[0].opt_state[1][0].mu['encoder']['params']['encoder_block']['layer_sequence']['layers_2']['attention_block']['attention_layer']['query']['bias']"}, tensor<768x768xf32> {jax.result_info = "result[0].opt_state[1][0].mu['encoder']['params']['encoder_block']['layer_sequence']['layers_2']['attention_block']['attention_layer']['query']['kernel']"}, tensor<768xf32> {jax.result_info = "result[0].opt_state[1][0].mu['encoder']['params']['encoder_block']['layer_sequence']['layers_2']['attention_block']['attention_layer']['value']['bias']"}, tensor<768x768xf32> {jax.result_info = "result[0].opt_state[1][0].mu['encoder']['params']['encoder_block']['layer_sequence']['layers_2']['attention_block']['attention_layer']['value']['kernel']"}, tensor<768xf32> {jax.result_info = "result[0].opt_state[1][0].mu['encoder']['params']['encoder_block']['layer_sequence']['layers_2']['attention_block']['dense_layer']['bias']"}, tensor<768x768xf32> {jax.result_info = "result[0].opt_state[1][0].mu['encoder']['params']['encoder_block']['layer_sequence']['layers_2']['attention_block']['dense_layer']['kernel']"}, tensor<768xf32> {jax.result_info = "result[0].opt_state[1][0].mu['encoder']['params']['encoder_block']['layer_sequence']['layers_2']['attention_block']['layer_norm']['bias']"}, tensor<768xf32> {jax.result_info = "result[0].opt_state[1][0].mu['encoder']['params']['encoder_block']['layer_sequence']['layers_2']['attention_block']['layer_norm']['scale']"}, tensor<768xf32> {jax.result_info = "result[0].opt_state[1][0].mu['encoder']['params']['encoder_block']['layer_sequence']['layers_2']['mlp_block']['dense_layer']['bias']"}, tensor<3072x768xf32> {jax.result_info = "result[0].opt_state[1][0].mu['encoder']['params']['encoder_block']['layer_sequence']['layers_2']['mlp_block']['dense_layer']['kernel']"}, tensor<768xf32> {jax.result_info = "result[0].opt_state[1][0].mu['encoder']['params']['encoder_block']['layer_sequence']['layers_2']['mlp_block']['layer_norm']['bias']"}, tensor<768xf32> {jax.result_info = "result[0].opt_state[1][0].mu['encoder']['params']['encoder_block']['layer_sequence']['layers_2']['mlp_block']['layer_norm']['scale']"}, tensor<3072xf32> {jax.result_info = "result[0].opt_state[1][0].mu['encoder']['params']['encoder_block']['layer_sequence']['layers_2']['mlp_block']['mlp']['dense_layer']['bias']"}, tensor<768x3072xf32> {jax.result_info = "result[0].opt_state[1][0].mu['encoder']['params']['encoder_block']['layer_sequence']['layers_2']['mlp_block']['mlp']['dense_layer']['kernel']"}, tensor<768xf32> {jax.result_info = "result[0].opt_state[1][0].mu['encoder']['params']['encoder_block']['layer_sequence']['layers_3']['attention_block']['attention_layer']['key']['bias']"}, tensor<768x768xf32> {jax.result_info = "result[0].opt_state[1][0].mu['encoder']['params']['encoder_block']['layer_sequence']['layers_3']['attention_block']['attention_layer']['key']['kernel']"}, tensor<768xf32> {jax.result_info = "result[0].opt_state[1][0].mu['encoder']['params']['encoder_block']['layer_sequence']['layers_3']['attention_block']['attention_layer']['query']['bias']"}, tensor<768x768xf32> {jax.result_info = "result[0].opt_state[1][0].mu['encoder']['params']['encoder_block']['layer_sequence']['layers_3']['attention_block']['attention_layer']['query']['kernel']"}, tensor<768xf32> {jax.result_info = "result[0].opt_state[1][0].mu['encoder']['params']['encoder_block']['layer_sequence']['layers_3']['attention_block']['attention_layer']['value']['bias']"}, tensor<768x768xf32> {jax.result_info = "result[0].opt_state[1][0].mu['encoder']['params']['encoder_block']['layer_sequence']['layers_3']['attention_block']['attention_layer']['value']['kernel']"}, tensor<768xf32> {jax.result_info = "result[0].opt_state[1][0].mu['encoder']['params']['encoder_block']['layer_sequence']['layers_3']['attention_block']['dense_layer']['bias']"}, tensor<768x768xf32> {jax.result_info = "result[0].opt_state[1][0].mu['encoder']['params']['encoder_block']['layer_sequence']['layers_3']['attention_block']['dense_layer']['kernel']"}, tensor<768xf32> {jax.result_info = "result[0].opt_state[1][0].mu['encoder']['params']['encoder_block']['layer_sequence']['layers_3']['attention_block']['layer_norm']['bias']"}, tensor<768xf32> {jax.result_info = "result[0].opt_state[1][0].mu['encoder']['params']['encoder_block']['layer_sequence']['layers_3']['attention_block']['layer_norm']['scale']"}, tensor<768xf32> {jax.result_info = "result[0].opt_state[1][0].mu['encoder']['params']['encoder_block']['layer_sequence']['layers_3']['mlp_block']['dense_layer']['bias']"}, tensor<3072x768xf32> {jax.result_info = "result[0].opt_state[1][0].mu['encoder']['params']['encoder_block']['layer_sequence']['layers_3']['mlp_block']['dense_layer']['kernel']"}, tensor<768xf32> {jax.result_info = "result[0].opt_state[1][0].mu['encoder']['params']['encoder_block']['layer_sequence']['layers_3']['mlp_block']['layer_norm']['bias']"}, tensor<768xf32> {jax.result_info = "result[0].opt_state[1][0].mu['encoder']['params']['encoder_block']['layer_sequence']['layers_3']['mlp_block']['layer_norm']['scale']"}, tensor<3072xf32> {jax.result_info = "result[0].opt_state[1][0].mu['encoder']['params']['encoder_block']['layer_sequence']['layers_3']['mlp_block']['mlp']['dense_layer']['bias']"}, tensor<768x3072xf32> {jax.result_info = "result[0].opt_state[1][0].mu['encoder']['params']['encoder_block']['layer_sequence']['layers_3']['mlp_block']['mlp']['dense_layer']['kernel']"}, tensor<768xf32> {jax.result_info = "result[0].opt_state[1][0].mu['encoder']['params']['encoder_block']['layer_sequence']['layers_4']['attention_block']['attention_layer']['key']['bias']"}, tensor<768x768xf32> {jax.result_info = "result[0].opt_state[1][0].mu['encoder']['params']['encoder_block']['layer_sequence']['layers_4']['attention_block']['attention_layer']['key']['kernel']"}, tensor<768xf32> {jax.result_info = "result[0].opt_state[1][0].mu['encoder']['params']['encoder_block']['layer_sequence']['layers_4']['attention_block']['attention_layer']['query']['bias']"}, tensor<768x768xf32> {jax.result_info = "result[0].opt_state[1][0].mu['encoder']['params']['encoder_block']['layer_sequence']['layers_4']['attention_block']['attention_layer']['query']['kernel']"}, tensor<768xf32> {jax.result_info = "result[0].opt_state[1][0].mu['encoder']['params']['encoder_block']['layer_sequence']['layers_4']['attention_block']['attention_layer']['value']['bias']"}, tensor<768x768xf32> {jax.result_info = "result[0].opt_state[1][0].mu['encoder']['params']['encoder_block']['layer_sequence']['layers_4']['attention_block']['attention_layer']['value']['kernel']"}, tensor<768xf32> {jax.result_info = "result[0].opt_state[1][0].mu['encoder']['params']['encoder_block']['layer_sequence']['layers_4']['attention_block']['dense_layer']['bias']"}, tensor<768x768xf32> {jax.result_info = "result[0].opt_state[1][0].mu['encoder']['params']['encoder_block']['layer_sequence']['layers_4']['attention_block']['dense_layer']['kernel']"}, tensor<768xf32> {jax.result_info = "result[0].opt_state[1][0].mu['encoder']['params']['encoder_block']['layer_sequence']['layers_4']['attention_block']['layer_norm']['bias']"}, tensor<768xf32> {jax.result_info = "result[0].opt_state[1][0].mu['encoder']['params']['encoder_block']['layer_sequence']['layers_4']['attention_block']['layer_norm']['scale']"}, tensor<768xf32> {jax.result_info = "result[0].opt_state[1][0].mu['encoder']['params']['encoder_block']['layer_sequence']['layers_4']['mlp_block']['dense_layer']['bias']"}, tensor<3072x768xf32> {jax.result_info = "result[0].opt_state[1][0].mu['encoder']['params']['encoder_block']['layer_sequence']['layers_4']['mlp_block']['dense_layer']['kernel']"}, tensor<768xf32> {jax.result_info = "result[0].opt_state[1][0].mu['encoder']['params']['encoder_block']['layer_sequence']['layers_4']['mlp_block']['layer_norm']['bias']"}, tensor<768xf32> {jax.result_info = "result[0].opt_state[1][0].mu['encoder']['params']['encoder_block']['layer_sequence']['layers_4']['mlp_block']['layer_norm']['scale']"}, tensor<3072xf32> {jax.result_info = "result[0].opt_state[1][0].mu['encoder']['params']['encoder_block']['layer_sequence']['layers_4']['mlp_block']['mlp']['dense_layer']['bias']"}, tensor<768x3072xf32> {jax.result_info = "result[0].opt_state[1][0].mu['encoder']['params']['encoder_block']['layer_sequence']['layers_4']['mlp_block']['mlp']['dense_layer']['kernel']"}, tensor<768xf32> {jax.result_info = "result[0].opt_state[1][0].mu['encoder']['params']['encoder_block']['layer_sequence']['layers_5']['attention_block']['attention_layer']['key']['bias']"}, tensor<768x768xf32> {jax.result_info = "result[0].opt_state[1][0].mu['encoder']['params']['encoder_block']['layer_sequence']['layers_5']['attention_block']['attention_layer']['key']['kernel']"}, tensor<768xf32> {jax.result_info = "result[0].opt_state[1][0].mu['encoder']['params']['encoder_block']['layer_sequence']['layers_5']['attention_block']['attention_layer']['query']['bias']"}, tensor<768x768xf32> {jax.result_info = "result[0].opt_state[1][0].mu['encoder']['params']['encoder_block']['layer_sequence']['layers_5']['attention_block']['attention_layer']['query']['kernel']"}, tensor<768xf32> {jax.result_info = "result[0].opt_state[1][0].mu['encoder']['params']['encoder_block']['layer_sequence']['layers_5']['attention_block']['attention_layer']['value']['bias']"}, tensor<768x768xf32> {jax.result_info = "result[0].opt_state[1][0].mu['encoder']['params']['encoder_block']['layer_sequence']['layers_5']['attention_block']['attention_layer']['value']['kernel']"}, tensor<768xf32> {jax.result_info = "result[0].opt_state[1][0].mu['encoder']['params']['encoder_block']['layer_sequence']['layers_5']['attention_block']['dense_layer']['bias']"}, tensor<768x768xf32> {jax.result_info = "result[0].opt_state[1][0].mu['encoder']['params']['encoder_block']['layer_sequence']['layers_5']['attention_block']['dense_layer']['kernel']"}, tensor<768xf32> {jax.result_info = "result[0].opt_state[1][0].mu['encoder']['params']['encoder_block']['layer_sequence']['layers_5']['attention_block']['layer_norm']['bias']"}, tensor<768xf32> {jax.result_info = "result[0].opt_state[1][0].mu['encoder']['params']['encoder_block']['layer_sequence']['layers_5']['attention_block']['layer_norm']['scale']"}, tensor<768xf32> {jax.result_info = "result[0].opt_state[1][0].mu['encoder']['params']['encoder_block']['layer_sequence']['layers_5']['mlp_block']['dense_layer']['bias']"}, tensor<3072x768xf32> {jax.result_info = "result[0].opt_state[1][0].mu['encoder']['params']['encoder_block']['layer_sequence']['layers_5']['mlp_block']['dense_layer']['kernel']"}, tensor<768xf32> {jax.result_info = "result[0].opt_state[1][0].mu['encoder']['params']['encoder_block']['layer_sequence']['layers_5']['mlp_block']['layer_norm']['bias']"}, tensor<768xf32> {jax.result_info = "result[0].opt_state[1][0].mu['encoder']['params']['encoder_block']['layer_sequence']['layers_5']['mlp_block']['layer_norm']['scale']"}, tensor<3072xf32> {jax.result_info = "result[0].opt_state[1][0].mu['encoder']['params']['encoder_block']['layer_sequence']['layers_5']['mlp_block']['mlp']['dense_layer']['bias']"}, tensor<768x3072xf32> {jax.result_info = "result[0].opt_state[1][0].mu['encoder']['params']['encoder_block']['layer_sequence']['layers_5']['mlp_block']['mlp']['dense_layer']['kernel']"}, tensor<768xf32> {jax.result_info = "result[0].opt_state[1][0].mu['encoder']['params']['encoder_block']['layer_sequence']['layers_6']['attention_block']['attention_layer']['key']['bias']"}, tensor<768x768xf32> {jax.result_info = "result[0].opt_state[1][0].mu['encoder']['params']['encoder_block']['layer_sequence']['layers_6']['attention_block']['attention_layer']['key']['kernel']"}, tensor<768xf32> {jax.result_info = "result[0].opt_state[1][0].mu['encoder']['params']['encoder_block']['layer_sequence']['layers_6']['attention_block']['attention_layer']['query']['bias']"}, tensor<768x768xf32> {jax.result_info = "result[0].opt_state[1][0].mu['encoder']['params']['encoder_block']['layer_sequence']['layers_6']['attention_block']['attention_layer']['query']['kernel']"}, tensor<768xf32> {jax.result_info = "result[0].opt_state[1][0].mu['encoder']['params']['encoder_block']['layer_sequence']['layers_6']['attention_block']['attention_layer']['value']['bias']"}, tensor<768x768xf32> {jax.result_info = "result[0].opt_state[1][0].mu['encoder']['params']['encoder_block']['layer_sequence']['layers_6']['attention_block']['attention_layer']['value']['kernel']"}, tensor<768xf32> {jax.result_info = "result[0].opt_state[1][0].mu['encoder']['params']['encoder_block']['layer_sequence']['layers_6']['attention_block']['dense_layer']['bias']"}, tensor<768x768xf32> {jax.result_info = "result[0].opt_state[1][0].mu['encoder']['params']['encoder_block']['layer_sequence']['layers_6']['attention_block']['dense_layer']['kernel']"}, tensor<768xf32> {jax.result_info = "result[0].opt_state[1][0].mu['encoder']['params']['encoder_block']['layer_sequence']['layers_6']['attention_block']['layer_norm']['bias']"}, tensor<768xf32> {jax.result_info = "result[0].opt_state[1][0].mu['encoder']['params']['encoder_block']['layer_sequence']['layers_6']['attention_block']['layer_norm']['scale']"}, tensor<768xf32> {jax.result_info = "result[0].opt_state[1][0].mu['encoder']['params']['encoder_block']['layer_sequence']['layers_6']['mlp_block']['dense_layer']['bias']"}, tensor<3072x768xf32> {jax.result_info = "result[0].opt_state[1][0].mu['encoder']['params']['encoder_block']['layer_sequence']['layers_6']['mlp_block']['dense_layer']['kernel']"}, tensor<768xf32> {jax.result_info = "result[0].opt_state[1][0].mu['encoder']['params']['encoder_block']['layer_sequence']['layers_6']['mlp_block']['layer_norm']['bias']"}, tensor<768xf32> {jax.result_info = "result[0].opt_state[1][0].mu['encoder']['params']['encoder_block']['layer_sequence']['layers_6']['mlp_block']['layer_norm']['scale']"}, tensor<3072xf32> {jax.result_info = "result[0].opt_state[1][0].mu['encoder']['params']['encoder_block']['layer_sequence']['layers_6']['mlp_block']['mlp']['dense_layer']['bias']"}, tensor<768x3072xf32> {jax.result_info = "result[0].opt_state[1][0].mu['encoder']['params']['encoder_block']['layer_sequence']['layers_6']['mlp_block']['mlp']['dense_layer']['kernel']"}, tensor<768xf32> {jax.result_info = "result[0].opt_state[1][0].mu['encoder']['params']['encoder_block']['layer_sequence']['layers_7']['attention_block']['attention_layer']['key']['bias']"}, tensor<768x768xf32> {jax.result_info = "result[0].opt_state[1][0].mu['encoder']['params']['encoder_block']['layer_sequence']['layers_7']['attention_block']['attention_layer']['key']['kernel']"}, tensor<768xf32> {jax.result_info = "result[0].opt_state[1][0].mu['encoder']['params']['encoder_block']['layer_sequence']['layers_7']['attention_block']['attention_layer']['query']['bias']"}, tensor<768x768xf32> {jax.result_info = "result[0].opt_state[1][0].mu['encoder']['params']['encoder_block']['layer_sequence']['layers_7']['attention_block']['attention_layer']['query']['kernel']"}, tensor<768xf32> {jax.result_info = "result[0].opt_state[1][0].mu['encoder']['params']['encoder_block']['layer_sequence']['layers_7']['attention_block']['attention_layer']['value']['bias']"}, tensor<768x768xf32> {jax.result_info = "result[0].opt_state[1][0].mu['encoder']['params']['encoder_block']['layer_sequence']['layers_7']['attention_block']['attention_layer']['value']['kernel']"}, tensor<768xf32> {jax.result_info = "result[0].opt_state[1][0].mu['encoder']['params']['encoder_block']['layer_sequence']['layers_7']['attention_block']['dense_layer']['bias']"}, tensor<768x768xf32> {jax.result_info = "result[0].opt_state[1][0].mu['encoder']['params']['encoder_block']['layer_sequence']['layers_7']['attention_block']['dense_layer']['kernel']"}, tensor<768xf32> {jax.result_info = "result[0].opt_state[1][0].mu['encoder']['params']['encoder_block']['layer_sequence']['layers_7']['attention_block']['layer_norm']['bias']"}, tensor<768xf32> {jax.result_info = "result[0].opt_state[1][0].mu['encoder']['params']['encoder_block']['layer_sequence']['layers_7']['attention_block']['layer_norm']['scale']"}, tensor<768xf32> {jax.result_info = "result[0].opt_state[1][0].mu['encoder']['params']['encoder_block']['layer_sequence']['layers_7']['mlp_block']['dense_layer']['bias']"}, tensor<3072x768xf32> {jax.result_info = "result[0].opt_state[1][0].mu['encoder']['params']['encoder_block']['layer_sequence']['layers_7']['mlp_block']['dense_layer']['kernel']"}, tensor<768xf32> {jax.result_info = "result[0].opt_state[1][0].mu['encoder']['params']['encoder_block']['layer_sequence']['layers_7']['mlp_block']['layer_norm']['bias']"}, tensor<768xf32> {jax.result_info = "result[0].opt_state[1][0].mu['encoder']['params']['encoder_block']['layer_sequence']['layers_7']['mlp_block']['layer_norm']['scale']"}, tensor<3072xf32> {jax.result_info = "result[0].opt_state[1][0].mu['encoder']['params']['encoder_block']['layer_sequence']['layers_7']['mlp_block']['mlp']['dense_layer']['bias']"}, tensor<768x3072xf32> {jax.result_info = "result[0].opt_state[1][0].mu['encoder']['params']['encoder_block']['layer_sequence']['layers_7']['mlp_block']['mlp']['dense_layer']['kernel']"}, tensor<768xf32> {jax.result_info = "result[0].opt_state[1][0].mu['encoder']['params']['encoder_block']['layer_sequence']['layers_8']['attention_block']['attention_layer']['key']['bias']"}, tensor<768x768xf32> {jax.result_info = "result[0].opt_state[1][0].mu['encoder']['params']['encoder_block']['layer_sequence']['layers_8']['attention_block']['attention_layer']['key']['kernel']"}, tensor<768xf32> {jax.result_info = "result[0].opt_state[1][0].mu['encoder']['params']['encoder_block']['layer_sequence']['layers_8']['attention_block']['attention_layer']['query']['bias']"}, tensor<768x768xf32> {jax.result_info = "result[0].opt_state[1][0].mu['encoder']['params']['encoder_block']['layer_sequence']['layers_8']['attention_block']['attention_layer']['query']['kernel']"}, tensor<768xf32> {jax.result_info = "result[0].opt_state[1][0].mu['encoder']['params']['encoder_block']['layer_sequence']['layers_8']['attention_block']['attention_layer']['value']['bias']"}, tensor<768x768xf32> {jax.result_info = "result[0].opt_state[1][0].mu['encoder']['params']['encoder_block']['layer_sequence']['layers_8']['attention_block']['attention_layer']['value']['kernel']"}, tensor<768xf32> {jax.result_info = "result[0].opt_state[1][0].mu['encoder']['params']['encoder_block']['layer_sequence']['layers_8']['attention_block']['dense_layer']['bias']"}, tensor<768x768xf32> {jax.result_info = "result[0].opt_state[1][0].mu['encoder']['params']['encoder_block']['layer_sequence']['layers_8']['attention_block']['dense_layer']['kernel']"}, tensor<768xf32> {jax.result_info = "result[0].opt_state[1][0].mu['encoder']['params']['encoder_block']['layer_sequence']['layers_8']['attention_block']['layer_norm']['bias']"}, tensor<768xf32> {jax.result_info = "result[0].opt_state[1][0].mu['encoder']['params']['encoder_block']['layer_sequence']['layers_8']['attention_block']['layer_norm']['scale']"}, tensor<768xf32> {jax.result_info = "result[0].opt_state[1][0].mu['encoder']['params']['encoder_block']['layer_sequence']['layers_8']['mlp_block']['dense_layer']['bias']"}, tensor<3072x768xf32> {jax.result_info = "result[0].opt_state[1][0].mu['encoder']['params']['encoder_block']['layer_sequence']['layers_8']['mlp_block']['dense_layer']['kernel']"}, tensor<768xf32> {jax.result_info = "result[0].opt_state[1][0].mu['encoder']['params']['encoder_block']['layer_sequence']['layers_8']['mlp_block']['layer_norm']['bias']"}, tensor<768xf32> {jax.result_info = "result[0].opt_state[1][0].mu['encoder']['params']['encoder_block']['layer_sequence']['layers_8']['mlp_block']['layer_norm']['scale']"}, tensor<3072xf32> {jax.result_info = "result[0].opt_state[1][0].mu['encoder']['params']['encoder_block']['layer_sequence']['layers_8']['mlp_block']['mlp']['dense_layer']['bias']"}, tensor<768x3072xf32> {jax.result_info = "result[0].opt_state[1][0].mu['encoder']['params']['encoder_block']['layer_sequence']['layers_8']['mlp_block']['mlp']['dense_layer']['kernel']"}, tensor<768xf32> {jax.result_info = "result[0].opt_state[1][0].mu['encoder']['params']['encoder_block']['layer_sequence']['layers_9']['attention_block']['attention_layer']['key']['bias']"}, tensor<768x768xf32> {jax.result_info = "result[0].opt_state[1][0].mu['encoder']['params']['encoder_block']['layer_sequence']['layers_9']['attention_block']['attention_layer']['key']['kernel']"}, tensor<768xf32> {jax.result_info = "result[0].opt_state[1][0].mu['encoder']['params']['encoder_block']['layer_sequence']['layers_9']['attention_block']['attention_layer']['query']['bias']"}, tensor<768x768xf32> {jax.result_info = "result[0].opt_state[1][0].mu['encoder']['params']['encoder_block']['layer_sequence']['layers_9']['attention_block']['attention_layer']['query']['kernel']"}, tensor<768xf32> {jax.result_info = "result[0].opt_state[1][0].mu['encoder']['params']['encoder_block']['layer_sequence']['layers_9']['attention_block']['attention_layer']['value']['bias']"}, tensor<768x768xf32> {jax.result_info = "result[0].opt_state[1][0].mu['encoder']['params']['encoder_block']['layer_sequence']['layers_9']['attention_block']['attention_layer']['value']['kernel']"}, tensor<768xf32> {jax.result_info = "result[0].opt_state[1][0].mu['encoder']['params']['encoder_block']['layer_sequence']['layers_9']['attention_block']['dense_layer']['bias']"}, tensor<768x768xf32> {jax.result_info = "result[0].opt_state[1][0].mu['encoder']['params']['encoder_block']['layer_sequence']['layers_9']['attention_block']['dense_layer']['kernel']"}, tensor<768xf32> {jax.result_info = "result[0].opt_state[1][0].mu['encoder']['params']['encoder_block']['layer_sequence']['layers_9']['attention_block']['layer_norm']['bias']"}, tensor<768xf32> {jax.result_info = "result[0].opt_state[1][0].mu['encoder']['params']['encoder_block']['layer_sequence']['layers_9']['attention_block']['layer_norm']['scale']"}, tensor<768xf32> {jax.result_info = "result[0].opt_state[1][0].mu['encoder']['params']['encoder_block']['layer_sequence']['layers_9']['mlp_block']['dense_layer']['bias']"}, tensor<3072x768xf32> {jax.result_info = "result[0].opt_state[1][0].mu['encoder']['params']['encoder_block']['layer_sequence']['layers_9']['mlp_block']['dense_layer']['kernel']"}, tensor<768xf32> {jax.result_info = "result[0].opt_state[1][0].mu['encoder']['params']['encoder_block']['layer_sequence']['layers_9']['mlp_block']['layer_norm']['bias']"}, tensor<768xf32> {jax.result_info = "result[0].opt_state[1][0].mu['encoder']['params']['encoder_block']['layer_sequence']['layers_9']['mlp_block']['layer_norm']['scale']"}, tensor<3072xf32> {jax.result_info = "result[0].opt_state[1][0].mu['encoder']['params']['encoder_block']['layer_sequence']['layers_9']['mlp_block']['mlp']['dense_layer']['bias']"}, tensor<768x3072xf32> {jax.result_info = "result[0].opt_state[1][0].mu['encoder']['params']['encoder_block']['layer_sequence']['layers_9']['mlp_block']['mlp']['dense_layer']['kernel']"}, tensor<768xf32> {jax.result_info = "result[0].opt_state[1][0].mu['encoder']['params']['layer_norm']['bias']"}, tensor<768xf32> {jax.result_info = "result[0].opt_state[1][0].mu['encoder']['params']['layer_norm']['scale']"}, tensor<30522xf32> {jax.result_info = "result[0].opt_state[1][0].mu['mlm_head']['params']['bias']"}, tensor<768xf32> {jax.result_info = "result[0].opt_state[1][0].mu['mlm_head']['params']['dense']['bias']"}, tensor<768x768xf32> {jax.result_info = "result[0].opt_state[1][0].mu['mlm_head']['params']['dense']['kernel']"}, tensor<30522x768xf32> {jax.result_info = "result[0].opt_state[1][0].mu['mlm_head']['params']['encoder']['embedder']['embedders_token_ids']['embedding']"}, tensor<768xf32> {jax.result_info = "result[0].opt_state[1][0].mu['mlm_head']['params']['layer_norm']['bias']"}, tensor<768xf32> {jax.result_info = "result[0].opt_state[1][0].mu['mlm_head']['params']['layer_norm']['scale']"}, tensor<512x768xf32> {jax.result_info = "result[0].opt_state[1][0].nu['encoder']['params']['embedder']['embedders_position_ids']['embedding']"}, tensor<2x768xf32> {jax.result_info = "result[0].opt_state[1][0].nu['encoder']['params']['embedder']['embedders_segment_ids']['embedding']"}, tensor<30522x768xf32> {jax.result_info = "result[0].opt_state[1][0].nu['encoder']['params']['embedder']['embedders_token_ids']['embedding']"}, tensor<768xf32> {jax.result_info = "result[0].opt_state[1][0].nu['encoder']['params']['encoder_block']['layer_sequence']['layers_0']['attention_block']['attention_layer']['key']['bias']"}, tensor<768x768xf32> {jax.result_info = "result[0].opt_state[1][0].nu['encoder']['params']['encoder_block']['layer_sequence']['layers_0']['attention_block']['attention_layer']['key']['kernel']"}, tensor<768xf32> {jax.result_info = "result[0].opt_state[1][0].nu['encoder']['params']['encoder_block']['layer_sequence']['layers_0']['attention_block']['attention_layer']['query']['bias']"}, tensor<768x768xf32> {jax.result_info = "result[0].opt_state[1][0].nu['encoder']['params']['encoder_block']['layer_sequence']['layers_0']['attention_block']['attention_layer']['query']['kernel']"}, tensor<768xf32> {jax.result_info = "result[0].opt_state[1][0].nu['encoder']['params']['encoder_block']['layer_sequence']['layers_0']['attention_block']['attention_layer']['value']['bias']"}, tensor<768x768xf32> {jax.result_info = "result[0].opt_state[1][0].nu['encoder']['params']['encoder_block']['layer_sequence']['layers_0']['attention_block']['attention_layer']['value']['kernel']"}, tensor<768xf32> {jax.result_info = "result[0].opt_state[1][0].nu['encoder']['params']['encoder_block']['layer_sequence']['layers_0']['attention_block']['dense_layer']['bias']"}, tensor<768x768xf32> {jax.result_info = "result[0].opt_state[1][0].nu['encoder']['params']['encoder_block']['layer_sequence']['layers_0']['attention_block']['dense_layer']['kernel']"}, tensor<768xf32> {jax.result_info = "result[0].opt_state[1][0].nu['encoder']['params']['encoder_block']['layer_sequence']['layers_0']['attention_block']['layer_norm']['bias']"}, tensor<768xf32> {jax.result_info = "result[0].opt_state[1][0].nu['encoder']['params']['encoder_block']['layer_sequence']['layers_0']['attention_block']['layer_norm']['scale']"}, tensor<768xf32> {jax.result_info = "result[0].opt_state[1][0].nu['encoder']['params']['encoder_block']['layer_sequence']['layers_0']['mlp_block']['dense_layer']['bias']"}, tensor<3072x768xf32> {jax.result_info = "result[0].opt_state[1][0].nu['encoder']['params']['encoder_block']['layer_sequence']['layers_0']['mlp_block']['dense_layer']['kernel']"}, tensor<768xf32> {jax.result_info = "result[0].opt_state[1][0].nu['encoder']['params']['encoder_block']['layer_sequence']['layers_0']['mlp_block']['layer_norm']['bias']"}, tensor<768xf32> {jax.result_info = "result[0].opt_state[1][0].nu['encoder']['params']['encoder_block']['layer_sequence']['layers_0']['mlp_block']['layer_norm']['scale']"}, tensor<3072xf32> {jax.result_info = "result[0].opt_state[1][0].nu['encoder']['params']['encoder_block']['layer_sequence']['layers_0']['mlp_block']['mlp']['dense_layer']['bias']"}, tensor<768x3072xf32> {jax.result_info = "result[0].opt_state[1][0].nu['encoder']['params']['encoder_block']['layer_sequence']['layers_0']['mlp_block']['mlp']['dense_layer']['kernel']"}, tensor<768xf32> {jax.result_info = "result[0].opt_state[1][0].nu['encoder']['params']['encoder_block']['layer_sequence']['layers_1']['attention_block']['attention_layer']['key']['bias']"}, tensor<768x768xf32> {jax.result_info = "result[0].opt_state[1][0].nu['encoder']['params']['encoder_block']['layer_sequence']['layers_1']['attention_block']['attention_layer']['key']['kernel']"}, tensor<768xf32> {jax.result_info = "result[0].opt_state[1][0].nu['encoder']['params']['encoder_block']['layer_sequence']['layers_1']['attention_block']['attention_layer']['query']['bias']"}, tensor<768x768xf32> {jax.result_info = "result[0].opt_state[1][0].nu['encoder']['params']['encoder_block']['layer_sequence']['layers_1']['attention_block']['attention_layer']['query']['kernel']"}, tensor<768xf32> {jax.result_info = "result[0].opt_state[1][0].nu['encoder']['params']['encoder_block']['layer_sequence']['layers_1']['attention_block']['attention_layer']['value']['bias']"}, tensor<768x768xf32> {jax.result_info = "result[0].opt_state[1][0].nu['encoder']['params']['encoder_block']['layer_sequence']['layers_1']['attention_block']['attention_layer']['value']['kernel']"}, tensor<768xf32> {jax.result_info = "result[0].opt_state[1][0].nu['encoder']['params']['encoder_block']['layer_sequence']['layers_1']['attention_block']['dense_layer']['bias']"}, tensor<768x768xf32> {jax.result_info = "result[0].opt_state[1][0].nu['encoder']['params']['encoder_block']['layer_sequence']['layers_1']['attention_block']['dense_layer']['kernel']"}, tensor<768xf32> {jax.result_info = "result[0].opt_state[1][0].nu['encoder']['params']['encoder_block']['layer_sequence']['layers_1']['attention_block']['layer_norm']['bias']"}, tensor<768xf32> {jax.result_info = "result[0].opt_state[1][0].nu['encoder']['params']['encoder_block']['layer_sequence']['layers_1']['attention_block']['layer_norm']['scale']"}, tensor<768xf32> {jax.result_info = "result[0].opt_state[1][0].nu['encoder']['params']['encoder_block']['layer_sequence']['layers_1']['mlp_block']['dense_layer']['bias']"}, tensor<3072x768xf32> {jax.result_info = "result[0].opt_state[1][0].nu['encoder']['params']['encoder_block']['layer_sequence']['layers_1']['mlp_block']['dense_layer']['kernel']"}, tensor<768xf32> {jax.result_info = "result[0].opt_state[1][0].nu['encoder']['params']['encoder_block']['layer_sequence']['layers_1']['mlp_block']['layer_norm']['bias']"}, tensor<768xf32> {jax.result_info = "result[0].opt_state[1][0].nu['encoder']['params']['encoder_block']['layer_sequence']['layers_1']['mlp_block']['layer_norm']['scale']"}, tensor<3072xf32> {jax.result_info = "result[0].opt_state[1][0].nu['encoder']['params']['encoder_block']['layer_sequence']['layers_1']['mlp_block']['mlp']['dense_layer']['bias']"}, tensor<768x3072xf32> {jax.result_info = "result[0].opt_state[1][0].nu['encoder']['params']['encoder_block']['layer_sequence']['layers_1']['mlp_block']['mlp']['dense_layer']['kernel']"}, tensor<768xf32> {jax.result_info = "result[0].opt_state[1][0].nu['encoder']['params']['encoder_block']['layer_sequence']['layers_10']['attention_block']['attention_layer']['key']['bias']"}, tensor<768x768xf32> {jax.result_info = "result[0].opt_state[1][0].nu['encoder']['params']['encoder_block']['layer_sequence']['layers_10']['attention_block']['attention_layer']['key']['kernel']"}, tensor<768xf32> {jax.result_info = "result[0].opt_state[1][0].nu['encoder']['params']['encoder_block']['layer_sequence']['layers_10']['attention_block']['attention_layer']['query']['bias']"}, tensor<768x768xf32> {jax.result_info = "result[0].opt_state[1][0].nu['encoder']['params']['encoder_block']['layer_sequence']['layers_10']['attention_block']['attention_layer']['query']['kernel']"}, tensor<768xf32> {jax.result_info = "result[0].opt_state[1][0].nu['encoder']['params']['encoder_block']['layer_sequence']['layers_10']['attention_block']['attention_layer']['value']['bias']"}, tensor<768x768xf32> {jax.result_info = "result[0].opt_state[1][0].nu['encoder']['params']['encoder_block']['layer_sequence']['layers_10']['attention_block']['attention_layer']['value']['kernel']"}, tensor<768xf32> {jax.result_info = "result[0].opt_state[1][0].nu['encoder']['params']['encoder_block']['layer_sequence']['layers_10']['attention_block']['dense_layer']['bias']"}, tensor<768x768xf32> {jax.result_info = "result[0].opt_state[1][0].nu['encoder']['params']['encoder_block']['layer_sequence']['layers_10']['attention_block']['dense_layer']['kernel']"}, tensor<768xf32> {jax.result_info = "result[0].opt_state[1][0].nu['encoder']['params']['encoder_block']['layer_sequence']['layers_10']['attention_block']['layer_norm']['bias']"}, tensor<768xf32> {jax.result_info = "result[0].opt_state[1][0].nu['encoder']['params']['encoder_block']['layer_sequence']['layers_10']['attention_block']['layer_norm']['scale']"}, tensor<768xf32> {jax.result_info = "result[0].opt_state[1][0].nu['encoder']['params']['encoder_block']['layer_sequence']['layers_10']['mlp_block']['dense_layer']['bias']"}, tensor<3072x768xf32> {jax.result_info = "result[0].opt_state[1][0].nu['encoder']['params']['encoder_block']['layer_sequence']['layers_10']['mlp_block']['dense_layer']['kernel']"}, tensor<768xf32> {jax.result_info = "result[0].opt_state[1][0].nu['encoder']['params']['encoder_block']['layer_sequence']['layers_10']['mlp_block']['layer_norm']['bias']"}, tensor<768xf32> {jax.result_info = "result[0].opt_state[1][0].nu['encoder']['params']['encoder_block']['layer_sequence']['layers_10']['mlp_block']['layer_norm']['scale']"}, tensor<3072xf32> {jax.result_info = "result[0].opt_state[1][0].nu['encoder']['params']['encoder_block']['layer_sequence']['layers_10']['mlp_block']['mlp']['dense_layer']['bias']"}, tensor<768x3072xf32> {jax.result_info = "result[0].opt_state[1][0].nu['encoder']['params']['encoder_block']['layer_sequence']['layers_10']['mlp_block']['mlp']['dense_layer']['kernel']"}, tensor<768xf32> {jax.result_info = "result[0].opt_state[1][0].nu['encoder']['params']['encoder_block']['layer_sequence']['layers_11']['attention_block']['attention_layer']['key']['bias']"}, tensor<768x768xf32> {jax.result_info = "result[0].opt_state[1][0].nu['encoder']['params']['encoder_block']['layer_sequence']['layers_11']['attention_block']['attention_layer']['key']['kernel']"}, tensor<768xf32> {jax.result_info = "result[0].opt_state[1][0].nu['encoder']['params']['encoder_block']['layer_sequence']['layers_11']['attention_block']['attention_layer']['query']['bias']"}, tensor<768x768xf32> {jax.result_info = "result[0].opt_state[1][0].nu['encoder']['params']['encoder_block']['layer_sequence']['layers_11']['attention_block']['attention_layer']['query']['kernel']"}, tensor<768xf32> {jax.result_info = "result[0].opt_state[1][0].nu['encoder']['params']['encoder_block']['layer_sequence']['layers_11']['attention_block']['attention_layer']['value']['bias']"}, tensor<768x768xf32> {jax.result_info = "result[0].opt_state[1][0].nu['encoder']['params']['encoder_block']['layer_sequence']['layers_11']['attention_block']['attention_layer']['value']['kernel']"}, tensor<768xf32> {jax.result_info = "result[0].opt_state[1][0].nu['encoder']['params']['encoder_block']['layer_sequence']['layers_11']['attention_block']['dense_layer']['bias']"}, tensor<768x768xf32> {jax.result_info = "result[0].opt_state[1][0].nu['encoder']['params']['encoder_block']['layer_sequence']['layers_11']['attention_block']['dense_layer']['kernel']"}, tensor<768xf32> {jax.result_info = "result[0].opt_state[1][0].nu['encoder']['params']['encoder_block']['layer_sequence']['layers_11']['attention_block']['layer_norm']['bias']"}, tensor<768xf32> {jax.result_info = "result[0].opt_state[1][0].nu['encoder']['params']['encoder_block']['layer_sequence']['layers_11']['attention_block']['layer_norm']['scale']"}, tensor<768xf32> {jax.result_info = "result[0].opt_state[1][0].nu['encoder']['params']['encoder_block']['layer_sequence']['layers_11']['mlp_block']['dense_layer']['bias']"}, tensor<3072x768xf32> {jax.result_info = "result[0].opt_state[1][0].nu['encoder']['params']['encoder_block']['layer_sequence']['layers_11']['mlp_block']['dense_layer']['kernel']"}, tensor<768xf32> {jax.result_info = "result[0].opt_state[1][0].nu['encoder']['params']['encoder_block']['layer_sequence']['layers_11']['mlp_block']['layer_norm']['bias']"}, tensor<768xf32> {jax.result_info = "result[0].opt_state[1][0].nu['encoder']['params']['encoder_block']['layer_sequence']['layers_11']['mlp_block']['layer_norm']['scale']"}, tensor<3072xf32> {jax.result_info = "result[0].opt_state[1][0].nu['encoder']['params']['encoder_block']['layer_sequence']['layers_11']['mlp_block']['mlp']['dense_layer']['bias']"}, tensor<768x3072xf32> {jax.result_info = "result[0].opt_state[1][0].nu['encoder']['params']['encoder_block']['layer_sequence']['layers_11']['mlp_block']['mlp']['dense_layer']['kernel']"}, tensor<768xf32> {jax.result_info = "result[0].opt_state[1][0].nu['encoder']['params']['encoder_block']['layer_sequence']['layers_2']['attention_block']['attention_layer']['key']['bias']"}, tensor<768x768xf32> {jax.result_info = "result[0].opt_state[1][0].nu['encoder']['params']['encoder_block']['layer_sequence']['layers_2']['attention_block']['attention_layer']['key']['kernel']"}, tensor<768xf32> {jax.result_info = "result[0].opt_state[1][0].nu['encoder']['params']['encoder_block']['layer_sequence']['layers_2']['attention_block']['attention_layer']['query']['bias']"}, tensor<768x768xf32> {jax.result_info = "result[0].opt_state[1][0].nu['encoder']['params']['encoder_block']['layer_sequence']['layers_2']['attention_block']['attention_layer']['query']['kernel']"}, tensor<768xf32> {jax.result_info = "result[0].opt_state[1][0].nu['encoder']['params']['encoder_block']['layer_sequence']['layers_2']['attention_block']['attention_layer']['value']['bias']"}, tensor<768x768xf32> {jax.result_info = "result[0].opt_state[1][0].nu['encoder']['params']['encoder_block']['layer_sequence']['layers_2']['attention_block']['attention_layer']['value']['kernel']"}, tensor<768xf32> {jax.result_info = "result[0].opt_state[1][0].nu['encoder']['params']['encoder_block']['layer_sequence']['layers_2']['attention_block']['dense_layer']['bias']"}, tensor<768x768xf32> {jax.result_info = "result[0].opt_state[1][0].nu['encoder']['params']['encoder_block']['layer_sequence']['layers_2']['attention_block']['dense_layer']['kernel']"}, tensor<768xf32> {jax.result_info = "result[0].opt_state[1][0].nu['encoder']['params']['encoder_block']['layer_sequence']['layers_2']['attention_block']['layer_norm']['bias']"}, tensor<768xf32> {jax.result_info = "result[0].opt_state[1][0].nu['encoder']['params']['encoder_block']['layer_sequence']['layers_2']['attention_block']['layer_norm']['scale']"}, tensor<768xf32> {jax.result_info = "result[0].opt_state[1][0].nu['encoder']['params']['encoder_block']['layer_sequence']['layers_2']['mlp_block']['dense_layer']['bias']"}, tensor<3072x768xf32> {jax.result_info = "result[0].opt_state[1][0].nu['encoder']['params']['encoder_block']['layer_sequence']['layers_2']['mlp_block']['dense_layer']['kernel']"}, tensor<768xf32> {jax.result_info = "result[0].opt_state[1][0].nu['encoder']['params']['encoder_block']['layer_sequence']['layers_2']['mlp_block']['layer_norm']['bias']"}, tensor<768xf32> {jax.result_info = "result[0].opt_state[1][0].nu['encoder']['params']['encoder_block']['layer_sequence']['layers_2']['mlp_block']['layer_norm']['scale']"}, tensor<3072xf32> {jax.result_info = "result[0].opt_state[1][0].nu['encoder']['params']['encoder_block']['layer_sequence']['layers_2']['mlp_block']['mlp']['dense_layer']['bias']"}, tensor<768x3072xf32> {jax.result_info = "result[0].opt_state[1][0].nu['encoder']['params']['encoder_block']['layer_sequence']['layers_2']['mlp_block']['mlp']['dense_layer']['kernel']"}, tensor<768xf32> {jax.result_info = "result[0].opt_state[1][0].nu['encoder']['params']['encoder_block']['layer_sequence']['layers_3']['attention_block']['attention_layer']['key']['bias']"}, tensor<768x768xf32> {jax.result_info = "result[0].opt_state[1][0].nu['encoder']['params']['encoder_block']['layer_sequence']['layers_3']['attention_block']['attention_layer']['key']['kernel']"}, tensor<768xf32> {jax.result_info = "result[0].opt_state[1][0].nu['encoder']['params']['encoder_block']['layer_sequence']['layers_3']['attention_block']['attention_layer']['query']['bias']"}, tensor<768x768xf32> {jax.result_info = "result[0].opt_state[1][0].nu['encoder']['params']['encoder_block']['layer_sequence']['layers_3']['attention_block']['attention_layer']['query']['kernel']"}, tensor<768xf32> {jax.result_info = "result[0].opt_state[1][0].nu['encoder']['params']['encoder_block']['layer_sequence']['layers_3']['attention_block']['attention_layer']['value']['bias']"}, tensor<768x768xf32> {jax.result_info = "result[0].opt_state[1][0].nu['encoder']['params']['encoder_block']['layer_sequence']['layers_3']['attention_block']['attention_layer']['value']['kernel']"}, tensor<768xf32> {jax.result_info = "result[0].opt_state[1][0].nu['encoder']['params']['encoder_block']['layer_sequence']['layers_3']['attention_block']['dense_layer']['bias']"}, tensor<768x768xf32> {jax.result_info = "result[0].opt_state[1][0].nu['encoder']['params']['encoder_block']['layer_sequence']['layers_3']['attention_block']['dense_layer']['kernel']"}, tensor<768xf32> {jax.result_info = "result[0].opt_state[1][0].nu['encoder']['params']['encoder_block']['layer_sequence']['layers_3']['attention_block']['layer_norm']['bias']"}, tensor<768xf32> {jax.result_info = "result[0].opt_state[1][0].nu['encoder']['params']['encoder_block']['layer_sequence']['layers_3']['attention_block']['layer_norm']['scale']"}, tensor<768xf32> {jax.result_info = "result[0].opt_state[1][0].nu['encoder']['params']['encoder_block']['layer_sequence']['layers_3']['mlp_block']['dense_layer']['bias']"}, tensor<3072x768xf32> {jax.result_info = "result[0].opt_state[1][0].nu['encoder']['params']['encoder_block']['layer_sequence']['layers_3']['mlp_block']['dense_layer']['kernel']"}, tensor<768xf32> {jax.result_info = "result[0].opt_state[1][0].nu['encoder']['params']['encoder_block']['layer_sequence']['layers_3']['mlp_block']['layer_norm']['bias']"}, tensor<768xf32> {jax.result_info = "result[0].opt_state[1][0].nu['encoder']['params']['encoder_block']['layer_sequence']['layers_3']['mlp_block']['layer_norm']['scale']"}, tensor<3072xf32> {jax.result_info = "result[0].opt_state[1][0].nu['encoder']['params']['encoder_block']['layer_sequence']['layers_3']['mlp_block']['mlp']['dense_layer']['bias']"}, tensor<768x3072xf32> {jax.result_info = "result[0].opt_state[1][0].nu['encoder']['params']['encoder_block']['layer_sequence']['layers_3']['mlp_block']['mlp']['dense_layer']['kernel']"}, tensor<768xf32> {jax.result_info = "result[0].opt_state[1][0].nu['encoder']['params']['encoder_block']['layer_sequence']['layers_4']['attention_block']['attention_layer']['key']['bias']"}, tensor<768x768xf32> {jax.result_info = "result[0].opt_state[1][0].nu['encoder']['params']['encoder_block']['layer_sequence']['layers_4']['attention_block']['attention_layer']['key']['kernel']"}, tensor<768xf32> {jax.result_info = "result[0].opt_state[1][0].nu['encoder']['params']['encoder_block']['layer_sequence']['layers_4']['attention_block']['attention_layer']['query']['bias']"}, tensor<768x768xf32> {jax.result_info = "result[0].opt_state[1][0].nu['encoder']['params']['encoder_block']['layer_sequence']['layers_4']['attention_block']['attention_layer']['query']['kernel']"}, tensor<768xf32> {jax.result_info = "result[0].opt_state[1][0].nu['encoder']['params']['encoder_block']['layer_sequence']['layers_4']['attention_block']['attention_layer']['value']['bias']"}, tensor<768x768xf32> {jax.result_info = "result[0].opt_state[1][0].nu['encoder']['params']['encoder_block']['layer_sequence']['layers_4']['attention_block']['attention_layer']['value']['kernel']"}, tensor<768xf32> {jax.result_info = "result[0].opt_state[1][0].nu['encoder']['params']['encoder_block']['layer_sequence']['layers_4']['attention_block']['dense_layer']['bias']"}, tensor<768x768xf32> {jax.result_info = "result[0].opt_state[1][0].nu['encoder']['params']['encoder_block']['layer_sequence']['layers_4']['attention_block']['dense_layer']['kernel']"}, tensor<768xf32> {jax.result_info = "result[0].opt_state[1][0].nu['encoder']['params']['encoder_block']['layer_sequence']['layers_4']['attention_block']['layer_norm']['bias']"}, tensor<768xf32> {jax.result_info = "result[0].opt_state[1][0].nu['encoder']['params']['encoder_block']['layer_sequence']['layers_4']['attention_block']['layer_norm']['scale']"}, tensor<768xf32> {jax.result_info = "result[0].opt_state[1][0].nu['encoder']['params']['encoder_block']['layer_sequence']['layers_4']['mlp_block']['dense_layer']['bias']"}, tensor<3072x768xf32> {jax.result_info = "result[0].opt_state[1][0].nu['encoder']['params']['encoder_block']['layer_sequence']['layers_4']['mlp_block']['dense_layer']['kernel']"}, tensor<768xf32> {jax.result_info = "result[0].opt_state[1][0].nu['encoder']['params']['encoder_block']['layer_sequence']['layers_4']['mlp_block']['layer_norm']['bias']"}, tensor<768xf32> {jax.result_info = "result[0].opt_state[1][0].nu['encoder']['params']['encoder_block']['layer_sequence']['layers_4']['mlp_block']['layer_norm']['scale']"}, tensor<3072xf32> {jax.result_info = "result[0].opt_state[1][0].nu['encoder']['params']['encoder_block']['layer_sequence']['layers_4']['mlp_block']['mlp']['dense_layer']['bias']"}, tensor<768x3072xf32> {jax.result_info = "result[0].opt_state[1][0].nu['encoder']['params']['encoder_block']['layer_sequence']['layers_4']['mlp_block']['mlp']['dense_layer']['kernel']"}, tensor<768xf32> {jax.result_info = "result[0].opt_state[1][0].nu['encoder']['params']['encoder_block']['layer_sequence']['layers_5']['attention_block']['attention_layer']['key']['bias']"}, tensor<768x768xf32> {jax.result_info = "result[0].opt_state[1][0].nu['encoder']['params']['encoder_block']['layer_sequence']['layers_5']['attention_block']['attention_layer']['key']['kernel']"}, tensor<768xf32> {jax.result_info = "result[0].opt_state[1][0].nu['encoder']['params']['encoder_block']['layer_sequence']['layers_5']['attention_block']['attention_layer']['query']['bias']"}, tensor<768x768xf32> {jax.result_info = "result[0].opt_state[1][0].nu['encoder']['params']['encoder_block']['layer_sequence']['layers_5']['attention_block']['attention_layer']['query']['kernel']"}, tensor<768xf32> {jax.result_info = "result[0].opt_state[1][0].nu['encoder']['params']['encoder_block']['layer_sequence']['layers_5']['attention_block']['attention_layer']['value']['bias']"}, tensor<768x768xf32> {jax.result_info = "result[0].opt_state[1][0].nu['encoder']['params']['encoder_block']['layer_sequence']['layers_5']['attention_block']['attention_layer']['value']['kernel']"}, tensor<768xf32> {jax.result_info = "result[0].opt_state[1][0].nu['encoder']['params']['encoder_block']['layer_sequence']['layers_5']['attention_block']['dense_layer']['bias']"}, tensor<768x768xf32> {jax.result_info = "result[0].opt_state[1][0].nu['encoder']['params']['encoder_block']['layer_sequence']['layers_5']['attention_block']['dense_layer']['kernel']"}, tensor<768xf32> {jax.result_info = "result[0].opt_state[1][0].nu['encoder']['params']['encoder_block']['layer_sequence']['layers_5']['attention_block']['layer_norm']['bias']"}, tensor<768xf32> {jax.result_info = "result[0].opt_state[1][0].nu['encoder']['params']['encoder_block']['layer_sequence']['layers_5']['attention_block']['layer_norm']['scale']"}, tensor<768xf32> {jax.result_info = "result[0].opt_state[1][0].nu['encoder']['params']['encoder_block']['layer_sequence']['layers_5']['mlp_block']['dense_layer']['bias']"}, tensor<3072x768xf32> {jax.result_info = "result[0].opt_state[1][0].nu['encoder']['params']['encoder_block']['layer_sequence']['layers_5']['mlp_block']['dense_layer']['kernel']"}, tensor<768xf32> {jax.result_info = "result[0].opt_state[1][0].nu['encoder']['params']['encoder_block']['layer_sequence']['layers_5']['mlp_block']['layer_norm']['bias']"}, tensor<768xf32> {jax.result_info = "result[0].opt_state[1][0].nu['encoder']['params']['encoder_block']['layer_sequence']['layers_5']['mlp_block']['layer_norm']['scale']"}, tensor<3072xf32> {jax.result_info = "result[0].opt_state[1][0].nu['encoder']['params']['encoder_block']['layer_sequence']['layers_5']['mlp_block']['mlp']['dense_layer']['bias']"}, tensor<768x3072xf32> {jax.result_info = "result[0].opt_state[1][0].nu['encoder']['params']['encoder_block']['layer_sequence']['layers_5']['mlp_block']['mlp']['dense_layer']['kernel']"}, tensor<768xf32> {jax.result_info = "result[0].opt_state[1][0].nu['encoder']['params']['encoder_block']['layer_sequence']['layers_6']['attention_block']['attention_layer']['key']['bias']"}, tensor<768x768xf32> {jax.result_info = "result[0].opt_state[1][0].nu['encoder']['params']['encoder_block']['layer_sequence']['layers_6']['attention_block']['attention_layer']['key']['kernel']"}, tensor<768xf32> {jax.result_info = "result[0].opt_state[1][0].nu['encoder']['params']['encoder_block']['layer_sequence']['layers_6']['attention_block']['attention_layer']['query']['bias']"}, tensor<768x768xf32> {jax.result_info = "result[0].opt_state[1][0].nu['encoder']['params']['encoder_block']['layer_sequence']['layers_6']['attention_block']['attention_layer']['query']['kernel']"}, tensor<768xf32> {jax.result_info = "result[0].opt_state[1][0].nu['encoder']['params']['encoder_block']['layer_sequence']['layers_6']['attention_block']['attention_layer']['value']['bias']"}, tensor<768x768xf32> {jax.result_info = "result[0].opt_state[1][0].nu['encoder']['params']['encoder_block']['layer_sequence']['layers_6']['attention_block']['attention_layer']['value']['kernel']"}, tensor<768xf32> {jax.result_info = "result[0].opt_state[1][0].nu['encoder']['params']['encoder_block']['layer_sequence']['layers_6']['attention_block']['dense_layer']['bias']"}, tensor<768x768xf32> {jax.result_info = "result[0].opt_state[1][0].nu['encoder']['params']['encoder_block']['layer_sequence']['layers_6']['attention_block']['dense_layer']['kernel']"}, tensor<768xf32> {jax.result_info = "result[0].opt_state[1][0].nu['encoder']['params']['encoder_block']['layer_sequence']['layers_6']['attention_block']['layer_norm']['bias']"}, tensor<768xf32> {jax.result_info = "result[0].opt_state[1][0].nu['encoder']['params']['encoder_block']['layer_sequence']['layers_6']['attention_block']['layer_norm']['scale']"}, tensor<768xf32> {jax.result_info = "result[0].opt_state[1][0].nu['encoder']['params']['encoder_block']['layer_sequence']['layers_6']['mlp_block']['dense_layer']['bias']"}, tensor<3072x768xf32> {jax.result_info = "result[0].opt_state[1][0].nu['encoder']['params']['encoder_block']['layer_sequence']['layers_6']['mlp_block']['dense_layer']['kernel']"}, tensor<768xf32> {jax.result_info = "result[0].opt_state[1][0].nu['encoder']['params']['encoder_block']['layer_sequence']['layers_6']['mlp_block']['layer_norm']['bias']"}, tensor<768xf32> {jax.result_info = "result[0].opt_state[1][0].nu['encoder']['params']['encoder_block']['layer_sequence']['layers_6']['mlp_block']['layer_norm']['scale']"}, tensor<3072xf32> {jax.result_info = "result[0].opt_state[1][0].nu['encoder']['params']['encoder_block']['layer_sequence']['layers_6']['mlp_block']['mlp']['dense_layer']['bias']"}, tensor<768x3072xf32> {jax.result_info = "result[0].opt_state[1][0].nu['encoder']['params']['encoder_block']['layer_sequence']['layers_6']['mlp_block']['mlp']['dense_layer']['kernel']"}, tensor<768xf32> {jax.result_info = "result[0].opt_state[1][0].nu['encoder']['params']['encoder_block']['layer_sequence']['layers_7']['attention_block']['attention_layer']['key']['bias']"}, tensor<768x768xf32> {jax.result_info = "result[0].opt_state[1][0].nu['encoder']['params']['encoder_block']['layer_sequence']['layers_7']['attention_block']['attention_layer']['key']['kernel']"}, tensor<768xf32> {jax.result_info = "result[0].opt_state[1][0].nu['encoder']['params']['encoder_block']['layer_sequence']['layers_7']['attention_block']['attention_layer']['query']['bias']"}, tensor<768x768xf32> {jax.result_info = "result[0].opt_state[1][0].nu['encoder']['params']['encoder_block']['layer_sequence']['layers_7']['attention_block']['attention_layer']['query']['kernel']"}, tensor<768xf32> {jax.result_info = "result[0].opt_state[1][0].nu['encoder']['params']['encoder_block']['layer_sequence']['layers_7']['attention_block']['attention_layer']['value']['bias']"}, tensor<768x768xf32> {jax.result_info = "result[0].opt_state[1][0].nu['encoder']['params']['encoder_block']['layer_sequence']['layers_7']['attention_block']['attention_layer']['value']['kernel']"}, tensor<768xf32> {jax.result_info = "result[0].opt_state[1][0].nu['encoder']['params']['encoder_block']['layer_sequence']['layers_7']['attention_block']['dense_layer']['bias']"}, tensor<768x768xf32> {jax.result_info = "result[0].opt_state[1][0].nu['encoder']['params']['encoder_block']['layer_sequence']['layers_7']['attention_block']['dense_layer']['kernel']"}, tensor<768xf32> {jax.result_info = "result[0].opt_state[1][0].nu['encoder']['params']['encoder_block']['layer_sequence']['layers_7']['attention_block']['layer_norm']['bias']"}, tensor<768xf32> {jax.result_info = "result[0].opt_state[1][0].nu['encoder']['params']['encoder_block']['layer_sequence']['layers_7']['attention_block']['layer_norm']['scale']"}, tensor<768xf32> {jax.result_info = "result[0].opt_state[1][0].nu['encoder']['params']['encoder_block']['layer_sequence']['layers_7']['mlp_block']['dense_layer']['bias']"}, tensor<3072x768xf32> {jax.result_info = "result[0].opt_state[1][0].nu['encoder']['params']['encoder_block']['layer_sequence']['layers_7']['mlp_block']['dense_layer']['kernel']"}, tensor<768xf32> {jax.result_info = "result[0].opt_state[1][0].nu['encoder']['params']['encoder_block']['layer_sequence']['layers_7']['mlp_block']['layer_norm']['bias']"}, tensor<768xf32> {jax.result_info = "result[0].opt_state[1][0].nu['encoder']['params']['encoder_block']['layer_sequence']['layers_7']['mlp_block']['layer_norm']['scale']"}, tensor<3072xf32> {jax.result_info = "result[0].opt_state[1][0].nu['encoder']['params']['encoder_block']['layer_sequence']['layers_7']['mlp_block']['mlp']['dense_layer']['bias']"}, tensor<768x3072xf32> {jax.result_info = "result[0].opt_state[1][0].nu['encoder']['params']['encoder_block']['layer_sequence']['layers_7']['mlp_block']['mlp']['dense_layer']['kernel']"}, tensor<768xf32> {jax.result_info = "result[0].opt_state[1][0].nu['encoder']['params']['encoder_block']['layer_sequence']['layers_8']['attention_block']['attention_layer']['key']['bias']"}, tensor<768x768xf32> {jax.result_info = "result[0].opt_state[1][0].nu['encoder']['params']['encoder_block']['layer_sequence']['layers_8']['attention_block']['attention_layer']['key']['kernel']"}, tensor<768xf32> {jax.result_info = "result[0].opt_state[1][0].nu['encoder']['params']['encoder_block']['layer_sequence']['layers_8']['attention_block']['attention_layer']['query']['bias']"}, tensor<768x768xf32> {jax.result_info = "result[0].opt_state[1][0].nu['encoder']['params']['encoder_block']['layer_sequence']['layers_8']['attention_block']['attention_layer']['query']['kernel']"}, tensor<768xf32> {jax.result_info = "result[0].opt_state[1][0].nu['encoder']['params']['encoder_block']['layer_sequence']['layers_8']['attention_block']['attention_layer']['value']['bias']"}, tensor<768x768xf32> {jax.result_info = "result[0].opt_state[1][0].nu['encoder']['params']['encoder_block']['layer_sequence']['layers_8']['attention_block']['attention_layer']['value']['kernel']"}, tensor<768xf32> {jax.result_info = "result[0].opt_state[1][0].nu['encoder']['params']['encoder_block']['layer_sequence']['layers_8']['attention_block']['dense_layer']['bias']"}, tensor<768x768xf32> {jax.result_info = "result[0].opt_state[1][0].nu['encoder']['params']['encoder_block']['layer_sequence']['layers_8']['attention_block']['dense_layer']['kernel']"}, tensor<768xf32> {jax.result_info = "result[0].opt_state[1][0].nu['encoder']['params']['encoder_block']['layer_sequence']['layers_8']['attention_block']['layer_norm']['bias']"}, tensor<768xf32> {jax.result_info = "result[0].opt_state[1][0].nu['encoder']['params']['encoder_block']['layer_sequence']['layers_8']['attention_block']['layer_norm']['scale']"}, tensor<768xf32> {jax.result_info = "result[0].opt_state[1][0].nu['encoder']['params']['encoder_block']['layer_sequence']['layers_8']['mlp_block']['dense_layer']['bias']"}, tensor<3072x768xf32> {jax.result_info = "result[0].opt_state[1][0].nu['encoder']['params']['encoder_block']['layer_sequence']['layers_8']['mlp_block']['dense_layer']['kernel']"}, tensor<768xf32> {jax.result_info = "result[0].opt_state[1][0].nu['encoder']['params']['encoder_block']['layer_sequence']['layers_8']['mlp_block']['layer_norm']['bias']"}, tensor<768xf32> {jax.result_info = "result[0].opt_state[1][0].nu['encoder']['params']['encoder_block']['layer_sequence']['layers_8']['mlp_block']['layer_norm']['scale']"}, tensor<3072xf32> {jax.result_info = "result[0].opt_state[1][0].nu['encoder']['params']['encoder_block']['layer_sequence']['layers_8']['mlp_block']['mlp']['dense_layer']['bias']"}, tensor<768x3072xf32> {jax.result_info = "result[0].opt_state[1][0].nu['encoder']['params']['encoder_block']['layer_sequence']['layers_8']['mlp_block']['mlp']['dense_layer']['kernel']"}, tensor<768xf32> {jax.result_info = "result[0].opt_state[1][0].nu['encoder']['params']['encoder_block']['layer_sequence']['layers_9']['attention_block']['attention_layer']['key']['bias']"}, tensor<768x768xf32> {jax.result_info = "result[0].opt_state[1][0].nu['encoder']['params']['encoder_block']['layer_sequence']['layers_9']['attention_block']['attention_layer']['key']['kernel']"}, tensor<768xf32> {jax.result_info = "result[0].opt_state[1][0].nu['encoder']['params']['encoder_block']['layer_sequence']['layers_9']['attention_block']['attention_layer']['query']['bias']"}, tensor<768x768xf32> {jax.result_info = "result[0].opt_state[1][0].nu['encoder']['params']['encoder_block']['layer_sequence']['layers_9']['attention_block']['attention_layer']['query']['kernel']"}, tensor<768xf32> {jax.result_info = "result[0].opt_state[1][0].nu['encoder']['params']['encoder_block']['layer_sequence']['layers_9']['attention_block']['attention_layer']['value']['bias']"}, tensor<768x768xf32> {jax.result_info = "result[0].opt_state[1][0].nu['encoder']['params']['encoder_block']['layer_sequence']['layers_9']['attention_block']['attention_layer']['value']['kernel']"}, tensor<768xf32> {jax.result_info = "result[0].opt_state[1][0].nu['encoder']['params']['encoder_block']['layer_sequence'][…
    %102 = stablehlo.broadcast_in_dim %arg0, dims = [] : (tensor<ui32>) -> tensor<64x512x768xui32>
    %103 = stablehlo.add %95, %102 : tensor<64x512x768xui32>
    %104 = stablehlo.broadcast_in_dim %arg1, dims = [] : (tensor<ui32>) -> tensor<64x512x768xui32>
    %105 = stablehlo.add %101, %104 : tensor<64x512x768xui32>
    %106 = stablehlo.broadcast_in_dim %c_8, dims = [] : (tensor<ui32>) -> tensor<64x512x768xui32>
    %107 = stablehlo.add %105, %106 : tensor<64x512x768xui32>
    %108 = stablehlo.add %103, %107 : tensor<64x512x768xui32>
    %109 = stablehlo.broadcast_in_dim %c_3, dims = [] : (tensor<ui32>) -> tensor<64x512x768xui32>
    %110 = stablehlo.shift_left %107, %109 : tensor<64x512x768xui32>
    %111 = stablehlo.broadcast_in_dim %c_2, dims = [] : (tensor<ui32>) -> tensor<64x512x768xui32>
    %112 = stablehlo.shift_right_logical %107, %111 : tensor<64x512x768xui32>
    %113 = stablehlo.or %110, %112 : tensor<64x512x768xui32>
    %114 = stablehlo.xor %108, %113 : tensor<64x512x768xui32>
    %115 = stablehlo.add %108, %114 : tensor<64x512x768xui32>
    %116 = stablehlo.broadcast_in_dim %c_7, dims = [] : (tensor<ui32>) -> tensor<64x512x768xui32>
    %117 = stablehlo.shift_left %114, %116 : tensor<64x512x768xui32>
    %118 = stablehlo.broadcast_in_dim %c_8, dims = [] : (tensor<ui32>) -> tensor<64x512x768xui32>
    %119 = stablehlo.shift_right_logical %114, %118 : tensor<64x512x768xui32>
    %120 = stablehlo.or %117, %119 : tensor<64x512x768xui32>
    %121 = stablehlo.xor %115, %120 : tensor<64x512x768xui32>
    %122 = stablehlo.add %115, %121 : tensor<64x512x768xui32>
    %123 = stablehlo.broadcast_in_dim %c_9, dims = [] : (tensor<ui32>) -> tensor<64x512x768xui32>
    %124 = stablehlo.shift_left %121, %123 : tensor<64x512x768xui32>
    %125 = stablehlo.broadcast_in_dim %c_9, dims = [] : (tensor<ui32>) -> tensor<64x512x768xui32>
    %126 = stablehlo.shift_right_logical %121, %125 : tensor<64x512x768xui32>
    %127 = stablehlo.or %124, %126 : tensor<64x512x768xui32>
    %128 = stablehlo.xor %122, %127 : tensor<64x512x768xui32>
    %129 = stablehlo.add %122, %128 : tensor<64x512x768xui32>
    %130 = stablehlo.broadcast_in_dim %c_10, dims = [] : (tensor<ui32>) -> tensor<64x512x768xui32>
    %131 = stablehlo.shift_left %128, %130 : tensor<64x512x768xui32>
    %132 = stablehlo.broadcast_in_dim %c_11, dims = [] : (tensor<ui32>) -> tensor<64x512x768xui32>
    %133 = stablehlo.shift_right_logical %128, %132 : tensor<64x512x768xui32>
    %134 = stablehlo.or %131, %133 : tensor<64x512x768xui32>
    %135 = stablehlo.xor %129, %134 : tensor<64x512x768xui32>
    %136 = stablehlo.broadcast_in_dim %arg1, dims = [] : (tensor<ui32>) -> tensor<64x512x768xui32>
    %137 = stablehlo.add %129, %136 : tensor<64x512x768xui32>
    %138 = stablehlo.broadcast_in_dim %1, dims = [] : (tensor<ui32>) -> tensor<64x512x768xui32>
    %139 = stablehlo.add %135, %138 : tensor<64x512x768xui32>
    %c_13 = stablehlo.constant dense<4> : tensor<ui32>
    %140 = stablehlo.broadcast_in_dim %c_13, dims = [] : (tensor<ui32>) -> tensor<64x512x768xui32>
    %141 = stablehlo.add %139, %140 : tensor<64x512x768xui32>
    %142 = stablehlo.add %137, %141 : tensor<64x512x768xui32>
    %143 = stablehlo.broadcast_in_dim %c_0, dims = [] : (tensor<ui32>) -> tensor<64x512x768xui32>
    %144 = stablehlo.shift_left %141, %143 : tensor<64x512x768xui32>
    %145 = stablehlo.broadcast_in_dim %c_1, dims = [] : (tensor<ui32>) -> tensor<64x512x768xui32>
    %146 = stablehlo.shift_right_logical %141, %145 : tensor<64x512x768xui32>
    %147 = stablehlo.or %144, %146 : tensor<64x512x768xui32>
    %148 = stablehlo.xor %142, %147 : tensor<64x512x768xui32>
    %149 = stablehlo.add %142, %148 : tensor<64x512x768xui32>
    %150 = stablehlo.broadcast_in_dim %c_2, dims = [] : (tensor<ui32>) -> tensor<64x512x768xui32>
    %151 = stablehlo.shift_left %148, %150 : tensor<64x512x768xui32>
    %152 = stablehlo.broadcast_in_dim %c_3, dims = [] : (tensor<ui32>) -> tensor<64x512x768xui32>
    %153 = stablehlo.shift_right_logical %148, %152 : tensor<64x512x768xui32>
    %154 = stablehlo.or %151, %153 : tensor<64x512x768xui32>
    %155 = stablehlo.xor %149, %154 : tensor<64x512x768xui32>
    %156 = stablehlo.add %149, %155 : tensor<64x512x768xui32>
    %157 = stablehlo.broadcast_in_dim %c_4, dims = [] : (tensor<ui32>) -> tensor<64x512x768xui32>
    %158 = stablehlo.shift_left %155, %157 : tensor<64x512x768xui32>
    %159 = stablehlo.broadcast_in_dim %c_5, dims = [] : (tensor<ui32>) -> tensor<64x512x768xui32>
    %160 = stablehlo.shift_right_logical %155, %159 : tensor<64x512x768xui32>
    %161 = stablehlo.or %158, %160 : tensor<64x512x768xui32>
    %162 = stablehlo.xor %156, %161 : tensor<64x512x768xui32>
    %163 = stablehlo.add %156, %162 : tensor<64x512x768xui32>
    %164 = stablehlo.broadcast_in_dim %c_5, dims = [] : (tensor<ui32>) -> tensor<64x512x768xui32>
    %165 = stablehlo.shift_left %162, %164 : tensor<64x512x768xui32>
    %166 = stablehlo.broadcast_in_dim %c_4, dims = [] : (tensor<ui32>) -> tensor<64x512x768xui32>
    %167 = stablehlo.shift_right_logical %162, %166 : tensor<64x512x768xui32>
    %168 = stablehlo.or %165, %167 : tensor<64x512x768xui32>
    %169 = stablehlo.xor %163, %168 : tensor<64x512x768xui32>
    %170 = stablehlo.broadcast_in_dim %1, dims = [] : (tensor<ui32>) -> tensor<64x512x768xui32>
    %171 = stablehlo.add %163, %170 : tensor<64x512x768xui32>
    %172 = stablehlo.broadcast_in_dim %arg0, dims = [] : (tensor<ui32>) -> tensor<64x512x768xui32>
    %173 = stablehlo.add %169, %172 : tensor<64x512x768xui32>
    %c_14 = stablehlo.constant dense<5> : tensor<ui32>
    %174 = stablehlo.broadcast_in_dim %c_14, dims = [] : (tensor<ui32>) -> tensor<64x512x768xui32>
    %175 = stablehlo.add %173, %174 : tensor<64x512x768xui32>
    return %171, %175 : tensor<64x512x768xui32>, tensor<64x512x768xui32>
  }
  func.func private @_bernoulli_70(%arg0: tensor<2xui32>, %arg1: tensor<f32>) -> tensor<64x12x512x512xi1> {
    %cst = stablehlo.constant dense<0.000000e+00> : tensor<f32>
    %cst_0 = stablehlo.constant dense<1.000000e+00> : tensor<f32>
    %0 = call @_uniform_71(%arg0, %cst, %cst_0) : (tensor<2xui32>, tensor<f32>, tensor<f32>) -> tensor<64x12x512x512xf32>
    %1 = stablehlo.broadcast_in_dim %arg1, dims = [] : (tensor<f32>) -> tensor<64x12x512x512xf32>
    %2 = stablehlo.compare  LT, %0, %1,  FLOAT : (tensor<64x12x512x512xf32>, tensor<64x12x512x512xf32>) -> tensor<64x12x512x512xi1>
    return %2 : tensor<64x12x512x512xi1>
  }
  func.func private @_uniform_71(%arg0: tensor<2xui32>, %arg1: tensor<f32>, %arg2: tensor<f32>) -> tensor<64x12x512x512xf32> {
    %0 = stablehlo.convert %arg1 : tensor<f32>
    %1 = stablehlo.convert %arg2 : tensor<f32>
    %2 = stablehlo.broadcast_in_dim %0, dims = [] : (tensor<f32>) -> tensor<1x1x1x1xf32>
    %3 = stablehlo.broadcast_in_dim %1, dims = [] : (tensor<f32>) -> tensor<1x1x1x1xf32>
    %4 = stablehlo.slice %arg0 [0:1] : (tensor<2xui32>) -> tensor<1xui32>
    %5 = stablehlo.reshape %4 : (tensor<1xui32>) -> tensor<ui32>
    %6 = stablehlo.slice %arg0 [1:2] : (tensor<2xui32>) -> tensor<1xui32>
    %7 = stablehlo.reshape %6 : (tensor<1xui32>) -> tensor<ui32>
    %8 = stablehlo.iota dim = 0 : tensor<64x12x512x512xui64>
    %9 = stablehlo.iota dim = 1 : tensor<64x12x512x512xui64>
    %10 = stablehlo.iota dim = 2 : tensor<64x12x512x512xui64>
    %11 = stablehlo.iota dim = 3 : tensor<64x12x512x512xui64>
    %c = stablehlo.constant dense<3145728> : tensor<ui64>
    %12 = stablehlo.broadcast_in_dim %c, dims = [] : (tensor<ui64>) -> tensor<64x12x512x512xui64>
    %13 = stablehlo.multiply %12, %8 : tensor<64x12x512x512xui64>
    %c_0 = stablehlo.constant dense<262144> : tensor<ui64>
    %14 = stablehlo.broadcast_in_dim %c_0, dims = [] : (tensor<ui64>) -> tensor<64x12x512x512xui64>
    %15 = stablehlo.multiply %14, %9 : tensor<64x12x512x512xui64>
    %c_1 = stablehlo.constant dense<512> : tensor<ui64>
    %16 = stablehlo.broadcast_in_dim %c_1, dims = [] : (tensor<ui64>) -> tensor<64x12x512x512xui64>
    %17 = stablehlo.multiply %16, %10 : tensor<64x12x512x512xui64>
    %c_2 = stablehlo.constant dense<1> : tensor<ui64>
    %18 = stablehlo.broadcast_in_dim %c_2, dims = [] : (tensor<ui64>) -> tensor<64x12x512x512xui64>
    %19 = stablehlo.multiply %18, %11 : tensor<64x12x512x512xui64>
    %20 = stablehlo.add %13, %15 : tensor<64x12x512x512xui64>
    %21 = stablehlo.add %20, %17 : tensor<64x12x512x512xui64>
    %22 = stablehlo.add %21, %19 : tensor<64x12x512x512xui64>
    %c_3 = stablehlo.constant dense<32> : tensor<ui64>
    %23 = stablehlo.broadcast_in_dim %c_3, dims = [] : (tensor<ui64>) -> tensor<64x12x512x512xui64>
    %24 = stablehlo.shift_right_logical %22, %23 : tensor<64x12x512x512xui64>
    %25 = stablehlo.convert %22 : (tensor<64x12x512x512xui64>) -> tensor<64x12x512x512xui32>
    %26 = stablehlo.convert %24 : (tensor<64x12x512x512xui64>) -> tensor<64x12x512x512xui32>
    %27:2 = call @threefry2x32_75(%5, %7, %26, %25) : (tensor<ui32>, tensor<ui32>, tensor<64x12x512x512xui32>, tensor<64x12x512x512xui32>) -> (tensor<64x12x512x512xui32>, tensor<64x12x512x512xui32>)
    %28 = stablehlo.xor %27#0, %27#1 : tensor<64x12x512x512xui32>
    %c_4 = stablehlo.constant dense<9> : tensor<ui32>
    %29 = stablehlo.broadcast_in_dim %c_4, dims = [] : (tensor<ui32>) -> tensor<64x12x512x512xui32>
    %30 = stablehlo.shift_right_logical %28, %29 : tensor<64x12x512x512xui32>
    %c_5 = stablehlo.constant dense<1065353216> : tensor<ui32>
    %31 = stablehlo.broadcast_in_dim %c_5, dims = [] : (tensor<ui32>) -> tensor<64x12x512x512xui32>
    %32 = stablehlo.or %30, %31 : tensor<64x12x512x512xui32>
    %33 = stablehlo.bitcast_convert %32 : (tensor<64x12x512x512xui32>) -> tensor<64x12x512x512xf32>
    %cst = stablehlo.constant dense<1.000000e+00> : tensor<f32>
    %34 = stablehlo.broadcast_in_dim %cst, dims = [] : (tensor<f32>) -> tensor<64x12x512x512xf32>
    %35 = stablehlo.subtract %33, %34 : tensor<64x12x512x512xf32>
    %36 = stablehlo.subtract %3, %2 : tensor<1x1x1x1xf32>
    %37 = stablehlo.broadcast_in_dim %36, dims = [0, 1, 2, 3] : (tensor<1x1x1x1xf32>) -> tensor<64x12x512x512xf32>
    %38 = stablehlo.multiply %35, %37 : tensor<64x12x512x512xf32>
    %39 = stablehlo.broadcast_in_dim %2, dims = [0, 1, 2, 3] : (tensor<1x1x1x1xf32>) -> tensor<64x12x512x512xf32>
    %40 = stablehlo.add %38, %39 : tensor<64x12x512x512xf32>
    %41 = stablehlo.broadcast_in_dim %2, dims = [0, 1, 2, 3] : (tensor<1x1x1x1xf32>) -> tensor<64x12x512x512xf32>
    %42 = stablehlo.maximum %41, %40 : tensor<64x12x512x512xf32>
    return %42 : tensor<64x12x512x512xf32>
  }
  func.func private @threefry2x32_75(%arg0: tensor<ui32>, %arg1: tensor<ui32>, %arg2: tensor<64x12x512x512xui32>, %arg3: tensor<64x12x512x512xui32>) -> (tensor<64x12x512x512xui32>, tensor<64x12x512x512xui32>) {
    %0 = stablehlo.xor %arg0, %arg1 : tensor<ui32>
    %c = stablehlo.constant dense<466688986> : tensor<ui32>
    %1 = stablehlo.xor %0, %c : tensor<ui32>
    %2 = stablehlo.broadcast_in_dim %arg0, dims = [] : (tensor<ui32>) -> tensor<64x12x512x512xui32>
    %3 = stablehlo.add %arg2, %2 : tensor<64x12x512x512xui32>
    %4 = stablehlo.broadcast_in_dim %arg1, dims = [] : (tensor<ui32>) -> tensor<64x12x512x512xui32>
    %5 = stablehlo.add %arg3, %4 : tensor<64x12x512x512xui32>
    %6 = stablehlo.add %3, %5 : tensor<64x12x512x512xui32>
    %c_0 = stablehlo.constant dense<13> : tensor<ui32>
    %7 = stablehlo.broadcast_in_dim %c_0, dims = [] : (tensor<ui32>) -> tensor<64x12x512x512xui32>
    %8 = stablehlo.shift_left %5, %7 : tensor<64x12x512x512xui32>
    %c_1 = stablehlo.constant dense<19> : tensor<ui32>
    %9 = stablehlo.broadcast_in_dim %c_1, dims = [] : (tensor<ui32>) -> tensor<64x12x512x512xui32>
    %10 = stablehlo.shift_right_logical %5, %9 : tensor<64x12x512x512xui32>
    %11 = stablehlo.or %8, %10 : tensor<64x12x512x512xui32>
    %12 = stablehlo.xor %6, %11 : tensor<64x12x512x512xui32>
    %13 = stablehlo.add %6, %12 : tensor<64x12x512x512xui32>
    %c_2 = stablehlo.constant dense<15> : tensor<ui32>
    %14 = stablehlo.broadcast_in_dim %c_2, dims = [] : (tensor<ui32>) -> tensor<64x12x512x512xui32>
    %15 = stablehlo.shift_left %12, %14 : tensor<64x12x512x512xui32>
    %c_3 = stablehlo.constant dense<17> : tensor<ui32>
    %16 = stablehlo.broadcast_in_dim %c_3, dims = [] : (tensor<ui32>) -> tensor<64x12x512x512xui32>
    %17 = stablehlo.shift_right_logical %12, %16 : tensor<64x12x512x512xui32>
    %18 = stablehlo.or %15, %17 : tensor<64x12x512x512xui32>
    %19 = stablehlo.xor %13, %18 : tensor<64x12x512x512xui32>
    %20 = stablehlo.add %13, %19 : tensor<64x12x512x512xui32>
    %c_4 = stablehlo.constant dense<26> : tensor<ui32>
    %21 = stablehlo.broadcast_in_dim %c_4, dims = [] : (tensor<ui32>) -> tensor<64x12x512x512xui32>
    %22 = stablehlo.shift_left %19, %21 : tensor<64x12x512x512xui32>
    %c_5 = stablehlo.constant dense<6> : tensor<ui32>
    %23 = stablehlo.broadcast_in_dim %c_5, dims = [] : (tensor<ui32>) -> tensor<64x12x512x512xui32>
    %24 = stablehlo.shift_right_logical %19, %23 : tensor<64x12x512x512xui32>
    %25 = stablehlo.or %22, %24 : tensor<64x12x512x512xui32>
    %26 = stablehlo.xor %20, %25 : tensor<64x12x512x512xui32>
    %27 = stablehlo.add %20, %26 : tensor<64x12x512x512xui32>
    %28 = stablehlo.broadcast_in_dim %c_5, dims = [] : (tensor<ui32>) -> tensor<64x12x512x512xui32>
    %29 = stablehlo.shift_left %26, %28 : tensor<64x12x512x512xui32>
    %30 = stablehlo.broadcast_in_dim %c_4, dims = [] : (tensor<ui32>) -> tensor<64x12x512x512xui32>
    %31 = stablehlo.shift_right_logical %26, %30 : tensor<64x12x512x512xui32>
    %32 = stablehlo.or %29, %31 : tensor<64x12x512x512xui32>
    %33 = stablehlo.xor %27, %32 : tensor<64x12x512x512xui32>
    %34 = stablehlo.broadcast_in_dim %arg1, dims = [] : (tensor<ui32>) -> tensor<64x12x512x512xui32>
    %35 = stablehlo.add %27, %34 : tensor<64x12x512x512xui32>
    %36 = stablehlo.broadcast_in_dim %1, dims = [] : (tensor<ui32>) -> tensor<64x12x512x512xui32>
    %37 = stablehlo.add %33, %36 : tensor<64x12x512x512xui32>
    %c_6 = stablehlo.constant dense<1> : tensor<ui32>
    %38 = stablehlo.broadcast_in_dim %c_6, dims = [] : (tensor<ui32>) -> tensor<64x12x512x512xui32>
    %39 = stablehlo.add %37, %38 : tensor<64x12x512x512xui32>
    %40 = stablehlo.add %35, %39 : tensor<64x12x512x512xui32>
    %41 = stablehlo.broadcast_in_dim %c_3, dims = [] : (tensor<ui32>) -> tensor<64x12x512x512xui32>
    %42 = stablehlo.shift_left %39, %41 : tensor<64x12x512x512xui32>
    %43 = stablehlo.broadcast_in_dim %c_2, dims = [] : (tensor<ui32>) -> tensor<64x12x512x512xui32>
    %44 = stablehlo.shift_right_logical %39, %43 : tensor<64x12x512x512xui32>
    %45 = stablehlo.or %42, %44 : tensor<64x12x512x512xui32>
    %46 = stablehlo.xor %40, %45 : tensor<64x12x512x512xui32>
    %47 = stablehlo.add %40, %46 : tensor<64x12x512x512xui32>
    %c_7 = stablehlo.constant dense<29> : tensor<ui32>
    %48 = stablehlo.broadcast_in_dim %c_7, dims = [] : (tensor<ui32>) -> tensor<64x12x512x512xui32>
    %49 = stablehlo.shift_left %46, %48 : tensor<64x12x512x512xui32>
    %c_8 = stablehlo.constant dense<3> : tensor<ui32>
    %50 = stablehlo.broadcast_in_dim %c_8, dims = [] : (tensor<ui32>) -> tensor<64x12x512x512xui32>
    %51 = stablehlo.shift_right_logical %46, %50 : tensor<64x12x512x512xui32>
    %52 = stablehlo.or %49, %51 : tensor<64x12x512x512xui32>
    %53 = stablehlo.xor %47, %52 : tensor<64x12x512x512xui32>
    %54 = stablehlo.add %47, %53 : tensor<64x12x512x512xui32>
    %c_9 = stablehlo.constant dense<16> : tensor<ui32>
    %55 = stablehlo.broadcast_in_dim %c_9, dims = [] : (tensor<ui32>) -> tensor<64x12x512x512xui32>
    %56 = stablehlo.shift_left %53, %55 : tensor<64x12x512x512xui32>
    %57 = stablehlo.broadcast_in_dim %c_9, dims = [] : (tensor<ui32>) -> tensor<64x12x512x512xui32>
    %58 = stablehlo.shift_right_logical %53, %57 : tensor<64x12x512x512xui32>
    %59 = stablehlo.or %56, %58 : tensor<64x12x512x512xui32>
    %60 = stablehlo.xor %54, %59 : tensor<64x12x512x512xui32>
    %61 = stablehlo.add %54, %60 : tensor<64x12x512x512xui32>
    %c_10 = stablehlo.constant dense<24> : tensor<ui32>
    %62 = stablehlo.broadcast_in_dim %c_10, dims = [] : (tensor<ui32>) -> tensor<64x12x512x512xui32>
    %63 = stablehlo.shift_left %60, %62 : tensor<64x12x512x512xui32>
    %c_11 = stablehlo.constant dense<8> : tensor<ui32>
    %64 = stablehlo.broadcast_in_dim %c_11, dims = [] : (tensor<ui32>) -> tensor<64x12x512x512xui32>
    %65 = stablehlo.shift_right_logical %60, %64 : tensor<64x12x512x512xui32>
    %66 = stablehlo.or %63, %65 : tensor<64x12x512x512xui32>
    %67 = stablehlo.xor %61, %66 : tensor<64x12x512x512xui32>
    %68 = stablehlo.broadcast_in_dim %1, dims = [] : (tensor<ui32>) -> tensor<64x12x512x512xui32>
    %69 = stablehlo.add %61, %68 : tensor<64x12x512x512xui32>
    %70 = stablehlo.broadcast_in_dim %arg0, dims = [] : (tensor<ui32>) -> tensor<64x12x512x512xui32>
    %71 = stablehlo.add %67, %70 : tensor<64x12x512x512xui32>
    %c_12 = stablehlo.constant dense<2> : tensor<ui32>
    %72 = stablehlo.broadcast_in_dim %c_12, dims = [] : (tensor<ui32>) -> tensor<64x12x512x512xui32>
    %73 = stablehlo.add %71, %72 : tensor<64x12x512x512xui32>
    %74 = stablehlo.add %69, %73 : tensor<64x12x512x512xui32>
    %75 = stablehlo.broadcast_in_dim %c_0, dims = [] : (tensor<ui32>) -> tensor<64x12x512x512xui32>
    %76 = stablehlo.shift_left %73, %75 : tensor<64x12x512x512xui32>
    %77 = stablehlo.broadcast_in_dim %c_1, dims = [] : (tensor<ui32>) -> tensor<64x12x512x512xui32>
    %78 = stablehlo.shift_right_logical %73, %77 : tensor<64x12x512x512xui32>
    %79 = stablehlo.or %76, %78 : tensor<64x12x512x512xui32>
    %80 = stablehlo.xor %74, %79 : tensor<64x12x512x512xui32>
    %81 = stablehlo.add %74, %80 : tensor<64x12x512x512xui32>
    %82 = stablehlo.broadcast_in_dim %c_2, dims = [] : (tensor<ui32>) -> tensor<64x12x512x512xui32>
    %83 = stablehlo.shift_left %80, %82 : tensor<64x12x512x512xui32>
    %84 = stablehlo.broadcast_in_dim %c_3, dims = [] : (tensor<ui32>) -> tensor<64x12x512x512xui32>
    %85 = stablehlo.shift_right_logical %80, %84 : tensor<64x12x512x512xui32>
    %86 = stablehlo.or %83, %85 : tensor<64x12x512x512xui32>
    %87 = stablehlo.xor %81, %86 : tensor<64x12x512x512xui32>
    %88 = stablehlo.add %81, %87 : tensor<64x12x512x512xui32>
    %89 = stablehlo.broadcast_in_dim %c_4, dims = [] : (tensor<ui32>) -> tensor<64x12x512x512xui32>
    %90 = stablehlo.shift_left %87, %89 : tensor<64x12x512x512xui32>
    %91 = stablehlo.broadcast_in_dim %c_5, dims = [] : (tensor<ui32>) -> tensor<64x12x512x512xui32>
    %92 = stablehlo.shift_right_logical %87, %91 : tensor<64x12x512x512xui32>
    %93 = stablehlo.or %90, %92 : tensor<64x12x512x512xui32>
    %94 = stablehlo.xor %88, %93 : tensor<64x12x512x512xui32>
    %95 = stablehlo.add %88, %94 : tensor<64x12x512x512xui32>
    %96 = stablehlo.broadcast_in_dim %c_5, dims = [] : (tensor<ui32>) -> tensor<64x12x512x512xui32>
    %97 = stablehlo.shift_left %94, %96 : tensor<64x12x512x512xui32>
    %98 = stablehlo.broadcast_in_dim %c_4, dims = [] : (tensor<ui32>) -> tensor<64x12x512x512xui32>
    %99 = stablehlo.shift_right_logical %94, %98 : tensor<64x12x512x512xui32>
    %100 = stablehlo.or %97, %99 : tensor<64x12x512x512xui32>
    %101 = stablehlo.xor %95, %100 : tensor<64x12x512x512xui32>
    %102 = stablehlo.broadcast_in_dim %arg0, dims = [] : (tensor<ui32>) -> tensor<64x12x512x512xui32>
    %103 = stablehlo.add %95, %102 : tensor<64x12x512x512xui32>
    %104 = stablehlo.broadcast_in_dim %arg1, dims = [] : (tensor<ui32>) -> tensor<64x12x512x512xui32>
    %105 = stablehlo.add %101, %104 : tensor<64x12x512x512xui32>
    %106 = stablehlo.broadcast_in_dim %c_8, dims = [] : (tensor<ui32>) -> tensor<64x12x512x512xui32>
    %107 = stablehlo.add %105, %106 : tensor<64x12x512x512xui32>
    %108 = stablehlo.add %103, %107 : tensor<64x12x512x512xui32>
    %109 = stablehlo.broadcast_in_dim %c_3, dims = [] : (tensor<ui32>) -> tensor<64x12x512x512xui32>
    %110 = stablehlo.shift_left %107, %109 : tensor<64x12x512x512xui32>
    %111 = stablehlo.broadcast_in_dim %c_2, dims = [] : (tensor<ui32>) -> tensor<64x12x512x512xui32>
    %112 = stablehlo.shift_right_logical %107, %111 : tensor<64x12x512x512xui32>
    %113 = stablehlo.or %110, %112 : tensor<64x12x512x512xui32>
    %114 = stablehlo.xor %108, %113 : tensor<64x12x512x512xui32>
    %115 = stablehlo.add %108, %114 : tensor<64x12x512x512xui32>
    %116 = stablehlo.broadcast_in_dim %c_7, dims = [] : (tensor<ui32>) -> tensor<64x12x512x512xui32>
    %117 = stablehlo.shift_left %114, %116 : tensor<64x12x512x512xui32>
    %118 = stablehlo.broadcast_in_dim %c_8, dims = [] : (tensor<ui32>) -> tensor<64x12x512x512xui32>
    %119 = stablehlo.shift_right_logical %114, %118 : tensor<64x12x512x512xui32>
    %120 = stablehlo.or %117, %119 : tensor<64x12x512x512xui32>
    %121 = stablehlo.xor %115, %120 : tensor<64x12x512x512xui32>
    %122 = stablehlo.add %115, %121 : tensor<64x12x512x512xui32>
    %123 = stablehlo.broadcast_in_dim %c_9, dims = [] : (tensor<ui32>) -> tensor<64x12x512x512xui32>
    %124 = stablehlo.shift_left %121, %123 : tensor<64x12x512x512xui32>
    %125 = stablehlo.broadcast_in_dim %c_9, dims = [] : (tensor<ui32>) -> tensor<64x12x512x512xui32>
    %126 = stablehlo.shift_right_logical %121, %125 : tensor<64x12x512x512xui32>
    %127 = stablehlo.or %124, %126 : tensor<64x12x512x512xui32>
    %128 = stablehlo.xor %122, %127 : tensor<64x12x512x512xui32>
    %129 = stablehlo.add %122, %128 : tensor<64x12x512x512xui32>
    %130 = stablehlo.broadcast_in_dim %c_10, dims = [] : (tensor<ui32>) -> tensor<64x12x512x512xui32>
    %131 = stablehlo.shift_left %128, %130 : tensor<64x12x512x512xui32>
    %132 = stablehlo.broadcast_in_dim %c_11, dims = [] : (tensor<ui32>) -> tensor<64x12x512x512xui32>
    %133 = stablehlo.shift_right_logical %128, %132 : tensor<64x12x512x512xui32>
    %134 = stablehlo.or %131, %133 : tensor<64x12x512x512xui32>
    %135 = stablehlo.xor %129, %134 : tensor<64x12x512x512xui32>
    %136 = stablehlo.broadcast_in_dim %arg1, dims = [] : (tensor<ui32>) -> tensor<64x12x512x512xui32>
    %137 = stablehlo.add %129, %136 : tensor<64x12x512x512xui32>
    %138 = stablehlo.broadcast_in_dim %1, dims = [] : (tensor<ui32>) -> tensor<64x12x512x512xui32>
    %139 = stablehlo.add %135, %138 : tensor<64x12x512x512xui32>
    %c_13 = stablehlo.constant dense<4> : tensor<ui32>
    %140 = stablehlo.broadcast_in_dim %c_13, dims = [] : (tensor<ui32>) -> tensor<64x12x512x512xui32>
    %141 = stablehlo.add %139, %140 : tensor<64x12x512x512xui32>
    %142 = stablehlo.add %137, %141 : tensor<64x12x512x512xui32>
    %143 = stablehlo.broadcast_in_dim %c_0, dims = [] : (tensor<ui32>) -> tensor<64x12x512x512xui32>
    %144 = stablehlo.shift_left %141, %143 : tensor<64x12x512x512xui32>
    %145 = stablehlo.broadcast_in_dim %c_1, dims = [] : (tensor<ui32>) -> tensor<64x12x512x512xui32>
    %146 = stablehlo.shift_right_logical %141, %145 : tensor<64x12x512x512xui32>
    %147 = stablehlo.or %144, %146 : tensor<64x12x512x512xui32>
    %148 = stablehlo.xor %142, %147 : tensor<64x12x512x512xui32>
    %149 = stablehlo.add %142, %148 : tensor<64x12x512x512xui32>
    %150 = stablehlo.broadcast_in_dim %c_2, dims = [] : (tensor<ui32>) -> tensor<64x12x512x512xui32>
    %151 = stablehlo.shift_left %148, %150 : tensor<64x12x512x512xui32>
    %152 = stablehlo.broadcast_in_dim %c_3, dims = [] : (tensor<ui32>) -> tensor<64x12x512x512xui32>
    %153 = stablehlo.shift_right_logical %148, %152 : tensor<64x12x512x512xui32>
    %154 = stablehlo.or %151, %153 : tensor<64x12x512x512xui32>
    %155 = stablehlo.xor %149, %154 : tensor<64x12x512x512xui32>
    %156 = stablehlo.add %149, %155 : tensor<64x12x512x512xui32>
    %157 = stablehlo.broadcast_in_dim %c_4, dims = [] : (tensor<ui32>) -> tensor<64x12x512x512xui32>
    %158 = stablehlo.shift_left %155, %157 : tensor<64x12x512x512xui32>
    %159 = stablehlo.broadcast_in_dim %c_5, dims = [] : (tensor<ui32>) -> tensor<64x12x512x512xui32>
    %160 = stablehlo.shift_right_logical %155, %159 : tensor<64x12x512x512xui32>
    %161 = stablehlo.or %158, %160 : tensor<64x12x512x512xui32>
    %162 = stablehlo.xor %156, %161 : tensor<64x12x512x512xui32>
    %163 = stablehlo.add %156, %162 : tensor<64x12x512x512xui32>
    %164 = stablehlo.broadcast_in_dim %c_5, dims = [] : (tensor<ui32>) -> tensor<64x12x512x512xui32>
    %165 = stablehlo.shift_left %162, %164 : tensor<64x12x512x512xui32>
    %166 = stablehlo.broadcast_in_dim %c_4, dims = [] : (tensor<ui32>) -> tensor<64x12x512x512xui32>
    %167 = stablehlo.shift_right_logical %162, %166 : tensor<64x12x512x512xui32>
    %168 = stablehlo.or %165, %167 : tensor<64x12x512x512xui32>
    %169 = stablehlo.xor %163, %168 : tensor<64x12x512x512xui32>
    %170 = stablehlo.broadcast_in_dim %1, dims = [] : (tensor<ui32>) -> tensor<64x12x512x512xui32>
    %171 = stablehlo.add %163, %170 : tensor<64x12x512x512xui32>
    %172 = stablehlo.broadcast_in_dim %arg0, dims = [] : (tensor<ui32>) -> tensor<64x12x512x512xui32>
    %173 = stablehlo.add %169, %172 : tensor<64x12x512x512xui32>
    %c_14 = stablehlo.constant dense<5> : tensor<ui32>
    %174 = stablehlo.broadcast_in_dim %c_14, dims = [] : (tensor<ui32>) -> tensor<64x12x512x512xui32>
    %175 = stablehlo.add %173, %174 : tensor<64x12x512x512xui32>
    return %171, %175 : tensor<64x12x512x512xui32>, tensor<64x12x512x512xui32>
  }
  func.func private @_bernoulli_111(%arg0: tensor<2xui32>, %arg1: tensor<f32>) -> tensor<64x1x768xi1> {
    %cst = stablehlo.constant dense<0.000000e+00> : tensor<f32>
    %cst_0 = stablehlo.constant dense<1.000000e+00> : tensor<f32>
    %0 = call @_uniform_112(%arg0, %cst, %cst_0) : (tensor<2xui32>, tensor<f32>, tensor<f32>) -> tensor<64x1x768xf32>
    %1 = stablehlo.broadcast_in_dim %arg1, dims = [] : (tensor<f32>) -> tensor<64x1x768xf32>
    %2 = stablehlo.compare  LT, %0, %1,  FLOAT : (tensor<64x1x768xf32>, tensor<64x1x768xf32>) -> tensor<64x1x768xi1>
    return %2 : tensor<64x1x768xi1>
  }
  func.func private @_uniform_112(%arg0: tensor<2xui32>, %arg1: tensor<f32>, %arg2: tensor<f32>) -> tensor<64x1x768xf32> {
    %0 = stablehlo.convert %arg1 : tensor<f32>
    %1 = stablehlo.convert %arg2 : tensor<f32>
    %2 = stablehlo.broadcast_in_dim %0, dims = [] : (tensor<f32>) -> tensor<1x1x1xf32>
    %3 = stablehlo.broadcast_in_dim %1, dims = [] : (tensor<f32>) -> tensor<1x1x1xf32>
    %4 = stablehlo.slice %arg0 [0:1] : (tensor<2xui32>) -> tensor<1xui32>
    %5 = stablehlo.reshape %4 : (tensor<1xui32>) -> tensor<ui32>
    %6 = stablehlo.slice %arg0 [1:2] : (tensor<2xui32>) -> tensor<1xui32>
    %7 = stablehlo.reshape %6 : (tensor<1xui32>) -> tensor<ui32>
    %8 = stablehlo.iota dim = 0 : tensor<64x1x768xui64>
    %9 = stablehlo.iota dim = 1 : tensor<64x1x768xui64>
    %10 = stablehlo.iota dim = 2 : tensor<64x1x768xui64>
    %c = stablehlo.constant dense<768> : tensor<ui64>
    %11 = stablehlo.broadcast_in_dim %c, dims = [] : (tensor<ui64>) -> tensor<64x1x768xui64>
    %12 = stablehlo.multiply %11, %8 : tensor<64x1x768xui64>
    %c_0 = stablehlo.constant dense<768> : tensor<ui64>
    %13 = stablehlo.broadcast_in_dim %c_0, dims = [] : (tensor<ui64>) -> tensor<64x1x768xui64>
    %14 = stablehlo.multiply %13, %9 : tensor<64x1x768xui64>
    %c_1 = stablehlo.constant dense<1> : tensor<ui64>
    %15 = stablehlo.broadcast_in_dim %c_1, dims = [] : (tensor<ui64>) -> tensor<64x1x768xui64>
    %16 = stablehlo.multiply %15, %10 : tensor<64x1x768xui64>
    %17 = stablehlo.add %12, %14 : tensor<64x1x768xui64>
    %18 = stablehlo.add %17, %16 : tensor<64x1x768xui64>
    %c_2 = stablehlo.constant dense<32> : tensor<ui64>
    %19 = stablehlo.broadcast_in_dim %c_2, dims = [] : (tensor<ui64>) -> tensor<64x1x768xui64>
    %20 = stablehlo.shift_right_logical %18, %19 : tensor<64x1x768xui64>
    %21 = stablehlo.convert %18 : (tensor<64x1x768xui64>) -> tensor<64x1x768xui32>
    %22 = stablehlo.convert %20 : (tensor<64x1x768xui64>) -> tensor<64x1x768xui32>
    %23:2 = call @threefry2x32_115(%5, %7, %22, %21) : (tensor<ui32>, tensor<ui32>, tensor<64x1x768xui32>, tensor<64x1x768xui32>) -> (tensor<64x1x768xui32>, tensor<64x1x768xui32>)
    %24 = stablehlo.xor %23#0, %23#1 : tensor<64x1x768xui32>
    %c_3 = stablehlo.constant dense<9> : tensor<ui32>
    %25 = stablehlo.broadcast_in_dim %c_3, dims = [] : (tensor<ui32>) -> tensor<64x1x768xui32>
    %26 = stablehlo.shift_right_logical %24, %25 : tensor<64x1x768xui32>
    %c_4 = stablehlo.constant dense<1065353216> : tensor<ui32>
    %27 = stablehlo.broadcast_in_dim %c_4, dims = [] : (tensor<ui32>) -> tensor<64x1x768xui32>
    %28 = stablehlo.or %26, %27 : tensor<64x1x768xui32>
    %29 = stablehlo.bitcast_convert %28 : (tensor<64x1x768xui32>) -> tensor<64x1x768xf32>
    %cst = stablehlo.constant dense<1.000000e+00> : tensor<f32>
    %30 = stablehlo.broadcast_in_dim %cst, dims = [] : (tensor<f32>) -> tensor<64x1x768xf32>
    %31 = stablehlo.subtract %29, %30 : tensor<64x1x768xf32>
    %32 = stablehlo.subtract %3, %2 : tensor<1x1x1xf32>
    %33 = stablehlo.broadcast_in_dim %32, dims = [0, 1, 2] : (tensor<1x1x1xf32>) -> tensor<64x1x768xf32>
    %34 = stablehlo.multiply %31, %33 : tensor<64x1x768xf32>
    %35 = stablehlo.broadcast_in_dim %2, dims = [0, 1, 2] : (tensor<1x1x1xf32>) -> tensor<64x1x768xf32>
    %36 = stablehlo.add %34, %35 : tensor<64x1x768xf32>
    %37 = stablehlo.broadcast_in_dim %2, dims = [0, 1, 2] : (tensor<1x1x1xf32>) -> tensor<64x1x768xf32>
    %38 = stablehlo.maximum %37, %36 : tensor<64x1x768xf32>
    return %38 : tensor<64x1x768xf32>
  }
  func.func private @threefry2x32_115(%arg0: tensor<ui32>, %arg1: tensor<ui32>, %arg2: tensor<64x1x768xui32>, %arg3: tensor<64x1x768xui32>) -> (tensor<64x1x768xui32>, tensor<64x1x768xui32>) {
    %0 = stablehlo.xor %arg0, %arg1 : tensor<ui32>
    %c = stablehlo.constant dense<466688986> : tensor<ui32>
    %1 = stablehlo.xor %0, %c : tensor<ui32>
    %2 = stablehlo.broadcast_in_dim %arg0, dims = [] : (tensor<ui32>) -> tensor<64x1x768xui32>
    %3 = stablehlo.add %arg2, %2 : tensor<64x1x768xui32>
    %4 = stablehlo.broadcast_in_dim %arg1, dims = [] : (tensor<ui32>) -> tensor<64x1x768xui32>
    %5 = stablehlo.add %arg3, %4 : tensor<64x1x768xui32>
    %6 = stablehlo.add %3, %5 : tensor<64x1x768xui32>
    %c_0 = stablehlo.constant dense<13> : tensor<ui32>
    %7 = stablehlo.broadcast_in_dim %c_0, dims = [] : (tensor<ui32>) -> tensor<64x1x768xui32>
    %8 = stablehlo.shift_left %5, %7 : tensor<64x1x768xui32>
    %c_1 = stablehlo.constant dense<19> : tensor<ui32>
    %9 = stablehlo.broadcast_in_dim %c_1, dims = [] : (tensor<ui32>) -> tensor<64x1x768xui32>
    %10 = stablehlo.shift_right_logical %5, %9 : tensor<64x1x768xui32>
    %11 = stablehlo.or %8, %10 : tensor<64x1x768xui32>
    %12 = stablehlo.xor %6, %11 : tensor<64x1x768xui32>
    %13 = stablehlo.add %6, %12 : tensor<64x1x768xui32>
    %c_2 = stablehlo.constant dense<15> : tensor<ui32>
    %14 = stablehlo.broadcast_in_dim %c_2, dims = [] : (tensor<ui32>) -> tensor<64x1x768xui32>
    %15 = stablehlo.shift_left %12, %14 : tensor<64x1x768xui32>
    %c_3 = stablehlo.constant dense<17> : tensor<ui32>
    %16 = stablehlo.broadcast_in_dim %c_3, dims = [] : (tensor<ui32>) -> tensor<64x1x768xui32>
    %17 = stablehlo.shift_right_logical %12, %16 : tensor<64x1x768xui32>
    %18 = stablehlo.or %15, %17 : tensor<64x1x768xui32>
    %19 = stablehlo.xor %13, %18 : tensor<64x1x768xui32>
    %20 = stablehlo.add %13, %19 : tensor<64x1x768xui32>
    %c_4 = stablehlo.constant dense<26> : tensor<ui32>
    %21 = stablehlo.broadcast_in_dim %c_4, dims = [] : (tensor<ui32>) -> tensor<64x1x768xui32>
    %22 = stablehlo.shift_left %19, %21 : tensor<64x1x768xui32>
    %c_5 = stablehlo.constant dense<6> : tensor<ui32>
    %23 = stablehlo.broadcast_in_dim %c_5, dims = [] : (tensor<ui32>) -> tensor<64x1x768xui32>
    %24 = stablehlo.shift_right_logical %19, %23 : tensor<64x1x768xui32>
    %25 = stablehlo.or %22, %24 : tensor<64x1x768xui32>
    %26 = stablehlo.xor %20, %25 : tensor<64x1x768xui32>
    %27 = stablehlo.add %20, %26 : tensor<64x1x768xui32>
    %28 = stablehlo.broadcast_in_dim %c_5, dims = [] : (tensor<ui32>) -> tensor<64x1x768xui32>
    %29 = stablehlo.shift_left %26, %28 : tensor<64x1x768xui32>
    %30 = stablehlo.broadcast_in_dim %c_4, dims = [] : (tensor<ui32>) -> tensor<64x1x768xui32>
    %31 = stablehlo.shift_right_logical %26, %30 : tensor<64x1x768xui32>
    %32 = stablehlo.or %29, %31 : tensor<64x1x768xui32>
    %33 = stablehlo.xor %27, %32 : tensor<64x1x768xui32>
    %34 = stablehlo.broadcast_in_dim %arg1, dims = [] : (tensor<ui32>) -> tensor<64x1x768xui32>
    %35 = stablehlo.add %27, %34 : tensor<64x1x768xui32>
    %36 = stablehlo.broadcast_in_dim %1, dims = [] : (tensor<ui32>) -> tensor<64x1x768xui32>
    %37 = stablehlo.add %33, %36 : tensor<64x1x768xui32>
    %c_6 = stablehlo.constant dense<1> : tensor<ui32>
    %38 = stablehlo.broadcast_in_dim %c_6, dims = [] : (tensor<ui32>) -> tensor<64x1x768xui32>
    %39 = stablehlo.add %37, %38 : tensor<64x1x768xui32>
    %40 = stablehlo.add %35, %39 : tensor<64x1x768xui32>
    %41 = stablehlo.broadcast_in_dim %c_3, dims = [] : (tensor<ui32>) -> tensor<64x1x768xui32>
    %42 = stablehlo.shift_left %39, %41 : tensor<64x1x768xui32>
    %43 = stablehlo.broadcast_in_dim %c_2, dims = [] : (tensor<ui32>) -> tensor<64x1x768xui32>
    %44 = stablehlo.shift_right_logical %39, %43 : tensor<64x1x768xui32>
    %45 = stablehlo.or %42, %44 : tensor<64x1x768xui32>
    %46 = stablehlo.xor %40, %45 : tensor<64x1x768xui32>
    %47 = stablehlo.add %40, %46 : tensor<64x1x768xui32>
    %c_7 = stablehlo.constant dense<29> : tensor<ui32>
    %48 = stablehlo.broadcast_in_dim %c_7, dims = [] : (tensor<ui32>) -> tensor<64x1x768xui32>
    %49 = stablehlo.shift_left %46, %48 : tensor<64x1x768xui32>
    %c_8 = stablehlo.constant dense<3> : tensor<ui32>
    %50 = stablehlo.broadcast_in_dim %c_8, dims = [] : (tensor<ui32>) -> tensor<64x1x768xui32>
    %51 = stablehlo.shift_right_logical %46, %50 : tensor<64x1x768xui32>
    %52 = stablehlo.or %49, %51 : tensor<64x1x768xui32>
    %53 = stablehlo.xor %47, %52 : tensor<64x1x768xui32>
    %54 = stablehlo.add %47, %53 : tensor<64x1x768xui32>
    %c_9 = stablehlo.constant dense<16> : tensor<ui32>
    %55 = stablehlo.broadcast_in_dim %c_9, dims = [] : (tensor<ui32>) -> tensor<64x1x768xui32>
    %56 = stablehlo.shift_left %53, %55 : tensor<64x1x768xui32>
    %57 = stablehlo.broadcast_in_dim %c_9, dims = [] : (tensor<ui32>) -> tensor<64x1x768xui32>
    %58 = stablehlo.shift_right_logical %53, %57 : tensor<64x1x768xui32>
    %59 = stablehlo.or %56, %58 : tensor<64x1x768xui32>
    %60 = stablehlo.xor %54, %59 : tensor<64x1x768xui32>
    %61 = stablehlo.add %54, %60 : tensor<64x1x768xui32>
    %c_10 = stablehlo.constant dense<24> : tensor<ui32>
    %62 = stablehlo.broadcast_in_dim %c_10, dims = [] : (tensor<ui32>) -> tensor<64x1x768xui32>
    %63 = stablehlo.shift_left %60, %62 : tensor<64x1x768xui32>
    %c_11 = stablehlo.constant dense<8> : tensor<ui32>
    %64 = stablehlo.broadcast_in_dim %c_11, dims = [] : (tensor<ui32>) -> tensor<64x1x768xui32>
    %65 = stablehlo.shift_right_logical %60, %64 : tensor<64x1x768xui32>
    %66 = stablehlo.or %63, %65 : tensor<64x1x768xui32>
    %67 = stablehlo.xor %61, %66 : tensor<64x1x768xui32>
    %68 = stablehlo.broadcast_in_dim %1, dims = [] : (tensor<ui32>) -> tensor<64x1x768xui32>
    %69 = stablehlo.add %61, %68 : tensor<64x1x768xui32>
    %70 = stablehlo.broadcast_in_dim %arg0, dims = [] : (tensor<ui32>) -> tensor<64x1x768xui32>
    %71 = stablehlo.add %67, %70 : tensor<64x1x768xui32>
    %c_12 = stablehlo.constant dense<2> : tensor<ui32>
    %72 = stablehlo.broadcast_in_dim %c_12, dims = [] : (tensor<ui32>) -> tensor<64x1x768xui32>
    %73 = stablehlo.add %71, %72 : tensor<64x1x768xui32>
    %74 = stablehlo.add %69, %73 : tensor<64x1x768xui32>
    %75 = stablehlo.broadcast_in_dim %c_0, dims = [] : (tensor<ui32>) -> tensor<64x1x768xui32>
    %76 = stablehlo.shift_left %73, %75 : tensor<64x1x768xui32>
    %77 = stablehlo.broadcast_in_dim %c_1, dims = [] : (tensor<ui32>) -> tensor<64x1x768xui32>
    %78 = stablehlo.shift_right_logical %73, %77 : tensor<64x1x768xui32>
    %79 = stablehlo.or %76, %78 : tensor<64x1x768xui32>
    %80 = stablehlo.xor %74, %79 : tensor<64x1x768xui32>
    %81 = stablehlo.add %74, %80 : tensor<64x1x768xui32>
    %82 = stablehlo.broadcast_in_dim %c_2, dims = [] : (tensor<ui32>) -> tensor<64x1x768xui32>
    %83 = stablehlo.shift_left %80, %82 : tensor<64x1x768xui32>
    %84 = stablehlo.broadcast_in_dim %c_3, dims = [] : (tensor<ui32>) -> tensor<64x1x768xui32>
    %85 = stablehlo.shift_right_logical %80, %84 : tensor<64x1x768xui32>
    %86 = stablehlo.or %83, %85 : tensor<64x1x768xui32>
    %87 = stablehlo.xor %81, %86 : tensor<64x1x768xui32>
    %88 = stablehlo.add %81, %87 : tensor<64x1x768xui32>
    %89 = stablehlo.broadcast_in_dim %c_4, dims = [] : (tensor<ui32>) -> tensor<64x1x768xui32>
    %90 = stablehlo.shift_left %87, %89 : tensor<64x1x768xui32>
    %91 = stablehlo.broadcast_in_dim %c_5, dims = [] : (tensor<ui32>) -> tensor<64x1x768xui32>
    %92 = stablehlo.shift_right_logical %87, %91 : tensor<64x1x768xui32>
    %93 = stablehlo.or %90, %92 : tensor<64x1x768xui32>
    %94 = stablehlo.xor %88, %93 : tensor<64x1x768xui32>
    %95 = stablehlo.add %88, %94 : tensor<64x1x768xui32>
    %96 = stablehlo.broadcast_in_dim %c_5, dims = [] : (tensor<ui32>) -> tensor<64x1x768xui32>
    %97 = stablehlo.shift_left %94, %96 : tensor<64x1x768xui32>
    %98 = stablehlo.broadcast_in_dim %c_4, dims = [] : (tensor<ui32>) -> tensor<64x1x768xui32>
    %99 = stablehlo.shift_right_logical %94, %98 : tensor<64x1x768xui32>
    %100 = stablehlo.or %97, %99 : tensor<64x1x768xui32>
    %101 = stablehlo.xor %95, %100 : tensor<64x1x768xui32>
    %102 = stablehlo.broadcast_in_dim %arg0, dims = [] : (tensor<ui32>) -> tensor<64x1x768xui32>
    %103 = stablehlo.add %95, %102 : tensor<64x1x768xui32>
    %104 = stablehlo.broadcast_in_dim %arg1, dims = [] : (tensor<ui32>) -> tensor<64x1x768xui32>
    %105 = stablehlo.add %101, %104 : tensor<64x1x768xui32>
    %106 = stablehlo.broadcast_in_dim %c_8, dims = [] : (tensor<ui32>) -> tensor<64x1x768xui32>
    %107 = stablehlo.add %105, %106 : tensor<64x1x768xui32>
    %108 = stablehlo.add %103, %107 : tensor<64x1x768xui32>
    %109 = stablehlo.broadcast_in_dim %c_3, dims = [] : (tensor<ui32>) -> tensor<64x1x768xui32>
    %110 = stablehlo.shift_left %107, %109 : tensor<64x1x768xui32>
    %111 = stablehlo.broadcast_in_dim %c_2, dims = [] : (tensor<ui32>) -> tensor<64x1x768xui32>
    %112 = stablehlo.shift_right_logical %107, %111 : tensor<64x1x768xui32>
    %113 = stablehlo.or %110, %112 : tensor<64x1x768xui32>
    %114 = stablehlo.xor %108, %113 : tensor<64x1x768xui32>
    %115 = stablehlo.add %108, %114 : tensor<64x1x768xui32>
    %116 = stablehlo.broadcast_in_dim %c_7, dims = [] : (tensor<ui32>) -> tensor<64x1x768xui32>
    %117 = stablehlo.shift_left %114, %116 : tensor<64x1x768xui32>
    %118 = stablehlo.broadcast_in_dim %c_8, dims = [] : (tensor<ui32>) -> tensor<64x1x768xui32>
    %119 = stablehlo.shift_right_logical %114, %118 : tensor<64x1x768xui32>
    %120 = stablehlo.or %117, %119 : tensor<64x1x768xui32>
    %121 = stablehlo.xor %115, %120 : tensor<64x1x768xui32>
    %122 = stablehlo.add %115, %121 : tensor<64x1x768xui32>
    %123 = stablehlo.broadcast_in_dim %c_9, dims = [] : (tensor<ui32>) -> tensor<64x1x768xui32>
    %124 = stablehlo.shift_left %121, %123 : tensor<64x1x768xui32>
    %125 = stablehlo.broadcast_in_dim %c_9, dims = [] : (tensor<ui32>) -> tensor<64x1x768xui32>
    %126 = stablehlo.shift_right_logical %121, %125 : tensor<64x1x768xui32>
    %127 = stablehlo.or %124, %126 : tensor<64x1x768xui32>
    %128 = stablehlo.xor %122, %127 : tensor<64x1x768xui32>
    %129 = stablehlo.add %122, %128 : tensor<64x1x768xui32>
    %130 = stablehlo.broadcast_in_dim %c_10, dims = [] : (tensor<ui32>) -> tensor<64x1x768xui32>
    %131 = stablehlo.shift_left %128, %130 : tensor<64x1x768xui32>
    %132 = stablehlo.broadcast_in_dim %c_11, dims = [] : (tensor<ui32>) -> tensor<64x1x768xui32>
    %133 = stablehlo.shift_right_logical %128, %132 : tensor<64x1x768xui32>
    %134 = stablehlo.or %131, %133 : tensor<64x1x768xui32>
    %135 = stablehlo.xor %129, %134 : tensor<64x1x768xui32>
    %136 = stablehlo.broadcast_in_dim %arg1, dims = [] : (tensor<ui32>) -> tensor<64x1x768xui32>
    %137 = stablehlo.add %129, %136 : tensor<64x1x768xui32>
    %138 = stablehlo.broadcast_in_dim %1, dims = [] : (tensor<ui32>) -> tensor<64x1x768xui32>
    %139 = stablehlo.add %135, %138 : tensor<64x1x768xui32>
    %c_13 = stablehlo.constant dense<4> : tensor<ui32>
    %140 = stablehlo.broadcast_in_dim %c_13, dims = [] : (tensor<ui32>) -> tensor<64x1x768xui32>
    %141 = stablehlo.add %139, %140 : tensor<64x1x768xui32>
    %142 = stablehlo.add %137, %141 : tensor<64x1x768xui32>
    %143 = stablehlo.broadcast_in_dim %c_0, dims = [] : (tensor<ui32>) -> tensor<64x1x768xui32>
    %144 = stablehlo.shift_left %141, %143 : tensor<64x1x768xui32>
    %145 = stablehlo.broadcast_in_dim %c_1, dims = [] : (tensor<ui32>) -> tensor<64x1x768xui32>
    %146 = stablehlo.shift_right_logical %141, %145 : tensor<64x1x768xui32>
    %147 = stablehlo.or %144, %146 : tensor<64x1x768xui32>
    %148 = stablehlo.xor %142, %147 : tensor<64x1x768xui32>
    %149 = stablehlo.add %142, %148 : tensor<64x1x768xui32>
    %150 = stablehlo.broadcast_in_dim %c_2, dims = [] : (tensor<ui32>) -> tensor<64x1x768xui32>
    %151 = stablehlo.shift_left %148, %150 : tensor<64x1x768xui32>
    %152 = stablehlo.broadcast_in_dim %c_3, dims = [] : (tensor<ui32>) -> tensor<64x1x768xui32>
    %153 = stablehlo.shift_right_logical %148, %152 : tensor<64x1x768xui32>
    %154 = stablehlo.or %151, %153 : tensor<64x1x768xui32>
    %155 = stablehlo.xor %149, %154 : tensor<64x1x768xui32>
    %156 = stablehlo.add %149, %155 : tensor<64x1x768xui32>
    %157 = stablehlo.broadcast_in_dim %c_4, dims = [] : (tensor<ui32>) -> tensor<64x1x768xui32>
    %158 = stablehlo.shift_left %155, %157 : tensor<64x1x768xui32>
    %159 = stablehlo.broadcast_in_dim %c_5, dims = [] : (tensor<ui32>) -> tensor<64x1x768xui32>
    %160 = stablehlo.shift_right_logical %155, %159 : tensor<64x1x768xui32>
    %161 = stablehlo.or %158, %160 : tensor<64x1x768xui32>
    %162 = stablehlo.xor %156, %161 : tensor<64x1x768xui32>
    %163 = stablehlo.add %156, %162 : tensor<64x1x768xui32>
    %164 = stablehlo.broadcast_in_dim %c_5, dims = [] : (tensor<ui32>) -> tensor<64x1x768xui32>
    %165 = stablehlo.shift_left %162, %164 : tensor<64x1x768xui32>
    %166 = stablehlo.broadcast_in_dim %c_4, dims = [] : (tensor<ui32>) -> tensor<64x1x768xui32>
    %167 = stablehlo.shift_right_logical %162, %166 : tensor<64x1x768xui32>
    %168 = stablehlo.or %165, %167 : tensor<64x1x768xui32>
    %169 = stablehlo.xor %163, %168 : tensor<64x1x768xui32>
    %170 = stablehlo.broadcast_in_dim %1, dims = [] : (tensor<ui32>) -> tensor<64x1x768xui32>
    %171 = stablehlo.add %163, %170 : tensor<64x1x768xui32>
    %172 = stablehlo.broadcast_in_dim %arg0, dims = [] : (tensor<ui32>) -> tensor<64x1x768xui32>
    %173 = stablehlo.add %169, %172 : tensor<64x1x768xui32>
    %c_14 = stablehlo.constant dense<5> : tensor<ui32>
    %174 = stablehlo.broadcast_in_dim %c_14, dims = [] : (tensor<ui32>) -> tensor<64x1x768xui32>
    %175 = stablehlo.add %173, %174 : tensor<64x1x768xui32>
    return %171, %175 : tensor<64x1x768xui32>, tensor<64x1x768xui32>
  }
  func.func private @_where(%arg0: tensor<64x512xi1>, %arg1: tensor<64x512xi32>, %arg2: tensor<i32>) -> tensor<64x512xi32> {
    %0 = stablehlo.convert %arg2 : tensor<i32>
    %1 = stablehlo.broadcast_in_dim %0, dims = [] : (tensor<i32>) -> tensor<64x512xi32>
    %2 = stablehlo.select %arg0, %arg1, %1 : tensor<64x512xi1>, tensor<64x512xi32>
    return %2 : tensor<64x512xi32>
  }
  func.func private @take_along_axis(%arg0: tensor<64x512x30522xf32>, %arg1: tensor<64x512x1xi32>) -> (tensor<64x512x1xf32>, tensor<64x512x1x1xi32>) {
    %c = stablehlo.constant dense<0> : tensor<i32>
    %0 = stablehlo.broadcast_in_dim %c, dims = [] : (tensor<i32>) -> tensor<64x512x1xi32>
    %1 = stablehlo.compare  LT, %arg1, %0,  SIGNED : (tensor<64x512x1xi32>, tensor<64x512x1xi32>) -> tensor<64x512x1xi1>
    %c_0 = stablehlo.constant dense<30522> : tensor<i32>
    %2 = stablehlo.broadcast_in_dim %c_0, dims = [] : (tensor<i32>) -> tensor<64x512x1xi32>
    %3 = stablehlo.add %arg1, %2 : tensor<64x512x1xi32>
    %4 = stablehlo.select %1, %3, %arg1 : tensor<64x512x1xi1>, tensor<64x512x1xi32>
    %5 = stablehlo.reshape %4 : (tensor<64x512x1xi32>) -> tensor<64x512x1x1xi32>
    %c_1 = stablehlo.constant dense<30521> : tensor<1xi32>
    %c_2 = stablehlo.constant dense<0> : tensor<i32>
    %6 = stablehlo.broadcast_in_dim %c_2, dims = [] : (tensor<i32>) -> tensor<64x512x1x1xi32>
    %7 = stablehlo.compare  GE, %5, %6,  SIGNED : (tensor<64x512x1x1xi32>, tensor<64x512x1x1xi32>) -> tensor<64x512x1x1xi1>
    %8 = stablehlo.broadcast_in_dim %c_1, dims = [3] : (tensor<1xi32>) -> tensor<1x1x1x1xi32>
    %9 = stablehlo.broadcast_in_dim %8, dims = [0, 1, 2, 3] : (tensor<1x1x1x1xi32>) -> tensor<64x512x1x1xi32>
    %10 = stablehlo.compare  LE, %5, %9,  SIGNED : (tensor<64x512x1x1xi32>, tensor<64x512x1x1xi32>) -> tensor<64x512x1x1xi1>
    %11 = stablehlo.and %7, %10 : tensor<64x512x1x1xi1>
    %c_3 = stablehlo.constant dense<true> : tensor<i1>
    %12 = stablehlo.reduce(%11 init: %c_3) applies stablehlo.and across dimensions = [3] : (tensor<64x512x1x1xi1>, tensor<i1>) -> tensor<64x512x1xi1>
    %13 = "stablehlo.gather"(%arg0, %5) <{dimension_numbers = #stablehlo.gather<collapsed_slice_dims = [2], operand_batching_dims = [0, 1], start_indices_batching_dims = [0, 1], start_index_map = [2], index_vector_dim = 3>, indices_are_sorted = false, slice_sizes = array<i64: 1, 1, 1>}> : (tensor<64x512x30522xf32>, tensor<64x512x1x1xi32>) -> tensor<64x512x1xf32>
    %cst = stablehlo.constant dense<0x7FC00000> : tensor<f32>
    %14 = stablehlo.broadcast_in_dim %cst, dims = [] : (tensor<f32>) -> tensor<64x512x1xf32>
    %15 = stablehlo.select %12, %13, %14 : tensor<64x512x1xi1>, tensor<64x512x1xf32>
    return %15, %5 : tensor<64x512x1xf32>, tensor<64x512x1x1xi32>
  }
  func.func private @_where_159(%arg0: tensor<64x512xi1>, %arg1: tensor<64x512xf32>, %arg2: tensor<f32>) -> tensor<64x512xf32> {
    %0 = stablehlo.convert %arg2 : tensor<f32>
    %1 = stablehlo.broadcast_in_dim %0, dims = [] : (tensor<f32>) -> tensor<64x512xf32>
    %2 = stablehlo.select %arg0, %arg1, %1 : tensor<64x512xi1>, tensor<64x512xf32>
    return %2 : tensor<64x512xf32>
  }
  func.func private @argmax(%arg0: tensor<64x512x30522xf32>) -> tensor<64x512xi32> {
    %0 = stablehlo.iota dim = 2 : tensor<64x512x30522xi32>
    %cst = stablehlo.constant dense<0xFF800000> : tensor<f32>
    %c = stablehlo.constant dense<0> : tensor<i32>
    %1:2 = stablehlo.reduce(%arg0 init: %cst), (%0 init: %c) across dimensions = [2] : (tensor<64x512x30522xf32>, tensor<64x512x30522xi32>, tensor<f32>, tensor<i32>) -> (tensor<64x512xf32>, tensor<64x512xi32>)
     reducer(%arg1: tensor<f32>, %arg3: tensor<f32>) (%arg2: tensor<i32>, %arg4: tensor<i32>)  {
      %2 = stablehlo.compare  GT, %arg1, %arg3,  FLOAT : (tensor<f32>, tensor<f32>) -> tensor<i1>
      %3 = stablehlo.compare  NE, %arg1, %arg1,  FLOAT : (tensor<f32>, tensor<f32>) -> tensor<i1>
      %4 = stablehlo.or %2, %3 : tensor<i1>
      %5 = stablehlo.compare  EQ, %arg1, %arg3,  FLOAT : (tensor<f32>, tensor<f32>) -> tensor<i1>
      %6 = stablehlo.compare  LT, %arg2, %arg4,  SIGNED : (tensor<i32>, tensor<i32>) -> tensor<i1>
      %7 = stablehlo.and %5, %6 : tensor<i1>
      %8 = stablehlo.or %4, %7 : tensor<i1>
      %9 = stablehlo.select %4, %arg1, %arg3 : tensor<i1>, tensor<f32>
      %10 = stablehlo.select %8, %arg2, %arg4 : tensor<i1>, tensor<i32>
      stablehlo.return %9, %10 : tensor<f32>, tensor<i32>
    }
    return %1#1 : tensor<64x512xi32>
  }
  func.func private @_where_175(%arg0: tensor<64x512xi1>, %arg1: tensor<64x512xf32>) -> tensor<64x512xf32> {
    %cst = stablehlo.constant dense<0.000000e+00> : tensor<f32>
    %0 = stablehlo.broadcast_in_dim %cst, dims = [] : (tensor<f32>) -> tensor<64x512xf32>
    %1 = stablehlo.select %arg0, %arg1, %0 : tensor<64x512xi1>, tensor<64x512xf32>
    return %1 : tensor<64x512xf32>
  }
  func.func private @take_along_axis_176(%arg0: tensor<64x512x1x1xi32>, %arg1: tensor<64x512x1xf32>) -> tensor<64x512x30522xf32> {
    %cst = stablehlo.constant dense<0.000000e+00> : tensor<f32>
    %0 = stablehlo.broadcast_in_dim %cst, dims = [] : (tensor<f32>) -> tensor<64x512x30522xf32>
    %1 = "stablehlo.scatter"(%0, %arg0, %arg1) <{indices_are_sorted = false, scatter_dimension_numbers = #stablehlo.scatter<inserted_window_dims = [2], input_batching_dims = [0, 1], scatter_indices_batching_dims = [0, 1], scatter_dims_to_operand_dims = [2], index_vector_dim = 3>, unique_indices = false}> ({
    ^bb0(%arg2: tensor<f32>, %arg3: tensor<f32>):
      %2 = stablehlo.add %arg2, %arg3 : tensor<f32>
      stablehlo.return %2 : tensor<f32>
    }) : (tensor<64x512x30522xf32>, tensor<64x512x1x1xi32>, tensor<64x512x1xf32>) -> tensor<64x512x30522xf32>
    return %1 : tensor<64x512x30522xf32>
  }
  func.func private @_where_334(%arg0: tensor<i1>, %arg1: tensor<i32>, %arg2: tensor<i32>) -> tensor<i32> {
    %0 = stablehlo.select %arg0, %arg1, %arg2 : tensor<i1>, tensor<i32>
    return %0 : tensor<i32>
  }
  func.func private @clip(%arg0: tensor<i32>, %arg1: tensor<i32>, %arg2: tensor<i32>) -> tensor<i32> {
    %0 = stablehlo.convert %arg1 : tensor<i32>
    %1 = stablehlo.maximum %0, %arg0 : tensor<i32>
    %2 = stablehlo.convert %arg2 : tensor<i32>
    %3 = stablehlo.minimum %2, %1 : tensor<i32>
    return %3 : tensor<i32>
  }
  func.func private @_where_384(%arg0: tensor<i1>, %arg1: tensor<f32>, %arg2: tensor<f32>) -> tensor<f32> {
    %0 = stablehlo.convert %arg2 : tensor<f32>
    %1 = stablehlo.select %arg0, %arg1, %0 : tensor<i1>, tensor<f32>
    return %1 : tensor<f32>
  }
}
