module @jit__step attributes {mhlo.num_partitions = 4 : i32, mhlo.num_replicas = 1 : i32} {
  sdy.mesh @mesh = <["dp"=4]>
  func.func public @main(%arg0: tensor<30522x768xf32> {sdy.sharding = #sdy.sharding<@mesh, [{}, {}]>}, %arg1: tensor<512x768xf32> {sdy.sharding = #sdy.sharding<@mesh, [{}, {}]>}, %arg2: tensor<2x768xf32> {sdy.sharding = #sdy.sharding<@mesh, [{}, {}]>}, %arg3: tensor<768xf32> {sdy.sharding = #sdy.sharding<@mesh, [{}]>}, %arg4: tensor<768xf32> {sdy.sharding = #sdy.sharding<@mesh, [{}]>}, %arg5: tensor<768x768xf32> {sdy.sharding = #sdy.sharding<@mesh, [{}, {}]>}, %arg6: tensor<768xf32> {sdy.sharding = #sdy.sharding<@mesh, [{}]>}, %arg7: tensor<768x768xf32> {sdy.sharding = #sdy.sharding<@mesh, [{}, {}]>}, %arg8: tensor<768xf32> {sdy.sharding = #sdy.sharding<@mesh, [{}]>}, %arg9: tensor<768x768xf32> {sdy.sharding = #sdy.sharding<@mesh, [{}, {}]>}, %arg10: tensor<768xf32> {sdy.sharding = #sdy.sharding<@mesh, [{}]>}, %arg11: tensor<768x768xf32> {sdy.sharding = #sdy.sharding<@mesh, [{}, {}]>}, %arg12: tensor<768xf32> {sdy.sharding = #sdy.sharding<@mesh, [{}]>}, %arg13: tensor<768xf32> {sdy.sharding = #sdy.sharding<@mesh, [{}]>}, %arg14: tensor<768xf32> {sdy.sharding = #sdy.sharding<@mesh, [{}]>}, %arg15: tensor<3072x768xf32> {sdy.sharding = #sdy.sharding<@mesh, [{}, {}]>}, %arg16: tensor<3072xf32> {sdy.sharding = #sdy.sharding<@mesh, [{}]>}, %arg17: tensor<768x3072xf32> {sdy.sharding = #sdy.sharding<@mesh, [{}, {}]>}, %arg18: tensor<768xf32> {sdy.sharding = #sdy.sharding<@mesh, [{}]>}, %arg19: tensor<768xf32> {sdy.sharding = #sdy.sharding<@mesh, [{}]>}, %arg20: tensor<768xf32> {sdy.sharding = #sdy.sharding<@mesh, [{}]>}, %arg21: tensor<768x768xf32> {sdy.sharding = #sdy.sharding<@mesh, [{}, {}]>}, %arg22: tensor<768xf32> {sdy.sharding = #sdy.sharding<@mesh, [{}]>}, %arg23: tensor<768x768xf32> {sdy.sharding = #sdy.sharding<@mesh, [{}, {}]>}, %arg24: tensor<768xf32> {sdy.sharding = #sdy.sharding<@mesh, [{}]>}, %arg25: tensor<768x768xf32> {sdy.sharding = #sdy.sharding<@mesh, [{}, {}]>}, %arg26: tensor<768xf32> {sdy.sharding = #sdy.sharding<@mesh, [{}]>}, %arg27: tensor<768x768xf32> {sdy.sharding = #sdy.sharding<@mesh, [{}, {}]>}, %arg28: tensor<768xf32> {sdy.sharding = #sdy.sharding<@mesh, [{}]>}, %arg29: tensor<768xf32> {sdy.sharding = #sdy.sharding<@mesh, [{}]>}, %arg30: tensor<768xf32> {sdy.sharding = #sdy.sharding<@mesh, [{}]>}, %arg31: tensor<3072x768xf32> {sdy.sharding = #sdy.sharding<@mesh, [{}, {}]>}, %arg32: tensor<3072xf32> {sdy.sharding = #sdy.sharding<@mesh, [{}]>}, %arg33: tensor<768x3072xf32> {sdy.sharding = #sdy.sharding<@mesh, [{}, {}]>}, %arg34: tensor<768xf32> {sdy.sharding = #sdy.sharding<@mesh, [{}]>}, %arg35: tensor<768xf32> {sdy.sharding = #sdy.sharding<@mesh, [{}]>}, %arg36: tensor<768xf32> {sdy.sharding = #sdy.sharding<@mesh, [{}]>}, %arg37: tensor<768x768xf32> {sdy.sharding = #sdy.sharding<@mesh, [{}, {}]>}, %arg38: tensor<768xf32> {sdy.sharding = #sdy.sharding<@mesh, [{}]>}, %arg39: tensor<768x768xf32> {sdy.sharding = #sdy.sharding<@mesh, [{}, {}]>}, %arg40: tensor<768xf32> {sdy.sharding = #sdy.sharding<@mesh, [{}]>}, %arg41: tensor<768x768xf32> {sdy.sharding = #sdy.sharding<@mesh, [{}, {}]>}, %arg42: tensor<768xf32> {sdy.sharding = #sdy.sharding<@mesh, [{}]>}, %arg43: tensor<768x768xf32> {sdy.sharding = #sdy.sharding<@mesh, [{}, {}]>}, %arg44: tensor<768xf32> {sdy.sharding = #sdy.sharding<@mesh, [{}]>}, %arg45: tensor<768xf32> {sdy.sharding = #sdy.sharding<@mesh, [{}]>}, %arg46: tensor<768xf32> {sdy.sharding = #sdy.sharding<@mesh, [{}]>}, %arg47: tensor<3072x768xf32> {sdy.sharding = #sdy.sharding<@mesh, [{}, {}]>}, %arg48: tensor<3072xf32> {sdy.sharding = #sdy.sharding<@mesh, [{}]>}, %arg49: tensor<768x3072xf32> {sdy.sharding = #sdy.sharding<@mesh, [{}, {}]>}, %arg50: tensor<768xf32> {sdy.sharding = #sdy.sharding<@mesh, [{}]>}, %arg51: tensor<768xf32> {sdy.sharding = #sdy.sharding<@mesh, [{}]>}, %arg52: tensor<768xf32> {sdy.sharding = #sdy.sharding<@mesh, [{}]>}, %arg53: tensor<768x768xf32> {sdy.sharding = #sdy.sharding<@mesh, [{}, {}]>}, %arg54: tensor<768xf32> {sdy.sharding = #sdy.sharding<@mesh, [{}]>}, %arg55: tensor<768x768xf32> {sdy.sharding = #sdy.sharding<@mesh, [{}, {}]>}, %arg56: tensor<768xf32> {sdy.sharding = #sdy.sharding<@mesh, [{}]>}, %arg57: tensor<768x768xf32> {sdy.sharding = #sdy.sharding<@mesh, [{}, {}]>}, %arg58: tensor<768xf32> {sdy.sharding = #sdy.sharding<@mesh, [{}]>}, %arg59: tensor<768x768xf32> {sdy.sharding = #sdy.sharding<@mesh, [{}, {}]>}, %arg60: tensor<768xf32> {sdy.sharding = #sdy.sharding<@mesh, [{}]>}, %arg61: tensor<768xf32> {sdy.sharding = #sdy.sharding<@mesh, [{}]>}, %arg62: tensor<768xf32> {sdy.sharding = #sdy.sharding<@mesh, [{}]>}, %arg63: tensor<3072x768xf32> {sdy.sharding = #sdy.sharding<@mesh, [{}, {}]>}, %arg64: tensor<3072xf32> {sdy.sharding = #sdy.sharding<@mesh, [{}]>}, %arg65: tensor<768x3072xf32> {sdy.sharding = #sdy.sharding<@mesh, [{}, {}]>}, %arg66: tensor<768xf32> {sdy.sharding = #sdy.sharding<@mesh, [{}]>}, %arg67: tensor<768xf32> {sdy.sharding = #sdy.sharding<@mesh, [{}]>}, %arg68: tensor<768xf32> {sdy.sharding = #sdy.sharding<@mesh, [{}]>}, %arg69: tensor<768x768xf32> {sdy.sharding = #sdy.sharding<@mesh, [{}, {}]>}, %arg70: tensor<768xf32> {sdy.sharding = #sdy.sharding<@mesh, [{}]>}, %arg71: tensor<768x768xf32> {sdy.sharding = #sdy.sharding<@mesh, [{}, {}]>}, %arg72: tensor<768xf32> {sdy.sharding = #sdy.sharding<@mesh, [{}]>}, %arg73: tensor<768x768xf32> {sdy.sharding = #sdy.sharding<@mesh, [{}, {}]>}, %arg74: tensor<768xf32> {sdy.sharding = #sdy.sharding<@mesh, [{}]>}, %arg75: tensor<768x768xf32> {sdy.sharding = #sdy.sharding<@mesh, [{}, {}]>}, %arg76: tensor<768xf32> {sdy.sharding = #sdy.sharding<@mesh, [{}]>}, %arg77: tensor<768xf32> {sdy.sharding = #sdy.sharding<@mesh, [{}]>}, %arg78: tensor<768xf32> {sdy.sharding = #sdy.sharding<@mesh, [{}]>}, %arg79: tensor<3072x768xf32> {sdy.sharding = #sdy.sharding<@mesh, [{}, {}]>}, %arg80: tensor<3072xf32> {sdy.sharding = #sdy.sharding<@mesh, [{}]>}, %arg81: tensor<768x3072xf32> {sdy.sharding = #sdy.sharding<@mesh, [{}, {}]>}, %arg82: tensor<768xf32> {sdy.sharding = #sdy.sharding<@mesh, [{}]>}, %arg83: tensor<768xf32> {sdy.sharding = #sdy.sharding<@mesh, [{}]>}, %arg84: tensor<768xf32> {sdy.sharding = #sdy.sharding<@mesh, [{}]>}, %arg85: tensor<768x768xf32> {sdy.sharding = #sdy.sharding<@mesh, [{}, {}]>}, %arg86: tensor<768xf32> {sdy.sharding = #sdy.sharding<@mesh, [{}]>}, %arg87: tensor<768x768xf32> {sdy.sharding = #sdy.sharding<@mesh, [{}, {}]>}, %arg88: tensor<768xf32> {sdy.sharding = #sdy.sharding<@mesh, [{}]>}, %arg89: tensor<768x768xf32> {sdy.sharding = #sdy.sharding<@mesh, [{}, {}]>}, %arg90: tensor<768xf32> {sdy.sharding = #sdy.sharding<@mesh, [{}]>}, %arg91: tensor<768x768xf32> {sdy.sharding = #sdy.sharding<@mesh, [{}, {}]>}, %arg92: tensor<768xf32> {sdy.sharding = #sdy.sharding<@mesh, [{}]>}, %arg93: tensor<768xf32> {sdy.sharding = #sdy.sharding<@mesh, [{}]>}, %arg94: tensor<768xf32> {sdy.sharding = #sdy.sharding<@mesh, [{}]>}, %arg95: tensor<3072x768xf32> {sdy.sharding = #sdy.sharding<@mesh, [{}, {}]>}, %arg96: tensor<3072xf32> {sdy.sharding = #sdy.sharding<@mesh, [{}]>}, %arg97: tensor<768x3072xf32> {sdy.sharding = #sdy.sharding<@mesh, [{}, {}]>}, %arg98: tensor<768xf32> {sdy.sharding = #sdy.sharding<@mesh, [{}]>}, %arg99: tensor<768xf32> {sdy.sharding = #sdy.sharding<@mesh, [{}]>}, %arg100: tensor<768xf32> {sdy.sharding = #sdy.sharding<@mesh, [{}]>}, %arg101: tensor<768x768xf32> {sdy.sharding = #sdy.sharding<@mesh, [{}, {}]>}, %arg102: tensor<768xf32> {sdy.sharding = #sdy.sharding<@mesh, [{}]>}, %arg103: tensor<768x768xf32> {sdy.sharding = #sdy.sharding<@mesh, [{}, {}]>}, %arg104: tensor<768xf32> {sdy.sharding = #sdy.sharding<@mesh, [{}]>}, %arg105: tensor<768x768xf32> {sdy.sharding = #sdy.sharding<@mesh, [{}, {}]>}, %arg106: tensor<768xf32> {sdy.sharding = #sdy.sharding<@mesh, [{}]>}, %arg107: tensor<768x768xf32> {sdy.sharding = #sdy.sharding<@mesh, [{}, {}]>}, %arg108: tensor<768xf32> {sdy.sharding = #sdy.sharding<@mesh, [{}]>}, %arg109: tensor<768xf32> {sdy.sharding = #sdy.sharding<@mesh, [{}]>}, %arg110: tensor<768xf32> {sdy.sharding = #sdy.sharding<@mesh, [{}]>}, %arg111: tensor<3072x768xf32> {sdy.sharding = #sdy.sharding<@mesh, [{}, {}]>}, %arg112: tensor<3072xf32> {sdy.sharding = #sdy.sharding<@mesh, [{}]>}, %arg113: tensor<768x3072xf32> {sdy.sharding = #sdy.sharding<@mesh, [{}, {}]>}, %arg114: tensor<768xf32> {sdy.sharding = #sdy.sharding<@mesh, [{}]>}, %arg115: tensor<768xf32> {sdy.sharding = #sdy.sharding<@mesh, [{}]>}, %arg116: tensor<768xf32> {sdy.sharding = #sdy.sharding<@mesh, [{}]>}, %arg117: tensor<768x768xf32> {sdy.sharding = #sdy.sharding<@mesh, [{}, {}]>}, %arg118: tensor<768xf32> {sdy.sharding = #sdy.sharding<@mesh, [{}]>}, %arg119: tensor<768x768xf32> {sdy.sharding = #sdy.sharding<@mesh, [{}, {}]>}, %arg120: tensor<768xf32> {sdy.sharding = #sdy.sharding<@mesh, [{}]>}, %arg121: tensor<768x768xf32> {sdy.sharding = #sdy.sharding<@mesh, [{}, {}]>}, %arg122: tensor<768xf32> {sdy.sharding = #sdy.sharding<@mesh, [{}]>}, %arg123: tensor<768x768xf32> {sdy.sharding = #sdy.sharding<@mesh, [{}, {}]>}, %arg124: tensor<768xf32> {sdy.sharding = #sdy.sharding<@mesh, [{}]>}, %arg125: tensor<768xf32> {sdy.sharding = #sdy.sharding<@mesh, [{}]>}, %arg126: tensor<768xf32> {sdy.sharding = #sdy.sharding<@mesh, [{}]>}, %arg127: tensor<3072x768xf32> {sdy.sharding = #sdy.sharding<@mesh, [{}, {}]>}, %arg128: tensor<3072xf32> {sdy.sharding = #sdy.sharding<@mesh, [{}]>}, %arg129: tensor<768x3072xf32> {sdy.sharding = #sdy.sharding<@mesh, [{}, {}]>}, %arg130: tensor<768xf32> {sdy.sharding = #sdy.sharding<@mesh, [{}]>}, %arg131: tensor<768xf32> {sdy.sharding = #sdy.sharding<@mesh, [{}]>}, %arg132: tensor<768xf32> {sdy.sharding = #sdy.sharding<@mesh, [{}]>}, %arg133: tensor<768x768xf32> {sdy.sharding = #sdy.sharding<@mesh, [{}, {}]>}, %arg134: tensor<768xf32> {sdy.sharding = #sdy.sharding<@mesh, [{}]>}, %arg135: tensor<768x768xf32> {sdy.sharding = #sdy.sharding<@mesh, [{}, {}]>}, %arg136: tensor<768xf32> {sdy.sharding = #sdy.sharding<@mesh, [{}]>}, %arg137: tensor<768x768xf32> {sdy.sharding = #sdy.sharding<@mesh, [{}, {}]>}, %arg138: tensor<768xf32> {sdy.sharding = #sdy.sharding<@mesh, [{}]>}, %arg139: tensor<768x768xf32> {sdy.sharding = #sdy.sharding<@mesh, [{}, {}]>}, %arg140: tensor<768xf32> {sdy.sharding = #sdy.sharding<@mesh, [{}]>}, %arg141: tensor<768xf32> {sdy.sharding = #sdy.sharding<@mesh, [{}]>}, %arg142: tensor<768xf32> {sdy.sharding = #sdy.sharding<@mesh, [{}]>}, %arg143: tensor<3072x768xf32> {sdy.sharding = #sdy.sharding<@mesh, [{}, {}]>}, %arg144: tensor<3072xf32> {sdy.sharding = #sdy.sharding<@mesh, [{}]>}, %arg145: tensor<768x3072xf32> {sdy.sharding = #sdy.sharding<@mesh, [{}, {}]>}, %arg146: tensor<768xf32> {sdy.sharding = #sdy.sharding<@mesh, [{}]>}, %arg147: tensor<768xf32> {sdy.sharding = #sdy.sharding<@mesh, [{}]>}, %arg148: tensor<768xf32> {sdy.sharding = #sdy.sharding<@mesh, [{}]>}, %arg149: tensor<768x768xf32> {sdy.sharding = #sdy.sharding<@mesh, [{}, {}]>}, %arg150: tensor<768xf32> {sdy.sharding = #sdy.sharding<@mesh, [{}]>}, %arg151: tensor<768x768xf32> {sdy.sharding = #sdy.sharding<@mesh, [{}, {}]>}, %arg152: tensor<768xf32> {sdy.sharding = #sdy.sharding<@mesh, [{}]>}, %arg153: tensor<768x768xf32> {sdy.sharding = #sdy.sharding<@mesh, [{}, {}]>}, %arg154: tensor<768xf32> {sdy.sharding = #sdy.sharding<@mesh, [{}]>}, %arg155: tensor<768x768xf32> {sdy.sharding = #sdy.sharding<@mesh, [{}, {}]>}, %arg156: tensor<768xf32> {sdy.sharding = #sdy.sharding<@mesh, [{}]>}, %arg157: tensor<768xf32> {sdy.sharding = #sdy.sharding<@mesh, [{}]>}, %arg158: tensor<768xf32> {sdy.sharding = #sdy.sharding<@mesh, [{}]>}, %arg159: tensor<3072x768xf32> {sdy.sharding = #sdy.sharding<@mesh, [{}, {}]>}, %arg160: tensor<3072xf32> {sdy.sharding = #sdy.sharding<@mesh, [{}]>}, %arg161: tensor<768x3072xf32> {sdy.sharding = #sdy.sharding<@mesh, [{}, {}]>}, %arg162: tensor<768xf32> {sdy.sharding = #sdy.sharding<@mesh, [{}]>}, %arg163: tensor<768xf32> {sdy.sharding = #sdy.sharding<@mesh, [{}]>}, %arg164: tensor<768xf32> {sdy.sharding = #sdy.sharding<@mesh, [{}]>}, %arg165: tensor<768x768xf32> {sdy.sharding = #sdy.sharding<@mesh, [{}, {}]>}, %arg166: tensor<768xf32> {sdy.sharding = #sdy.sharding<@mesh, [{}]>}, %arg167: tensor<768x768xf32> {sdy.sharding = #sdy.sharding<@mesh, [{}, {}]>}, %arg168: tensor<768xf32> {sdy.sharding = #sdy.sharding<@mesh, [{}]>}, %arg169: tensor<768x768xf32> {sdy.sharding = #sdy.sharding<@mesh, [{}, {}]>}, %arg170: tensor<768xf32> {sdy.sharding = #sdy.sharding<@mesh, [{}]>}, %arg171: tensor<768x768xf32> {sdy.sharding = #sdy.sharding<@mesh, [{}, {}]>}, %arg172: tensor<768xf32> {sdy.sharding = #sdy.sharding<@mesh, [{}]>}, %arg173: tensor<768xf32> {sdy.sharding = #sdy.sharding<@mesh, [{}]>}, %arg174: tensor<768xf32> {sdy.sharding = #sdy.sharding<@mesh, [{}]>}, %arg175: tensor<3072x768xf32> {sdy.sharding = #sdy.sharding<@mesh, [{}, {}]>}, %arg176: tensor<3072xf32> {sdy.sharding = #sdy.sharding<@mesh, [{}]>}, %arg177: tensor<768x3072xf32> {sdy.sharding = #sdy.sharding<@mesh, [{}, {}]>}, %arg178: tensor<768xf32> {sdy.sharding = #sdy.sharding<@mesh, [{}]>}, %arg179: tensor<768xf32> {sdy.sharding = #sdy.sharding<@mesh, [{}]>}, %arg180: tensor<768xf32> {sdy.sharding = #sdy.sharding<@mesh, [{}]>}, %arg181: tensor<768x768xf32> {sdy.sharding = #sdy.sharding<@mesh, [{}, {}]>}, %arg182: tensor<768xf32> {sdy.sharding = #sdy.sharding<@mesh, [{}]>}, %arg183: tensor<768x768xf32> {sdy.sharding = #sdy.sharding<@mesh, [{}, {}]>}, %arg184: tensor<768xf32> {sdy.sharding = #sdy.sharding<@mesh, [{}]>}, %arg185: tensor<768x768xf32> {sdy.sharding = #sdy.sharding<@mesh, [{}, {}]>}, %arg186: tensor<768xf32> {sdy.sharding = #sdy.sharding<@mesh, [{}]>}, %arg187: tensor<768x768xf32> {sdy.sharding = #sdy.sharding<@mesh, [{}, {}]>}, %arg188: tensor<768xf32> {sdy.sharding = #sdy.sharding<@mesh, [{}]>}, %arg189: tensor<768xf32> {sdy.sharding = #sdy.sharding<@mesh, [{}]>}, %arg190: tensor<768xf32> {sdy.sharding = #sdy.sharding<@mesh, [{}]>}, %arg191: tensor<3072x768xf32> {sdy.sharding = #sdy.sharding<@mesh, [{}, {}]>}, %arg192: tensor<3072xf32> {sdy.sharding = #sdy.sharding<@mesh, [{}]>}, %arg193: tensor<768x3072xf32> {sdy.sharding = #sdy.sharding<@mesh, [{}, {}]>}, %arg194: tensor<768xf32> {sdy.sharding = #sdy.sharding<@mesh, [{}]>}, %arg195: tensor<768xf32> {sdy.sharding = #sdy.sharding<@mesh, [{}]>}, %arg196: tensor<768xf32> {sdy.sharding = #sdy.sharding<@mesh, [{}]>}, %arg197: tensor<768x768xf32> {sdy.sharding = #sdy.sharding<@mesh, [{}, {}]>}, %arg198: tensor<768xf32> {sdy.sharding = #sdy.sharding<@mesh, [{}]>}, %arg199: tensor<768xf32> {sdy.sharding = #sdy.sharding<@mesh, [{}]>}, %arg200: tensor<768xf32> {sdy.sharding = #sdy.sharding<@mesh, [{}]>}, %arg201: tensor<30522xf32> {sdy.sharding = #sdy.sharding<@mesh, [{}]>}, %arg202: tensor<i32>, %arg203: tensor<30522x768xf32> {sdy.sharding = #sdy.sharding<@mesh, [{}, {}]>}, %arg204: tensor<512x768xf32> {sdy.sharding = #sdy.sharding<@mesh, [{}, {}]>}, %arg205: tensor<2x768xf32> {sdy.sharding = #sdy.sharding<@mesh, [{}, {}]>}, %arg206: tensor<768xf32> {sdy.sharding = #sdy.sharding<@mesh, [{}]>}, %arg207: tensor<768xf32> {sdy.sharding = #sdy.sharding<@mesh, [{}]>}, %arg208: tensor<768x768xf32> {sdy.sharding = #sdy.sharding<@mesh, [{}, {}]>}, %arg209: tensor<768xf32> {sdy.sharding = #sdy.sharding<@mesh, [{}]>}, %arg210: tensor<768x768xf32> {sdy.sharding = #sdy.sharding<@mesh, [{}, {}]>}, %arg211: tensor<768xf32> {sdy.sharding = #sdy.sharding<@mesh, [{}]>}, %arg212: tensor<768x768xf32> {sdy.sharding = #sdy.sharding<@mesh, [{}, {}]>}, %arg213: tensor<768xf32> {sdy.sharding = #sdy.sharding<@mesh, [{}]>}, %arg214: tensor<768x768xf32> {sdy.sharding = #sdy.sharding<@mesh, [{}, {}]>}, %arg215: tensor<768xf32> {sdy.sharding = #sdy.sharding<@mesh, [{}]>}, %arg216: tensor<768xf32> {sdy.sharding = #sdy.sharding<@mesh, [{}]>}, %arg217: tensor<768xf32> {sdy.sharding = #sdy.sharding<@mesh, [{}]>}, %arg218: tensor<3072x768xf32> {sdy.sharding = #sdy.sharding<@mesh, [{}, {}]>}, %arg219: tensor<3072xf32> {sdy.sharding = #sdy.sharding<@mesh, [{}]>}, %arg220: tensor<768x3072xf32> {sdy.sharding = #sdy.sharding<@mesh, [{}, {}]>}, %arg221: tensor<768xf32> {sdy.sharding = #sdy.sharding<@mesh, [{}]>}, %arg222: tensor<768xf32> {sdy.sharding = #sdy.sharding<@mesh, [{}]>}, %arg223: tensor<768xf32> {sdy.sharding = #sdy.sharding<@mesh, [{}]>}, %arg224: tensor<768x768xf32> {sdy.sharding = #sdy.sharding<@mesh, [{}, {}]>}, %arg225: tensor<768xf32> {sdy.sharding = #sdy.sharding<@mesh, [{}]>}, %arg226: tensor<768x768xf32> {sdy.sharding = #sdy.sharding<@mesh, [{}, {}]>}, %arg227: tensor<768xf32> {sdy.sharding = #sdy.sharding<@mesh, [{}]>}, %arg228: tensor<768x768xf32> {sdy.sharding = #sdy.sharding<@mesh, [{}, {}]>}, %arg229: tensor<768xf32> {sdy.sharding = #sdy.sharding<@mesh, [{}]>}, %arg230: tensor<768x768xf32> {sdy.sharding = #sdy.sharding<@mesh, [{}, {}]>}, %arg231: tensor<768xf32> {sdy.sharding = #sdy.sharding<@mesh, [{}]>}, %arg232: tensor<768xf32> {sdy.sharding = #sdy.sharding<@mesh, [{}]>}, %arg233: tensor<768xf32> {sdy.sharding = #sdy.sharding<@mesh, [{}]>}, %arg234: tensor<3072x768xf32> {sdy.sharding = #sdy.sharding<@mesh, [{}, {}]>}, %arg235: tensor<3072xf32> {sdy.sharding = #sdy.sharding<@mesh, [{}]>}, %arg236: tensor<768x3072xf32> {sdy.sharding = #sdy.sharding<@mesh, [{}, {}]>}, %arg237: tensor<768xf32> {sdy.sharding = #sdy.sharding<@mesh, [{}]>}, %arg238: tensor<768xf32> {sdy.sharding = #sdy.sharding<@mesh, [{}]>}, %arg239: tensor<768xf32> {sdy.sharding = #sdy.sharding<@mesh, [{}]>}, %arg240: tensor<768x768xf32> {sdy.sharding = #sdy.sharding<@mesh, [{}, {}]>}, %arg241: tensor<768xf32> {sdy.sharding = #sdy.sharding<@mesh, [{}]>}, %arg242: tensor<768x768xf32> {sdy.sharding = #sdy.sharding<@mesh, [{}, {}]>}, %arg243: tensor<768xf32> {sdy.sharding = #sdy.sharding<@mesh, [{}]>}, %arg244: tensor<768x768xf32> {sdy.sharding = #sdy.sharding<@mesh, [{}, {}]>}, %arg245: tensor<768xf32> {sdy.sharding = #sdy.sharding<@mesh, [{}]>}, %arg246: tensor<768x768xf32> {sdy.sharding = #sdy.sharding<@mesh, [{}, {}]>}, %arg247: tensor<768xf32> {sdy.sharding = #sdy.sharding<@mesh, [{}]>}, %arg248: tensor<768xf32> {sdy.sharding = #sdy.sharding<@mesh, [{}]>}, %arg249: tensor<768xf32> {sdy.sharding = #sdy.sharding<@mesh, [{}]>}, %arg250: tensor<3072x768xf32> {sdy.sharding = #sdy.sharding<@mesh, [{}, {}]>}, %arg251: tensor<3072xf32> {sdy.sharding = #sdy.sharding<@mesh, [{}]>}, %arg252: tensor<768x3072xf32> {sdy.sharding = #sdy.sharding<@mesh, [{}, {}]>}, %arg253: tensor<768xf32> {sdy.sharding = #sdy.sharding<@mesh, [{}]>}, %arg254: tensor<768xf32> {sdy.sharding = #sdy.sharding<@mesh, [{}]>}, %arg255: tensor<768xf32> {sdy.sharding = #sdy.sharding<@mesh, [{}]>}, %arg256: tensor<768x768xf32> {sdy.sharding = #sdy.sharding<@mesh, [{}, {}]>}, %arg257: tensor<768xf32> {sdy.sharding = #sdy.sharding<@mesh, [{}]>}, %arg258: tensor<768x768xf32> {sdy.sharding = #sdy.sharding<@mesh, [{}, {}]>}, %arg259: tensor<768xf32> {sdy.sharding = #sdy.sharding<@mesh, [{}]>}, %arg260: tensor<768x768xf32> {sdy.sharding = #sdy.sharding<@mesh, [{}, {}]>}, %arg261: tensor<768xf32> {sdy.sharding = #sdy.sharding<@mesh, [{}]>}, %arg262: tensor<768x768xf32> {sdy.sharding = #sdy.sharding<@mesh, [{}, {}]>}, %arg263: tensor<768xf32> {sdy.sharding = #sdy.sharding<@mesh, [{}]>}, %arg264: tensor<768xf32> {sdy.sharding = #sdy.sharding<@mesh, [{}]>}, %arg265: tensor<768xf32> {sdy.sharding = #sdy.sharding<@mesh, [{}]>}, %arg266: tensor<3072x768xf32> {sdy.sharding = #sdy.sharding<@mesh, [{}, {}]>}, %arg267: tensor<3072xf32> {sdy.sharding = #sdy.sharding<@mesh, [{}]>}, %arg268: tensor<768x3072xf32> {sdy.sharding = #sdy.sharding<@mesh, [{}, {}]>}, %arg269: tensor<768xf32> {sdy.sharding = #sdy.sharding<@mesh, [{}]>}, %arg270: tensor<768xf32> {sdy.sharding = #sdy.sharding<@mesh, [{}]>}, %arg271: tensor<768xf32> {sdy.sharding = #sdy.sharding<@mesh, [{}]>}, %arg272: tensor<768x768xf32> {sdy.sharding = #sdy.sharding<@mesh, [{}, {}]>}, %arg273: tensor<768xf32> {sdy.sharding = #sdy.sharding<@mesh, [{}]>}, %arg274: tensor<768x768xf32> {sdy.sharding = #sdy.sharding<@mesh, [{}, {}]>}, %arg275: tensor<768xf32> {sdy.sharding = #sdy.sharding<@mesh, [{}]>}, %arg276: tensor<768x768xf32> {sdy.sharding = #sdy.sharding<@mesh, [{}, {}]>}, %arg277: tensor<768xf32> {sdy.sharding = #sdy.sharding<@mesh, [{}]>}, %arg278: tensor<768x768xf32> {sdy.sharding = #sdy.sharding<@mesh, [{}, {}]>}, %arg279: tensor<768xf32> {sdy.sharding = #sdy.sharding<@mesh, [{}]>}, %arg280: tensor<768xf32> {sdy.sharding = #sdy.sharding<@mesh, [{}]>}, %arg281: tensor<768xf32> {sdy.sharding = #sdy.sharding<@mesh, [{}]>}, %arg282: tensor<3072x768xf32> {sdy.sharding = #sdy.sharding<@mesh, [{}, {}]>}, %arg283: tensor<3072xf32> {sdy.sharding = #sdy.sharding<@mesh, [{}]>}, %arg284: tensor<768x3072xf32> {sdy.sharding = #sdy.sharding<@mesh, [{}, {}]>}, %arg285: tensor<768xf32> {sdy.sharding = #sdy.sharding<@mesh, [{}]>}, %arg286: tensor<768xf32> {sdy.sharding = #sdy.sharding<@mesh, [{}]>}, %arg287: tensor<768xf32> {sdy.sharding = #sdy.sharding<@mesh, [{}]>}, %arg288: tensor<768x768xf32> {sdy.sharding = #sdy.sharding<@mesh, [{}, {}]>}, %arg289: tensor<768xf32> {sdy.sharding = #sdy.sharding<@mesh, [{}]>}, %arg290: tensor<768x768xf32> {sdy.sharding = #sdy.sharding<@mesh, [{}, {}]>}, %arg291: tensor<768xf32> {sdy.sharding = #sdy.sharding<@mesh, [{}]>}, %arg292: tensor<768x768xf32> {sdy.sharding = #sdy.sharding<@mesh, [{}, {}]>}, %arg293: tensor<768xf32> {sdy.sharding = #sdy.sharding<@mesh, [{}]>}, %arg294: tensor<768x768xf32> {sdy.sharding = #sdy.sharding<@mesh, [{}, {}]>}, %arg295: tensor<768xf32> {sdy.sharding = #sdy.sharding<@mesh, [{}]>}, %arg296: tensor<768xf32> {sdy.sharding = #sdy.sharding<@mesh, [{}]>}, %arg297: tensor<768xf32> {sdy.sharding = #sdy.sharding<@mesh, [{}]>}, %arg298: tensor<3072x768xf32> {sdy.sharding = #sdy.sharding<@mesh, [{}, {}]>}, %arg299: tensor<3072xf32> {sdy.sharding = #sdy.sharding<@mesh, [{}]>}, %arg300: tensor<768x3072xf32> {sdy.sharding = #sdy.sharding<@mesh, [{}, {}]>}, %arg301: tensor<768xf32> {sdy.sharding = #sdy.sharding<@mesh, [{}]>}, %arg302: tensor<768xf32> {sdy.sharding = #sdy.sharding<@mesh, [{}]>}, %arg303: tensor<768xf32> {sdy.sharding = #sdy.sharding<@mesh, [{}]>}, %arg304: tensor<768x768xf32> {sdy.sharding = #sdy.sharding<@mesh, [{}, {}]>}, %arg305: tensor<768xf32> {sdy.sharding = #sdy.sharding<@mesh, [{}]>}, %arg306: tensor<768x768xf32> {sdy.sharding = #sdy.sharding<@mesh, [{}, {}]>}, %arg307: tensor<768xf32> {sdy.sharding = #sdy.sharding<@mesh, [{}]>}, %arg308: tensor<768x768xf32> {sdy.sharding = #sdy.sharding<@mesh, [{}, {}]>}, %arg309: tensor<768xf32> {sdy.sharding = #sdy.sharding<@mesh, [{}]>}, %arg310: tensor<768x768xf32> {sdy.sharding = #sdy.sharding<@mesh, [{}, {}]>}, %arg311: tensor<768xf32> {sdy.sharding = #sdy.sharding<@mesh, [{}]>}, %arg312: tensor<768xf32> {sdy.sharding = #sdy.sharding<@mesh, [{}]>}, %arg313: tensor<768xf32> {sdy.sharding = #sdy.sharding<@mesh, [{}]>}, %arg314: tensor<3072x768xf32> {sdy.sharding = #sdy.sharding<@mesh, [{}, {}]>}, %arg315: tensor<3072xf32> {sdy.sharding = #sdy.sharding<@mesh, [{}]>}, %arg316: tensor<768x3072xf32> {sdy.sharding = #sdy.sharding<@mesh, [{}, {}]>}, %arg317: tensor<768xf32> {sdy.sharding = #sdy.sharding<@mesh, [{}]>}, %arg318: tensor<768xf32> {sdy.sharding = #sdy.sharding<@mesh, [{}]>}, %arg319: tensor<768xf32> {sdy.sharding = #sdy.sharding<@mesh, [{}]>}, %arg320: tensor<768x768xf32> {sdy.sharding = #sdy.sharding<@mesh, [{}, {}]>}, %arg321: tensor<768xf32> {sdy.sharding = #sdy.sharding<@mesh, [{}]>}, %arg322: tensor<768x768xf32> {sdy.sharding = #sdy.sharding<@mesh, [{}, {}]>}, %arg323: tensor<768xf32> {sdy.sharding = #sdy.sharding<@mesh, [{}]>}, %arg324: tensor<768x768xf32> {sdy.sharding = #sdy.sharding<@mesh, [{}, {}]>}, %arg325: tensor<768xf32> {sdy.sharding = #sdy.sharding<@mesh, [{}]>}, %arg326: tensor<768x768xf32> {sdy.sharding = #sdy.sharding<@mesh, [{}, {}]>}, %arg327: tensor<768xf32> {sdy.sharding = #sdy.sharding<@mesh, [{}]>}, %arg328: tensor<768xf32> {sdy.sharding = #sdy.sharding<@mesh, [{}]>}, %arg329: tensor<768xf32> {sdy.sharding = #sdy.sharding<@mesh, [{}]>}, %arg330: tensor<3072x768xf32> {sdy.sharding = #sdy.sharding<@mesh, [{}, {}]>}, %arg331: tensor<3072xf32> {sdy.sharding = #sdy.sharding<@mesh, [{}]>}, %arg332: tensor<768x3072xf32> {sdy.sharding = #sdy.sharding<@mesh, [{}, {}]>}, %arg333: tensor<768xf32> {sdy.sharding = #sdy.sharding<@mesh, [{}]>}, %arg334: tensor<768xf32> {sdy.sharding = #sdy.sharding<@mesh, [{}]>}, %arg335: tensor<768xf32> {sdy.sharding = #sdy.sharding<@mesh, [{}]>}, %arg336: tensor<768x768xf32> {sdy.sharding = #sdy.sharding<@mesh, [{}, {}]>}, %arg337: tensor<768xf32> {sdy.sharding = #sdy.sharding<@mesh, [{}]>}, %arg338: tensor<768x768xf32> {sdy.sharding = #sdy.sharding<@mesh, [{}, {}]>}, %arg339: tensor<768xf32> {sdy.sharding = #sdy.sharding<@mesh, [{}]>}, %arg340: tensor<768x768xf32> {sdy.sharding = #sdy.sharding<@mesh, [{}, {}]>}, %arg341: tensor<768xf32> {sdy.sharding = #sdy.sharding<@mesh, [{}]>}, %arg342: tensor<768x768xf32> {sdy.sharding = #sdy.sharding<@mesh, [{}, {}]>}, %arg343: tensor<768xf32> {sdy.sharding = #sdy.sharding<@mesh, [{}]>}, %arg344: tensor<768xf32> {sdy.sharding = #sdy.sharding<@mesh, [{}]>}, %arg345: tensor<768xf32> {sdy.sharding = #sdy.sharding<@mesh, [{}]>}, %arg346: tensor<3072x768xf32> {sdy.sharding = #sdy.sharding<@mesh, [{}, {}]>}, %arg347: tensor<3072xf32> {sdy.sharding = #sdy.sharding<@mesh, [{}]>}, %arg348: tensor<768x3072xf32> {sdy.sharding = #sdy.sharding<@mesh, [{}, {}]>}, %arg349: tensor<768xf32> {sdy.sharding = #sdy.sharding<@mesh, [{}]>}, %arg350: tensor<768xf32> {sdy.sharding = #sdy.sharding<@mesh, [{}]>}, %arg351: tensor<768xf32> {sdy.sharding = #sdy.sharding<@mesh, [{}]>}, %arg352: tensor<768x768xf32> {sdy.sharding = #sdy.sharding<@mesh, [{}, {}]>}, %arg353: tensor<768xf32> {sdy.sharding = #sdy.sharding<@mesh, [{}]>}, %arg354: tensor<768x768xf32> {sdy.sharding = #sdy.sharding<@mesh, [{}, {}]>}, %arg355: tensor<768xf32> {sdy.sharding = #sdy.sharding<@mesh, [{}]>}, %arg356: tensor<768x768xf32> {sdy.sharding = #sdy.sharding<@mesh, [{}, {}]>}, %arg357: tensor<768xf32> {sdy.sharding = #sdy.sharding<@mesh, [{}]>}, %arg358: tensor<768x768xf32> {sdy.sharding = #sdy.sharding<@mesh, [{}, {}]>}, %arg359: tensor<768xf32> {sdy.sharding = #sdy.sharding<@mesh, [{}]>}, %arg360: tensor<768xf32> {sdy.sharding = #sdy.sharding<@mesh, [{}]>}, %arg361: tensor<768xf32> {sdy.sharding = #sdy.sharding<@mesh, [{}]>}, %arg362: tensor<3072x768xf32> {sdy.sharding = #sdy.sharding<@mesh, [{}, {}]>}, %arg363: tensor<3072xf32> {sdy.sharding = #sdy.sharding<@mesh, [{}]>}, %arg364: tensor<768x3072xf32> {sdy.sharding = #sdy.sharding<@mesh, [{}, {}]>}, %arg365: tensor<768xf32> {sdy.sharding = #sdy.sharding<@mesh, [{}]>}, %arg366: tensor<768xf32> {sdy.sharding = #sdy.sharding<@mesh, [{}]>}, %arg367: tensor<768xf32> {sdy.sharding = #sdy.sharding<@mesh, [{}]>}, %arg368: tensor<768x768xf32> {sdy.sharding = #sdy.sharding<@mesh, [{}, {}]>}, %arg369: tensor<768xf32> {sdy.sharding = #sdy.sharding<@mesh, [{}]>}, %arg370: tensor<768x768xf32> {sdy.sharding = #sdy.sharding<@mesh, [{}, {}]>}, %arg371: tensor<768xf32> {sdy.sharding = #sdy.sharding<@mesh, [{}]>}, %arg372: tensor<768x768xf32> {sdy.sharding = #sdy.sharding<@mesh, [{}, {}]>}, %arg373: tensor<768xf32> {sdy.sharding = #sdy.sharding<@mesh, [{}]>}, %arg374: tensor<768x768xf32> {sdy.sharding = #sdy.sharding<@mesh, [{}, {}]>}, %arg375: tensor<768xf32> {sdy.sharding = #sdy.sharding<@mesh, [{}]>}, %arg376: tensor<768xf32> {sdy.sharding = #sdy.sharding<@mesh, [{}]>}, %arg377: tensor<768xf32> {sdy.sharding = #sdy.sharding<@mesh, [{}]>}, %arg378: tensor<3072x768xf32> {sdy.sharding = #sdy.sharding<@mesh, [{}, {}]>}, %arg379: tensor<3072xf32> {sdy.sharding = #sdy.sharding<@mesh, [{}]>}, %arg380: tensor<768x3072xf32> {sdy.sharding = #sdy.sharding<@mesh, [{}, {}]>}, %arg381: tensor<768xf32> {sdy.sharding = #sdy.sharding<@mesh, [{}]>}, %arg382: tensor<768xf32> {sdy.sharding = #sdy.sharding<@mesh, [{}]>}, %arg383: tensor<768xf32> {sdy.sharding = #sdy.sharding<@mesh, [{}]>}, %arg384: tensor<768x768xf32> {sdy.sharding = #sdy.sharding<@mesh, [{}, {}]>}, %arg385: tensor<768xf32> {sdy.sharding = #sdy.sharding<@mesh, [{}]>}, %arg386: tensor<768x768xf32> {sdy.sharding = #sdy.sharding<@mesh, [{}, {}]>}, %arg387: tensor<768xf32> {sdy.sharding = #sdy.sharding<@mesh, [{}]>}, %arg388: tensor<768x768xf32> {sdy.sharding = #sdy.sharding<@mesh, [{}, {}]>}, %arg389: tensor<768xf32> {sdy.sharding = #sdy.sharding<@mesh, [{}]>}, %arg390: tensor<768x768xf32> {sdy.sharding = #sdy.sharding<@mesh, [{}, {}]>}, %arg391: tensor<768xf32> {sdy.sharding = #sdy.sharding<@mesh, [{}]>}, %arg392: tensor<768xf32> {sdy.sharding = #sdy.sharding<@mesh, [{}]>}, %arg393: tensor<768xf32> {sdy.sharding = #sdy.sharding<@mesh, [{}]>}, %arg394: tensor<3072x768xf32> {sdy.sharding = #sdy.sharding<@mesh, [{}, {}]>}, %arg395: tensor<3072xf32> {sdy.sharding = #sdy.sharding<@mesh, [{}]>}, %arg396: tensor<768x3072xf32> {sdy.sharding = #sdy.sharding<@mesh, [{}, {}]>}, %arg397: tensor<768xf32> {sdy.sharding = #sdy.sharding<@mesh, [{}]>}, %arg398: tensor<768xf32> {sdy.sharding = #sdy.sharding<@mesh, [{}]>}, %arg399: tensor<768xf32> {sdy.sharding = #sdy.sharding<@mesh, [{}]>}, %arg400: tensor<768x768xf32> {sdy.sharding = #sdy.sharding<@mesh, [{}, {}]>}, %arg401: tensor<768xf32> {sdy.sharding = #sdy.sharding<@mesh, [{}]>}, %arg402: tensor<768xf32> {sdy.sharding = #sdy.sharding<@mesh, [{}]>}, %arg403: tensor<768xf32> {sdy.sharding = #sdy.sharding<@mesh, [{}]>}, %arg404: tensor<30522xf32> {sdy.sharding = #sdy.sharding<@mesh, [{}]>}, %arg405: tensor<30522x768xf32> {sdy.sharding = #sdy.sharding<@mesh, [{}, {}]>}, %arg406: tensor<512x768xf32> {sdy.sharding = #sdy.sharding<@mesh, [{}, {}]>}, %arg407: tensor<2x768xf32> {sdy.sharding = #sdy.sharding<@mesh, [{}, {}]>}, %arg408: tensor<768xf32> {sdy.sharding = #sdy.sharding<@mesh, [{}]>}, %arg409: tensor<768xf32> {sdy.sharding = #sdy.sharding<@mesh, [{}]>}, %arg410: tensor<768x768xf32> {sdy.sharding = #sdy.sharding<@mesh, [{}, {}]>}, %arg411: tensor<768xf32> {sdy.sharding = #sdy.sharding<@mesh, [{}]>}, %arg412: tensor<768x768xf32> {sdy.sharding = #sdy.sharding<@mesh, [{}, {}]>}, %arg413: tensor<768xf32> {sdy.sharding = #sdy.sharding<@mesh, [{}]>}, %arg414: tensor<768x768xf32> {sdy.sharding = #sdy.sharding<@mesh, [{}, {}]>}, %arg415: tensor<768xf32> {sdy.sharding = #sdy.sharding<@mesh, [{}]>}, %arg416: tensor<768x768xf32> {sdy.sharding = #sdy.sharding<@mesh, [{}, {}]>}, %arg417: tensor<768xf32> {sdy.sharding = #sdy.sharding<@mesh, [{}]>}, %arg418: tensor<768xf32> {sdy.sharding = #sdy.sharding<@mesh, [{}]>}, %arg419: tensor<768xf32> {sdy.sharding = #sdy.sharding<@mesh, [{}]>}, %arg420: tensor<3072x768xf32> {sdy.sharding = #sdy.sharding<@mesh, [{}, {}]>}, %arg421: tensor<3072xf32> {sdy.sharding = #sdy.sharding<@mesh, [{}]>}, %arg422: tensor<768x3072xf32> {sdy.sharding = #sdy.sharding<@mesh, [{}, {}]>}, %arg423: tensor<768xf32> {sdy.sharding = #sdy.sharding<@mesh, [{}]>}, %arg424: tensor<768xf32> {sdy.sharding = #sdy.sharding<@mesh, [{}]>}, %arg425: tensor<768xf32> {sdy.sharding = #sdy.sharding<@mesh, [{}]>}, %arg426: tensor<768x768xf32> {sdy.sharding = #sdy.sharding<@mesh, [{}, {}]>}, %arg427: tensor<768xf32> {sdy.sharding = #sdy.sharding<@mesh, [{}]>}, %arg428: tensor<768x768xf32> {sdy.sharding = #sdy.sharding<@mesh, [{}, {}]>}, %arg429: tensor<768xf32> {sdy.sharding = #sdy.sharding<@mesh, [{}]>}, %arg430: tensor<768x768xf32> {sdy.sharding = #sdy.sharding<@mesh, [{}, {}]>}, %arg431: tensor<768xf32> {sdy.sharding = #sdy.sharding<@mesh, [{}]>}, %arg432: tensor<768x768xf32> {sdy.sharding = #sdy.sharding<@mesh, [{}, {}]>}, %arg433: tensor<768xf32> {sdy.sharding = #sdy.sharding<@mesh, [{}]>}, %arg434: tensor<768xf32> {sdy.sharding = #sdy.sharding<@mesh, [{}]>}, %arg435: tensor<768xf32> {sdy.sharding = #sdy.sharding<@mesh, [{}]>}, %arg436: tensor<3072x768xf32> {sdy.sharding = #sdy.sharding<@mesh, [{}, {}]>}, %arg437: tensor<3072xf32> {sdy.sharding = #sdy.sharding<@mesh, [{}]>}, %arg438: tensor<768x3072xf32> {sdy.sharding = #sdy.sharding<@mesh, [{}, {}]>}, %arg439: tensor<768xf32> {sdy.sharding = #sdy.sharding<@mesh, [{}]>}, %arg440: tensor<768xf32> {sdy.sharding = #sdy.sharding<@mesh, [{}]>}, %arg441: tensor<768xf32> {sdy.sharding = #sdy.sharding<@mesh, [{}]>}, %arg442: tensor<768x768xf32> {sdy.sharding = #sdy.sharding<@mesh, [{}, {}]>}, %arg443: tensor<768xf32> {sdy.sharding = #sdy.sharding<@mesh, [{}]>}, %arg444: tensor<768x768xf32> {sdy.sharding = #sdy.sharding<@mesh, [{}, {}]>}, %arg445: tensor<768xf32> {sdy.sharding = #sdy.sharding<@mesh, [{}]>}, %arg446: tensor<768x768xf32> {sdy.sharding = #sdy.sharding<@mesh, [{}, {}]>}, %arg447: tensor<768xf32> {sdy.sharding = #sdy.sharding<@mesh, [{}]>}, %arg448: tensor<768x768xf32> {sdy.sharding = #sdy.sharding<@mesh, [{}, {}]>}, %arg449: tensor<768xf32> {sdy.sharding = #sdy.sharding<@mesh, [{}]>}, %arg450: tensor<768xf32> {sdy.sharding = #sdy.sharding<@mesh, [{}]>}, %arg451: tensor<768xf32> {sdy.sharding = #sdy.sharding<@mesh, [{}]>}, %arg452: tensor<3072x768xf32> {sdy.sharding = #sdy.sharding<@mesh, [{}, {}]>}, %arg453: tensor<3072xf32> {sdy.sharding = #sdy.sharding<@mesh, [{}]>}, %arg454: tensor<768x3072xf32> {sdy.sharding = #sdy.sharding<@mesh, [{}, {}]>}, %arg455: tensor<768xf32> {sdy.sharding = #sdy.sharding<@mesh, [{}]>}, %arg456: tensor<768xf32> {sdy.sharding = #sdy.sharding<@mesh, [{}]>}, %arg457: tensor<768xf32> {sdy.sharding = #sdy.sharding<@mesh, [{}]>}, %arg458: tensor<768x768xf32> {sdy.sharding = #sdy.sharding<@mesh, [{}, {}]>}, %arg459: tensor<768xf32> {sdy.sharding = #sdy.sharding<@mesh, [{}]>}, %arg460: tensor<768x768xf32> {sdy.sharding = #sdy.sharding<@mesh, [{}, {}]>}, %arg461: tensor<768xf32> {sdy.sharding = #sdy.sharding<@mesh, [{}]>}, %arg462: tensor<768x768xf32> {sdy.sharding = #sdy.sharding<@mesh, [{}, {}]>}, %arg463: tensor<768xf32> {sdy.sharding = #sdy.sharding<@mesh, [{}]>}, %arg464: tensor<768x768xf32> {sdy.sharding = #sdy.sharding<@mesh, [{}, {}]>}, %arg465: tensor<768xf32> {sdy.sharding = #sdy.sharding<@mesh, [{}]>}, %arg466: tensor<768xf32> {sdy.sharding = #sdy.sharding<@mesh, [{}]>}, %arg467: tensor<768xf32> {sdy.sharding = #sdy.sharding<@mesh, [{}]>}, %arg468: tensor<3072x768xf32> {sdy.sharding = #sdy.sharding<@mesh, [{}, {}]>}, %arg469: tensor<3072xf32> {sdy.sharding = #sdy.sharding<@mesh, [{}]>}, %arg470: tensor<768x3072xf32> {sdy.sharding = #sdy.sharding<@mesh, [{}, {}]>}, %arg471: tensor<768xf32> {sdy.sharding = #sdy.sharding<@mesh, [{}]>}, %arg472: tensor<768xf32> {sdy.sharding = #sdy.sharding<@mesh, [{}]>}, %arg473: tensor<768xf32> {sdy.sharding = #sdy.sharding<@mesh, [{}]>}, %arg474: tensor<768x768xf32> {sdy.sharding = #sdy.sharding<@mesh, [{}, {}]>}, %arg475: tensor<768xf32> {sdy.sharding = #sdy.sharding<@mesh, [{}]>}, %arg476: tensor<768x768xf32> {sdy.sharding = #sdy.sharding<@mesh, [{}, {}]>}, %arg477: tensor<768xf32> {sdy.sharding = #sdy.sharding<@mesh, [{}]>}, %arg478: tensor<768x768xf32> {sdy.sharding = #sdy.sharding<@mesh, [{}, {}]>}, %arg479: tensor<768xf32> {sdy.sharding = #sdy.sharding<@mesh, [{}]>}, %arg480: tensor<768x768xf32> {sdy.sharding = #sdy.sharding<@mesh, [{}, {}]>}, %arg481: tensor<768xf32> {sdy.sharding = #sdy.sharding<@mesh, [{}]>}, %arg482: tensor<768xf32> {sdy.sharding = #sdy.sharding<@mesh, [{}]>}, %arg483: tensor<768xf32> {sdy.sharding = #sdy.sharding<@mesh, [{}]>}, %arg484: tensor<3072x768xf32> {sdy.sharding = #sdy.sharding<@mesh, [{}, {}]>}, %arg485: tensor<3072xf32> {sdy.sharding = #sdy.sharding<@mesh, [{}]>}, %arg486: tensor<768x3072xf32> {sdy.sharding = #sdy.sharding<@mesh, [{}, {}]>}, %arg487: tensor<768xf32> {sdy.sharding = #sdy.sharding<@mesh, [{}]>}, %arg488: tensor<768xf32> {sdy.sharding = #sdy.sharding<@mesh, [{}]>}, %arg489: tensor<768xf32> {sdy.sharding = #sdy.sharding<@mesh, [{}]>}, %arg490: tensor<768x768xf32> {sdy.sharding = #sdy.sharding<@mesh, [{}, {}]>}, %arg491: tensor<768xf32> {sdy.sharding = #sdy.sharding<@mesh, [{}]>}, %arg492: tensor<768x768xf32> {sdy.sharding = #sdy.sharding<@mesh, [{}, {}]>}, %arg493: tensor<768xf32> {sdy.sharding = #sdy.sharding<@mesh, [{}]>}, %arg494: tensor<768x768xf32> {sdy.sharding = #sdy.sharding<@mesh, [{}, {}]>}, %arg495: tensor<768xf32> {sdy.sharding = #sdy.sharding<@mesh, [{}]>}, %arg496: tensor<768x768xf32> {sdy.sharding = #sdy.sharding<@mesh, [{}, {}]>}, %arg497: tensor<768xf32> {sdy.sharding = #sdy.sharding<@mesh, [{}]>}, %arg498: tensor<768xf32> {sdy.sharding = #sdy.sharding<@mesh, [{}]>}, %arg499: tensor<768xf32> {sdy.sharding = #sdy.sharding<@mesh, [{}]>}, %arg500: tensor<3072x768xf32> {sdy.sharding = #sdy.sharding<@mesh, [{}, {}]>}, %arg501: tensor<3072xf32> {sdy.sharding = #sdy.sharding<@mesh, [{}]>}, %arg502: tensor<768x3072xf32> {sdy.sharding = #sdy.sharding<@mesh, [{}, {}]>}, %arg503: tensor<768xf32> {sdy.sharding = #sdy.sharding<@mesh, [{}]>}, %arg504: tensor<768xf32> {sdy.sharding = #sdy.sharding<@mesh, [{}]>}, %arg505: tensor<768xf32> {sdy.sharding = #sdy.sharding<@mesh, [{}]>}, %arg506: tensor<768x768xf32> {sdy.sharding = #sdy.sharding<@mesh, [{}, {}]>}, %arg507: tensor<768xf32> {sdy.sharding = #sdy.sharding<@mesh, [{}]>}, %arg508: tensor<768x768xf32> {sdy.sharding = #sdy.sharding<@mesh, [{}, {}]>}, %arg509: tensor<768xf32> {sdy.sharding = #sdy.sharding<@mesh, [{}]>}, %arg510: tensor<768x768xf32> {sdy.sharding = #sdy.sharding<@mesh, [{}, {}]>}, %arg511: tensor<768xf32> {sdy.sharding = #sdy.sharding<@mesh, [{}]>}, %arg512: tensor<768x768xf32> {sdy.sharding = #sdy.sharding<@mesh, [{}, {}]>}, %arg513: tensor<768xf32> {sdy.sharding = #sdy.sharding<@mesh, [{}]>}, %arg514: tensor<768xf32> {sdy.sharding = #sdy.sharding<@mesh, [{}]>}, %arg515: tensor<768xf32> {sdy.sharding = #sdy.sharding<@mesh, [{}]>}, %arg516: tensor<3072x768xf32> {sdy.sharding = #sdy.sharding<@mesh, [{}, {}]>}, %arg517: tensor<3072xf32> {sdy.sharding = #sdy.sharding<@mesh, [{}]>}, %arg518: tensor<768x3072xf32> {sdy.sharding = #sdy.sharding<@mesh, [{}, {}]>}, %arg519: tensor<768xf32> {sdy.sharding = #sdy.sharding<@mesh, [{}]>}, %arg520: tensor<768xf32> {sdy.sharding = #sdy.sharding<@mesh, [{}]>}, %arg521: tensor<768xf32> {sdy.sharding = #sdy.sharding<@mesh, [{}]>}, %arg522: tensor<768x768xf32> {sdy.sharding = #sdy.sharding<@mesh, [{}, {}]>}, %arg523: tensor<768xf32> {sdy.sharding = #sdy.sharding<@mesh, [{}]>}, %arg524: tensor<768x768xf32> {sdy.sharding = #sdy.sharding<@mesh, [{}, {}]>}, %arg525: tensor<768xf32> {sdy.sharding = #sdy.sharding<@mesh, [{}]>}, %arg526: tensor<768x768xf32> {sdy.sharding = #sdy.sharding<@mesh, [{}, {}]>}, %arg527: tensor<768xf32> {sdy.sharding = #sdy.sharding<@mesh, [{}]>}, %arg528: tensor<768x768xf32> {sdy.sharding = #sdy.sharding<@mesh, [{}, {}]>}, %arg529: tensor<768xf32> {sdy.sharding = #sdy.sharding<@mesh, [{}]>}, %arg530: tensor<768xf32> {sdy.sharding = #sdy.sharding<@mesh, [{}]>}, %arg531: tensor<768xf32> {sdy.sharding = #sdy.sharding<@mesh, [{}]>}, %arg532: tensor<3072x768xf32> {sdy.sharding = #sdy.sharding<@mesh, [{}, {}]>}, %arg533: tensor<3072xf32> {sdy.sharding = #sdy.sharding<@mesh, [{}]>}, %arg534: tensor<768x3072xf32> {sdy.sharding = #sdy.sharding<@mesh, [{}, {}]>}, %arg535: tensor<768xf32> {sdy.sharding = #sdy.sharding<@mesh, [{}]>}, %arg536: tensor<768xf32> {sdy.sharding = #sdy.sharding<@mesh, [{}]>}, %arg537: tensor<768xf32> {sdy.sharding = #sdy.sharding<@mesh, [{}]>}, %arg538: tensor<768x768xf32> {sdy.sharding = #sdy.sharding<@mesh, [{}, {}]>}, %arg539: tensor<768xf32> {sdy.sharding = #sdy.sharding<@mesh, [{}]>}, %arg540: tensor<768x768xf32> {sdy.sharding = #sdy.sharding<@mesh, [{}, {}]>}, %arg541: tensor<768xf32> {sdy.sharding = #sdy.sharding<@mesh, [{}]>}, %arg542: tensor<768x768xf32> {sdy.sharding = #sdy.sharding<@mesh, [{}, {}]>}, %arg543: tensor<768xf32> {sdy.sharding = #sdy.sharding<@mesh, [{}]>}, %arg544: tensor<768x768xf32> {sdy.sharding = #sdy.sharding<@mesh, [{}, {}]>}, %arg545: tensor<768xf32> {sdy.sharding = #sdy.sharding<@mesh, [{}]>}, %arg546: tensor<768xf32> {sdy.sharding = #sdy.sharding<@mesh, [{}]>}, %arg547: tensor<768xf32> {sdy.sharding = #sdy.sharding<@mesh, [{}]>}, %arg548: tensor<3072x768xf32> {sdy.sharding = #sdy.sharding<@mesh, [{}, {}]>}, %arg549: tensor<3072xf32> {sdy.sharding = #sdy.sharding<@mesh, [{}]>}, %arg550: tensor<768x3072xf32> {sdy.sharding = #sdy.sharding<@mesh, [{}, {}]>}, %arg551: tensor<768xf32> {sdy.sharding = #sdy.sharding<@mesh, [{}]>}, %arg552: tensor<768xf32> {sdy.sharding = #sdy.sharding<@mesh, [{}]>}, %arg553: tensor<768xf32> {sdy.sharding = #sdy.sharding<@mesh, [{}]>}, %arg554: tensor<768x768xf32> {sdy.sharding = #sdy.sharding<@mesh, [{}, {}]>}, %arg555: tensor<768xf32> {sdy.sharding = #sdy.sharding<@mesh, [{}]>}, %arg556: tensor<768x768xf32> {sdy.sharding = #sdy.sharding<@mesh, [{}, {}]>}, %arg557: tensor<768xf32> {sdy.sharding = #sdy.sharding<@mesh, [{}]>}, %arg558: tensor<768x768xf32> {sdy.sharding = #sdy.sharding<@mesh, [{}, {}]>}, %arg559: tensor<768xf32> {sdy.sharding = #sdy.sharding<@mesh, [{}]>}, %arg560: tensor<768x768xf32> {sdy.sharding = #sdy.sharding<@mesh, [{}, {}]>}, %arg561: tensor<768xf32> {sdy.sharding = #sdy.sharding<@mesh, [{}]>}, %arg562: tensor<768xf32> {sdy.sharding = #sdy.sharding<@mesh, [{}]>}, %arg563: tensor<768xf32> {sdy.sharding = #sdy.sharding<@mesh, [{}]>}, %arg564: tensor<3072x768xf32> {sdy.sharding = #sdy.sharding<@mesh, [{}, {}]>}, %arg565: tensor<3072xf32> {sdy.sharding = #sdy.sharding<@mesh, [{}]>}, %arg566: tensor<768x3072xf32> {sdy.sharding = #sdy.sharding<@mesh, [{}, {}]>}, %arg567: tensor<768xf32> {sdy.sharding = #sdy.sharding<@mesh, [{}]>}, %arg568: tensor<768xf32> {sdy.sharding = #sdy.sharding<@mesh, [{}]>}, %arg569: tensor<768xf32> {sdy.sharding = #sdy.sharding<@mesh, [{}]>}, %arg570: tensor<768x768xf32> {sdy.sharding = #sdy.sharding<@mesh, [{}, {}]>}, %arg571: tensor<768xf32> {sdy.sharding = #sdy.sharding<@mesh, [{}]>}, %arg572: tensor<768x768xf32> {sdy.sharding = #sdy.sharding<@mesh, [{}, {}]>}, %arg573: tensor<768xf32> {sdy.sharding = #sdy.sharding<@mesh, [{}]>}, %arg574: tensor<768x768xf32> {sdy.sharding = #sdy.sharding<@mesh, [{}, {}]>}, %arg575: tensor<768xf32> {sdy.sharding = #sdy.sharding<@mesh, [{}]>}, %arg576: tensor<768x768xf32> {sdy.sharding = #sdy.sharding<@mesh, [{}, {}]>}, %arg577: tensor<768xf32> {sdy.sharding = #sdy.sharding<@mesh, [{}]>}, %arg578: tensor<768xf32> {sdy.sharding = #sdy.sharding<@mesh, [{}]>}, %arg579: tensor<768xf32> {sdy.sharding = #sdy.sharding<@mesh, [{}]>}, %arg580: tensor<3072x768xf32> {sdy.sharding = #sdy.sharding<@mesh, [{}, {}]>}, %arg581: tensor<3072xf32> {sdy.sharding = #sdy.sharding<@mesh, [{}]>}, %arg582: tensor<768x3072xf32> {sdy.sharding = #sdy.sharding<@mesh, [{}, {}]>}, %arg583: tensor<768xf32> {sdy.sharding = #sdy.sharding<@mesh, [{}]>}, %arg584: tensor<768xf32> {sdy.sharding = #sdy.sharding<@mesh, [{}]>}, %arg585: tensor<768xf32> {sdy.sharding = #sdy.sharding<@mesh, [{}]>}, %arg586: tensor<768x768xf32> {sdy.sharding = #sdy.sharding<@mesh, [{}, {}]>}, %arg587: tensor<768xf32> {sdy.sharding = #sdy.sharding<@mesh, [{}]>}, %arg588: tensor<768x768xf32> {sdy.sharding = #sdy.sharding<@mesh, [{}, {}]>}, %arg589: tensor<768xf32> {sdy.sharding = #sdy.sharding<@mesh, [{}]>}, %arg590: tensor<768x768xf32> {sdy.sharding = #sdy.sharding<@mesh, [{}, {}]>}, %arg591: tensor<768xf32> {sdy.sharding = #sdy.sharding<@mesh, [{}]>}, %arg592: tensor<768x768xf32> {sdy.sharding = #sdy.sharding<@mesh, [{}, {}]>}, %arg593: tensor<768xf32> {sdy.sharding = #sdy.sharding<@mesh, [{}]>}, %arg594: tensor<768xf32> {sdy.sharding = #sdy.sharding<@mesh, [{}]>}, %arg595: tensor<768xf32> {sdy.sharding = #sdy.sharding<@mesh, [{}]>}, %arg596: tensor<3072x768xf32> {sdy.sharding = #sdy.sharding<@mesh, [{}, {}]>}, %arg597: tensor<3072xf32> {sdy.sharding = #sdy.sharding<@mesh, [{}]>}, %arg598: tensor<768x3072xf32> {sdy.sharding = #sdy.sharding<@mesh, [{}, {}]>}, %arg599: tensor<768xf32> {sdy.sharding = #sdy.sharding<@mesh, [{}]>}, %arg600: tensor<768xf32> {sdy.sharding = #sdy.sharding<@mesh, [{}]>}, %arg601: tensor<768xf32> {sdy.sharding = #sdy.sharding<@mesh, [{}]>}, %arg602: tensor<768x768xf32> {sdy.sharding = #sdy.sharding<@mesh, [{}, {}]>}, %arg603: tensor<768xf32> {sdy.sharding = #sdy.sharding<@mesh, [{}]>}, %arg604: tensor<768xf32> {sdy.sharding = #sdy.sharding<@mesh, [{}]>}, %arg605: tensor<768xf32> {sdy.sharding = #sdy.sharding<@mesh, [{}]>}, %arg606: tensor<30522xf32> {sdy.sharding = #sdy.sharding<@mesh, [{}]>}, %arg607: tensor<i32>, %arg608: tensor<64x512xi32> {sdy.sharding = #sdy.sharding<@mesh, [{"dp"}, {}]>}, %arg609: tensor<64x512xi32> {sdy.sharding = #sdy.sharding<@mesh, [{"dp"}, {}]>}, %arg610: tensor<64x512xi32> {sdy.sharding = #sdy.sharding<@mesh, [{"dp"}, {}]>}, %arg611: tensor<64x512xi32> {sdy.sharding = #sdy.sharding<@mesh, [{"dp"}, {}]>}) -> (tensor<i32> {jax.result_info = "result[0]"}, tensor<30522x768xf32> {jax.result_info = "result[1][0].bert.embeddings.word_embeddings.weight.value"}, tensor<512x768xf32> {jax.result_info = "result[1][0].bert.embeddings.position_embeddings.weight.value"}, tensor<2x768xf32> {jax.result_info = "result[1][0].bert.embeddings.token_type_embeddings.weight.value"}, tensor<768xf32> {jax.result_info = "result[1][0].bert.embeddings.LayerNorm.weight.value"}, tensor<768xf32> {jax.result_info = "result[1][0].bert.embeddings.LayerNorm.bias.value"}, tensor<768x768xf32> {jax.result_info = "result[1][0].bert.encoder.layer[0].attention.self.query.weight.value"}, tensor<768xf32> {jax.result_info = "result[1][0].bert.encoder.layer[0].attention.self.query.bias.value"}, tensor<768x768xf32> {jax.result_info = "result[1][0].bert.encoder.layer[0].attention.self.value.weight.value"}, tensor<768xf32> {jax.result_info = "result[1][0].bert.encoder.layer[0].attention.self.value.bias.value"}, tensor<768x768xf32> {jax.result_info = "result[1][0].bert.encoder.layer[0].attention.self.key.weight.value"}, tensor<768xf32> {jax.result_info = "result[1][0].bert.encoder.layer[0].attention.self.key.bias.value"}, tensor<768x768xf32> {jax.result_info = "result[1][0].bert.encoder.layer[0].attention.output.dense.weight.value"}, tensor<768xf32> {jax.result_info = "result[1][0].bert.encoder.layer[0].attention.output.dense.bias.value"}, tensor<768xf32> {jax.result_info = "result[1][0].bert.encoder.layer[0].attention.output.LayerNorm.weight.value"}, tensor<768xf32> {jax.result_info = "result[1][0].bert.encoder.layer[0].attention.output.LayerNorm.bias.value"}, tensor<3072x768xf32> {jax.result_info = "result[1][0].bert.encoder.layer[0].intermediate.dense.weight.value"}, tensor<3072xf32> {jax.result_info = "result[1][0].bert.encoder.layer[0].intermediate.dense.bias.value"}, tensor<768x3072xf32> {jax.result_info = "result[1][0].bert.encoder.layer[0].output.dense.weight.value"}, tensor<768xf32> {jax.result_info = "result[1][0].bert.encoder.layer[0].output.dense.bias.value"}, tensor<768xf32> {jax.result_info = "result[1][0].bert.encoder.layer[0].output.LayerNorm.weight.value"}, tensor<768xf32> {jax.result_info = "result[1][0].bert.encoder.layer[0].output.LayerNorm.bias.value"}, tensor<768x768xf32> {jax.result_info = "result[1][0].bert.encoder.layer[1].attention.self.query.weight.value"}, tensor<768xf32> {jax.result_info = "result[1][0].bert.encoder.layer[1].attention.self.query.bias.value"}, tensor<768x768xf32> {jax.result_info = "result[1][0].bert.encoder.layer[1].attention.self.value.weight.value"}, tensor<768xf32> {jax.result_info = "result[1][0].bert.encoder.layer[1].attention.self.value.bias.value"}, tensor<768x768xf32> {jax.result_info = "result[1][0].bert.encoder.layer[1].attention.self.key.weight.value"}, tensor<768xf32> {jax.result_info = "result[1][0].bert.encoder.layer[1].attention.self.key.bias.value"}, tensor<768x768xf32> {jax.result_info = "result[1][0].bert.encoder.layer[1].attention.output.dense.weight.value"}, tensor<768xf32> {jax.result_info = "result[1][0].bert.encoder.layer[1].attention.output.dense.bias.value"}, tensor<768xf32> {jax.result_info = "result[1][0].bert.encoder.layer[1].attention.output.LayerNorm.weight.value"}, tensor<768xf32> {jax.result_info = "result[1][0].bert.encoder.layer[1].attention.output.LayerNorm.bias.value"}, tensor<3072x768xf32> {jax.result_info = "result[1][0].bert.encoder.layer[1].intermediate.dense.weight.value"}, tensor<3072xf32> {jax.result_info = "result[1][0].bert.encoder.layer[1].intermediate.dense.bias.value"}, tensor<768x3072xf32> {jax.result_info = "result[1][0].bert.encoder.layer[1].output.dense.weight.value"}, tensor<768xf32> {jax.result_info = "result[1][0].bert.encoder.layer[1].output.dense.bias.value"}, tensor<768xf32> {jax.result_info = "result[1][0].bert.encoder.layer[1].output.LayerNorm.weight.value"}, tensor<768xf32> {jax.result_info = "result[1][0].bert.encoder.layer[1].output.LayerNorm.bias.value"}, tensor<768x768xf32> {jax.result_info = "result[1][0].bert.encoder.layer[2].attention.self.query.weight.value"}, tensor<768xf32> {jax.result_info = "result[1][0].bert.encoder.layer[2].attention.self.query.bias.value"}, tensor<768x768xf32> {jax.result_info = "result[1][0].bert.encoder.layer[2].attention.self.value.weight.value"}, tensor<768xf32> {jax.result_info = "result[1][0].bert.encoder.layer[2].attention.self.value.bias.value"}, tensor<768x768xf32> {jax.result_info = "result[1][0].bert.encoder.layer[2].attention.self.key.weight.value"}, tensor<768xf32> {jax.result_info = "result[1][0].bert.encoder.layer[2].attention.self.key.bias.value"}, tensor<768x768xf32> {jax.result_info = "result[1][0].bert.encoder.layer[2].attention.output.dense.weight.value"}, tensor<768xf32> {jax.result_info = "result[1][0].bert.encoder.layer[2].attention.output.dense.bias.value"}, tensor<768xf32> {jax.result_info = "result[1][0].bert.encoder.layer[2].attention.output.LayerNorm.weight.value"}, tensor<768xf32> {jax.result_info = "result[1][0].bert.encoder.layer[2].attention.output.LayerNorm.bias.value"}, tensor<3072x768xf32> {jax.result_info = "result[1][0].bert.encoder.layer[2].intermediate.dense.weight.value"}, tensor<3072xf32> {jax.result_info = "result[1][0].bert.encoder.layer[2].intermediate.dense.bias.value"}, tensor<768x3072xf32> {jax.result_info = "result[1][0].bert.encoder.layer[2].output.dense.weight.value"}, tensor<768xf32> {jax.result_info = "result[1][0].bert.encoder.layer[2].output.dense.bias.value"}, tensor<768xf32> {jax.result_info = "result[1][0].bert.encoder.layer[2].output.LayerNorm.weight.value"}, tensor<768xf32> {jax.result_info = "result[1][0].bert.encoder.layer[2].output.LayerNorm.bias.value"}, tensor<768x768xf32> {jax.result_info = "result[1][0].bert.encoder.layer[3].attention.self.query.weight.value"}, tensor<768xf32> {jax.result_info = "result[1][0].bert.encoder.layer[3].attention.self.query.bias.value"}, tensor<768x768xf32> {jax.result_info = "result[1][0].bert.encoder.layer[3].attention.self.value.weight.value"}, tensor<768xf32> {jax.result_info = "result[1][0].bert.encoder.layer[3].attention.self.value.bias.value"}, tensor<768x768xf32> {jax.result_info = "result[1][0].bert.encoder.layer[3].attention.self.key.weight.value"}, tensor<768xf32> {jax.result_info = "result[1][0].bert.encoder.layer[3].attention.self.key.bias.value"}, tensor<768x768xf32> {jax.result_info = "result[1][0].bert.encoder.layer[3].attention.output.dense.weight.value"}, tensor<768xf32> {jax.result_info = "result[1][0].bert.encoder.layer[3].attention.output.dense.bias.value"}, tensor<768xf32> {jax.result_info = "result[1][0].bert.encoder.layer[3].attention.output.LayerNorm.weight.value"}, tensor<768xf32> {jax.result_info = "result[1][0].bert.encoder.layer[3].attention.output.LayerNorm.bias.value"}, tensor<3072x768xf32> {jax.result_info = "result[1][0].bert.encoder.layer[3].intermediate.dense.weight.value"}, tensor<3072xf32> {jax.result_info = "result[1][0].bert.encoder.layer[3].intermediate.dense.bias.value"}, tensor<768x3072xf32> {jax.result_info = "result[1][0].bert.encoder.layer[3].output.dense.weight.value"}, tensor<768xf32> {jax.result_info = "result[1][0].bert.encoder.layer[3].output.dense.bias.value"}, tensor<768xf32> {jax.result_info = "result[1][0].bert.encoder.layer[3].output.LayerNorm.weight.value"}, tensor<768xf32> {jax.result_info = "result[1][0].bert.encoder.layer[3].output.LayerNorm.bias.value"}, tensor<768x768xf32> {jax.result_info = "result[1][0].bert.encoder.layer[4].attention.self.query.weight.value"}, tensor<768xf32> {jax.result_info = "result[1][0].bert.encoder.layer[4].attention.self.query.bias.value"}, tensor<768x768xf32> {jax.result_info = "result[1][0].bert.encoder.layer[4].attention.self.value.weight.value"}, tensor<768xf32> {jax.result_info = "result[1][0].bert.encoder.layer[4].attention.self.value.bias.value"}, tensor<768x768xf32> {jax.result_info = "result[1][0].bert.encoder.layer[4].attention.self.key.weight.value"}, tensor<768xf32> {jax.result_info = "result[1][0].bert.encoder.layer[4].attention.self.key.bias.value"}, tensor<768x768xf32> {jax.result_info = "result[1][0].bert.encoder.layer[4].attention.output.dense.weight.value"}, tensor<768xf32> {jax.result_info = "result[1][0].bert.encoder.layer[4].attention.output.dense.bias.value"}, tensor<768xf32> {jax.result_info = "result[1][0].bert.encoder.layer[4].attention.output.LayerNorm.weight.value"}, tensor<768xf32> {jax.result_info = "result[1][0].bert.encoder.layer[4].attention.output.LayerNorm.bias.value"}, tensor<3072x768xf32> {jax.result_info = "result[1][0].bert.encoder.layer[4].intermediate.dense.weight.value"}, tensor<3072xf32> {jax.result_info = "result[1][0].bert.encoder.layer[4].intermediate.dense.bias.value"}, tensor<768x3072xf32> {jax.result_info = "result[1][0].bert.encoder.layer[4].output.dense.weight.value"}, tensor<768xf32> {jax.result_info = "result[1][0].bert.encoder.layer[4].output.dense.bias.value"}, tensor<768xf32> {jax.result_info = "result[1][0].bert.encoder.layer[4].output.LayerNorm.weight.value"}, tensor<768xf32> {jax.result_info = "result[1][0].bert.encoder.layer[4].output.LayerNorm.bias.value"}, tensor<768x768xf32> {jax.result_info = "result[1][0].bert.encoder.layer[5].attention.self.query.weight.value"}, tensor<768xf32> {jax.result_info = "result[1][0].bert.encoder.layer[5].attention.self.query.bias.value"}, tensor<768x768xf32> {jax.result_info = "result[1][0].bert.encoder.layer[5].attention.self.value.weight.value"}, tensor<768xf32> {jax.result_info = "result[1][0].bert.encoder.layer[5].attention.self.value.bias.value"}, tensor<768x768xf32> {jax.result_info = "result[1][0].bert.encoder.layer[5].attention.self.key.weight.value"}, tensor<768xf32> {jax.result_info = "result[1][0].bert.encoder.layer[5].attention.self.key.bias.value"}, tensor<768x768xf32> {jax.result_info = "result[1][0].bert.encoder.layer[5].attention.output.dense.weight.value"}, tensor<768xf32> {jax.result_info = "result[1][0].bert.encoder.layer[5].attention.output.dense.bias.value"}, tensor<768xf32> {jax.result_info = "result[1][0].bert.encoder.layer[5].attention.output.LayerNorm.weight.value"}, tensor<768xf32> {jax.result_info = "result[1][0].bert.encoder.layer[5].attention.output.LayerNorm.bias.value"}, tensor<3072x768xf32> {jax.result_info = "result[1][0].bert.encoder.layer[5].intermediate.dense.weight.value"}, tensor<3072xf32> {jax.result_info = "result[1][0].bert.encoder.layer[5].intermediate.dense.bias.value"}, tensor<768x3072xf32> {jax.result_info = "result[1][0].bert.encoder.layer[5].output.dense.weight.value"}, tensor<768xf32> {jax.result_info = "result[1][0].bert.encoder.layer[5].output.dense.bias.value"}, tensor<768xf32> {jax.result_info = "result[1][0].bert.encoder.layer[5].output.LayerNorm.weight.value"}, tensor<768xf32> {jax.result_info = "result[1][0].bert.encoder.layer[5].output.LayerNorm.bias.value"}, tensor<768x768xf32> {jax.result_info = "result[1][0].bert.encoder.layer[6].attention.self.query.weight.value"}, tensor<768xf32> {jax.result_info = "result[1][0].bert.encoder.layer[6].attention.self.query.bias.value"}, tensor<768x768xf32> {jax.result_info = "result[1][0].bert.encoder.layer[6].attention.self.value.weight.value"}, tensor<768xf32> {jax.result_info = "result[1][0].bert.encoder.layer[6].attention.self.value.bias.value"}, tensor<768x768xf32> {jax.result_info = "result[1][0].bert.encoder.layer[6].attention.self.key.weight.value"}, tensor<768xf32> {jax.result_info = "result[1][0].bert.encoder.layer[6].attention.self.key.bias.value"}, tensor<768x768xf32> {jax.result_info = "result[1][0].bert.encoder.layer[6].attention.output.dense.weight.value"}, tensor<768xf32> {jax.result_info = "result[1][0].bert.encoder.layer[6].attention.output.dense.bias.value"}, tensor<768xf32> {jax.result_info = "result[1][0].bert.encoder.layer[6].attention.output.LayerNorm.weight.value"}, tensor<768xf32> {jax.result_info = "result[1][0].bert.encoder.layer[6].attention.output.LayerNorm.bias.value"}, tensor<3072x768xf32> {jax.result_info = "result[1][0].bert.encoder.layer[6].intermediate.dense.weight.value"}, tensor<3072xf32> {jax.result_info = "result[1][0].bert.encoder.layer[6].intermediate.dense.bias.value"}, tensor<768x3072xf32> {jax.result_info = "result[1][0].bert.encoder.layer[6].output.dense.weight.value"}, tensor<768xf32> {jax.result_info = "result[1][0].bert.encoder.layer[6].output.dense.bias.value"}, tensor<768xf32> {jax.result_info = "result[1][0].bert.encoder.layer[6].output.LayerNorm.weight.value"}, tensor<768xf32> {jax.result_info = "result[1][0].bert.encoder.layer[6].output.LayerNorm.bias.value"}, tensor<768x768xf32> {jax.result_info = "result[1][0].bert.encoder.layer[7].attention.self.query.weight.value"}, tensor<768xf32> {jax.result_info = "result[1][0].bert.encoder.layer[7].attention.self.query.bias.value"}, tensor<768x768xf32> {jax.result_info = "result[1][0].bert.encoder.layer[7].attention.self.value.weight.value"}, tensor<768xf32> {jax.result_info = "result[1][0].bert.encoder.layer[7].attention.self.value.bias.value"}, tensor<768x768xf32> {jax.result_info = "result[1][0].bert.encoder.layer[7].attention.self.key.weight.value"}, tensor<768xf32> {jax.result_info = "result[1][0].bert.encoder.layer[7].attention.self.key.bias.value"}, tensor<768x768xf32> {jax.result_info = "result[1][0].bert.encoder.layer[7].attention.output.dense.weight.value"}, tensor<768xf32> {jax.result_info = "result[1][0].bert.encoder.layer[7].attention.output.dense.bias.value"}, tensor<768xf32> {jax.result_info = "result[1][0].bert.encoder.layer[7].attention.output.LayerNorm.weight.value"}, tensor<768xf32> {jax.result_info = "result[1][0].bert.encoder.layer[7].attention.output.LayerNorm.bias.value"}, tensor<3072x768xf32> {jax.result_info = "result[1][0].bert.encoder.layer[7].intermediate.dense.weight.value"}, tensor<3072xf32> {jax.result_info = "result[1][0].bert.encoder.layer[7].intermediate.dense.bias.value"}, tensor<768x3072xf32> {jax.result_info = "result[1][0].bert.encoder.layer[7].output.dense.weight.value"}, tensor<768xf32> {jax.result_info = "result[1][0].bert.encoder.layer[7].output.dense.bias.value"}, tensor<768xf32> {jax.result_info = "result[1][0].bert.encoder.layer[7].output.LayerNorm.weight.value"}, tensor<768xf32> {jax.result_info = "result[1][0].bert.encoder.layer[7].output.LayerNorm.bias.value"}, tensor<768x768xf32> {jax.result_info = "result[1][0].bert.encoder.layer[8].attention.self.query.weight.value"}, tensor<768xf32> {jax.result_info = "result[1][0].bert.encoder.layer[8].attention.self.query.bias.value"}, tensor<768x768xf32> {jax.result_info = "result[1][0].bert.encoder.layer[8].attention.self.value.weight.value"}, tensor<768xf32> {jax.result_info = "result[1][0].bert.encoder.layer[8].attention.self.value.bias.value"}, tensor<768x768xf32> {jax.result_info = "result[1][0].bert.encoder.layer[8].attention.self.key.weight.value"}, tensor<768xf32> {jax.result_info = "result[1][0].bert.encoder.layer[8].attention.self.key.bias.value"}, tensor<768x768xf32> {jax.result_info = "result[1][0].bert.encoder.layer[8].attention.output.dense.weight.value"}, tensor<768xf32> {jax.result_info = "result[1][0].bert.encoder.layer[8].attention.output.dense.bias.value"}, tensor<768xf32> {jax.result_info = "result[1][0].bert.encoder.layer[8].attention.output.LayerNorm.weight.value"}, tensor<768xf32> {jax.result_info = "result[1][0].bert.encoder.layer[8].attention.output.LayerNorm.bias.value"}, tensor<3072x768xf32> {jax.result_info = "result[1][0].bert.encoder.layer[8].intermediate.dense.weight.value"}, tensor<3072xf32> {jax.result_info = "result[1][0].bert.encoder.layer[8].intermediate.dense.bias.value"}, tensor<768x3072xf32> {jax.result_info = "result[1][0].bert.encoder.layer[8].output.dense.weight.value"}, tensor<768xf32> {jax.result_info = "result[1][0].bert.encoder.layer[8].output.dense.bias.value"}, tensor<768xf32> {jax.result_info = "result[1][0].bert.encoder.layer[8].output.LayerNorm.weight.value"}, tensor<768xf32> {jax.result_info = "result[1][0].bert.encoder.layer[8].output.LayerNorm.bias.value"}, tensor<768x768xf32> {jax.result_info = "result[1][0].bert.encoder.layer[9].attention.self.query.weight.value"}, tensor<768xf32> {jax.result_info = "result[1][0].bert.encoder.layer[9].attention.self.query.bias.value"}, tensor<768x768xf32> {jax.result_info = "result[1][0].bert.encoder.layer[9].attention.self.value.weight.value"}, tensor<768xf32> {jax.result_info = "result[1][0].bert.encoder.layer[9].attention.self.value.bias.value"}, tensor<768x768xf32> {jax.result_info = "result[1][0].bert.encoder.layer[9].attention.self.key.weight.value"}, tensor<768xf32> {jax.result_info = "result[1][0].bert.encoder.layer[9].attention.self.key.bias.value"}, tensor<768x768xf32> {jax.result_info = "result[1][0].bert.encoder.layer[9].attention.output.dense.weight.value"}, tensor<768xf32> {jax.result_info = "result[1][0].bert.encoder.layer[9].attention.output.dense.bias.value"}, tensor<768xf32> {jax.result_info = "result[1][0].bert.encoder.layer[9].attention.output.LayerNorm.weight.value"}, tensor<768xf32> {jax.result_info = "result[1][0].bert.encoder.layer[9].attention.output.LayerNorm.bias.value"}, tensor<3072x768xf32> {jax.result_info = "result[1][0].bert.encoder.layer[9].intermediate.dense.weight.value"}, tensor<3072xf32> {jax.result_info = "result[1][0].bert.encoder.layer[9].intermediate.dense.bias.value"}, tensor<768x3072xf32> {jax.result_info = "result[1][0].bert.encoder.layer[9].output.dense.weight.value"}, tensor<768xf32> {jax.result_info = "result[1][0].bert.encoder.layer[9].output.dense.bias.value"}, tensor<768xf32> {jax.result_info = "result[1][0].bert.encoder.layer[9].output.LayerNorm.weight.value"}, tensor<768xf32> {jax.result_info = "result[1][0].bert.encoder.layer[9].output.LayerNorm.bias.value"}, tensor<768x768xf32> {jax.result_info = "result[1][0].bert.encoder.layer[10].attention.self.query.weight.value"}, tensor<768xf32> {jax.result_info = "result[1][0].bert.encoder.layer[10].attention.self.query.bias.value"}, tensor<768x768xf32> {jax.result_info = "result[1][0].bert.encoder.layer[10].attention.self.value.weight.value"}, tensor<768xf32> {jax.result_info = "result[1][0].bert.encoder.layer[10].attention.self.value.bias.value"}, tensor<768x768xf32> {jax.result_info = "result[1][0].bert.encoder.layer[10].attention.self.key.weight.value"}, tensor<768xf32> {jax.result_info = "result[1][0].bert.encoder.layer[10].attention.self.key.bias.value"}, tensor<768x768xf32> {jax.result_info = "result[1][0].bert.encoder.layer[10].attention.output.dense.weight.value"}, tensor<768xf32> {jax.result_info = "result[1][0].bert.encoder.layer[10].attention.output.dense.bias.value"}, tensor<768xf32> {jax.result_info = "result[1][0].bert.encoder.layer[10].attention.output.LayerNorm.weight.value"}, tensor<768xf32> {jax.result_info = "result[1][0].bert.encoder.layer[10].attention.output.LayerNorm.bias.value"}, tensor<3072x768xf32> {jax.result_info = "result[1][0].bert.encoder.layer[10].intermediate.dense.weight.value"}, tensor<3072xf32> {jax.result_info = "result[1][0].bert.encoder.layer[10].intermediate.dense.bias.value"}, tensor<768x3072xf32> {jax.result_info = "result[1][0].bert.encoder.layer[10].output.dense.weight.value"}, tensor<768xf32> {jax.result_info = "result[1][0].bert.encoder.layer[10].output.dense.bias.value"}, tensor<768xf32> {jax.result_info = "result[1][0].bert.encoder.layer[10].output.LayerNorm.weight.value"}, tensor<768xf32> {jax.result_info = "result[1][0].bert.encoder.layer[10].output.LayerNorm.bias.value"}, tensor<768x768xf32> {jax.result_info = "result[1][0].bert.encoder.layer[11].attention.self.query.weight.value"}, tensor<768xf32> {jax.result_info = "result[1][0].bert.encoder.layer[11].attention.self.query.bias.value"}, tensor<768x768xf32> {jax.result_info = "result[1][0].bert.encoder.layer[11].attention.self.value.weight.value"}, tensor<768xf32> {jax.result_info = "result[1][0].bert.encoder.layer[11].attention.self.value.bias.value"}, tensor<768x768xf32> {jax.result_info = "result[1][0].bert.encoder.layer[11].attention.self.key.weight.value"}, tensor<768xf32> {jax.result_info = "result[1][0].bert.encoder.layer[11].attention.self.key.bias.value"}, tensor<768x768xf32> {jax.result_info = "result[1][0].bert.encoder.layer[11].attention.output.dense.weight.value"}, tensor<768xf32> {jax.result_info = "result[1][0].bert.encoder.layer[11].attention.output.dense.bias.value"}, tensor<768xf32> {jax.result_info = "result[1][0].bert.encoder.layer[11].attention.output.LayerNorm.weight.value"}, tensor<768xf32> {jax.result_info = "result[1][0].bert.encoder.layer[11].attention.output.LayerNorm.bias.value"}, tensor<3072x768xf32> {jax.result_info = "result[1][0].bert.encoder.layer[11].intermediate.dense.weight.value"}, tensor<3072xf32> {jax.result_info = "result[1][0].bert.encoder.layer[11].intermediate.dense.bias.value"}, tensor<768x3072xf32> {jax.result_info = "result[1][0].bert.encoder.layer[11].output.dense.weight.value"}, tensor<768xf32> {jax.result_info = "result[1][0].bert.encoder.layer[11].output.dense.bias.value"}, tensor<768xf32> {jax.result_info = "result[1][0].bert.encoder.layer[11].output.LayerNorm.weight.value"}, tensor<768xf32> {jax.result_info = "result[1][0].bert.encoder.layer[11].output.LayerNorm.bias.value"}, tensor<768x768xf32> {jax.result_info = "result[1][0].cls.predictions.transform.dense.weight.value"}, tensor<768xf32> {jax.result_info = "result[1][0].cls.predictions.transform.dense.bias.value"}, tensor<768xf32> {jax.result_info = "result[1][0].cls.predictions.transform.LayerNorm.weight.value"}, tensor<768xf32> {jax.result_info = "result[1][0].cls.predictions.transform.LayerNorm.bias.value"}, tensor<30522xf32> {jax.result_info = "result[1][0].cls.predictions.bias"}, tensor<i32> {jax.result_info = "result[1][1].opt_state[1][0].count"}, tensor<30522x768xf32> {jax.result_info = "result[1][1].opt_state[1][0].mu.bert.embeddings.word_embeddings.weight.value"}, tensor<512x768xf32> {jax.result_info = "result[1][1].opt_state[1][0].mu.bert.embeddings.position_embeddings.weight.value"}, tensor<2x768xf32> {jax.result_info = "result[1][1].opt_state[1][0].mu.bert.embeddings.token_type_embeddings.weight.value"}, tensor<768xf32> {jax.result_info = "result[1][1].opt_state[1][0].mu.bert.embeddings.LayerNorm.weight.value"}, tensor<768xf32> {jax.result_info = "result[1][1].opt_state[1][0].mu.bert.embeddings.LayerNorm.bias.value"}, tensor<768x768xf32> {jax.result_info = "result[1][1].opt_state[1][0].mu.bert.encoder.layer[0].attention.self.query.weight.value"}, tensor<768xf32> {jax.result_info = "result[1][1].opt_state[1][0].mu.bert.encoder.layer[0].attention.self.query.bias.value"}, tensor<768x768xf32> {jax.result_info = "result[1][1].opt_state[1][0].mu.bert.encoder.layer[0].attention.self.value.weight.value"}, tensor<768xf32> {jax.result_info = "result[1][1].opt_state[1][0].mu.bert.encoder.layer[0].attention.self.value.bias.value"}, tensor<768x768xf32> {jax.result_info = "result[1][1].opt_state[1][0].mu.bert.encoder.layer[0].attention.self.key.weight.value"}, tensor<768xf32> {jax.result_info = "result[1][1].opt_state[1][0].mu.bert.encoder.layer[0].attention.self.key.bias.value"}, tensor<768x768xf32> {jax.result_info = "result[1][1].opt_state[1][0].mu.bert.encoder.layer[0].attention.output.dense.weight.value"}, tensor<768xf32> {jax.result_info = "result[1][1].opt_state[1][0].mu.bert.encoder.layer[0].attention.output.dense.bias.value"}, tensor<768xf32> {jax.result_info = "result[1][1].opt_state[1][0].mu.bert.encoder.layer[0].attention.output.LayerNorm.weight.value"}, tensor<768xf32> {jax.result_info = "result[1][1].opt_state[1][0].mu.bert.encoder.layer[0].attention.output.LayerNorm.bias.value"}, tensor<3072x768xf32> {jax.result_info = "result[1][1].opt_state[1][0].mu.bert.encoder.layer[0].intermediate.dense.weight.value"}, tensor<3072xf32> {jax.result_info = "result[1][1].opt_state[1][0].mu.bert.encoder.layer[0].intermediate.dense.bias.value"}, tensor<768x3072xf32> {jax.result_info = "result[1][1].opt_state[1][0].mu.bert.encoder.layer[0].output.dense.weight.value"}, tensor<768xf32> {jax.result_info = "result[1][1].opt_state[1][0].mu.bert.encoder.layer[0].output.dense.bias.value"}, tensor<768xf32> {jax.result_info = "result[1][1].opt_state[1][0].mu.bert.encoder.layer[0].output.LayerNorm.weight.value"}, tensor<768xf32> {jax.result_info = "result[1][1].opt_state[1][0].mu.bert.encoder.layer[0].output.LayerNorm.bias.value"}, tensor<768x768xf32> {jax.result_info = "result[1][1].opt_state[1][0].mu.bert.encoder.layer[1].attention.self.query.weight.value"}, tensor<768xf32> {jax.result_info = "result[1][1].opt_state[1][0].mu.bert.encoder.layer[1].attention.self.query.bias.value"}, tensor<768x768xf32> {jax.result_info = "result[1][1].opt_state[1][0].mu.bert.encoder.layer[1].attention.self.value.weight.value"}, tensor<768xf32> {jax.result_info = "result[1][1].opt_state[1][0].mu.bert.encoder.layer[1].attention.self.value.bias.value"}, tensor<768x768xf32> {jax.result_info = "result[1][1].opt_state[1][0].mu.bert.encoder.layer[1].attention.self.key.weight.value"}, tensor<768xf32> {jax.result_info = "result[1][1].opt_state[1][0].mu.bert.encoder.layer[1].attention.self.key.bias.value"}, tensor<768x768xf32> {jax.result_info = "result[1][1].opt_state[1][0].mu.bert.encoder.layer[1].attention.output.dense.weight.value"}, tensor<768xf32> {jax.result_info = "result[1][1].opt_state[1][0].mu.bert.encoder.layer[1].attention.output.dense.bias.value"}, tensor<768xf32> {jax.result_info = "result[1][1].opt_state[1][0].mu.bert.encoder.layer[1].attention.output.LayerNorm.weight.value"}, tensor<768xf32> {jax.result_info = "result[1][1].opt_state[1][0].mu.bert.encoder.layer[1].attention.output.LayerNorm.bias.value"}, tensor<3072x768xf32> {jax.result_info = "result[1][1].opt_state[1][0].mu.bert.encoder.layer[1].intermediate.dense.weight.value"}, tensor<3072xf32> {jax.result_info = "result[1][1].opt_state[1][0].mu.bert.encoder.layer[1].intermediate.dense.bias.value"}, tensor<768x3072xf32> {jax.result_info = "result[1][1].opt_state[1][0].mu.bert.encoder.layer[1].output.dense.weight.value"}, tensor<768xf32> {jax.result_info = "result[1][1].opt_state[1][0].mu.bert.encoder.layer[1].output.dense.bias.value"}, tensor<768xf32> {jax.result_info = "result[1][1].opt_state[1][0].mu.bert.encoder.layer[1].output.LayerNorm.weight.value"}, tensor<768xf32> {jax.result_info = "result[1][1].opt_state[1][0].mu.bert.encoder.layer[1].output.LayerNorm.bias.value"}, tensor<768x768xf32> {jax.result_info = "result[1][1].opt_state[1][0].mu.bert.encoder.layer[2].attention.self.query.weight.value"}, tensor<768xf32> {jax.result_info = "result[1][1].opt_state[1][0].mu.bert.encoder.layer[2].attention.self.query.bias.value"}, tensor<768x768xf32> {jax.result_info = "result[1][1].opt_state[1][0].mu.bert.encoder.layer[2].attention.self.value.weight.value"}, tensor<768xf32> {jax.result_info = "result[1][1].opt_state[1][0].mu.bert.encoder.layer[2].attention.self.value.bias.value"}, tensor<768x768xf32> {jax.result_info = "result[1][1].opt_state[1][0].mu.bert.encoder.layer[2].attention.self.key.weight.value"}, tensor<768xf32> {jax.result_info = "result[1][1].opt_state[1][0].mu.bert.encoder.layer[2].attention.self.key.bias.value"}, tensor<768x768xf32> {jax.result_info = "result[1][1].opt_state[1][0].mu.bert.encoder.layer[2].attention.output.dense.weight.value"}, tensor<768xf32> {jax.result_info = "result[1][1].opt_state[1][0].mu.bert.encoder.layer[2].attention.output.dense.bias.value"}, tensor<768xf32> {jax.result_info = "result[1][1].opt_state[1][0].mu.bert.encoder.layer[2].attention.output.LayerNorm.weight.value"}, tensor<768xf32> {jax.result_info = "result[1][1].opt_state[1][0].mu.bert.encoder.layer[2].attention.output.LayerNorm.bias.value"}, tensor<3072x768xf32> {jax.result_info = "result[1][1].opt_state[1][0].mu.bert.encoder.layer[2].intermediate.dense.weight.value"}, tensor<3072xf32> {jax.result_info = "result[1][1].opt_state[1][0].mu.bert.encoder.layer[2].intermediate.dense.bias.value"}, tensor<768x3072xf32> {jax.result_info = "result[1][1].opt_state[1][0].mu.bert.encoder.layer[2].output.dense.weight.value"}, tensor<768xf32> {jax.result_info = "result[1][1].opt_state[1][0].mu.bert.encoder.layer[2].output.dense.bias.value"}, tensor<768xf32> {jax.result_info = "result[1][1].opt_state[1][0].mu.bert.encoder.layer[2].output.LayerNorm.weight.value"}, tensor<768xf32> {jax.result_info = "result[1][1].opt_state[1][0].mu.bert.encoder.layer[2].output.LayerNorm.bias.value"}, tensor<768x768xf32> {jax.result_info = "result[1][1].opt_state[1][0].mu.bert.encoder.layer[3].attention.self.query.weight.value"}, tensor<768xf32> {jax.result_info = "result[1][1].opt_state[1][0].mu.bert.encoder.layer[3].attention.self.query.bias.value"}, tensor<768x768xf32> {jax.result_info = "result[1][1].opt_state[1][0].mu.bert.encoder.layer[3].attention.self.value.weight.value"}, tensor<768xf32> {jax.result_info = "result[1][1].opt_state[1][0].mu.bert.encoder.layer[3].attention.self.value.bias.value"}, tensor<768x768xf32> {jax.result_info = "result[1][1].opt_state[1][0].mu.bert.encoder.layer[3].attention.self.key.weight.value"}, tensor<768xf32> {jax.result_info = "result[1][1].opt_state[1][0].mu.bert.encoder.layer[3].attention.self.key.bias.value"}, tensor<768x768xf32> {jax.result_info = "result[1][1].opt_state[1][0].mu.bert.encoder.layer[3].attention.output.dense.weight.value"}, tensor<768xf32> {jax.result_info = "result[1][1].opt_state[1][0].mu.bert.encoder.layer[3].attention.output.dense.bias.value"}, tensor<768xf32> {jax.result_info = "result[1][1].opt_state[1][0].mu.bert.encoder.layer[3].attention.output.LayerNorm.weight.value"}, tensor<768xf32> {jax.result_info = "result[1][1].opt_state[1][0].mu.bert.encoder.layer[3].attention.output.LayerNorm.bias.value"}, tensor<3072x768xf32> {jax.result_info = "result[1][1].opt_state[1][0].mu.bert.encoder.layer[3].intermediate.dense.weight.value"}, tensor<3072xf32> {jax.result_info = "result[1][1].opt_state[1][0].mu.bert.encoder.layer[3].intermediate.dense.bias.value"}, tensor<768x3072xf32> {jax.result_info = "result[1][1].opt_state[1][0].mu.bert.encoder.layer[3].output.dense.weight.value"}, tensor<768xf32> {jax.result_info = "result[1][1].opt_state[1][0].mu.bert.encoder.layer[3].output.dense.bias.value"}, tensor<768xf32> {jax.result_info = "result[1][1].opt_state[1][0].mu.bert.encoder.layer[3].output.LayerNorm.weight.value"}, tensor<768xf32> {jax.result_info = "result[1][1].opt_state[1][0].mu.bert.encoder.layer[3].output.LayerNorm.bias.value"}, tensor<768x768xf32> {jax.result_info = "result[1][1].opt_state[1][0].mu.bert.encoder.layer[4].attention.self.query.weight.value"}, tensor<768xf32> {jax.result_info = "result[1][1].opt_state[1][0].mu.bert.encoder.layer[4].attention.self.query.bias.value"}, tensor<768x768xf32> {jax.result_info = "result[1][1].opt_state[1][0].mu.bert.encoder.layer[4].attention.self.value.weight.value"}, tensor<768xf32> {jax.result_info = "result[1][1].opt_state[1][0].mu.bert.encoder.layer[4].attention.self.value.bias.value"}, tensor<768x768xf32> {jax.result_info = "result[1][1].opt_state[1][0].mu.bert.encoder.layer[4].attention.self.key.weight.value"}, tensor<768xf32> {jax.result_info = "result[1][1].opt_state[1][0].mu.bert.encoder.layer[4].attention.self.key.bias.value"}, tensor<768x768xf32> {jax.result_info = "result[1][1].opt_state[1][0].mu.bert.encoder.layer[4].attention.output.dense.weight.value"}, tensor<768xf32> {jax.result_info = "result[1][1].opt_state[1][0].mu.bert.encoder.layer[4].attention.output.dense.bias.value"}, tensor<768xf32> {jax.result_info = "result[1][1].opt_state[1][0].mu.bert.encoder.layer[4].attention.output.LayerNorm.weight.value"}, tensor<768xf32> {jax.result_info = "result[1][1].opt_state[1][0].mu.bert.encoder.layer[4].attention.output.LayerNorm.bias.value"}, tensor<3072x768xf32> {jax.result_info = "result[1][1].opt_state[1][0].mu.bert.encoder.layer[4].intermediate.dense.weight.value"}, tensor<3072xf32> {jax.result_info = "result[1][1].opt_state[1][0].mu.bert.encoder.layer[4].intermediate.dense.bias.value"}, tensor<768x3072xf32> {jax.result_info = "result[1][1].opt_state[1][0].mu.bert.encoder.layer[4].output.dense.weight.value"}, tensor<768xf32> {jax.result_info = "result[1][1].opt_state[1][0].mu.bert.encoder.layer[4].output.dense.bias.value"}, tensor<768xf32> {jax.result_info = "result[1][1].opt_state[1][0].mu.bert.encoder.layer[4].output.LayerNorm.weight.value"}, tensor<768xf32> {jax.result_info = "result[1][1].opt_state[1][0].mu.bert.encoder.layer[4].output.LayerNorm.bias.value"}, tensor<768x768xf32> {jax.result_info = "result[1][1].opt_state[1][0].mu.bert.encoder.layer[5].attention.self.query.weight.value"}, tensor<768xf32> {jax.result_info = "result[1][1].opt_state[1][0].mu.bert.encoder.layer[5].attention.self.query.bias.value"}, tensor<768x768xf32> {jax.result_info = "result[1][1].opt_state[1][0].mu.bert.encoder.layer[5].attention.self.value.weight.value"}, tensor<768xf32> {jax.result_info = "result[1][1].opt_state[1][0].mu.bert.encoder.layer[5].attention.self.value.bias.value"}, tensor<768x768xf32> {jax.result_info = "result[1][1].opt_state[1][0].mu.bert.encoder.layer[5].attention.self.key.weight.value"}, tensor<768xf32> {jax.result_info = "result[1][1].opt_state[1][0].mu.bert.encoder.layer[5].attention.self.key.bias.value"}, tensor<768x768xf32> {jax.result_info = "result[1][1].opt_state[1][0].mu.bert.encoder.layer[5].attention.output.dense.weight.value"}, tensor<768xf32> {jax.result_info = "result[1][1].opt_state[1][0].mu.bert.encoder.layer[5].attention.output.dense.bias.value"}, tensor<768xf32> {jax.result_info = "result[1][1].opt_state[1][0].mu.bert.encoder.layer[5].attention.output.LayerNorm.weight.value"}, tensor<768xf32> {jax.result_info = "result[1][1].opt_state[1][0].mu.bert.encoder.layer[5].attention.output.LayerNorm.bias.value"}, tensor<3072x768xf32> {jax.result_info = "result[1][1].opt_state[1][0].mu.bert.encoder.layer[5].intermediate.dense.weight.value"}, tensor<3072xf32> {jax.result_info = "result[1][1].opt_state[1][0].mu.bert.encoder.layer[5].intermediate.dense.bias.value"}, tensor<768x3072xf32> {jax.result_info = "result[1][1].opt_state[1][0].mu.bert.encoder.layer[5].output.dense.weight.value"}, tensor<768xf32> {jax.result_info = "result[1][1].opt_state[1][0].mu.bert.encoder.layer[5].output.dense.bias.value"}, tensor<768xf32> {jax.result_info = "result[1][1].opt_state[1][0].mu.bert.encoder.layer[5].output.LayerNorm.weight.value"}, tensor<768xf32> {jax.result_info = "result[1][1].opt_state[1][0].mu.bert.encoder.layer[5].output.LayerNorm.bias.value"}, tensor<768x768xf32> {jax.result_info = "result[1][1].opt_state[1][0].mu.bert.encoder.layer[6].attention.self.query.weight.value"}, tensor<768xf32> {jax.result_info = "result[1][1].opt_state[1][0].mu.bert.encoder.layer[6].attention.self.query.bias.value"}, tensor<768x768xf32> {jax.result_info = "result[1][1].opt_state[1][0].mu.bert.encoder.layer[6].attention.self.value.weight.value"}, tensor<768xf32> {jax.result_info = "result[1][1].opt_state[1][0].mu.bert.encoder.layer[6].attention.self.value.bias.value"}, tensor<768x768xf32> {jax.result_info = "result[1][1].opt_state[1][0].mu.bert.encoder.layer[6].attention.self.key.weight.value"}, tensor<768xf32> {jax.result_info = "result[1][1].opt_state[1][0].mu.bert.encoder.layer[6].attention.self.key.bias.value"}, tensor<768x768xf32> {jax.result_info = "result[1][1].opt_state[1][0].mu.bert.encoder.layer[6].attention.output.dense.weight.value"}, tensor<768xf32> {jax.result_info = "result[1][1].opt_state[1][0].mu.bert.encoder.layer[6].attention.output.dense.bias.value"}, tensor<768xf32> {jax.result_info = "result[1][1].opt_state[1][0].mu.bert.encoder.layer[6].attention.output.LayerNorm.weight.value"}, tensor<768xf32> {jax.result_info = "result[1][1].opt_state[1][0].mu.bert.encoder.layer[6].attention.output.LayerNorm.bias.value"}, tensor<3072x768xf32> {jax.result_info = "result[1][1].opt_state[1][0].mu.bert.encoder.layer[6].intermediate.dense.weight.value"}, tensor<3072xf32> {jax.result_info = "result[1][1].opt_state[1][0].mu.bert.encoder.layer[6].intermediate.dense.bias.value"}, tensor<768x3072xf32> {jax.result_info = "result[1][1].opt_state[1][0].mu.bert.encoder.layer[6].output.dense.weight.value"}, tensor<768xf32> {jax.result_info = "result[1][1].opt_state[1][0].mu.bert.encoder.layer[6].output.dense.bias.value"}, tensor<768xf32> {jax.result_info = "result[1][1].opt_state[1][0].mu.bert.encoder.layer[6].output.LayerNorm.weight.value"}, tensor<768xf32> {jax.result_info = "result[1][1].opt_state[1][0].mu.bert.encoder.layer[6].output.LayerNorm.bias.value"}, tensor<768x768xf32> {jax.result_info = "result[1][1].opt_state[1][0].mu.bert.encoder.layer[7].attention.self.query.weight.value"}, tensor<768xf32> {jax.result_info = "result[1][1].opt_state[1][0].mu.bert.encoder.layer[7].attention.self.query.bias.value"}, tensor<768x768xf32> {jax.result_info = "result[1][1].opt_state[1][0].mu.bert.encoder.layer[7].attention.self.value.weight.value"}, tensor<768xf32> {jax.result_info = "result[1][1].opt_state[1][0].mu.bert.encoder.layer[7].attention.self.value.bias.value"}, tensor<768x768xf32> {jax.result_info = "result[1][1].opt_state[1][0].mu.bert.encoder.layer[7].attention.self.key.weight.value"}, tensor<768xf32> {jax.result_info = "result[1][1].opt_state[1][0].mu.bert.encoder.layer[7].attention.self.key.bias.value"}, tensor<768x768xf32> {jax.result_info = "result[1][1].opt_state[1][0].mu.bert.encoder.layer[7].attention.output.dense.weight.value"}, tensor<768xf32> {jax.result_info = "result[1][1].opt_state[1][0].mu.bert.encoder.layer[7].attention.output.dense.bias.value"}, tensor<768xf32> {jax.result_info = "result[1][1].opt_state[1][0].mu.bert.encoder.layer[7].attention.output.LayerNorm.weight.value"}, tensor<768xf32> {jax.result_info = "result[1][1].opt_state[1][0].mu.bert.encoder.layer[7].attention.output.LayerNorm.bias.value"}, tensor<3072x768xf32> {jax.result_info = "result[1][1].opt_state[1][0].mu.bert.encoder.layer[7].intermediate.dense.weight.value"}, tensor<3072xf32> {jax.result_info = "result[1][1].opt_state[1][0].mu.bert.encoder.layer[7].intermediate.dense.bias.value"}, tensor<768x3072xf32> {jax.result_info = "result[1][1].opt_state[1][0].mu.bert.encoder.layer[7].output.dense.weight.value"}, tensor<768xf32> {jax.result_info = "result[1][1].opt_state[1][0].mu.bert.encoder.layer[7].output.dense.bias.value"}, tensor<768xf32> {jax.result_info = "result[1][1].opt_state[1][0].mu.bert.encoder.layer[7].output.LayerNorm.weight.value"}, tensor<768xf32> {jax.result_info = "result[1][1].opt_state[1][0].mu.bert.encoder.layer[7].output.LayerNorm.bias.value"}, tensor<768x768xf32> {jax.result_info = "result[1][1].opt_state[1][0].mu.bert.encoder.layer[8].attention.self.query.weight.value"}, tensor<768xf32> {jax.result_info = "result[1][1].opt_state[1][0].mu.bert.encoder.layer[8].attention.self.query.bias.value"}, tensor<768x768xf32> {jax.result_info = "result[1][1].opt_state[1][0].mu.bert.encoder.layer[8].attention.self.value.weight.value"}, tensor<768xf32> {jax.result_info = "result[1][1].opt_state[1][0].mu.bert.encoder.layer[8].attention.self.value.bias.value"}, tensor<768x768xf32> {jax.result_info = "result[1][1].opt_state[1][0].mu.bert.encoder.layer[8].attention.self.key.weight.value"}, tensor<768xf32> {jax.result_info = "result[1][1].opt_state[1][0].mu.bert.encoder.layer[8].attention.self.key.bias.value"}, tensor<768x768xf32> {jax.result_info = "result[1][1].opt_state[1][0].mu.bert.encoder.layer[8].attention.output.dense.weight.value"}, tensor<768xf32> {jax.result_info = "result[1][1].opt_state[1][0].mu.bert.encoder.layer[8].attention.output.dense.bias.value"}, tensor<768xf32> {jax.result_info = "result[1][1].opt_state[1][0].mu.bert.encoder.layer[8].attention.output.LayerNorm.weight.value"}, tensor<768xf32> {jax.result_info = "result[1][1].opt_state[1][0].mu.bert.encoder.layer[8].attention.output.LayerNorm.bias.value"}, tensor<3072x768xf32> {jax.result_info = "result[1][1].opt_state[1][0].mu.bert.encoder.layer[8].intermediate.dense.weight.value"}, tensor<3072xf32> {jax.result_info = "result[1][1].opt_state[1][0].mu.bert.encoder.layer[8].intermediate.dense.bias.value"}, tensor<768x3072xf32> {jax.result_info = "result[1][1].opt_state[1][0].mu.bert.encoder.layer[8].output.dense.weight.value"}, tensor<768xf32> {jax.result_info = "result[1][1].opt_state[1][0].mu.bert.encoder.layer[8].output.dense.bias.value"}, tensor<768xf32> {jax.result_info = "result[1][1].opt_state[1][0].mu.bert.encoder.layer[8].output.LayerNorm.weight.value"}, tensor<768xf32> {jax.result_info = "result[1][1].opt_state[1][0].mu.bert.encoder.layer[8].output.LayerNorm.bias.value"}, tensor<768x768xf32> {jax.result_info = "result[1][1].opt_state[1][0].mu.bert.encoder.layer[9].attention.self.query.weight.value"}, tensor<768xf32> {jax.result_info = "result[1][1].opt_state[1][0].mu.bert.encoder.layer[9].attention.self.query.bias.value"}, tensor<768x768xf32> {jax.result_info = "result[1][1].opt_state[1][0].mu.bert.encoder.layer[9].attention.self.value.weight.value"}, tensor<768xf32> {jax.result_info = "result[1][1].opt_state[1][0].mu.bert.encoder.layer[9].attention.self.value.bias.value"}, tensor<768x768xf32> {jax.result_info = "result[1][1].opt_state[1][0].mu.bert.encoder.layer[9].attention.self.key.weight.value"}, tensor<768xf32> {jax.result_info = "result[1][1].opt_state[1][0].mu.bert.encoder.layer[9].attention.self.key.bias.value"}, tensor<768x768xf32> {jax.result_info = "result[1][1].opt_state[1][0].mu.bert.encoder.layer[9].attention.output.dense.weight.value"}, tensor<768xf32> {jax.result_info = "result[1][1].opt_state[1][0].mu.bert.encoder.layer[9].attention.output.dense.bias.value"}, tensor<768xf32> {jax.result_info = "result[1][1].opt_state[1][0].mu.bert.encoder.layer[9].attention.output.LayerNorm.weight.value"}, tensor<768xf32> {jax.result_info = "result[1][1].opt_state[1][0].mu.bert.encoder.layer[9].attention.output.LayerNorm.bias.value"}, tensor<3072x768xf32> {jax.result_info = "result[1][1].opt_state[1][0].mu.bert.encoder.layer[9].intermediate.dense.weight.value"}, tensor<3072xf32> {jax.result_info = "result[1][1].opt_state[1][0].mu.bert.encoder.layer[9].intermediate.dense.bias.value"}, tensor<768x3072xf32> {jax.result_info = "result[1][1].opt_state[1][0].mu.bert.encoder.layer[9].output.dense.weight.value"}, tensor<768xf32> {jax.result_info = "result[1][1].opt_state[1][0].mu.bert.encoder.layer[9].output.dense.bias.value"}, tensor<768xf32> {jax.result_info = "result[1][1].opt_state[1][0].mu.bert.encoder.layer[9].output.LayerNorm.weight.value"}, tensor<768xf32> {jax.result_info = "result[1][1].opt_state[1][0].mu.bert.encoder.layer[9].output.LayerNorm.bias.value"}, tensor<768x768xf32> {jax.result_info = "result[1][1].opt_state[1][0].mu.bert.encoder.layer[10].attention.self.query.weight.value"}, tensor<768xf32> {jax.result_info = "result[1][1].opt_state[1][0].mu.bert.encoder.layer[10].attention.self.query.bias.value"}, tensor<768x768xf32> {jax.result_info = "result[1][1].opt_state[1][0].mu.bert.encoder.layer[10].attention.self.value.weight.value"}, tensor<768xf32> {jax.result_info = "result[1][1].opt_state[1][0].mu.bert.encoder.layer[10].attention.self.value.bias.value"}, tensor<768x768xf32> {jax.result_info = "result[1][1].opt_state[1][0].mu.bert.encoder.layer[10].attention.self.key.weight.value"}, tensor<768xf32> {jax.result_info = "result[1][1].opt_state[1][0].mu.bert.encoder.layer[10].attention.self.key.bias.value"}, tensor<768x768xf32> {jax.result_info = "result[1][1].opt_state[1][0].mu.bert.encoder.layer[10].attention.output.dense.weight.value"}, tensor<768xf32> {jax.result_info = "result[1][1].opt_state[1][0].mu.bert.encoder.layer[10].attention.output.dense.bias.value"}, tensor<768xf32> {jax.result_info = "result[1][1].opt_state[1][0].mu.bert.encoder.layer[10].attention.output.LayerNorm.weight.value"}, tensor<768xf32> {jax.result_info = "result[1][1].opt_state[1][0].mu.bert.encoder.layer[10].attention.output.LayerNorm.bias.value"}, tensor<3072x768xf32> {jax.result_info = "result[1][1].opt_state[1][0].mu.bert.encoder.layer[10].intermediate.dense.weight.value"}, tensor<3072xf32> {jax.result_info = "result[1][1].opt_state[1][0].mu.bert.encoder.layer[10].intermediate.dense.bias.value"}, tensor<768x3072xf32> {jax.result_info = "result[1][1].opt_state[1][0].mu.bert.encoder.layer[10].output.dense.weight.value"}, tensor<768xf32> {jax.result_info = "result[1][1].opt_state[1][0].mu.bert.encoder.layer[10].output.dense.bias.value"}, tensor<768xf32> {jax.result_info = "result[1][1].opt_state[1][0].mu.bert.encoder.layer[10].output.LayerNorm.weight.value"}, tensor<768xf32> {jax.result_info = "result[1][1].opt_state[1][0].mu.bert.encoder.layer[10].output.LayerNorm.bias.value"}, tensor<768x768xf32> {jax.result_info = "result[1][1].opt_state[1][0].mu.bert.encoder.layer[11].attention.self.query.weight.value"}, tensor<768xf32> {jax.result_info = "result[1][1].opt_state[1][0].mu.bert.encoder.layer[11].attention.self.query.bias.value"}, tensor<768x768xf32> {jax.result_info = "result[1][1].opt_state[1][0].mu.bert.encoder.layer[11].attention.self.value.weight.value"}, tensor<768xf32> {jax.result_info = "result[1][1].opt_state[1][0].mu.bert.encoder.layer[11].attention.self.value.bias.value"}, tensor<768x768xf32> {jax.result_info = "result[1][1].opt_state[1][0].mu.bert.encoder.layer[11].attention.self.key.weight.value"}, tensor<768xf32> {jax.result_info = "result[1][1].opt_state[1][0].mu.bert.encoder.layer[11].attention.self.key.bias.value"}, tensor<768x768xf32> {jax.result_info = "result[1][1].opt_state[1][0].mu.bert.encoder.layer[11].attention.output.dense.weight.value"}, tensor<768xf32> {jax.result_info = "result[1][1].opt_state[1][0].mu.bert.encoder.layer[11].attention.output.dense.bias.value"}, tensor<768xf32> {jax.result_info = "result[1][1].opt_state[1][0].mu.bert.encoder.layer[11].attention.output.LayerNorm.weight.value"}, tensor<768xf32> {jax.result_info = "result[1][1].opt_state[1][0].mu.bert.encoder.layer[11].attention.output.LayerNorm.bias.value"}, tensor<3072x768xf32> {jax.result_info = "result[1][1].opt_state[1][0].mu.bert.encoder.layer[11].intermediate.dense.weight.value"}, tensor<3072xf32> {jax.result_info = "result[1][1].opt_state[1][0].mu.bert.encoder.layer[11].intermediate.dense.bias.value"}, tensor<768x3072xf32> {jax.result_info = "result[1][1].opt_state[1][0].mu.bert.encoder.layer[11].output.dense.weight.value"}, tensor<768xf32> {jax.result_info = "result[1][1].opt_state[1][0].mu.bert.encoder.layer[11].output.dense.bias.value"}, tensor<768xf32> {jax.result_info = "result[1][1].opt_state[1][0].mu.bert.encoder.layer[11].output.LayerNorm.weight.value"}, tensor<768xf32> {jax.result_info = "result[1][1].opt_state[1][0].mu.bert.encoder.layer[11].output.LayerNorm.bias.value"}, tensor<768x768xf32> {jax.result_info = "result[1][1].opt_state[1][0].mu.cls.predictions.transform.dense.weight.value"}, tensor<768xf32> {jax.result_info = "result[1][1].opt_state[1][0].mu.cls.predictions.transform.dense.bias.value"}, tensor<768xf32> {jax.result_info = "result[1][1].opt_state[1][0].mu.cls.predictions.transform.LayerNorm.weight.value"}, tensor<768xf32> {jax.result_info = "result[1][1].opt_state[1][0].mu.cls.predictions.transform.LayerNorm.bias.value"}, tensor<30522xf32> {jax.result_info = "result[1][1].opt_state[1][0].mu.cls.predictions.bias"}, tensor<30522x768xf32> {jax.result_info = "result[1][1].opt_state[1][0].nu.bert.embeddings.word_embeddings.weight.value"}, tensor<512x768xf32> {jax.result_info = "result[1][1].opt_state[1][0].nu.bert.embeddings.position_embeddings.weight.value"}, tensor<2x768xf32> {jax.result_info = "result[1][1].opt_state[1][0].nu.bert.embeddings.token_type_embeddings.weight.value"}, tensor<768xf32> {jax.result_info = "result[1][1].opt_state[1][0].nu.bert.embeddings.LayerNorm.weight.value"}, tensor<768xf32> {jax.result_info = "result[1][1].opt_state[1][0].nu.bert.embeddings.LayerNorm.bias.value"}, tensor<768x768xf32> {jax.result_info = "result[1][1].opt_state[1][0].nu.bert.encoder.layer[0].attention.self.query.weight.value"}, tensor<768xf32> {jax.result_info = "result[1][1].opt_state[1][0].nu.bert.encoder.layer[0].attention.self.query.bias.value"}, tensor<768x768xf32> {jax.result_info = "result[1][1].opt_state[1][0].nu.bert.encoder.layer[0].attention.self.value.weight.value"}, tensor<768xf32> {jax.result_info = "result[1][1].opt_state[1][0].nu.bert.encoder.layer[0].attention.self.value.bias.value"}, tensor<768x768xf32> {jax.result_info = "result[1][1].opt_state[1][0].nu.bert.encoder.layer[0].attention.self.key.weight.value"}, tensor<768xf32> {jax.result_info = "result[1][1].opt_state[1][0].nu.bert.encoder.layer[0].attention.self.key.bias.value"}, tensor<768x768xf32> {jax.result_info = "result[1][1].opt_state[1][0].nu.bert.encoder.layer[0].attention.output.dense.weight.value"}, tensor<768xf32> {jax.result_info = "result[1][1].opt_state[1][0].nu.bert.encoder.layer[0].attention.output.dense.bias.value"}, tensor<768xf32> {jax.result_info = "result[1][1].opt_state[1][0].nu.bert.encoder.layer[0].attention.output.LayerNorm.weight.value"}, tensor<768xf32> {jax.result_info = "result[1][1].opt_state[1][0].nu.bert.encoder.layer[0].attention.output.LayerNorm.bias.value"}, tensor<3072x768xf32> {jax.result_info = "result[1][1].opt_state[1][0].nu.bert.encoder.layer[0].intermediate.dense.weight.value"}, tensor<3072xf32> {jax.result_info = "result[1][1].opt_state[1][0].nu.bert.encoder.layer[0].intermediate.dense.bias.value"}, tensor<768x3072xf32> {jax.result_info = "result[1][1].opt_state[1][0].nu.bert.encoder.layer[0].output.dense.weight.value"}, tensor<768xf32> {jax.result_info = "result[1][1].opt_state[1][0].nu.bert.encoder.layer[0].output.dense.bias.value"}, tensor<768xf32> {jax.result_info = "result[1][1].opt_state[1][0].nu.bert.encoder.layer[0].output.LayerNorm.weight.value"}, tensor<768xf32> {jax.result_info = "result[1][1].opt_state[1][0].nu.bert.encoder.layer[0].output.LayerNorm.bias.value"}, tensor<768x768xf32> {jax.result_info = "result[1][1].opt_state[1][0].nu.bert.encoder.layer[1].attention.self.query.weight.value"}, tensor<768xf32> {jax.result_info = "result[1][1].opt_state[1][0].nu.bert.encoder.layer[1].attention.self.query.bias.value"}, tensor<768x768xf32> {jax.result_info = "result[1][1].opt_state[1][0].nu.bert.encoder.layer[1].attention.self.value.weight.value"}, tensor<768xf32> {jax.result_info = "result[1][1].opt_state[1][0].nu.bert.encoder.layer[1].attention.self.value.bias.value"}, tensor<768x768xf32> {jax.result_info = "result[1][1].opt_state[1][0].nu.bert.encoder.layer[1].attention.self.key.weight.value"}, tensor<768xf32> {jax.result_info = "result[1][1].opt_state[1][0].nu.bert.encoder.layer[1].attention.self.key.bias.value"}, tensor<768x768xf32> {jax.result_info = "result[1][1].opt_state[1][0].nu.bert.encoder.layer[1].attention.output.dense.weight.value"}, tensor<768xf32> {jax.result_info = "result[1][1].opt_state[1][0].nu.bert.encoder.layer[1].attention.output.dense.bias.value"}, tensor<768xf32> {jax.result_info = "result[1][1].opt_state[1][0].nu.bert.encoder.layer[1].attention.output.LayerNorm.weight.value"}, tensor<768xf32> {jax.result_info = "result[1][1].opt_state[1][0].nu.bert.encoder.layer[1].attention.output.LayerNorm.bias.value"}, tensor<3072x768xf32> {jax.result_info = "result[1][1].opt_state[1][0].nu.bert.encoder.layer[1].intermediate.dense.weight.value"}, tensor<3072xf32> {jax.result_info = "result[1][1].opt_state[1][0].nu.bert.encoder.layer[1].intermediate.dense.bias.value"}, tensor<768x3072xf32> {jax.result_info = "result[1][1].opt_state[1][0].nu.bert.encoder.layer[1].output.dense.weight.value"}, tensor<768xf32> {jax.result_info = "result[1][1].opt_state[1][0].nu.bert.encoder.layer[1].output.dense.bias.value"}, tensor<768xf32> {jax.result_info = "result[1][1].opt_state[1][0].nu.bert.encoder.layer[1].output.LayerNorm.weight.value"}, tensor<768xf32> {jax.result_info = "result[1][1].opt_state[1][0].nu.bert.encoder.layer[1].output.LayerNorm.bias.value"}, tensor<768x768xf32> {jax.result_info = "result[1][1].opt_state[1][0].nu.bert.encoder.layer[2].attention.self.query.weight.value"}, tensor<768xf32> {jax.result_info = "result[1][1].opt_state[1][0].nu.bert.encoder.layer[2].attention.self.query.bias.value"}, tensor<768x768xf32> {jax.result_info = "result[1][1].opt_state[1][0].nu.bert.encoder.layer[2].attention.self.value.weight.value"}, tensor<768xf32> {jax.result_info = "result[1][1].opt_state[1][0].nu.bert.encoder.layer[2].attention.self.value.bias.value"}, tensor<768x768xf32> {jax.result_info = "result[1][1].opt_state[1][0].nu.bert.encoder.layer[2].attention.self.key.weight.value"}, tensor<768xf32> {jax.result_info = "result[1][1].opt_state[1][0].nu.bert.encoder.layer[2].attention.self.key.bias.value"}, tensor<768x768xf32> {jax.result_info = "result[1][1].opt_state[1][0].nu.bert.encoder.layer[2].attention.output.dense.weight.value"}, tensor<768xf32> {jax.result_info = "result[1][1].opt_state[1][0].nu.bert.encoder.layer[2].attention.output.dense.bias.value"}, tensor<768xf32> {jax.result_info = "result[1][1].opt_state[1][0].nu.bert.encoder.layer[2].attention.output.LayerNorm.weight.value"}, tensor<768xf32> {jax.result_info = "result[1][1].opt_state[1][0].nu.bert.encoder.layer[2].attention.output.LayerNorm.bias.value"}, tensor<3072x768xf32> {jax.result_info = "result[1][1].opt_state[1][0].nu.bert.encoder.layer[2].intermediate.dense.weight.value"}, tensor<3072xf32> {jax.result_info = "result[1][1].opt_state[1][0].nu.bert.encoder.layer[2].intermediate.dense.bias.value"}, tensor<768x3072xf32> {jax.result_info = "result[1][1].opt_state[1][0].nu.bert.encoder.layer[2].output.dense.weight.value"}, tensor<768xf32> {jax.result_info = "result[1][1].opt_state[1][0].nu.bert.encoder.layer[2].output.dense.bias.value"}, tensor<768xf32> {jax.result_info = "result[1][1].opt_state[1][0].nu.bert.encoder.layer[2].output.LayerNorm.weight.value"}, tensor<768xf32> {jax.result_info = "result[1][1].opt_state[1][0].nu.bert.encoder.layer[2].output.LayerNorm.bias.value"}, tensor<768x768xf32> {jax.result_info = "result[1][1].opt_state[1][0].nu.bert.encoder.layer[3].attention.self.query.weight.value"}, tensor<768xf32> {jax.result_info = "result[1][1].opt_state[1][0].nu.bert.encoder.layer[3].attention.self.query.bias.value"}, tensor<768x768xf32> {jax.result_info = "result[1][1].opt_state[1][0].nu.bert.encoder.layer[3].attention.self.value.weight.value"}, tensor<768xf32> {jax.result_info = "result[1][1].opt_state[1][0].nu.bert.encoder.layer[3].attention.self.value.bias.value"}, tensor<768x768xf32> {jax.result_info = "result[1][1].opt_state[1][0].nu.bert.encoder.layer[3].attention.self.key.weight.value"}, tensor<768xf32> {jax.result_info = "result[1][1].opt_state[1][0].nu.bert.encoder.layer[3].attention.self.key.bias.value"}, tensor<768x768xf32> {jax.result_info = "result[1][1].opt_state[1][0].nu.bert.encoder.layer[3].attention.output.dense.weight.value"}, tensor<768xf32> {jax.result_info = "result[1][1].opt_state[1][0].nu.bert.encoder.layer[3].attention.output.dense.bias.value"}, tensor<768xf32> {jax.result_info = "result[1][1].opt_state[1][0].nu.bert.encoder.layer[3].attention.output.LayerNorm.weight.value"}, tensor<768xf32> {jax.result_info = "result[1][1].opt_state[1][0].nu.bert.encoder.layer[3].attention.output.LayerNorm.bias.value"}, tensor<3072x768xf32> {jax.result_info = "result[1][1].opt_state[1][0].nu.bert.encoder.layer[3].intermediate.dense.weight.value"}, tensor<3072xf32> {jax.result_info = "result[1][1].opt_state[1][0].nu.bert.encoder.layer[3].intermediate.dense.bias.value"}, tensor<768x3072xf32> {jax.result_info = "result[1][1].opt_state[1][0].nu.bert.encoder.layer[3].output.dense.weight.value"}, tensor<768xf32> {jax.result_info = "result[1][1].opt_state[1][0].nu.bert.encoder.layer[3].output.dense.bias.value"}, tensor<768xf32> {jax.result_info = "result[1][1].opt_state[1][0].nu.bert.encoder.layer[3].output.LayerNorm.weight.value"}, tensor<768xf32> {jax.result_info = "result[1][1].opt_state[1][0].nu.bert.encoder.layer[3].output.LayerNorm.bias.value"}, tensor<768x768xf32> {jax.result_info = "result[1][1].opt_state[1][0].nu.bert.encoder.layer[4].attention.self.query.weight.value"}, tensor<768xf32> {jax.result_info = "result[1][1].opt_state[1][0].nu.bert.encoder.layer[4].attention.self.query.bias.value"}, tensor<768x768xf32> {jax.result_info = "result[1][1].opt_state[1][0].nu.bert.encoder.layer[4].attention.self.value.weight.value"}, tensor<768xf32> {jax.result_info = "result[1][1].opt_state[1][0].nu.bert.encoder.layer[4].attention.self.value.bias.value"}, tensor<768x768xf32> {jax.result_info = "result[1][1].opt_state[1][0].nu.bert.encoder.layer[4].attention.self.key.weight.value"}, tensor<768xf32> {jax.result_info = "result[1][1].opt_state[1][0].nu.bert.encoder.layer[4].attention.self.key.bias.value"}, tensor<768x768xf32> {jax.result_info = "result[1][1].opt_state[1][0].nu.bert.encoder.layer[4].attention.output.dense.weight.value"}, tensor<768xf32> {jax.result_info = "result[1][1].opt_state[1][0].nu.bert.encoder.layer[4].attention.output.dense.bias.value"}, tensor<768xf32> {jax.result_info = "result[1][1].opt_state[1][0].nu.bert.encoder.layer[4].attention.output.LayerNorm.weight.value"}, tensor<768xf32> {jax.result_info = "result[1][1].opt_state[1][0].nu.bert.encoder.layer[4].attention.output.LayerNorm.bias.value"}, tensor<3072x768xf32> {jax.result_info = "result[1][1].opt_state[1][0].nu.bert.encoder.layer[4].intermediate.dense.weight.value"}, tensor<3072xf32> {jax.result_info = "result[1][1].opt_state[1][0].nu.bert.encoder.layer[4].intermediate.dense.bias.value"}, tensor<768x3072xf32> {jax.result_info = "result[1][1].opt_state[1][0].nu.bert.encoder.layer[4].output.dense.weight.value"}, tensor<768xf32> {jax.result_info = "result[1][1].opt_state[1][0].nu.bert.encoder.layer[4].output.dense.bias.value"}, tensor<768xf32> {jax.result_info = "result[1][1].opt_state[1][0].nu.bert.encoder.layer[4].output.LayerNorm.weight.value"}, tensor<768xf32> {jax.result_info = "result[1][1].opt_state[1][0].nu.bert.encoder.layer[4].output.LayerNorm.bias.value"}, tensor<768x768xf32> {jax.result_info = "result[1][1].opt_state[1][0].nu.bert.encoder.layer[5].attention.self.query.weight.value"}, tensor<768xf32> {jax.result_info = "result[1][1].opt_state[1][0].nu.bert.encoder.layer[5].attention.self.query.bias.value"}, tensor<768x768xf32> {jax.result_info = "result[1][1].opt_state[1][0].nu.bert.encoder.layer[5].attention.self.value.weight.value"}, tensor<768xf32> {jax.result_info = "result[1][1].opt_state[1][0].nu.bert.encoder.layer[5].attention.self.value.bias.value"}, tensor<768x768xf32> {jax.result_info = "result[1][1].opt_state[1][0].nu.bert.encoder.layer[5].attention.self.key.weight.value"}, tensor<768xf32> {jax.result_info = "result[1][1].opt_state[1][0].nu.bert.encoder.layer[5].attention.self.key.bias.value"}, tensor<768x768xf32> {jax.result_info = "result[1][1].opt_state[1][0].nu.bert.encoder.layer[5].attention.output.dense.weight.value"}, tensor<768xf32> {jax.result_info = "result[1][1].opt_state[1][0].nu.bert.encoder.layer[5].attention.output.dense.bias.value"}, tensor<768xf32> {jax.result_info = "result[1][1].opt_state[1][0].nu.bert.encoder.layer[5].attention.output.LayerNorm.weight.value"}, tensor<768xf32> {jax.result_info = "result[1][1].opt_state[1][0].nu.bert.encoder.layer[5].attention.output.LayerNorm.bias.value"}, tensor<3072x768xf32> {jax.result_info = "result[1][1].opt_state[1][0].nu.bert.encoder.layer[5].intermediate.dense.weight.value"}, tensor<3072xf32> {jax.result_info = "result[1][1].opt_state[1][0].nu.bert.encoder.layer[5].intermediate.dense.bias.value"}, tensor<768x3072xf32> {jax.result_info = "result[1][1].opt_state[1][0].nu.bert.encoder.layer[5].output.dense.weight.value"}, tensor<768xf32> {jax.result_info = "result[1][1].opt_state[1][0].nu.bert.encoder.layer[5].output.dense.bias.value"}, tensor<768xf32> {jax.result_info = "result[1][1].opt_state[1][0].nu.bert.encoder.layer[5].output.LayerNorm.weight.value"}, tensor<768xf32> {jax.result_info = "result[1][1].opt_state[1][0].nu.bert.encoder.layer[5].output.LayerNorm.bias.value"}, tensor<768x768xf32> {jax.result_info = "result[1][1].opt_state[1][0].nu.bert.encoder.layer[6].attention.self.query.weight.value"}, tensor<768xf32> {jax.result_info = "result[1][1].opt_state[1][0].nu.bert.encoder.layer[6].attention.self.query.bias.value"}, tensor<768x768xf32> {jax.result_info = "result[1][1].opt_state[1][0].nu.bert.encoder.layer[6].attention.self.value.weight.value"}, tensor<768xf32> {jax.result_info = "result[1][1].opt_state[1][0].nu.bert.encoder.layer[6].attention.self.value.bias.value"}, tensor<768x768xf32> {jax.result_info = "result[1][1].opt_state[1][0].nu.bert.encoder.layer[6].attention.self.key.weight.value"}, tensor<768xf32> {jax.result_info = "result[1][1].opt_state[1][0].nu.bert.encoder.layer[6].attention.self.key.bias.value"}, tensor<768x768xf32> {jax.result_info = "result[1][1].opt_state[1][0].nu.bert.encoder.layer[6].attention.output.dense.weight.value"}, tensor<768xf32> {jax.result_info = "result[1][1].opt_state[1][0].nu.bert.encoder.layer[6].attention.output.dense.bias.value"}, tensor<768xf32> {jax.result_info = "result[1][1].opt_state[1][0].nu.bert.encoder.layer[6].attention.output.LayerNorm.weight.value"}, tensor<768xf32> {jax.result_info = "result[1][1].opt_state[1][0].nu.bert.encoder.layer[6].attention.output.LayerNorm.bias.value"}, tensor<3072x768xf32> {jax.result_info = "result[1][1].opt_state[1][0].nu.bert.encoder.layer[6].intermediate.dense.weight.value"}, tensor<3072xf32> {jax.result_info = "result[1][1].opt_state[1][0].nu.bert.encoder.layer[6].intermediate.dense.bias.value"}, tensor<768x3072xf32> {jax.result_info = "result[1][1].opt_state[1][0].nu.bert.encoder.layer[6].output.dense.weight.value"}, tensor<768xf32> {jax.result_info = "result[1][1].opt_state[1][0].nu.bert.encoder.layer[6].output.dense.bias.value"}, tensor<768xf32> {jax.result_info = "result[1][1].opt_state[1][0].nu.bert.encoder.layer[6].output.LayerNorm.weight.value"}, tensor<768xf32> {jax.result_info = "result[1][1].opt_state[1][0].nu.bert.encoder.layer[6].output.LayerNorm.bias.value"}, tensor<768x768xf32> {jax.result_info = "result[1][1].opt_state[1][0].nu.bert.encoder.layer[7].attention.self.query.weight.value"}, tensor<768xf32> {jax.result_info = "result[1][1].opt_state[1][0].nu.bert.encoder.layer[7].attention.self.query.bias.value"}, tensor<768x768xf32> {jax.result_info = "result[1][1].opt_state[1][0].nu.bert.encoder.layer[7].attention.self.value.weight.value"}, tensor<768xf32> {jax.result_info = "result[1][1].opt_state[1][0].nu.bert.encoder.layer[7].attention.self.value.bias.value"}, tensor<768x768xf32> {jax.result_info = "result[1][1].opt_state[1][0].nu.bert.encoder.layer[7].attention.self.key.weight.value"}, tensor<768xf32> {jax.result_info = "result[1][1].opt_state[1][0].nu.bert.encoder.layer[7].attention.self.key.bias.value"}, tensor<768x768xf32> {jax.result_info = "result[1][1].opt_state[1][0].nu.bert.encoder.layer[7].attention.output.dense.weight.value"}, tensor<768xf32> {jax.result_info = "result[1][1].opt_state[1][0].nu.bert.encoder.layer[7].attention.output.dense.bias.value"}, tensor<768xf32> {jax.result_info = "result[1][1].opt_state[1][0].nu.bert.encoder.layer[7].attention.output.LayerNorm.weight.value"}, tensor<768xf32> {jax.result_info = "result[1][1].opt_state[1][0].nu.bert.encoder.layer[7].attention.output.LayerNorm.bias.value"}, tensor<3072x768xf32> {jax.result_info = "result[1][1].opt_state[1][0].nu.bert.encoder.layer[7].intermediate.dense.weight.value"}, tensor<3072xf32> {jax.result_info = "result[1][1].opt_state[1][0].nu.bert.encoder.layer[7].intermediate.dense.bias.value"}, tensor<768x3072xf32> {jax.result_info = "result[1][1].opt_state[1][0].nu.bert.encoder.layer[7].output.dense.weight.value"}, tensor<768xf32> {jax.result_info = "result[1][1].opt_state[1][0].nu.bert.encoder.layer[7].output.dense.bias.value"}, tensor<768xf32> {jax.result_info = "result[1][1].opt_state[1][0].nu.bert.encoder.layer[7].output.LayerNorm.weight.value"}, tensor<768xf32> {jax.result_info = "result[1][1].opt_state[1][0].nu.bert.encoder.layer[7].output.LayerNorm.bias.value"}, tensor<768x768xf32> {jax.result_info = "result[1][1].opt_state[1][0].nu.bert.encoder.layer[8].attention.self.query.weight.value"}, tensor<768xf32> {jax.result_info = "result[1][1].opt_state[1][0].nu.bert.encoder.layer[8].attention.self.query.bias.value"}, tensor<768x768xf32> {jax.result_info = "result[1][1].opt_state[1][0].nu.bert.encoder.layer[8].attention.self.value.weight.value"}, tensor<768xf32> {jax.result_info = "result[1][1].opt_state[1][0].nu.bert.encoder.layer[8].attention.self.value.bias.value"}, tensor<768x768xf32> {jax.result_info = "result[1][1].opt_state[1][0].nu.bert.encoder.layer[8].attention.self.key.weight.value"}, tensor<768xf32> {jax.result_info = "result[1][1].opt_state[1][0].nu.bert.encoder.layer[8].attention.self.key.bias.value"}, tensor<768x768xf32> {jax.result_info = "result[1][1].opt_state[1][0].nu.bert.encoder.layer[8].attention.output.dense.weight.value"}, tensor<768xf32> {jax.result_info = "result[1][1].opt_state[1][0].nu.bert.encoder.layer[8].attention.output.dense.bias.value"}, tensor<768xf32> {jax.result_info = "result[1][1].opt_state[1][0].nu.bert.encoder.layer[8].attention.output.LayerNorm.weight.value"}, tensor<768xf32> {jax.result_info = "result[1][1].opt_state[1][0].nu.bert.encoder.layer[8].attention.output.LayerNorm.bias.value"}, tensor<3072x768xf32> {jax.result_info = "result[1][1].opt_state[1][0].nu.bert.encoder.layer[8].intermediate.dense.weight.value"}, tensor<3072xf32> {jax.result_info = "result[1][1].opt_state[1][0].nu.bert.encoder.layer[8].intermediate.dense.bias.value"}, tensor<768x3072xf32> {jax.result_info = "result[1][1].opt_state[1][0].nu.bert.encoder.layer[8].output.dense.weight.value"}, tensor<768xf32> {jax.result_info = "result[1][1].opt_state[1][0].nu.bert.encoder.layer[8].output.dense.bias.value"}, tensor<768xf32> {jax.result_info = "result[1][1].opt_state[1][0].nu.bert.encoder.layer[8].output.LayerNorm.weight.value"}, tensor<768xf32> {jax.result_info = "result[1][1].opt_state[1][0].nu.bert.encoder.layer[8].output.LayerNorm.bias.value"}, tensor<768x768xf32> {jax.result_info = "result[1][1].opt_state[1][0].nu.bert.encoder.layer[9].attention.self.query.weight.value"}, tensor<768xf32> {jax.result_info = "result[1][1].opt_state[1][0].nu.bert.encoder.layer[9].attention.self.query.bias.value"}, tensor<768x768xf32> {jax.result_info = "result[1][1].opt_state[1][0].nu.bert.encoder.layer[9].attention.self.value.weight.value"}, tensor<768xf32> {jax.result_info = "result[1][1].opt_state[1][0].nu.bert.encoder.layer[9].attention.self.value.bias.value"}, tensor<768x768xf32> {jax.result_info = "result[1][1].opt_state[1][0].nu.bert.encoder.layer[9].attention.self.key.weight.value"}, tensor<768xf32> {jax.result_info = "result[1][1].opt_state[1][0].nu.bert.encoder.layer[9].attention.self.key.bias.value"}, tensor<768x768xf32> {jax.result_info = "result[1][1].opt_state[1][0].nu.bert.encoder.layer[9].attention.output.dense.weight.value"}, tensor<768xf32> {jax.result_info = "result[1][1].opt_state[1][0].nu.bert.encoder.layer[9].attention.output.dense.bias.value"}, tensor<768xf32> {jax.result_info = "result[1][1].opt_state[1][0].nu.bert.encoder.layer[9].attention.output.LayerNorm.weight.value"}, tensor<768xf32> {jax.result_info = "result[1][1].opt_state[1][0].nu.bert.encoder.layer[9].attention.output.LayerNorm.bias.value"}, tensor<3072x768xf32> {jax.result_info = "result[1][1].opt_state[1][0].nu.bert.encoder.layer[9].intermediate.dense.weight.value"}, tensor<3072xf32> {jax.result_info = "result[1][1].opt_state[1][0].nu.bert.encoder.layer[9].intermediate.dense.bias.value"}, tensor<768x3072xf32> {jax.result_info = "result[1][1].opt_state[1][0].nu.bert.encoder.layer[9].output.dense.weight.value"}, tensor<768xf32> {jax.result_info = "result[1][1].opt_state[1][0].nu.bert.encoder.layer[9].output.dense.bias.value"}, tensor<768xf32> {jax.result_info = "result[1][1].opt_state[1][0].nu.bert.encoder.layer[9].output.LayerNorm.weight.value"}, tensor<768xf32> {jax.result_info = "result[1][1].opt_state[1][0].nu.bert.encoder.layer[9].output.LayerNorm.bias.value"}, tensor<768x768xf32> {jax.result_info = "result[1][1].opt_state[1][0].nu.bert.encoder.layer[10].attention.self.query.weight.value"}, tensor<768xf32> {jax.result_info = "result[1][1].opt_state[1][0].nu.bert.encoder.layer[10].attention.self.query.bias.value"}, tensor<768x768xf32> {jax.result_info = "result[1][1].opt_state[1][0].nu.bert.encoder.layer[10].attention.self.value.weight.value"}, tensor<768xf32> {jax.result_info = "result[1][1].opt_state[1][0].nu.bert.encoder.layer[10].attention.self.value.bias.value"}, tensor<768x768xf32> {jax.result_info = "result[1][1].opt_state[1][0].nu.bert.encoder.layer[10].attention.self.key.weight.value"}, tensor<768xf32> {jax.result_info = "result[1][1].opt_state[1][0].nu.bert.encoder.layer[10].attention.self.key.bias.value"}, tensor<768x768xf32> {jax.result_info = "result[1][1].opt_state[1][0].nu.bert.encoder.layer[10].attention.output.dense.weight.value"}, tensor<768xf32> {jax.result_info = "result[1][1].opt_state[1][0].nu.bert.encoder.layer[10].attention.output.dense.bias.value"}, tensor<768xf32> {jax.result_info = "result[1][1].opt_state[1][0].nu.bert.encoder.layer[10].attention.output.LayerNorm.weight.value"}, tensor<768xf32> {jax.result_info = "result[1][1].opt_state[1][0].nu.bert.encoder.layer[10].attention.output.LayerNorm.bias.value"}, tensor<3072x768xf32> {jax.result_info = "result[1][1].opt_state[1][0].nu.bert.encoder.layer[10].intermediate.dense.weight.value"}, tensor<3072xf32> {jax.result_info = "result[1][1].opt_state[1][0].nu.bert.encoder.layer[10].intermediate.dense.bias.value"}, tensor<768x3072xf32> {jax.result_info = "result[1][1].opt_state[1][0].nu.bert.encoder.layer[10].output.dense.weight.value"}, tensor<768xf32> {jax.result_info = "result[1][1].opt_state[1][0].nu.bert.encoder.layer[10].output.dense.bias.value"}, tensor<768xf32> {jax.result_info = "result[1][1].opt_state[1][0].nu.bert.encoder.layer[10].output.LayerNorm.weight.value"}, tensor<768xf32> {jax.result_info = "result[1][1].opt_state[1][0].nu.bert.encoder.layer[10].output.LayerNorm.bias.value"}, tensor<768x768xf32> {jax.result_info = "result[1][1].opt_state[1][0].nu.bert.encoder.layer[11].attention.self.query.weight.value"}, tensor<768xf32> {jax.result_info = "result[1][1].opt_state[1][0].nu.bert.encoder.layer[11].attention.self.query.bias.value"}, tensor<768x768xf32> {jax.result_info = "result[1][1].opt_state[1][0].nu.bert.encoder.layer[11].attention.self.value.weight.value"}, tensor<768xf32> {jax.result_info = "result[1][1].opt_state[1][0].nu.bert.encoder.layer[11].attention.self.value.bias.value"}, tensor<768x768xf32> {jax.result_info = "result[1][1].opt_state[1][0].nu.bert.encoder.layer[11].attention.self.key.weight.value"}, tensor<768xf32> {jax.result_info = "result[1][1].opt_state[1][0].nu.bert.encoder.layer[11].attention.self.key.bias.value"}, tensor<768x768xf32> {jax.result_info = "result[1][1].opt_state[1][0].nu.bert.encoder.layer[11].attention.output.dense.weight.value"}, tensor<768xf32> {jax.result_info = "result[1][1].opt_state[1][0].nu.bert.encoder.layer[11].attention.output.dense.bias.value"}, tensor<768xf32> {jax.result_info = "result[1][1].opt_state[1][0].nu.bert.encoder.layer[11].attention.output.LayerNorm.weight.value"}, tensor<768xf32> {jax.result_info = "result[1][1].opt_state[1][0].nu.bert.encoder.layer[11].attention.output.LayerNorm.bias.value"}, tensor<3072x768xf32> {jax.result_info = "result[1][1].opt_state[1][0].nu.bert.encoder.layer[11].intermediate.dense.weight.value"}, tensor<3072xf32> {jax.result_info = "result[1][1].opt_state[1][0].nu.bert.encoder.layer[11].intermediate.dense.bias.value"}, tensor<768x3072xf32> {jax.result_info = "result[1][1].opt_state[1][0].nu.bert.encoder.layer[11].output.dense.weight.value"}, tensor<768xf32> {jax.result_info = "result[1][1].opt_state[1][0].nu.bert.encoder.layer[11].output.dense.bias.value"}, tensor<768xf32> {jax.result_info = "result[1][1].opt_state[1][0].nu.bert.encoder.layer[11].output.LayerNorm.weight.value"}, tensor<768xf32> {jax.result_info = "result[1][1].opt_state[1][0].nu.bert.encoder.layer[11].output.LayerNorm.bias.value"}, tensor<768x768xf32> {jax.result_info = "result[1][1].opt_state[1][0].nu.cls.predictions.transform.dense.weight.value"}, tensor<768xf32> {jax.result_info = "result[1][1].opt_state[1][0].nu.cls.predictions.transform.dense.bias.value"}, tensor<768xf32> {jax.result_info = "result[1][1].opt_state[1][0].nu.cls.predictions.transform.LayerNorm.weight.value"}, tensor<768xf32> {jax.result_info = "result[1][1].opt_state[1][0].nu.cls.predictions.transform.LayerNorm.bias.value"}, tensor<30522xf32> {jax.result_info = "result[1][1].opt_state[1][0].nu.cls.predictions.bias"}, tensor<i32> {jax.result_info = "result[1][1].opt_state[1][2].count"}, tensor<i32> {jax.result_info = "result[1][2]['acc'][0]"}, tensor<i32> {jax.result_info = "result[1][2]['acc'][1]"}, tensor<f32> {jax.result_info = "result[1][2]['loss'][0]"}, tensor<i32> {jax.result_info = "result[1][2]['loss'][1]"}, tensor<i32> {jax.result_info = "result[1][2]['total_token']"}) {
    %0 = stablehlo.iota dim = 0 : tensor<512xi32>
    %1 = stablehlo.broadcast_in_dim %0, dims = [1] : (tensor<512xi32>) -> tensor<1x512xi32>
    %2 = stablehlo.broadcast_in_dim %1, dims = [0, 1] : (tensor<1x512xi32>) -> tensor<64x512xi32>
    %c = stablehlo.constant dense<0> : tensor<i32>
    %3 = stablehlo.broadcast_in_dim %c, dims = [] : (tensor<i32>) -> tensor<64x512xi32>
    %4 = stablehlo.compare  LT, %arg608, %3,  SIGNED : (tensor<64x512xi32>, tensor<64x512xi32>) -> tensor<64x512xi1>
    %c_0 = stablehlo.constant dense<30522> : tensor<i32>
    %5 = stablehlo.broadcast_in_dim %c_0, dims = [] : (tensor<i32>) -> tensor<64x512xi32>
    %6 = stablehlo.add %arg608, %5 : tensor<64x512xi32>
    %7 = stablehlo.select %4, %6, %arg608 : tensor<64x512xi1>, tensor<64x512xi32>
    %8 = stablehlo.broadcast_in_dim %7, dims = [0, 1] : (tensor<64x512xi32>) -> tensor<64x512x1xi32>
    %9 = "stablehlo.gather"(%arg0, %8) <{dimension_numbers = #stablehlo.gather<offset_dims = [2], collapsed_slice_dims = [0], start_index_map = [0], index_vector_dim = 2>, indices_are_sorted = false, slice_sizes = array<i64: 1, 768>}> : (tensor<30522x768xf32>, tensor<64x512x1xi32>) -> tensor<64x512x768xf32>
    %10 = stablehlo.broadcast_in_dim %c, dims = [] : (tensor<i32>) -> tensor<64x512xi32>
    %11 = stablehlo.compare  LT, %2, %10,  SIGNED : (tensor<64x512xi32>, tensor<64x512xi32>) -> tensor<64x512xi1>
    %c_1 = stablehlo.constant dense<512> : tensor<i32>
    %12 = stablehlo.broadcast_in_dim %c_1, dims = [] : (tensor<i32>) -> tensor<64x512xi32>
    %13 = stablehlo.add %2, %12 : tensor<64x512xi32>
    %14 = stablehlo.select %11, %13, %2 : tensor<64x512xi1>, tensor<64x512xi32>
    %15 = stablehlo.broadcast_in_dim %14, dims = [0, 1] : (tensor<64x512xi32>) -> tensor<64x512x1xi32>
    %16 = "stablehlo.gather"(%arg1, %15) <{dimension_numbers = #stablehlo.gather<offset_dims = [2], collapsed_slice_dims = [0], start_index_map = [0], index_vector_dim = 2>, indices_are_sorted = false, slice_sizes = array<i64: 1, 768>}> : (tensor<512x768xf32>, tensor<64x512x1xi32>) -> tensor<64x512x768xf32>
    %17 = stablehlo.broadcast_in_dim %c, dims = [] : (tensor<i32>) -> tensor<64x512xi32>
    %18 = stablehlo.compare  LT, %arg610, %17,  SIGNED : (tensor<64x512xi32>, tensor<64x512xi32>) -> tensor<64x512xi1>
    %c_2 = stablehlo.constant dense<2> : tensor<i32>
    %19 = stablehlo.broadcast_in_dim %c_2, dims = [] : (tensor<i32>) -> tensor<64x512xi32>
    %20 = stablehlo.add %arg610, %19 : tensor<64x512xi32>
    %21 = stablehlo.select %18, %20, %arg610 : tensor<64x512xi1>, tensor<64x512xi32>
    %22 = stablehlo.broadcast_in_dim %21, dims = [0, 1] : (tensor<64x512xi32>) -> tensor<64x512x1xi32>
    %23 = "stablehlo.gather"(%arg2, %22) <{dimension_numbers = #stablehlo.gather<offset_dims = [2], collapsed_slice_dims = [0], start_index_map = [0], index_vector_dim = 2>, indices_are_sorted = false, slice_sizes = array<i64: 1, 768>}> : (tensor<2x768xf32>, tensor<64x512x1xi32>) -> tensor<64x512x768xf32>
    %24 = stablehlo.add %9, %23 : tensor<64x512x768xf32>
    %25 = stablehlo.add %24, %16 : tensor<64x512x768xf32>
    %cst = stablehlo.constant dense<0.000000e+00> : tensor<f32>
    %26 = stablehlo.reduce(%25 init: %cst) applies stablehlo.add across dimensions = [2] : (tensor<64x512x768xf32>, tensor<f32>) -> tensor<64x512xf32>
    %27 = stablehlo.broadcast_in_dim %26, dims = [0, 1] : (tensor<64x512xf32>) -> tensor<64x512x1xf32>
    %cst_3 = stablehlo.constant dense<7.680000e+02> : tensor<f32>
    %28 = stablehlo.broadcast_in_dim %cst_3, dims = [] : (tensor<f32>) -> tensor<64x512x1xf32>
    %29 = stablehlo.divide %27, %28 : tensor<64x512x1xf32>
    %c_4 = stablehlo.constant dense<0> : tensor<i32>
    %30:4 = call @_var(%25, %c_4) : (tensor<64x512x768xf32>, tensor<i32>) -> (tensor<64x512x1xf32>, tensor<64x512x768xf32>, tensor<f32>, tensor<i1>)
    %cst_5 = stablehlo.constant dense<0.000000e+00> : tensor<f32>
    %31 = stablehlo.broadcast_in_dim %cst_5, dims = [] : (tensor<f32>) -> tensor<64x512x1xf32>
    %32 = stablehlo.maximum %30#0, %31 : tensor<64x512x1xf32>
    %33 = stablehlo.compare  EQ, %30#0, %32,  FLOAT : (tensor<64x512x1xf32>, tensor<64x512x1xf32>) -> tensor<64x512x1xi1>
    %cst_6 = stablehlo.constant dense<1.000000e+00> : tensor<f32>
    %34 = stablehlo.broadcast_in_dim %cst_6, dims = [] : (tensor<f32>) -> tensor<64x512x1xf32>
    %35 = stablehlo.broadcast_in_dim %cst_5, dims = [] : (tensor<f32>) -> tensor<64x512x1xf32>
    %36 = stablehlo.select %33, %34, %35 : tensor<64x512x1xi1>, tensor<64x512x1xf32>
    %37 = stablehlo.broadcast_in_dim %cst_5, dims = [] : (tensor<f32>) -> tensor<64x512x1xf32>
    %38 = stablehlo.compare  EQ, %37, %32,  FLOAT : (tensor<64x512x1xf32>, tensor<64x512x1xf32>) -> tensor<64x512x1xi1>
    %cst_7 = stablehlo.constant dense<2.000000e+00> : tensor<f32>
    %39 = stablehlo.broadcast_in_dim %cst_7, dims = [] : (tensor<f32>) -> tensor<64x512x1xf32>
    %40 = stablehlo.broadcast_in_dim %cst_6, dims = [] : (tensor<f32>) -> tensor<64x512x1xf32>
    %41 = stablehlo.select %38, %39, %40 : tensor<64x512x1xi1>, tensor<64x512x1xf32>
    %42 = stablehlo.divide %36, %41 : tensor<64x512x1xf32>
    %cst_8 = stablehlo.constant dense<9.99999996E-13> : tensor<f32>
    %43 = stablehlo.broadcast_in_dim %cst_8, dims = [] : (tensor<f32>) -> tensor<64x512x1xf32>
    %44 = stablehlo.add %32, %43 : tensor<64x512x1xf32>
    %45 = stablehlo.rsqrt %44 : tensor<64x512x1xf32>
    %46 = stablehlo.divide %45, %44 : tensor<64x512x1xf32>
    %cst_9 = stablehlo.constant dense<-5.000000e-01> : tensor<f32>
    %47 = stablehlo.broadcast_in_dim %cst_9, dims = [] : (tensor<f32>) -> tensor<64x512x1xf32>
    %48 = stablehlo.multiply %47, %46 : tensor<64x512x1xf32>
    %49 = stablehlo.broadcast_in_dim %29, dims = [0, 1, 2] : (tensor<64x512x1xf32>) -> tensor<64x512x768xf32>
    %50 = stablehlo.subtract %25, %49 : tensor<64x512x768xf32>
    %51 = stablehlo.broadcast_in_dim %45, dims = [0, 1, 2] : (tensor<64x512x1xf32>) -> tensor<64x512x768xf32>
    %52 = stablehlo.multiply %50, %51 : tensor<64x512x768xf32>
    %53 = stablehlo.broadcast_in_dim %arg3, dims = [2] : (tensor<768xf32>) -> tensor<1x1x768xf32>
    %54 = stablehlo.broadcast_in_dim %53, dims = [0, 1, 2] : (tensor<1x1x768xf32>) -> tensor<64x512x768xf32>
    %55 = stablehlo.multiply %54, %52 : tensor<64x512x768xf32>
    %56 = stablehlo.broadcast_in_dim %arg4, dims = [2] : (tensor<768xf32>) -> tensor<1x1x768xf32>
    %57 = stablehlo.broadcast_in_dim %56, dims = [0, 1, 2] : (tensor<1x1x768xf32>) -> tensor<64x512x768xf32>
    %58 = stablehlo.add %55, %57 : tensor<64x512x768xf32>
    %c_10 = stablehlo.constant dense<true> : tensor<i1>
    %59 = stablehlo.broadcast_in_dim %c_10, dims = [] : (tensor<i1>) -> tensor<512xi1>
    %60 = stablehlo.broadcast_in_dim %59, dims = [1] : (tensor<512xi1>) -> tensor<512x512xi1>
    %61 = stablehlo.broadcast_in_dim %60, dims = [1, 2] : (tensor<512x512xi1>) -> tensor<64x512x512xi1>
    %62 = stablehlo.broadcast_in_dim %arg609, dims = [0, 2] : (tensor<64x512xi32>) -> tensor<64x1x512xi32>
    %63 = stablehlo.convert %61 : (tensor<64x512x512xi1>) -> tensor<64x512x512xi32>
    %64 = stablehlo.broadcast_in_dim %62, dims = [0, 1, 2] : (tensor<64x1x512xi32>) -> tensor<64x512x512xi32>
    %65 = stablehlo.and %63, %64 : tensor<64x512x512xi32>
    %c_11 = stablehlo.constant dense<0> : tensor<i32>
    %66 = stablehlo.broadcast_in_dim %c_11, dims = [] : (tensor<i32>) -> tensor<64x512x512xi32>
    %67 = stablehlo.compare  NE, %65, %66,  SIGNED : (tensor<64x512x512xi32>, tensor<64x512x512xi32>) -> tensor<64x512x512xi1>
    %68 = stablehlo.convert %67 : tensor<64x512x512xi1>
    %69 = stablehlo.transpose %arg5, dims = [1, 0] : (tensor<768x768xf32>) -> tensor<768x768xf32>
    %70 = stablehlo.dot_general %58, %69, contracting_dims = [2] x [0], precision = [DEFAULT, DEFAULT] : (tensor<64x512x768xf32>, tensor<768x768xf32>) -> tensor<64x512x768xf32>
    %71 = stablehlo.broadcast_in_dim %arg6, dims = [2] : (tensor<768xf32>) -> tensor<1x1x768xf32>
    %72 = stablehlo.broadcast_in_dim %71, dims = [0, 1, 2] : (tensor<1x1x768xf32>) -> tensor<64x512x768xf32>
    %73 = stablehlo.add %70, %72 : tensor<64x512x768xf32>
    %74 = stablehlo.transpose %arg9, dims = [1, 0] : (tensor<768x768xf32>) -> tensor<768x768xf32>
    %75 = stablehlo.dot_general %58, %74, contracting_dims = [2] x [0], precision = [DEFAULT, DEFAULT] : (tensor<64x512x768xf32>, tensor<768x768xf32>) -> tensor<64x512x768xf32>
    %76 = stablehlo.broadcast_in_dim %arg10, dims = [2] : (tensor<768xf32>) -> tensor<1x1x768xf32>
    %77 = stablehlo.broadcast_in_dim %76, dims = [0, 1, 2] : (tensor<1x1x768xf32>) -> tensor<64x512x768xf32>
    %78 = stablehlo.add %75, %77 : tensor<64x512x768xf32>
    %79 = stablehlo.transpose %arg7, dims = [1, 0] : (tensor<768x768xf32>) -> tensor<768x768xf32>
    %80 = stablehlo.dot_general %58, %79, contracting_dims = [2] x [0], precision = [DEFAULT, DEFAULT] : (tensor<64x512x768xf32>, tensor<768x768xf32>) -> tensor<64x512x768xf32>
    %81 = stablehlo.broadcast_in_dim %arg8, dims = [2] : (tensor<768xf32>) -> tensor<1x1x768xf32>
    %82 = stablehlo.broadcast_in_dim %81, dims = [0, 1, 2] : (tensor<1x1x768xf32>) -> tensor<64x512x768xf32>
    %83 = stablehlo.add %80, %82 : tensor<64x512x768xf32>
    %84 = stablehlo.reshape %73 : (tensor<64x512x768xf32>) -> tensor<64x512x12x64xf32>
    %85 = stablehlo.reshape %78 : (tensor<64x512x768xf32>) -> tensor<64x512x12x64xf32>
    %86 = stablehlo.reshape %83 : (tensor<64x512x768xf32>) -> tensor<64x512x12x64xf32>
    %87 = stablehlo.broadcast_in_dim %68, dims = [0, 1, 3] : (tensor<64x512x512xi1>) -> tensor<64x512x1x512xi1>
    %cst_12 = stablehlo.constant dense<6.400000e+01> : tensor<f32>
    %88 = stablehlo.sqrt %cst_12 : tensor<f32>
    %89 = stablehlo.convert %88 : tensor<f32>
    %90 = stablehlo.broadcast_in_dim %89, dims = [] : (tensor<f32>) -> tensor<64x512x12x64xf32>
    %91 = stablehlo.divide %84, %90 : tensor<64x512x12x64xf32>
    %92 = stablehlo.dot_general %85, %91, batching_dims = [0, 2] x [0, 2], contracting_dims = [3] x [3], precision = [DEFAULT, DEFAULT] : (tensor<64x512x12x64xf32>, tensor<64x512x12x64xf32>) -> tensor<64x12x512x512xf32>
    %93 = stablehlo.transpose %92, dims = [0, 3, 1, 2] : (tensor<64x12x512x512xf32>) -> tensor<64x512x12x512xf32>
    %cst_13 = stablehlo.constant dense<-3.40282347E+38> : tensor<f32>
    %94:2 = call @_where_33(%87, %93, %cst_13) : (tensor<64x512x1x512xi1>, tensor<64x512x12x512xf32>, tensor<f32>) -> (tensor<64x512x12x512xf32>, tensor<64x512x12x512xi1>)
    %cst_14 = stablehlo.constant dense<0xFF800000> : tensor<f32>
    %95 = stablehlo.reduce(%94#0 init: %cst_14) applies stablehlo.maximum across dimensions = [3] : (tensor<64x512x12x512xf32>, tensor<f32>) -> tensor<64x512x12xf32>
    %cst_15 = stablehlo.constant dense<0xFF800000> : tensor<f32>
    %96 = stablehlo.broadcast_in_dim %cst_15, dims = [] : (tensor<f32>) -> tensor<64x512x12xf32>
    %97 = stablehlo.maximum %96, %95 : tensor<64x512x12xf32>
    %98 = stablehlo.broadcast_in_dim %97, dims = [0, 1, 2] : (tensor<64x512x12xf32>) -> tensor<64x512x12x1xf32>
    %99 = stablehlo.broadcast_in_dim %98, dims = [0, 1, 2, 3] : (tensor<64x512x12x1xf32>) -> tensor<64x512x12x512xf32>
    %100 = stablehlo.subtract %94#0, %99 : tensor<64x512x12x512xf32>
    %101 = stablehlo.exponential %100 : tensor<64x512x12x512xf32>
    %cst_16 = stablehlo.constant dense<0.000000e+00> : tensor<f32>
    %102 = stablehlo.reduce(%101 init: %cst_16) applies stablehlo.add across dimensions = [3] : (tensor<64x512x12x512xf32>, tensor<f32>) -> tensor<64x512x12xf32>
    %103 = stablehlo.broadcast_in_dim %102, dims = [0, 1, 2] : (tensor<64x512x12xf32>) -> tensor<64x512x12x1xf32>
    %104 = stablehlo.broadcast_in_dim %103, dims = [0, 1, 2, 3] : (tensor<64x512x12x1xf32>) -> tensor<64x512x12x512xf32>
    %105 = stablehlo.divide %101, %104 : tensor<64x512x12x512xf32>
    %106 = stablehlo.multiply %103, %103 : tensor<64x512x12x1xf32>
    %cst_17 = stablehlo.constant dense<1.000000e+00> : tensor<f32>
    %107 = stablehlo.broadcast_in_dim %cst_17, dims = [] : (tensor<f32>) -> tensor<64x512x12x1xf32>
    %108 = stablehlo.divide %107, %106 : tensor<64x512x12x1xf32>
    %109 = stablehlo.dot_general %86, %105, batching_dims = [0, 2] x [0, 2], contracting_dims = [1] x [3], precision = [DEFAULT, DEFAULT] : (tensor<64x512x12x64xf32>, tensor<64x512x12x512xf32>) -> tensor<64x12x64x512xf32>
    %110 = stablehlo.transpose %109, dims = [0, 3, 1, 2] : (tensor<64x12x64x512xf32>) -> tensor<64x512x12x64xf32>
    %111 = stablehlo.reshape %110 : (tensor<64x512x12x64xf32>) -> tensor<64x512x768xf32>
    %112 = stablehlo.transpose %arg11, dims = [1, 0] : (tensor<768x768xf32>) -> tensor<768x768xf32>
    %113 = stablehlo.dot_general %111, %112, contracting_dims = [2] x [0], precision = [DEFAULT, DEFAULT] : (tensor<64x512x768xf32>, tensor<768x768xf32>) -> tensor<64x512x768xf32>
    %114 = stablehlo.broadcast_in_dim %arg12, dims = [2] : (tensor<768xf32>) -> tensor<1x1x768xf32>
    %115 = stablehlo.broadcast_in_dim %114, dims = [0, 1, 2] : (tensor<1x1x768xf32>) -> tensor<64x512x768xf32>
    %116 = stablehlo.add %113, %115 : tensor<64x512x768xf32>
    %117 = stablehlo.add %116, %58 : tensor<64x512x768xf32>
    %cst_18 = stablehlo.constant dense<0.000000e+00> : tensor<f32>
    %118 = stablehlo.reduce(%117 init: %cst_18) applies stablehlo.add across dimensions = [2] : (tensor<64x512x768xf32>, tensor<f32>) -> tensor<64x512xf32>
    %119 = stablehlo.broadcast_in_dim %118, dims = [0, 1] : (tensor<64x512xf32>) -> tensor<64x512x1xf32>
    %120 = stablehlo.broadcast_in_dim %cst_3, dims = [] : (tensor<f32>) -> tensor<64x512x1xf32>
    %121 = stablehlo.divide %119, %120 : tensor<64x512x1xf32>
    %122:4 = call @_var(%117, %c_4) : (tensor<64x512x768xf32>, tensor<i32>) -> (tensor<64x512x1xf32>, tensor<64x512x768xf32>, tensor<f32>, tensor<i1>)
    %123 = stablehlo.broadcast_in_dim %cst_5, dims = [] : (tensor<f32>) -> tensor<64x512x1xf32>
    %124 = stablehlo.maximum %122#0, %123 : tensor<64x512x1xf32>
    %125 = stablehlo.compare  EQ, %122#0, %124,  FLOAT : (tensor<64x512x1xf32>, tensor<64x512x1xf32>) -> tensor<64x512x1xi1>
    %126 = stablehlo.broadcast_in_dim %cst_6, dims = [] : (tensor<f32>) -> tensor<64x512x1xf32>
    %127 = stablehlo.broadcast_in_dim %cst_5, dims = [] : (tensor<f32>) -> tensor<64x512x1xf32>
    %128 = stablehlo.select %125, %126, %127 : tensor<64x512x1xi1>, tensor<64x512x1xf32>
    %129 = stablehlo.broadcast_in_dim %cst_5, dims = [] : (tensor<f32>) -> tensor<64x512x1xf32>
    %130 = stablehlo.compare  EQ, %129, %124,  FLOAT : (tensor<64x512x1xf32>, tensor<64x512x1xf32>) -> tensor<64x512x1xi1>
    %131 = stablehlo.broadcast_in_dim %cst_7, dims = [] : (tensor<f32>) -> tensor<64x512x1xf32>
    %132 = stablehlo.broadcast_in_dim %cst_6, dims = [] : (tensor<f32>) -> tensor<64x512x1xf32>
    %133 = stablehlo.select %130, %131, %132 : tensor<64x512x1xi1>, tensor<64x512x1xf32>
    %134 = stablehlo.divide %128, %133 : tensor<64x512x1xf32>
    %135 = stablehlo.broadcast_in_dim %cst_8, dims = [] : (tensor<f32>) -> tensor<64x512x1xf32>
    %136 = stablehlo.add %124, %135 : tensor<64x512x1xf32>
    %137 = stablehlo.rsqrt %136 : tensor<64x512x1xf32>
    %138 = stablehlo.divide %137, %136 : tensor<64x512x1xf32>
    %139 = stablehlo.broadcast_in_dim %cst_9, dims = [] : (tensor<f32>) -> tensor<64x512x1xf32>
    %140 = stablehlo.multiply %139, %138 : tensor<64x512x1xf32>
    %141 = stablehlo.broadcast_in_dim %121, dims = [0, 1, 2] : (tensor<64x512x1xf32>) -> tensor<64x512x768xf32>
    %142 = stablehlo.subtract %117, %141 : tensor<64x512x768xf32>
    %143 = stablehlo.broadcast_in_dim %137, dims = [0, 1, 2] : (tensor<64x512x1xf32>) -> tensor<64x512x768xf32>
    %144 = stablehlo.multiply %142, %143 : tensor<64x512x768xf32>
    %145 = stablehlo.broadcast_in_dim %arg13, dims = [2] : (tensor<768xf32>) -> tensor<1x1x768xf32>
    %146 = stablehlo.broadcast_in_dim %145, dims = [0, 1, 2] : (tensor<1x1x768xf32>) -> tensor<64x512x768xf32>
    %147 = stablehlo.multiply %146, %144 : tensor<64x512x768xf32>
    %148 = stablehlo.broadcast_in_dim %arg14, dims = [2] : (tensor<768xf32>) -> tensor<1x1x768xf32>
    %149 = stablehlo.broadcast_in_dim %148, dims = [0, 1, 2] : (tensor<1x1x768xf32>) -> tensor<64x512x768xf32>
    %150 = stablehlo.add %147, %149 : tensor<64x512x768xf32>
    %151 = stablehlo.transpose %arg15, dims = [1, 0] : (tensor<3072x768xf32>) -> tensor<768x3072xf32>
    %152 = stablehlo.dot_general %150, %151, contracting_dims = [2] x [0], precision = [DEFAULT, DEFAULT] : (tensor<64x512x768xf32>, tensor<768x3072xf32>) -> tensor<64x512x3072xf32>
    %153 = stablehlo.broadcast_in_dim %arg16, dims = [2] : (tensor<3072xf32>) -> tensor<1x1x3072xf32>
    %154 = stablehlo.broadcast_in_dim %153, dims = [0, 1, 2] : (tensor<1x1x3072xf32>) -> tensor<64x512x3072xf32>
    %155 = stablehlo.add %152, %154 : tensor<64x512x3072xf32>
    %156 = stablehlo.multiply %155, %155 : tensor<64x512x3072xf32>
    %157 = stablehlo.multiply %156, %155 : tensor<64x512x3072xf32>
    %158 = stablehlo.multiply %155, %155 : tensor<64x512x3072xf32>
    %cst_19 = stablehlo.constant dense<3.000000e+00> : tensor<f32>
    %159 = stablehlo.broadcast_in_dim %cst_19, dims = [] : (tensor<f32>) -> tensor<64x512x3072xf32>
    %160 = stablehlo.multiply %159, %158 : tensor<64x512x3072xf32>
    %cst_20 = stablehlo.constant dense<4.471500e-02> : tensor<f32>
    %161 = stablehlo.broadcast_in_dim %cst_20, dims = [] : (tensor<f32>) -> tensor<64x512x3072xf32>
    %162 = stablehlo.multiply %161, %157 : tensor<64x512x3072xf32>
    %163 = stablehlo.add %155, %162 : tensor<64x512x3072xf32>
    %cst_21 = stablehlo.constant dense<0.797884583> : tensor<f32>
    %164 = stablehlo.broadcast_in_dim %cst_21, dims = [] : (tensor<f32>) -> tensor<64x512x3072xf32>
    %165 = stablehlo.multiply %164, %163 : tensor<64x512x3072xf32>
    %166 = stablehlo.tanh %165 : tensor<64x512x3072xf32>
    %167 = stablehlo.broadcast_in_dim %cst_6, dims = [] : (tensor<f32>) -> tensor<f32>
    %168 = stablehlo.broadcast_in_dim %167, dims = [] : (tensor<f32>) -> tensor<64x512x3072xf32>
    %169 = stablehlo.subtract %168, %166 : tensor<64x512x3072xf32>
    %170 = stablehlo.broadcast_in_dim %cst_6, dims = [] : (tensor<f32>) -> tensor<64x512x3072xf32>
    %171 = stablehlo.add %170, %166 : tensor<64x512x3072xf32>
    %cst_22 = stablehlo.constant dense<5.000000e-01> : tensor<f32>
    %172 = stablehlo.broadcast_in_dim %cst_22, dims = [] : (tensor<f32>) -> tensor<64x512x3072xf32>
    %173 = stablehlo.multiply %172, %171 : tensor<64x512x3072xf32>
    %174 = stablehlo.multiply %155, %173 : tensor<64x512x3072xf32>
    %175 = stablehlo.transpose %arg17, dims = [1, 0] : (tensor<768x3072xf32>) -> tensor<3072x768xf32>
    %176 = stablehlo.dot_general %174, %175, contracting_dims = [2] x [0], precision = [DEFAULT, DEFAULT] : (tensor<64x512x3072xf32>, tensor<3072x768xf32>) -> tensor<64x512x768xf32>
    %177 = stablehlo.broadcast_in_dim %arg18, dims = [2] : (tensor<768xf32>) -> tensor<1x1x768xf32>
    %178 = stablehlo.broadcast_in_dim %177, dims = [0, 1, 2] : (tensor<1x1x768xf32>) -> tensor<64x512x768xf32>
    %179 = stablehlo.add %176, %178 : tensor<64x512x768xf32>
    %180 = stablehlo.add %179, %150 : tensor<64x512x768xf32>
    %cst_23 = stablehlo.constant dense<0.000000e+00> : tensor<f32>
    %181 = stablehlo.reduce(%180 init: %cst_23) applies stablehlo.add across dimensions = [2] : (tensor<64x512x768xf32>, tensor<f32>) -> tensor<64x512xf32>
    %182 = stablehlo.broadcast_in_dim %181, dims = [0, 1] : (tensor<64x512xf32>) -> tensor<64x512x1xf32>
    %183 = stablehlo.broadcast_in_dim %cst_3, dims = [] : (tensor<f32>) -> tensor<64x512x1xf32>
    %184 = stablehlo.divide %182, %183 : tensor<64x512x1xf32>
    %185:4 = call @_var(%180, %c_4) : (tensor<64x512x768xf32>, tensor<i32>) -> (tensor<64x512x1xf32>, tensor<64x512x768xf32>, tensor<f32>, tensor<i1>)
    %186 = stablehlo.broadcast_in_dim %cst_5, dims = [] : (tensor<f32>) -> tensor<64x512x1xf32>
    %187 = stablehlo.maximum %185#0, %186 : tensor<64x512x1xf32>
    %188 = stablehlo.compare  EQ, %185#0, %187,  FLOAT : (tensor<64x512x1xf32>, tensor<64x512x1xf32>) -> tensor<64x512x1xi1>
    %189 = stablehlo.broadcast_in_dim %cst_6, dims = [] : (tensor<f32>) -> tensor<64x512x1xf32>
    %190 = stablehlo.broadcast_in_dim %cst_5, dims = [] : (tensor<f32>) -> tensor<64x512x1xf32>
    %191 = stablehlo.select %188, %189, %190 : tensor<64x512x1xi1>, tensor<64x512x1xf32>
    %192 = stablehlo.broadcast_in_dim %cst_5, dims = [] : (tensor<f32>) -> tensor<64x512x1xf32>
    %193 = stablehlo.compare  EQ, %192, %187,  FLOAT : (tensor<64x512x1xf32>, tensor<64x512x1xf32>) -> tensor<64x512x1xi1>
    %194 = stablehlo.broadcast_in_dim %cst_7, dims = [] : (tensor<f32>) -> tensor<64x512x1xf32>
    %195 = stablehlo.broadcast_in_dim %cst_6, dims = [] : (tensor<f32>) -> tensor<64x512x1xf32>
    %196 = stablehlo.select %193, %194, %195 : tensor<64x512x1xi1>, tensor<64x512x1xf32>
    %197 = stablehlo.divide %191, %196 : tensor<64x512x1xf32>
    %198 = stablehlo.broadcast_in_dim %cst_8, dims = [] : (tensor<f32>) -> tensor<64x512x1xf32>
    %199 = stablehlo.add %187, %198 : tensor<64x512x1xf32>
    %200 = stablehlo.rsqrt %199 : tensor<64x512x1xf32>
    %201 = stablehlo.divide %200, %199 : tensor<64x512x1xf32>
    %202 = stablehlo.broadcast_in_dim %cst_9, dims = [] : (tensor<f32>) -> tensor<64x512x1xf32>
    %203 = stablehlo.multiply %202, %201 : tensor<64x512x1xf32>
    %204 = stablehlo.broadcast_in_dim %184, dims = [0, 1, 2] : (tensor<64x512x1xf32>) -> tensor<64x512x768xf32>
    %205 = stablehlo.subtract %180, %204 : tensor<64x512x768xf32>
    %206 = stablehlo.broadcast_in_dim %200, dims = [0, 1, 2] : (tensor<64x512x1xf32>) -> tensor<64x512x768xf32>
    %207 = stablehlo.multiply %205, %206 : tensor<64x512x768xf32>
    %208 = stablehlo.broadcast_in_dim %arg19, dims = [2] : (tensor<768xf32>) -> tensor<1x1x768xf32>
    %209 = stablehlo.broadcast_in_dim %208, dims = [0, 1, 2] : (tensor<1x1x768xf32>) -> tensor<64x512x768xf32>
    %210 = stablehlo.multiply %209, %207 : tensor<64x512x768xf32>
    %211 = stablehlo.broadcast_in_dim %arg20, dims = [2] : (tensor<768xf32>) -> tensor<1x1x768xf32>
    %212 = stablehlo.broadcast_in_dim %211, dims = [0, 1, 2] : (tensor<1x1x768xf32>) -> tensor<64x512x768xf32>
    %213 = stablehlo.add %210, %212 : tensor<64x512x768xf32>
    %214 = stablehlo.transpose %arg21, dims = [1, 0] : (tensor<768x768xf32>) -> tensor<768x768xf32>
    %215 = stablehlo.dot_general %213, %214, contracting_dims = [2] x [0], precision = [DEFAULT, DEFAULT] : (tensor<64x512x768xf32>, tensor<768x768xf32>) -> tensor<64x512x768xf32>
    %216 = stablehlo.broadcast_in_dim %arg22, dims = [2] : (tensor<768xf32>) -> tensor<1x1x768xf32>
    %217 = stablehlo.broadcast_in_dim %216, dims = [0, 1, 2] : (tensor<1x1x768xf32>) -> tensor<64x512x768xf32>
    %218 = stablehlo.add %215, %217 : tensor<64x512x768xf32>
    %219 = stablehlo.transpose %arg25, dims = [1, 0] : (tensor<768x768xf32>) -> tensor<768x768xf32>
    %220 = stablehlo.dot_general %213, %219, contracting_dims = [2] x [0], precision = [DEFAULT, DEFAULT] : (tensor<64x512x768xf32>, tensor<768x768xf32>) -> tensor<64x512x768xf32>
    %221 = stablehlo.broadcast_in_dim %arg26, dims = [2] : (tensor<768xf32>) -> tensor<1x1x768xf32>
    %222 = stablehlo.broadcast_in_dim %221, dims = [0, 1, 2] : (tensor<1x1x768xf32>) -> tensor<64x512x768xf32>
    %223 = stablehlo.add %220, %222 : tensor<64x512x768xf32>
    %224 = stablehlo.transpose %arg23, dims = [1, 0] : (tensor<768x768xf32>) -> tensor<768x768xf32>
    %225 = stablehlo.dot_general %213, %224, contracting_dims = [2] x [0], precision = [DEFAULT, DEFAULT] : (tensor<64x512x768xf32>, tensor<768x768xf32>) -> tensor<64x512x768xf32>
    %226 = stablehlo.broadcast_in_dim %arg24, dims = [2] : (tensor<768xf32>) -> tensor<1x1x768xf32>
    %227 = stablehlo.broadcast_in_dim %226, dims = [0, 1, 2] : (tensor<1x1x768xf32>) -> tensor<64x512x768xf32>
    %228 = stablehlo.add %225, %227 : tensor<64x512x768xf32>
    %229 = stablehlo.reshape %218 : (tensor<64x512x768xf32>) -> tensor<64x512x12x64xf32>
    %230 = stablehlo.reshape %223 : (tensor<64x512x768xf32>) -> tensor<64x512x12x64xf32>
    %231 = stablehlo.reshape %228 : (tensor<64x512x768xf32>) -> tensor<64x512x12x64xf32>
    %232 = stablehlo.broadcast_in_dim %68, dims = [0, 1, 3] : (tensor<64x512x512xi1>) -> tensor<64x512x1x512xi1>
    %233 = stablehlo.sqrt %cst_12 : tensor<f32>
    %234 = stablehlo.convert %233 : tensor<f32>
    %235 = stablehlo.broadcast_in_dim %234, dims = [] : (tensor<f32>) -> tensor<64x512x12x64xf32>
    %236 = stablehlo.divide %229, %235 : tensor<64x512x12x64xf32>
    %237 = stablehlo.dot_general %230, %236, batching_dims = [0, 2] x [0, 2], contracting_dims = [3] x [3], precision = [DEFAULT, DEFAULT] : (tensor<64x512x12x64xf32>, tensor<64x512x12x64xf32>) -> tensor<64x12x512x512xf32>
    %238 = stablehlo.transpose %237, dims = [0, 3, 1, 2] : (tensor<64x12x512x512xf32>) -> tensor<64x512x12x512xf32>
    %239:2 = call @_where_33(%232, %238, %cst_13) : (tensor<64x512x1x512xi1>, tensor<64x512x12x512xf32>, tensor<f32>) -> (tensor<64x512x12x512xf32>, tensor<64x512x12x512xi1>)
    %cst_24 = stablehlo.constant dense<0xFF800000> : tensor<f32>
    %240 = stablehlo.reduce(%239#0 init: %cst_24) applies stablehlo.maximum across dimensions = [3] : (tensor<64x512x12x512xf32>, tensor<f32>) -> tensor<64x512x12xf32>
    %241 = stablehlo.broadcast_in_dim %cst_15, dims = [] : (tensor<f32>) -> tensor<64x512x12xf32>
    %242 = stablehlo.maximum %241, %240 : tensor<64x512x12xf32>
    %243 = stablehlo.broadcast_in_dim %242, dims = [0, 1, 2] : (tensor<64x512x12xf32>) -> tensor<64x512x12x1xf32>
    %244 = stablehlo.broadcast_in_dim %243, dims = [0, 1, 2, 3] : (tensor<64x512x12x1xf32>) -> tensor<64x512x12x512xf32>
    %245 = stablehlo.subtract %239#0, %244 : tensor<64x512x12x512xf32>
    %246 = stablehlo.exponential %245 : tensor<64x512x12x512xf32>
    %cst_25 = stablehlo.constant dense<0.000000e+00> : tensor<f32>
    %247 = stablehlo.reduce(%246 init: %cst_25) applies stablehlo.add across dimensions = [3] : (tensor<64x512x12x512xf32>, tensor<f32>) -> tensor<64x512x12xf32>
    %248 = stablehlo.broadcast_in_dim %247, dims = [0, 1, 2] : (tensor<64x512x12xf32>) -> tensor<64x512x12x1xf32>
    %249 = stablehlo.broadcast_in_dim %248, dims = [0, 1, 2, 3] : (tensor<64x512x12x1xf32>) -> tensor<64x512x12x512xf32>
    %250 = stablehlo.divide %246, %249 : tensor<64x512x12x512xf32>
    %251 = stablehlo.multiply %248, %248 : tensor<64x512x12x1xf32>
    %cst_26 = stablehlo.constant dense<1.000000e+00> : tensor<f32>
    %252 = stablehlo.broadcast_in_dim %cst_26, dims = [] : (tensor<f32>) -> tensor<64x512x12x1xf32>
    %253 = stablehlo.divide %252, %251 : tensor<64x512x12x1xf32>
    %254 = stablehlo.dot_general %231, %250, batching_dims = [0, 2] x [0, 2], contracting_dims = [1] x [3], precision = [DEFAULT, DEFAULT] : (tensor<64x512x12x64xf32>, tensor<64x512x12x512xf32>) -> tensor<64x12x64x512xf32>
    %255 = stablehlo.transpose %254, dims = [0, 3, 1, 2] : (tensor<64x12x64x512xf32>) -> tensor<64x512x12x64xf32>
    %256 = stablehlo.reshape %255 : (tensor<64x512x12x64xf32>) -> tensor<64x512x768xf32>
    %257 = stablehlo.transpose %arg27, dims = [1, 0] : (tensor<768x768xf32>) -> tensor<768x768xf32>
    %258 = stablehlo.dot_general %256, %257, contracting_dims = [2] x [0], precision = [DEFAULT, DEFAULT] : (tensor<64x512x768xf32>, tensor<768x768xf32>) -> tensor<64x512x768xf32>
    %259 = stablehlo.broadcast_in_dim %arg28, dims = [2] : (tensor<768xf32>) -> tensor<1x1x768xf32>
    %260 = stablehlo.broadcast_in_dim %259, dims = [0, 1, 2] : (tensor<1x1x768xf32>) -> tensor<64x512x768xf32>
    %261 = stablehlo.add %258, %260 : tensor<64x512x768xf32>
    %262 = stablehlo.add %261, %213 : tensor<64x512x768xf32>
    %cst_27 = stablehlo.constant dense<0.000000e+00> : tensor<f32>
    %263 = stablehlo.reduce(%262 init: %cst_27) applies stablehlo.add across dimensions = [2] : (tensor<64x512x768xf32>, tensor<f32>) -> tensor<64x512xf32>
    %264 = stablehlo.broadcast_in_dim %263, dims = [0, 1] : (tensor<64x512xf32>) -> tensor<64x512x1xf32>
    %265 = stablehlo.broadcast_in_dim %cst_3, dims = [] : (tensor<f32>) -> tensor<64x512x1xf32>
    %266 = stablehlo.divide %264, %265 : tensor<64x512x1xf32>
    %267:4 = call @_var(%262, %c_4) : (tensor<64x512x768xf32>, tensor<i32>) -> (tensor<64x512x1xf32>, tensor<64x512x768xf32>, tensor<f32>, tensor<i1>)
    %268 = stablehlo.broadcast_in_dim %cst_5, dims = [] : (tensor<f32>) -> tensor<64x512x1xf32>
    %269 = stablehlo.maximum %267#0, %268 : tensor<64x512x1xf32>
    %270 = stablehlo.compare  EQ, %267#0, %269,  FLOAT : (tensor<64x512x1xf32>, tensor<64x512x1xf32>) -> tensor<64x512x1xi1>
    %271 = stablehlo.broadcast_in_dim %cst_6, dims = [] : (tensor<f32>) -> tensor<64x512x1xf32>
    %272 = stablehlo.broadcast_in_dim %cst_5, dims = [] : (tensor<f32>) -> tensor<64x512x1xf32>
    %273 = stablehlo.select %270, %271, %272 : tensor<64x512x1xi1>, tensor<64x512x1xf32>
    %274 = stablehlo.broadcast_in_dim %cst_5, dims = [] : (tensor<f32>) -> tensor<64x512x1xf32>
    %275 = stablehlo.compare  EQ, %274, %269,  FLOAT : (tensor<64x512x1xf32>, tensor<64x512x1xf32>) -> tensor<64x512x1xi1>
    %276 = stablehlo.broadcast_in_dim %cst_7, dims = [] : (tensor<f32>) -> tensor<64x512x1xf32>
    %277 = stablehlo.broadcast_in_dim %cst_6, dims = [] : (tensor<f32>) -> tensor<64x512x1xf32>
    %278 = stablehlo.select %275, %276, %277 : tensor<64x512x1xi1>, tensor<64x512x1xf32>
    %279 = stablehlo.divide %273, %278 : tensor<64x512x1xf32>
    %280 = stablehlo.broadcast_in_dim %cst_8, dims = [] : (tensor<f32>) -> tensor<64x512x1xf32>
    %281 = stablehlo.add %269, %280 : tensor<64x512x1xf32>
    %282 = stablehlo.rsqrt %281 : tensor<64x512x1xf32>
    %283 = stablehlo.divide %282, %281 : tensor<64x512x1xf32>
    %284 = stablehlo.broadcast_in_dim %cst_9, dims = [] : (tensor<f32>) -> tensor<64x512x1xf32>
    %285 = stablehlo.multiply %284, %283 : tensor<64x512x1xf32>
    %286 = stablehlo.broadcast_in_dim %266, dims = [0, 1, 2] : (tensor<64x512x1xf32>) -> tensor<64x512x768xf32>
    %287 = stablehlo.subtract %262, %286 : tensor<64x512x768xf32>
    %288 = stablehlo.broadcast_in_dim %282, dims = [0, 1, 2] : (tensor<64x512x1xf32>) -> tensor<64x512x768xf32>
    %289 = stablehlo.multiply %287, %288 : tensor<64x512x768xf32>
    %290 = stablehlo.broadcast_in_dim %arg29, dims = [2] : (tensor<768xf32>) -> tensor<1x1x768xf32>
    %291 = stablehlo.broadcast_in_dim %290, dims = [0, 1, 2] : (tensor<1x1x768xf32>) -> tensor<64x512x768xf32>
    %292 = stablehlo.multiply %291, %289 : tensor<64x512x768xf32>
    %293 = stablehlo.broadcast_in_dim %arg30, dims = [2] : (tensor<768xf32>) -> tensor<1x1x768xf32>
    %294 = stablehlo.broadcast_in_dim %293, dims = [0, 1, 2] : (tensor<1x1x768xf32>) -> tensor<64x512x768xf32>
    %295 = stablehlo.add %292, %294 : tensor<64x512x768xf32>
    %296 = stablehlo.transpose %arg31, dims = [1, 0] : (tensor<3072x768xf32>) -> tensor<768x3072xf32>
    %297 = stablehlo.dot_general %295, %296, contracting_dims = [2] x [0], precision = [DEFAULT, DEFAULT] : (tensor<64x512x768xf32>, tensor<768x3072xf32>) -> tensor<64x512x3072xf32>
    %298 = stablehlo.broadcast_in_dim %arg32, dims = [2] : (tensor<3072xf32>) -> tensor<1x1x3072xf32>
    %299 = stablehlo.broadcast_in_dim %298, dims = [0, 1, 2] : (tensor<1x1x3072xf32>) -> tensor<64x512x3072xf32>
    %300 = stablehlo.add %297, %299 : tensor<64x512x3072xf32>
    %301 = stablehlo.multiply %300, %300 : tensor<64x512x3072xf32>
    %302 = stablehlo.multiply %301, %300 : tensor<64x512x3072xf32>
    %303 = stablehlo.multiply %300, %300 : tensor<64x512x3072xf32>
    %304 = stablehlo.broadcast_in_dim %cst_19, dims = [] : (tensor<f32>) -> tensor<64x512x3072xf32>
    %305 = stablehlo.multiply %304, %303 : tensor<64x512x3072xf32>
    %306 = stablehlo.broadcast_in_dim %cst_20, dims = [] : (tensor<f32>) -> tensor<64x512x3072xf32>
    %307 = stablehlo.multiply %306, %302 : tensor<64x512x3072xf32>
    %308 = stablehlo.add %300, %307 : tensor<64x512x3072xf32>
…
    %10472 = stablehlo.broadcast_in_dim %10179, dims = [] : (tensor<f32>) -> tensor<768xf32>
    %10473 = stablehlo.multiply %10472, %9992 : tensor<768xf32>
    %10474 = stablehlo.broadcast_in_dim %10179, dims = [] : (tensor<f32>) -> tensor<768xf32>
    %10475 = stablehlo.multiply %10474, %9995 : tensor<768xf32>
    %10476 = stablehlo.broadcast_in_dim %10179, dims = [] : (tensor<f32>) -> tensor<768xf32>
    %10477 = stablehlo.multiply %10476, %9998 : tensor<768xf32>
    %10478 = stablehlo.broadcast_in_dim %10179, dims = [] : (tensor<f32>) -> tensor<768x768xf32>
    %10479 = stablehlo.multiply %10478, %10001 : tensor<768x768xf32>
    %10480 = stablehlo.broadcast_in_dim %10179, dims = [] : (tensor<f32>) -> tensor<768xf32>
    %10481 = stablehlo.multiply %10480, %10004 : tensor<768xf32>
    %10482 = stablehlo.broadcast_in_dim %10179, dims = [] : (tensor<f32>) -> tensor<768x768xf32>
    %10483 = stablehlo.multiply %10482, %10007 : tensor<768x768xf32>
    %10484 = stablehlo.broadcast_in_dim %10179, dims = [] : (tensor<f32>) -> tensor<768xf32>
    %10485 = stablehlo.multiply %10484, %10010 : tensor<768xf32>
    %10486 = stablehlo.broadcast_in_dim %10179, dims = [] : (tensor<f32>) -> tensor<768x768xf32>
    %10487 = stablehlo.multiply %10486, %10013 : tensor<768x768xf32>
    %10488 = stablehlo.broadcast_in_dim %10179, dims = [] : (tensor<f32>) -> tensor<768xf32>
    %10489 = stablehlo.multiply %10488, %10016 : tensor<768xf32>
    %10490 = stablehlo.broadcast_in_dim %10179, dims = [] : (tensor<f32>) -> tensor<768x768xf32>
    %10491 = stablehlo.multiply %10490, %10019 : tensor<768x768xf32>
    %10492 = stablehlo.broadcast_in_dim %10179, dims = [] : (tensor<f32>) -> tensor<768xf32>
    %10493 = stablehlo.multiply %10492, %10022 : tensor<768xf32>
    %10494 = stablehlo.broadcast_in_dim %10179, dims = [] : (tensor<f32>) -> tensor<768xf32>
    %10495 = stablehlo.multiply %10494, %10025 : tensor<768xf32>
    %10496 = stablehlo.broadcast_in_dim %10179, dims = [] : (tensor<f32>) -> tensor<768xf32>
    %10497 = stablehlo.multiply %10496, %10028 : tensor<768xf32>
    %10498 = stablehlo.broadcast_in_dim %10179, dims = [] : (tensor<f32>) -> tensor<3072x768xf32>
    %10499 = stablehlo.multiply %10498, %10031 : tensor<3072x768xf32>
    %10500 = stablehlo.broadcast_in_dim %10179, dims = [] : (tensor<f32>) -> tensor<3072xf32>
    %10501 = stablehlo.multiply %10500, %10034 : tensor<3072xf32>
    %10502 = stablehlo.broadcast_in_dim %10179, dims = [] : (tensor<f32>) -> tensor<768x3072xf32>
    %10503 = stablehlo.multiply %10502, %10037 : tensor<768x3072xf32>
    %10504 = stablehlo.broadcast_in_dim %10179, dims = [] : (tensor<f32>) -> tensor<768xf32>
    %10505 = stablehlo.multiply %10504, %10040 : tensor<768xf32>
    %10506 = stablehlo.broadcast_in_dim %10179, dims = [] : (tensor<f32>) -> tensor<768xf32>
    %10507 = stablehlo.multiply %10506, %10043 : tensor<768xf32>
    %10508 = stablehlo.broadcast_in_dim %10179, dims = [] : (tensor<f32>) -> tensor<768xf32>
    %10509 = stablehlo.multiply %10508, %10046 : tensor<768xf32>
    %10510 = stablehlo.broadcast_in_dim %10179, dims = [] : (tensor<f32>) -> tensor<768x768xf32>
    %10511 = stablehlo.multiply %10510, %10049 : tensor<768x768xf32>
    %10512 = stablehlo.broadcast_in_dim %10179, dims = [] : (tensor<f32>) -> tensor<768xf32>
    %10513 = stablehlo.multiply %10512, %10052 : tensor<768xf32>
    %10514 = stablehlo.broadcast_in_dim %10179, dims = [] : (tensor<f32>) -> tensor<768x768xf32>
    %10515 = stablehlo.multiply %10514, %10055 : tensor<768x768xf32>
    %10516 = stablehlo.broadcast_in_dim %10179, dims = [] : (tensor<f32>) -> tensor<768xf32>
    %10517 = stablehlo.multiply %10516, %10058 : tensor<768xf32>
    %10518 = stablehlo.broadcast_in_dim %10179, dims = [] : (tensor<f32>) -> tensor<768x768xf32>
    %10519 = stablehlo.multiply %10518, %10061 : tensor<768x768xf32>
    %10520 = stablehlo.broadcast_in_dim %10179, dims = [] : (tensor<f32>) -> tensor<768xf32>
    %10521 = stablehlo.multiply %10520, %10064 : tensor<768xf32>
    %10522 = stablehlo.broadcast_in_dim %10179, dims = [] : (tensor<f32>) -> tensor<768x768xf32>
    %10523 = stablehlo.multiply %10522, %10067 : tensor<768x768xf32>
    %10524 = stablehlo.broadcast_in_dim %10179, dims = [] : (tensor<f32>) -> tensor<768xf32>
    %10525 = stablehlo.multiply %10524, %10070 : tensor<768xf32>
    %10526 = stablehlo.broadcast_in_dim %10179, dims = [] : (tensor<f32>) -> tensor<768xf32>
    %10527 = stablehlo.multiply %10526, %10073 : tensor<768xf32>
    %10528 = stablehlo.broadcast_in_dim %10179, dims = [] : (tensor<f32>) -> tensor<768xf32>
    %10529 = stablehlo.multiply %10528, %10076 : tensor<768xf32>
    %10530 = stablehlo.broadcast_in_dim %10179, dims = [] : (tensor<f32>) -> tensor<3072x768xf32>
    %10531 = stablehlo.multiply %10530, %10079 : tensor<3072x768xf32>
    %10532 = stablehlo.broadcast_in_dim %10179, dims = [] : (tensor<f32>) -> tensor<3072xf32>
    %10533 = stablehlo.multiply %10532, %10082 : tensor<3072xf32>
    %10534 = stablehlo.broadcast_in_dim %10179, dims = [] : (tensor<f32>) -> tensor<768x3072xf32>
    %10535 = stablehlo.multiply %10534, %10085 : tensor<768x3072xf32>
    %10536 = stablehlo.broadcast_in_dim %10179, dims = [] : (tensor<f32>) -> tensor<768xf32>
    %10537 = stablehlo.multiply %10536, %10088 : tensor<768xf32>
    %10538 = stablehlo.broadcast_in_dim %10179, dims = [] : (tensor<f32>) -> tensor<768xf32>
    %10539 = stablehlo.multiply %10538, %10091 : tensor<768xf32>
    %10540 = stablehlo.broadcast_in_dim %10179, dims = [] : (tensor<f32>) -> tensor<768xf32>
    %10541 = stablehlo.multiply %10540, %10094 : tensor<768xf32>
    %10542 = stablehlo.broadcast_in_dim %10179, dims = [] : (tensor<f32>) -> tensor<768x768xf32>
    %10543 = stablehlo.multiply %10542, %10097 : tensor<768x768xf32>
    %10544 = stablehlo.broadcast_in_dim %10179, dims = [] : (tensor<f32>) -> tensor<768xf32>
    %10545 = stablehlo.multiply %10544, %10100 : tensor<768xf32>
    %10546 = stablehlo.broadcast_in_dim %10179, dims = [] : (tensor<f32>) -> tensor<768x768xf32>
    %10547 = stablehlo.multiply %10546, %10103 : tensor<768x768xf32>
    %10548 = stablehlo.broadcast_in_dim %10179, dims = [] : (tensor<f32>) -> tensor<768xf32>
    %10549 = stablehlo.multiply %10548, %10106 : tensor<768xf32>
    %10550 = stablehlo.broadcast_in_dim %10179, dims = [] : (tensor<f32>) -> tensor<768x768xf32>
    %10551 = stablehlo.multiply %10550, %10109 : tensor<768x768xf32>
    %10552 = stablehlo.broadcast_in_dim %10179, dims = [] : (tensor<f32>) -> tensor<768xf32>
    %10553 = stablehlo.multiply %10552, %10112 : tensor<768xf32>
    %10554 = stablehlo.broadcast_in_dim %10179, dims = [] : (tensor<f32>) -> tensor<768x768xf32>
    %10555 = stablehlo.multiply %10554, %10115 : tensor<768x768xf32>
    %10556 = stablehlo.broadcast_in_dim %10179, dims = [] : (tensor<f32>) -> tensor<768xf32>
    %10557 = stablehlo.multiply %10556, %10118 : tensor<768xf32>
    %10558 = stablehlo.broadcast_in_dim %10179, dims = [] : (tensor<f32>) -> tensor<768xf32>
    %10559 = stablehlo.multiply %10558, %10121 : tensor<768xf32>
    %10560 = stablehlo.broadcast_in_dim %10179, dims = [] : (tensor<f32>) -> tensor<768xf32>
    %10561 = stablehlo.multiply %10560, %10124 : tensor<768xf32>
    %10562 = stablehlo.broadcast_in_dim %10179, dims = [] : (tensor<f32>) -> tensor<3072x768xf32>
    %10563 = stablehlo.multiply %10562, %10127 : tensor<3072x768xf32>
    %10564 = stablehlo.broadcast_in_dim %10179, dims = [] : (tensor<f32>) -> tensor<3072xf32>
    %10565 = stablehlo.multiply %10564, %10130 : tensor<3072xf32>
    %10566 = stablehlo.broadcast_in_dim %10179, dims = [] : (tensor<f32>) -> tensor<768x3072xf32>
    %10567 = stablehlo.multiply %10566, %10133 : tensor<768x3072xf32>
    %10568 = stablehlo.broadcast_in_dim %10179, dims = [] : (tensor<f32>) -> tensor<768xf32>
    %10569 = stablehlo.multiply %10568, %10136 : tensor<768xf32>
    %10570 = stablehlo.broadcast_in_dim %10179, dims = [] : (tensor<f32>) -> tensor<768xf32>
    %10571 = stablehlo.multiply %10570, %10139 : tensor<768xf32>
    %10572 = stablehlo.broadcast_in_dim %10179, dims = [] : (tensor<f32>) -> tensor<768xf32>
    %10573 = stablehlo.multiply %10572, %10142 : tensor<768xf32>
    %10574 = stablehlo.broadcast_in_dim %10179, dims = [] : (tensor<f32>) -> tensor<768x768xf32>
    %10575 = stablehlo.multiply %10574, %10145 : tensor<768x768xf32>
    %10576 = stablehlo.broadcast_in_dim %10179, dims = [] : (tensor<f32>) -> tensor<768xf32>
    %10577 = stablehlo.multiply %10576, %10148 : tensor<768xf32>
    %10578 = stablehlo.broadcast_in_dim %10179, dims = [] : (tensor<f32>) -> tensor<768xf32>
    %10579 = stablehlo.multiply %10578, %10151 : tensor<768xf32>
    %10580 = stablehlo.broadcast_in_dim %10179, dims = [] : (tensor<f32>) -> tensor<768xf32>
    %10581 = stablehlo.multiply %10580, %10154 : tensor<768xf32>
    %10582 = stablehlo.broadcast_in_dim %10179, dims = [] : (tensor<f32>) -> tensor<30522xf32>
    %10583 = stablehlo.multiply %10582, %10157 : tensor<30522xf32>
    %10584 = stablehlo.compare  LT, %arg607, %c_647,  SIGNED : (tensor<i32>, tensor<i32>) -> tensor<i1>
    %10585 = stablehlo.add %arg607, %c_648 : tensor<i32>
    %10586 = call @_where_249(%10584, %10585, %c_647) : (tensor<i1>, tensor<i32>, tensor<i32>) -> tensor<i32>
    %10587 = stablehlo.add %arg0, %10181 : tensor<30522x768xf32>
    %10588 = stablehlo.add %arg1, %10183 : tensor<512x768xf32>
    %10589 = stablehlo.add %arg2, %10185 : tensor<2x768xf32>
    %10590 = stablehlo.add %arg3, %10187 : tensor<768xf32>
    %10591 = stablehlo.add %arg4, %10189 : tensor<768xf32>
    %10592 = stablehlo.add %arg5, %10191 : tensor<768x768xf32>
    %10593 = stablehlo.add %arg6, %10193 : tensor<768xf32>
    %10594 = stablehlo.add %arg7, %10195 : tensor<768x768xf32>
    %10595 = stablehlo.add %arg8, %10197 : tensor<768xf32>
    %10596 = stablehlo.add %arg9, %10199 : tensor<768x768xf32>
    %10597 = stablehlo.add %arg10, %10201 : tensor<768xf32>
    %10598 = stablehlo.add %arg11, %10203 : tensor<768x768xf32>
    %10599 = stablehlo.add %arg12, %10205 : tensor<768xf32>
    %10600 = stablehlo.add %arg13, %10207 : tensor<768xf32>
    %10601 = stablehlo.add %arg14, %10209 : tensor<768xf32>
    %10602 = stablehlo.add %arg15, %10211 : tensor<3072x768xf32>
    %10603 = stablehlo.add %arg16, %10213 : tensor<3072xf32>
    %10604 = stablehlo.add %arg17, %10215 : tensor<768x3072xf32>
    %10605 = stablehlo.add %arg18, %10217 : tensor<768xf32>
    %10606 = stablehlo.add %arg19, %10219 : tensor<768xf32>
    %10607 = stablehlo.add %arg20, %10221 : tensor<768xf32>
    %10608 = stablehlo.add %arg21, %10223 : tensor<768x768xf32>
    %10609 = stablehlo.add %arg22, %10225 : tensor<768xf32>
    %10610 = stablehlo.add %arg23, %10227 : tensor<768x768xf32>
    %10611 = stablehlo.add %arg24, %10229 : tensor<768xf32>
    %10612 = stablehlo.add %arg25, %10231 : tensor<768x768xf32>
    %10613 = stablehlo.add %arg26, %10233 : tensor<768xf32>
    %10614 = stablehlo.add %arg27, %10235 : tensor<768x768xf32>
    %10615 = stablehlo.add %arg28, %10237 : tensor<768xf32>
    %10616 = stablehlo.add %arg29, %10239 : tensor<768xf32>
    %10617 = stablehlo.add %arg30, %10241 : tensor<768xf32>
    %10618 = stablehlo.add %arg31, %10243 : tensor<3072x768xf32>
    %10619 = stablehlo.add %arg32, %10245 : tensor<3072xf32>
    %10620 = stablehlo.add %arg33, %10247 : tensor<768x3072xf32>
    %10621 = stablehlo.add %arg34, %10249 : tensor<768xf32>
    %10622 = stablehlo.add %arg35, %10251 : tensor<768xf32>
    %10623 = stablehlo.add %arg36, %10253 : tensor<768xf32>
    %10624 = stablehlo.add %arg37, %10255 : tensor<768x768xf32>
    %10625 = stablehlo.add %arg38, %10257 : tensor<768xf32>
    %10626 = stablehlo.add %arg39, %10259 : tensor<768x768xf32>
    %10627 = stablehlo.add %arg40, %10261 : tensor<768xf32>
    %10628 = stablehlo.add %arg41, %10263 : tensor<768x768xf32>
    %10629 = stablehlo.add %arg42, %10265 : tensor<768xf32>
    %10630 = stablehlo.add %arg43, %10267 : tensor<768x768xf32>
    %10631 = stablehlo.add %arg44, %10269 : tensor<768xf32>
    %10632 = stablehlo.add %arg45, %10271 : tensor<768xf32>
    %10633 = stablehlo.add %arg46, %10273 : tensor<768xf32>
    %10634 = stablehlo.add %arg47, %10275 : tensor<3072x768xf32>
    %10635 = stablehlo.add %arg48, %10277 : tensor<3072xf32>
    %10636 = stablehlo.add %arg49, %10279 : tensor<768x3072xf32>
    %10637 = stablehlo.add %arg50, %10281 : tensor<768xf32>
    %10638 = stablehlo.add %arg51, %10283 : tensor<768xf32>
    %10639 = stablehlo.add %arg52, %10285 : tensor<768xf32>
    %10640 = stablehlo.add %arg53, %10287 : tensor<768x768xf32>
    %10641 = stablehlo.add %arg54, %10289 : tensor<768xf32>
    %10642 = stablehlo.add %arg55, %10291 : tensor<768x768xf32>
    %10643 = stablehlo.add %arg56, %10293 : tensor<768xf32>
    %10644 = stablehlo.add %arg57, %10295 : tensor<768x768xf32>
    %10645 = stablehlo.add %arg58, %10297 : tensor<768xf32>
    %10646 = stablehlo.add %arg59, %10299 : tensor<768x768xf32>
    %10647 = stablehlo.add %arg60, %10301 : tensor<768xf32>
    %10648 = stablehlo.add %arg61, %10303 : tensor<768xf32>
    %10649 = stablehlo.add %arg62, %10305 : tensor<768xf32>
    %10650 = stablehlo.add %arg63, %10307 : tensor<3072x768xf32>
    %10651 = stablehlo.add %arg64, %10309 : tensor<3072xf32>
    %10652 = stablehlo.add %arg65, %10311 : tensor<768x3072xf32>
    %10653 = stablehlo.add %arg66, %10313 : tensor<768xf32>
    %10654 = stablehlo.add %arg67, %10315 : tensor<768xf32>
    %10655 = stablehlo.add %arg68, %10317 : tensor<768xf32>
    %10656 = stablehlo.add %arg69, %10319 : tensor<768x768xf32>
    %10657 = stablehlo.add %arg70, %10321 : tensor<768xf32>
    %10658 = stablehlo.add %arg71, %10323 : tensor<768x768xf32>
    %10659 = stablehlo.add %arg72, %10325 : tensor<768xf32>
    %10660 = stablehlo.add %arg73, %10327 : tensor<768x768xf32>
    %10661 = stablehlo.add %arg74, %10329 : tensor<768xf32>
    %10662 = stablehlo.add %arg75, %10331 : tensor<768x768xf32>
    %10663 = stablehlo.add %arg76, %10333 : tensor<768xf32>
    %10664 = stablehlo.add %arg77, %10335 : tensor<768xf32>
    %10665 = stablehlo.add %arg78, %10337 : tensor<768xf32>
    %10666 = stablehlo.add %arg79, %10339 : tensor<3072x768xf32>
    %10667 = stablehlo.add %arg80, %10341 : tensor<3072xf32>
    %10668 = stablehlo.add %arg81, %10343 : tensor<768x3072xf32>
    %10669 = stablehlo.add %arg82, %10345 : tensor<768xf32>
    %10670 = stablehlo.add %arg83, %10347 : tensor<768xf32>
    %10671 = stablehlo.add %arg84, %10349 : tensor<768xf32>
    %10672 = stablehlo.add %arg85, %10351 : tensor<768x768xf32>
    %10673 = stablehlo.add %arg86, %10353 : tensor<768xf32>
    %10674 = stablehlo.add %arg87, %10355 : tensor<768x768xf32>
    %10675 = stablehlo.add %arg88, %10357 : tensor<768xf32>
    %10676 = stablehlo.add %arg89, %10359 : tensor<768x768xf32>
    %10677 = stablehlo.add %arg90, %10361 : tensor<768xf32>
    %10678 = stablehlo.add %arg91, %10363 : tensor<768x768xf32>
    %10679 = stablehlo.add %arg92, %10365 : tensor<768xf32>
    %10680 = stablehlo.add %arg93, %10367 : tensor<768xf32>
    %10681 = stablehlo.add %arg94, %10369 : tensor<768xf32>
    %10682 = stablehlo.add %arg95, %10371 : tensor<3072x768xf32>
    %10683 = stablehlo.add %arg96, %10373 : tensor<3072xf32>
    %10684 = stablehlo.add %arg97, %10375 : tensor<768x3072xf32>
    %10685 = stablehlo.add %arg98, %10377 : tensor<768xf32>
    %10686 = stablehlo.add %arg99, %10379 : tensor<768xf32>
    %10687 = stablehlo.add %arg100, %10381 : tensor<768xf32>
    %10688 = stablehlo.add %arg101, %10383 : tensor<768x768xf32>
    %10689 = stablehlo.add %arg102, %10385 : tensor<768xf32>
    %10690 = stablehlo.add %arg103, %10387 : tensor<768x768xf32>
    %10691 = stablehlo.add %arg104, %10389 : tensor<768xf32>
    %10692 = stablehlo.add %arg105, %10391 : tensor<768x768xf32>
    %10693 = stablehlo.add %arg106, %10393 : tensor<768xf32>
    %10694 = stablehlo.add %arg107, %10395 : tensor<768x768xf32>
    %10695 = stablehlo.add %arg108, %10397 : tensor<768xf32>
    %10696 = stablehlo.add %arg109, %10399 : tensor<768xf32>
    %10697 = stablehlo.add %arg110, %10401 : tensor<768xf32>
    %10698 = stablehlo.add %arg111, %10403 : tensor<3072x768xf32>
    %10699 = stablehlo.add %arg112, %10405 : tensor<3072xf32>
    %10700 = stablehlo.add %arg113, %10407 : tensor<768x3072xf32>
    %10701 = stablehlo.add %arg114, %10409 : tensor<768xf32>
    %10702 = stablehlo.add %arg115, %10411 : tensor<768xf32>
    %10703 = stablehlo.add %arg116, %10413 : tensor<768xf32>
    %10704 = stablehlo.add %arg117, %10415 : tensor<768x768xf32>
    %10705 = stablehlo.add %arg118, %10417 : tensor<768xf32>
    %10706 = stablehlo.add %arg119, %10419 : tensor<768x768xf32>
    %10707 = stablehlo.add %arg120, %10421 : tensor<768xf32>
    %10708 = stablehlo.add %arg121, %10423 : tensor<768x768xf32>
    %10709 = stablehlo.add %arg122, %10425 : tensor<768xf32>
    %10710 = stablehlo.add %arg123, %10427 : tensor<768x768xf32>
    %10711 = stablehlo.add %arg124, %10429 : tensor<768xf32>
    %10712 = stablehlo.add %arg125, %10431 : tensor<768xf32>
    %10713 = stablehlo.add %arg126, %10433 : tensor<768xf32>
    %10714 = stablehlo.add %arg127, %10435 : tensor<3072x768xf32>
    %10715 = stablehlo.add %arg128, %10437 : tensor<3072xf32>
    %10716 = stablehlo.add %arg129, %10439 : tensor<768x3072xf32>
    %10717 = stablehlo.add %arg130, %10441 : tensor<768xf32>
    %10718 = stablehlo.add %arg131, %10443 : tensor<768xf32>
    %10719 = stablehlo.add %arg132, %10445 : tensor<768xf32>
    %10720 = stablehlo.add %arg133, %10447 : tensor<768x768xf32>
    %10721 = stablehlo.add %arg134, %10449 : tensor<768xf32>
    %10722 = stablehlo.add %arg135, %10451 : tensor<768x768xf32>
    %10723 = stablehlo.add %arg136, %10453 : tensor<768xf32>
    %10724 = stablehlo.add %arg137, %10455 : tensor<768x768xf32>
    %10725 = stablehlo.add %arg138, %10457 : tensor<768xf32>
    %10726 = stablehlo.add %arg139, %10459 : tensor<768x768xf32>
    %10727 = stablehlo.add %arg140, %10461 : tensor<768xf32>
    %10728 = stablehlo.add %arg141, %10463 : tensor<768xf32>
    %10729 = stablehlo.add %arg142, %10465 : tensor<768xf32>
    %10730 = stablehlo.add %arg143, %10467 : tensor<3072x768xf32>
    %10731 = stablehlo.add %arg144, %10469 : tensor<3072xf32>
    %10732 = stablehlo.add %arg145, %10471 : tensor<768x3072xf32>
    %10733 = stablehlo.add %arg146, %10473 : tensor<768xf32>
    %10734 = stablehlo.add %arg147, %10475 : tensor<768xf32>
    %10735 = stablehlo.add %arg148, %10477 : tensor<768xf32>
    %10736 = stablehlo.add %arg149, %10479 : tensor<768x768xf32>
    %10737 = stablehlo.add %arg150, %10481 : tensor<768xf32>
    %10738 = stablehlo.add %arg151, %10483 : tensor<768x768xf32>
    %10739 = stablehlo.add %arg152, %10485 : tensor<768xf32>
    %10740 = stablehlo.add %arg153, %10487 : tensor<768x768xf32>
    %10741 = stablehlo.add %arg154, %10489 : tensor<768xf32>
    %10742 = stablehlo.add %arg155, %10491 : tensor<768x768xf32>
    %10743 = stablehlo.add %arg156, %10493 : tensor<768xf32>
    %10744 = stablehlo.add %arg157, %10495 : tensor<768xf32>
    %10745 = stablehlo.add %arg158, %10497 : tensor<768xf32>
    %10746 = stablehlo.add %arg159, %10499 : tensor<3072x768xf32>
    %10747 = stablehlo.add %arg160, %10501 : tensor<3072xf32>
    %10748 = stablehlo.add %arg161, %10503 : tensor<768x3072xf32>
    %10749 = stablehlo.add %arg162, %10505 : tensor<768xf32>
    %10750 = stablehlo.add %arg163, %10507 : tensor<768xf32>
    %10751 = stablehlo.add %arg164, %10509 : tensor<768xf32>
    %10752 = stablehlo.add %arg165, %10511 : tensor<768x768xf32>
    %10753 = stablehlo.add %arg166, %10513 : tensor<768xf32>
    %10754 = stablehlo.add %arg167, %10515 : tensor<768x768xf32>
    %10755 = stablehlo.add %arg168, %10517 : tensor<768xf32>
    %10756 = stablehlo.add %arg169, %10519 : tensor<768x768xf32>
    %10757 = stablehlo.add %arg170, %10521 : tensor<768xf32>
    %10758 = stablehlo.add %arg171, %10523 : tensor<768x768xf32>
    %10759 = stablehlo.add %arg172, %10525 : tensor<768xf32>
    %10760 = stablehlo.add %arg173, %10527 : tensor<768xf32>
    %10761 = stablehlo.add %arg174, %10529 : tensor<768xf32>
    %10762 = stablehlo.add %arg175, %10531 : tensor<3072x768xf32>
    %10763 = stablehlo.add %arg176, %10533 : tensor<3072xf32>
    %10764 = stablehlo.add %arg177, %10535 : tensor<768x3072xf32>
    %10765 = stablehlo.add %arg178, %10537 : tensor<768xf32>
    %10766 = stablehlo.add %arg179, %10539 : tensor<768xf32>
    %10767 = stablehlo.add %arg180, %10541 : tensor<768xf32>
    %10768 = stablehlo.add %arg181, %10543 : tensor<768x768xf32>
    %10769 = stablehlo.add %arg182, %10545 : tensor<768xf32>
    %10770 = stablehlo.add %arg183, %10547 : tensor<768x768xf32>
    %10771 = stablehlo.add %arg184, %10549 : tensor<768xf32>
    %10772 = stablehlo.add %arg185, %10551 : tensor<768x768xf32>
    %10773 = stablehlo.add %arg186, %10553 : tensor<768xf32>
    %10774 = stablehlo.add %arg187, %10555 : tensor<768x768xf32>
    %10775 = stablehlo.add %arg188, %10557 : tensor<768xf32>
    %10776 = stablehlo.add %arg189, %10559 : tensor<768xf32>
    %10777 = stablehlo.add %arg190, %10561 : tensor<768xf32>
    %10778 = stablehlo.add %arg191, %10563 : tensor<3072x768xf32>
    %10779 = stablehlo.add %arg192, %10565 : tensor<3072xf32>
    %10780 = stablehlo.add %arg193, %10567 : tensor<768x3072xf32>
    %10781 = stablehlo.add %arg194, %10569 : tensor<768xf32>
    %10782 = stablehlo.add %arg195, %10571 : tensor<768xf32>
    %10783 = stablehlo.add %arg196, %10573 : tensor<768xf32>
    %10784 = stablehlo.add %arg197, %10575 : tensor<768x768xf32>
    %10785 = stablehlo.add %arg198, %10577 : tensor<768xf32>
    %10786 = stablehlo.add %arg199, %10579 : tensor<768xf32>
    %10787 = stablehlo.add %arg200, %10581 : tensor<768xf32>
    %10788 = stablehlo.add %arg201, %10583 : tensor<30522xf32>
    return %c_4, %10587, %10588, %10589, %10590, %10591, %10592, %10593, %10594, %10595, %10596, %10597, %10598, %10599, %10600, %10601, %10602, %10603, %10604, %10605, %10606, %10607, %10608, %10609, %10610, %10611, %10612, %10613, %10614, %10615, %10616, %10617, %10618, %10619, %10620, %10621, %10622, %10623, %10624, %10625, %10626, %10627, %10628, %10629, %10630, %10631, %10632, %10633, %10634, %10635, %10636, %10637, %10638, %10639, %10640, %10641, %10642, %10643, %10644, %10645, %10646, %10647, %10648, %10649, %10650, %10651, %10652, %10653, %10654, %10655, %10656, %10657, %10658, %10659, %10660, %10661, %10662, %10663, %10664, %10665, %10666, %10667, %10668, %10669, %10670, %10671, %10672, %10673, %10674, %10675, %10676, %10677, %10678, %10679, %10680, %10681, %10682, %10683, %10684, %10685, %10686, %10687, %10688, %10689, %10690, %10691, %10692, %10693, %10694, %10695, %10696, %10697, %10698, %10699, %10700, %10701, %10702, %10703, %10704, %10705, %10706, %10707, %10708, %10709, %10710, %10711, %10712, %10713, %10714, %10715, %10716, %10717, %10718, %10719, %10720, %10721, %10722, %10723, %10724, %10725, %10726, %10727, %10728, %10729, %10730, %10731, %10732, %10733, %10734, %10735, %10736, %10737, %10738, %10739, %10740, %10741, %10742, %10743, %10744, %10745, %10746, %10747, %10748, %10749, %10750, %10751, %10752, %10753, %10754, %10755, %10756, %10757, %10758, %10759, %10760, %10761, %10762, %10763, %10764, %10765, %10766, %10767, %10768, %10769, %10770, %10771, %10772, %10773, %10774, %10775, %10776, %10777, %10778, %10779, %10780, %10781, %10782, %10783, %10784, %10785, %10786, %10787, %10788, %7525, %5305, %5310, %5315, %5320, %5325, %5330, %5335, %5340, %5345, %5350, %5355, %5360, %5365, %5370, %5375, %5380, %5385, %5390, %5395, %5400, %5405, %5410, %5415, %5420, %5425, %5430, %5435, %5440, %5445, %5450, %5455, %5460, %5465, %5470, %5475, %5480, %5485, %5490, %5495, %5500, %5505, %5510, %5515, %5520, %5525, %5530, %5535, %5540, %5545, %5550, %5555, %5560, %5565, %5570, %5575, %5580, %5585, %5590, %5595, %5600, %5605, %5610, %5615, %5620, %5625, %5630, %5635, %5640, %5645, %5650, %5655, %5660, %5665, %5670, %5675, %5680, %5685, %5690, %5695, %5700, %5705, %5710, %5715, %5720, %5725, %5730, %5735, %5740, %5745, %5750, %5755, %5760, %5765, %5770, %5775, %5780, %5785, %5790, %5795, %5800, %5805, %5810, %5815, %5820, %5825, %5830, %5835, %5840, %5845, %5850, %5855, %5860, %5865, %5870, %5875, %5880, %5885, %5890, %5895, %5900, %5905, %5910, %5915, %5920, %5925, %5930, %5935, %5940, %5945, %5950, %5955, %5960, %5965, %5970, %5975, %5980, %5985, %5990, %5995, %6000, %6005, %6010, %6015, %6020, %6025, %6030, %6035, %6040, %6045, %6050, %6055, %6060, %6065, %6070, %6075, %6080, %6085, %6090, %6095, %6100, %6105, %6110, %6115, %6120, %6125, %6130, %6135, %6140, %6145, %6150, %6155, %6160, %6165, %6170, %6175, %6180, %6185, %6190, %6195, %6200, %6205, %6210, %6215, %6220, %6225, %6230, %6235, %6240, %6245, %6250, %6255, %6260, %6265, %6270, %6275, %6280, %6285, %6290, %6295, %6300, %6305, %6310, %6316, %6322, %6328, %6334, %6340, %6346, %6352, %6358, %6364, %6370, %6376, %6382, %6388, %6394, %6400, %6406, %6412, %6418, %6424, %6430, %6436, %6442, %6448, %6454, %6460, %6466, %6472, %6478, %6484, %6490, %6496, %6502, %6508, %6514, %6520, %6526, %6532, %6538, %6544, %6550, %6556, %6562, %6568, %6574, %6580, %6586, %6592, %6598, %6604, %6610, %6616, %6622, %6628, %6634, %6640, %6646, %6652, %6658, %6664, %6670, %6676, %6682, %6688, %6694, %6700, %6706, %6712, %6718, %6724, %6730, %6736, %6742, %6748, %6754, %6760, %6766, %6772, %6778, %6784, %6790, %6796, %6802, %6808, %6814, %6820, %6826, %6832, %6838, %6844, %6850, %6856, %6862, %6868, %6874, %6880, %6886, %6892, %6898, %6904, %6910, %6916, %6922, %6928, %6934, %6940, %6946, %6952, %6958, %6964, %6970, %6976, %6982, %6988, %6994, %7000, %7006, %7012, %7018, %7024, %7030, %7036, %7042, %7048, %7054, %7060, %7066, %7072, %7078, %7084, %7090, %7096, %7102, %7108, %7114, %7120, %7126, %7132, %7138, %7144, %7150, %7156, %7162, %7168, %7174, %7180, %7186, %7192, %7198, %7204, %7210, %7216, %7222, %7228, %7234, %7240, %7246, %7252, %7258, %7264, %7270, %7276, %7282, %7288, %7294, %7300, %7306, %7312, %7318, %7324, %7330, %7336, %7342, %7348, %7354, %7360, %7366, %7372, %7378, %7384, %7390, %7396, %7402, %7408, %7414, %7420, %7426, %7432, %7438, %7444, %7450, %7456, %7462, %7468, %7474, %7480, %7486, %7492, %7498, %7504, %7510, %7516, %7522, %10586, %1894, %1889, %1887, %1889, %1889 : tensor<i32>, tensor<30522x768xf32>, tensor<512x768xf32>, tensor<2x768xf32>, tensor<768xf32>, tensor<768xf32>, tensor<768x768xf32>, tensor<768xf32>, tensor<768x768xf32>, tensor<768xf32>, tensor<768x768xf32>, tensor<768xf32>, tensor<768x768xf32>, tensor<768xf32>, tensor<768xf32>, tensor<768xf32>, tensor<3072x768xf32>, tensor<3072xf32>, tensor<768x3072xf32>, tensor<768xf32>, tensor<768xf32>, tensor<768xf32>, tensor<768x768xf32>, tensor<768xf32>, tensor<768x768xf32>, tensor<768xf32>, tensor<768x768xf32>, tensor<768xf32>, tensor<768x768xf32>, tensor<768xf32>, tensor<768xf32>, tensor<768xf32>, tensor<3072x768xf32>, tensor<3072xf32>, tensor<768x3072xf32>, tensor<768xf32>, tensor<768xf32>, tensor<768xf32>, tensor<768x768xf32>, tensor<768xf32>, tensor<768x768xf32>, tensor<768xf32>, tensor<768x768xf32>, tensor<768xf32>, tensor<768x768xf32>, tensor<768xf32>, tensor<768xf32>, tensor<768xf32>, tensor<3072x768xf32>, tensor<3072xf32>, tensor<768x3072xf32>, tensor<768xf32>, tensor<768xf32>, tensor<768xf32>, tensor<768x768xf32>, tensor<768xf32>, tensor<768x768xf32>, tensor<768xf32>, tensor<768x768xf32>, tensor<768xf32>, tensor<768x768xf32>, tensor<768xf32>, tensor<768xf32>, tensor<768xf32>, tensor<3072x768xf32>, tensor<3072xf32>, tensor<768x3072xf32>, tensor<768xf32>, tensor<768xf32>, tensor<768xf32>, tensor<768x768xf32>, tensor<768xf32>, tensor<768x768xf32>, tensor<768xf32>, tensor<768x768xf32>, tensor<768xf32>, tensor<768x768xf32>, tensor<768xf32>, tensor<768xf32>, tensor<768xf32>, tensor<3072x768xf32>, tensor<3072xf32>, tensor<768x3072xf32>, tensor<768xf32>, tensor<768xf32>, tensor<768xf32>, tensor<768x768xf32>, tensor<768xf32>, tensor<768x768xf32>, tensor<768xf32>, tensor<768x768xf32>, tensor<768xf32>, tensor<768x768xf32>, tensor<768xf32>, tensor<768xf32>, tensor<768xf32>, tensor<3072x768xf32>, tensor<3072xf32>, tensor<768x3072xf32>, tensor<768xf32>, tensor<768xf32>, tensor<768xf32>, tensor<768x768xf32>, tensor<768xf32>, tensor<768x768xf32>, tensor<768xf32>, tensor<768x768xf32>, tensor<768xf32>, tensor<768x768xf32>, tensor<768xf32>, tensor<768xf32>, tensor<768xf32>, tensor<3072x768xf32>, tensor<3072xf32>, tensor<768x3072xf32>, tensor<768xf32>, tensor<768xf32>, tensor<768xf32>, tensor<768x768xf32>, tensor<768xf32>, tensor<768x768xf32>, tensor<768xf32>, tensor<768x768xf32>, tensor<768xf32>, tensor<768x768xf32>, tensor<768xf32>, tensor<768xf32>, tensor<768xf32>, tensor<3072x768xf32>, tensor<3072xf32>, tensor<768x3072xf32>, tensor<768xf32>, tensor<768xf32>, tensor<768xf32>, tensor<768x768xf32>, tensor<768xf32>, tensor<768x768xf32>, tensor<768xf32>, tensor<768x768xf32>, tensor<768xf32>, tensor<768x768xf32>, tensor<768xf32>, tensor<768xf32>, tensor<768xf32>, tensor<3072x768xf32>, tensor<3072xf32>, tensor<768x3072xf32>, tensor<768xf32>, tensor<768xf32>, tensor<768xf32>, tensor<768x768xf32>, tensor<768xf32>, tensor<768x768xf32>, tensor<768xf32>, tensor<768x768xf32>, tensor<768xf32>, tensor<768x768xf32>, tensor<768xf32>, tensor<768xf32>, tensor<768xf32>, tensor<3072x768xf32>, tensor<3072xf32>, tensor<768x3072xf32>, tensor<768xf32>, tensor<768xf32>, tensor<768xf32>, tensor<768x768xf32>, tensor<768xf32>, tensor<768x768xf32>, tensor<768xf32>, tensor<768x768xf32>, tensor<768xf32>, tensor<768x768xf32>, tensor<768xf32>, tensor<768xf32>, tensor<768xf32>, tensor<3072x768xf32>, tensor<3072xf32>, tensor<768x3072xf32>, tensor<768xf32>, tensor<768xf32>, tensor<768xf32>, tensor<768x768xf32>, tensor<768xf32>, tensor<768x768xf32>, tensor<768xf32>, tensor<768x768xf32>, tensor<768xf32>, tensor<768x768xf32>, tensor<768xf32>, tensor<768xf32>, tensor<768xf32>, tensor<3072x768xf32>, tensor<3072xf32>, tensor<768x3072xf32>, tensor<768xf32>, tensor<768xf32>, tensor<768xf32>, tensor<768x768xf32>, tensor<768xf32>, tensor<768xf32>, tensor<768xf32>, tensor<30522xf32>, tensor<i32>, tensor<30522x768xf32>, tensor<512x768xf32>, tensor<2x768xf32>, tensor<768xf32>, tensor<768xf32>, tensor<768x768xf32>, tensor<768xf32>, tensor<768x768xf32>, tensor<768xf32>, tensor<768x768xf32>, tensor<768xf32>, tensor<768x768xf32>, tensor<768xf32>, tensor<768xf32>, tensor<768xf32>, tensor<3072x768xf32>, tensor<3072xf32>, tensor<768x3072xf32>, tensor<768xf32>, tensor<768xf32>, tensor<768xf32>, tensor<768x768xf32>, tensor<768xf32>, tensor<768x768xf32>, tensor<768xf32>, tensor<768x768xf32>, tensor<768xf32>, tensor<768x768xf32>, tensor<768xf32>, tensor<768xf32>, tensor<768xf32>, tensor<3072x768xf32>, tensor<3072xf32>, tensor<768x3072xf32>, tensor<768xf32>, tensor<768xf32>, tensor<768xf32>, tensor<768x768xf32>, tensor<768xf32>, tensor<768x768xf32>, tensor<768xf32>, tensor<768x768xf32>, tensor<768xf32>, tensor<768x768xf32>, tensor<768xf32>, tensor<768xf32>, tensor<768xf32>, tensor<3072x768xf32>, tensor<3072xf32>, tensor<768x3072xf32>, tensor<768xf32>, tensor<768xf32>, tensor<768xf32>, tensor<768x768xf32>, tensor<768xf32>, tensor<768x768xf32>, tensor<768xf32>, tensor<768x768xf32>, tensor<768xf32>, tensor<768x768xf32>, tensor<768xf32>, tensor<768xf32>, tensor<768xf32>, tensor<3072x768xf32>, tensor<3072xf32>, tensor<768x3072xf32>, tensor<768xf32>, tensor<768xf32>, tensor<768xf32>, tensor<768x768xf32>, tensor<768xf32>, tensor<768x768xf32>, tensor<768xf32>, tensor<768x768xf32>, tensor<768xf32>, tensor<768x768xf32>, tensor<768xf32>, tensor<768xf32>, tensor<768xf32>, tensor<3072x768xf32>, tensor<3072xf32>, tensor<768x3072xf32>, tensor<768xf32>, tensor<768xf32>, tensor<768xf32>, tensor<768x768xf32>, tensor<768xf32>, tensor<768x768xf32>, tensor<768xf32>, tensor<768x768xf32>, tensor<768xf32>, tensor<768x768xf32>, tensor<768xf32>, tensor<768xf32>, tensor<768xf32>, tensor<3072x768xf32>, tensor<3072xf32>, tensor<768x3072xf32>, tensor<768xf32>, tensor<768xf32>, tensor<768xf32>, tensor<768x768xf32>, tensor<768xf32>, tensor<768x768xf32>, tensor<768xf32>, tensor<768x768xf32>, tensor<768xf32>, tensor<768x768xf32>, tensor<768xf32>, tensor<768xf32>, tensor<768xf32>, tensor<3072x768xf32>, tensor<3072xf32>, tensor<768x3072xf32>, tensor<768xf32>, tensor<768xf32>, tensor<768xf32>, tensor<768x768xf32>, tensor<768xf32>, tensor<768x768xf32>, tensor<768xf32>, tensor<768x768xf32>, tensor<768xf32>, tensor<768x768xf32>, tensor<768xf32>, tensor<768xf32>, tensor<768xf32>, tensor<3072x768xf32>, tensor<3072xf32>, tensor<768x3072xf32>, tensor<768xf32>, tensor<768xf32>, tensor<768xf32>, tensor<768x768xf32>, tensor<768xf32>, tensor<768x768xf32>, tensor<768xf32>, tensor<768x768xf32>, tensor<768xf32>, tensor<768x768xf32>, tensor<768xf32>, tensor<768xf32>, tensor<768xf32>, tensor<3072x768xf32>, tensor<3072xf32>, tensor<768x3072xf32>, tensor<768xf32>, tensor<768xf32>, tensor<768xf32>, tensor<768x768xf32>, tensor<768xf32>, tensor<768x768xf32>, tensor<768xf32>, tensor<768x768xf32>, tensor<768xf32>, tensor<768x768xf32>, tensor<768xf32>, tensor<768xf32>, tensor<768xf32>, tensor<3072x768xf32>, tensor<3072xf32>, tensor<768x3072xf32>, tensor<768xf32>, tensor<768xf32>, tensor<768xf32>, tensor<768x768xf32>, tensor<768xf32>, tensor<768x768xf32>, tensor<768xf32>, tensor<768x768xf32>, tensor<768xf32>, tensor<768x768xf32>, tensor<768xf32>, tensor<768xf32>, tensor<768xf32>, tensor<3072x768xf32>, tensor<3072xf32>, tensor<768x3072xf32>, tensor<768xf32>, tensor<768xf32>, tensor<768xf32>, tensor<768x768xf32>, tensor<768xf32>, tensor<768x768xf32>, tensor<768xf32>, tensor<768x768xf32>, tensor<768xf32>, tensor<768x768xf32>, tensor<768xf32>, tensor<768xf32>, tensor<768xf32>, tensor<3072x768xf32>, tensor<3072xf32>, tensor<768x3072xf32>, tensor<768xf32>, tensor<768xf32>, tensor<768xf32>, tensor<768x768xf32>, tensor<768xf32>, tensor<768xf32>, tensor<768xf32>, tensor<30522xf32>, tensor<30522x768xf32>, tensor<512x768xf32>, tensor<2x768xf32>, tensor<768xf32>, tensor<768xf32>, tensor<768x768xf32>, tensor<768xf32>, tensor<768x768xf32>, tensor<768xf32>, tensor<768x768xf32>, tensor<768xf32>, tensor<768x768xf32>, tensor<768xf32>, tensor<768xf32>, tensor<768xf32>, tensor<3072x768xf32>, tensor<3072xf32>, tensor<768x3072xf32>, tensor<768xf32>, tensor<768xf32>, tensor<768xf32>, tensor<768x768xf32>, tensor<768xf32>, tensor<768x768xf32>, tensor<768xf32>, tensor<768x768xf32>, tensor<768xf32>, tensor<768x768xf32>, tensor<768xf32>, tensor<768xf32>, tensor<768xf32>, tensor<3072x768xf32>, tensor<3072xf32>, tensor<768x3072xf32>, tensor<768xf32>, tensor<768xf32>, tensor<768xf32>, tensor<768x768xf32>, tensor<768xf32>, tensor<768x768xf32>, tensor<768xf32>, tensor<768x768xf32>, tensor<768xf32>, tensor<768x768xf32>, tensor<768xf32>, tensor<768xf32>, tensor<768xf32>, tensor<3072x768xf32>, tensor<3072xf32>, tensor<768x3072xf32>, tensor<768xf32>, tensor<768xf32>, tensor<768xf32>, tensor<768x768xf32>, tensor<768xf32>, tensor<768x768xf32>, tensor<768xf32>, tensor<768x768xf32>, tensor<768xf32>, tensor<768x768xf32>, tensor<768xf32>, tensor<768xf32>, tensor<768xf32>, tensor<3072x768xf32>, tensor<3072xf32>, tensor<768x3072xf32>, tensor<768xf32>, tensor<768xf32>, tensor<768xf32>, tensor<768x768xf32>, tensor<768xf32>, tensor<768x768xf32>, tensor<768xf32>, tensor<768x768xf32>, tensor<768xf32>, tensor<768x768xf32>, tensor<768xf32>, tensor<768xf32>, tensor<768xf32>, tensor<3072x768xf32>, tensor<3072xf32>, tensor<768x3072xf32>, tensor<768xf32>, tensor<768xf32>, tensor<768xf32>, tensor<768x768xf32>, tensor<768xf32>, tensor<768x768xf32>, tensor<768xf32>, tensor<768x768xf32>, tensor<768xf32>, tensor<768x768xf32>, tensor<768xf32>, tensor<768xf32>, tensor<768xf32>, tensor<3072x768xf32>, tensor<3072xf32>, tensor<768x3072xf32>, tensor<768xf32>, tensor<768xf32>, tensor<768xf32>, tensor<768x768xf32>, tensor<768xf32>, tensor<768x768xf32>, tensor<768xf32>, tensor<768x768xf32>, tensor<768xf32>, tensor<768x768xf32>, tensor<768xf32>, tensor<768xf32>, tensor<768xf32>, tensor<3072x768xf32>, tensor<3072xf32>, tensor<768x3072xf32>, tensor<768xf32>, tensor<768xf32>, tensor<768xf32>, tensor<768x768xf32>, tensor<768xf32>, tensor<768x768xf32>, tensor<768xf32>, tensor<768x768xf32>, tensor<768xf32>, tensor<768x768xf32>, tensor<768xf32>, tensor<768xf32>, tensor<768xf32>, tensor<3072x768xf32>, tensor<3072xf32>, tensor<768x3072xf32>, tensor<768xf32>, tensor<768xf32>, tensor<768xf32>, tensor<768x768xf32>, tensor<768xf32>, tensor<768x768xf32>, tensor<768xf32>, tensor<768x768xf32>, tensor<768xf32>, tensor<768x768xf32>, tensor<768xf32>, tensor<768xf32>, tensor<768xf32>, tensor<3072x768xf32>, tensor<3072xf32>, tensor<768x3072xf32>, tensor<768xf32>, tensor<768xf32>, tensor<768xf32>, tensor<768x768xf32>, tensor<768xf32>, tensor<768x768xf32>, tensor<768xf32>, tensor<768x768xf32>, tensor<768xf32>, tensor<768x768xf32>, tensor<768xf32>, tensor<768xf32>, tensor<768xf32>, tensor<3072x768xf32>, tensor<3072xf32>, tensor<768x3072xf32>, tensor<768xf32>, tensor<768xf32>, tensor<768xf32>, tensor<768x768xf32>, tensor<768xf32>, tensor<768x768xf32>, tensor<768xf32>, tensor<768x768xf32>, tensor<768xf32>, tensor<768x768xf32>, tensor<768xf32>, tensor<768xf32>, tensor<768xf32>, tensor<3072x768xf32>, tensor<3072xf32>, tensor<768x3072xf32>, tensor<768xf32>, tensor<768xf32>, tensor<768xf32>, tensor<768x768xf32>, tensor<768xf32>, tensor<768x768xf32>, tensor<768xf32>, tensor<768x768xf32>, tensor<768xf32>, tensor<768x768xf32>, tensor<768xf32>, tensor<768xf32>, tensor<768xf32>, tensor<3072x768xf32>, tensor<3072xf32>, tensor<768x3072xf32>, tensor<768xf32>, tensor<768xf32>, tensor<768xf32>, tensor<768x768xf32>, tensor<768xf32>, tensor<768xf32>, tensor<768xf32>, tensor<30522xf32>, tensor<i32>, tensor<i32>, tensor<i32>, tensor<f32>, tensor<i32>, tensor<i32>
  }
  func.func private @_var(%arg0: tensor<64x512x768xf32>, %arg1: tensor<i32>) -> (tensor<64x512x1xf32>, tensor<64x512x768xf32>, tensor<f32>, tensor<i1>) {
    %cst = stablehlo.constant dense<0.000000e+00> : tensor<f32>
    %0 = stablehlo.reduce(%arg0 init: %cst) applies stablehlo.add across dimensions = [2] : (tensor<64x512x768xf32>, tensor<f32>) -> tensor<64x512xf32>
    %1 = stablehlo.broadcast_in_dim %0, dims = [0, 1] : (tensor<64x512xf32>) -> tensor<64x512x1xf32>
    %cst_0 = stablehlo.constant dense<7.680000e+02> : tensor<f32>
    %2 = stablehlo.broadcast_in_dim %cst_0, dims = [] : (tensor<f32>) -> tensor<64x512x1xf32>
    %3 = stablehlo.divide %1, %2 : tensor<64x512x1xf32>
    %4 = stablehlo.broadcast_in_dim %3, dims = [0, 1, 2] : (tensor<64x512x1xf32>) -> tensor<64x512x768xf32>
    %5 = stablehlo.subtract %arg0, %4 : tensor<64x512x768xf32>
    %6 = stablehlo.multiply %5, %5 : tensor<64x512x768xf32>
    %cst_1 = stablehlo.constant dense<2.000000e+00> : tensor<f32>
    %7 = stablehlo.broadcast_in_dim %cst_1, dims = [] : (tensor<f32>) -> tensor<64x512x768xf32>
    %8 = stablehlo.multiply %7, %5 : tensor<64x512x768xf32>
    %9 = stablehlo.convert %arg1 : (tensor<i32>) -> tensor<f32>
    %10 = stablehlo.subtract %cst_0, %9 : tensor<f32>
    %cst_2 = stablehlo.constant dense<0.000000e+00> : tensor<f32>
    %11 = stablehlo.reduce(%6 init: %cst_2) applies stablehlo.add across dimensions = [2] : (tensor<64x512x768xf32>, tensor<f32>) -> tensor<64x512xf32>
    %12 = stablehlo.broadcast_in_dim %11, dims = [0, 1] : (tensor<64x512xf32>) -> tensor<64x512x1xf32>
    %13 = stablehlo.broadcast_in_dim %10, dims = [] : (tensor<f32>) -> tensor<64x512x1xf32>
    %14 = stablehlo.divide %12, %13 : tensor<64x512x1xf32>
    %cst_3 = stablehlo.constant dense<0.000000e+00> : tensor<f32>
    %15 = stablehlo.compare  GT, %10, %cst_3,  FLOAT : (tensor<f32>, tensor<f32>) -> tensor<i1>
    %cst_4 = stablehlo.constant dense<0x7FC00000> : tensor<f32>
    %16 = call @_where(%15, %14, %cst_4) : (tensor<i1>, tensor<64x512x1xf32>, tensor<f32>) -> tensor<64x512x1xf32>
    return %16, %8, %10, %15 : tensor<64x512x1xf32>, tensor<64x512x768xf32>, tensor<f32>, tensor<i1>
  }
  func.func private @_where(%arg0: tensor<i1>, %arg1: tensor<64x512x1xf32>, %arg2: tensor<f32>) -> tensor<64x512x1xf32> {
    %0 = stablehlo.convert %arg2 : tensor<f32>
    %1 = stablehlo.broadcast_in_dim %0, dims = [] : (tensor<f32>) -> tensor<64x512x1xf32>
    %2 = stablehlo.select %arg0, %arg1, %1 : tensor<i1>, tensor<64x512x1xf32>
    return %2 : tensor<64x512x1xf32>
  }
  func.func private @_where_33(%arg0: tensor<64x512x1x512xi1>, %arg1: tensor<64x512x12x512xf32>, %arg2: tensor<f32>) -> (tensor<64x512x12x512xf32>, tensor<64x512x12x512xi1>) {
    %0 = stablehlo.broadcast_in_dim %arg0, dims = [0, 1, 2, 3] : (tensor<64x512x1x512xi1>) -> tensor<64x512x12x512xi1>
    %1 = stablehlo.broadcast_in_dim %arg2, dims = [] : (tensor<f32>) -> tensor<64x512x12x512xf32>
    %2 = stablehlo.select %0, %arg1, %1 : tensor<64x512x12x512xi1>, tensor<64x512x12x512xf32>
    return %2, %0 : tensor<64x512x12x512xf32>, tensor<64x512x12x512xi1>
  }
  func.func private @_where_71(%arg0: tensor<64x512xi1>, %arg1: tensor<64x512xi32>, %arg2: tensor<i32>) -> tensor<64x512xi32> {
    %0 = stablehlo.convert %arg2 : tensor<i32>
    %1 = stablehlo.broadcast_in_dim %0, dims = [] : (tensor<i32>) -> tensor<64x512xi32>
    %2 = stablehlo.select %arg0, %arg1, %1 : tensor<64x512xi1>, tensor<64x512xi32>
    return %2 : tensor<64x512xi32>
  }
  func.func private @take_along_axis(%arg0: tensor<64x512x30522xf32>, %arg1: tensor<64x512x1xi32>) -> (tensor<64x512x1xf32>, tensor<64x512x1x1xi32>) {
    %c = stablehlo.constant dense<0> : tensor<i32>
    %0 = stablehlo.broadcast_in_dim %c, dims = [] : (tensor<i32>) -> tensor<64x512x1xi32>
    %1 = stablehlo.compare  LT, %arg1, %0,  SIGNED : (tensor<64x512x1xi32>, tensor<64x512x1xi32>) -> tensor<64x512x1xi1>
    %c_0 = stablehlo.constant dense<30522> : tensor<i32>
    %2 = stablehlo.broadcast_in_dim %c_0, dims = [] : (tensor<i32>) -> tensor<64x512x1xi32>
    %3 = stablehlo.add %arg1, %2 : tensor<64x512x1xi32>
    %4 = stablehlo.select %1, %3, %arg1 : tensor<64x512x1xi1>, tensor<64x512x1xi32>
    %5 = stablehlo.reshape %4 : (tensor<64x512x1xi32>) -> tensor<64x512x1x1xi32>
    %c_1 = stablehlo.constant dense<30521> : tensor<1xi32>
    %c_2 = stablehlo.constant dense<0> : tensor<i32>
    %6 = stablehlo.broadcast_in_dim %c_2, dims = [] : (tensor<i32>) -> tensor<64x512x1x1xi32>
    %7 = stablehlo.compare  GE, %5, %6,  SIGNED : (tensor<64x512x1x1xi32>, tensor<64x512x1x1xi32>) -> tensor<64x512x1x1xi1>
    %8 = stablehlo.broadcast_in_dim %c_1, dims = [3] : (tensor<1xi32>) -> tensor<1x1x1x1xi32>
    %9 = stablehlo.broadcast_in_dim %8, dims = [0, 1, 2, 3] : (tensor<1x1x1x1xi32>) -> tensor<64x512x1x1xi32>
    %10 = stablehlo.compare  LE, %5, %9,  SIGNED : (tensor<64x512x1x1xi32>, tensor<64x512x1x1xi32>) -> tensor<64x512x1x1xi1>
    %11 = stablehlo.and %7, %10 : tensor<64x512x1x1xi1>
    %c_3 = stablehlo.constant dense<true> : tensor<i1>
    %12 = stablehlo.reduce(%11 init: %c_3) applies stablehlo.and across dimensions = [3] : (tensor<64x512x1x1xi1>, tensor<i1>) -> tensor<64x512x1xi1>
    %13 = "stablehlo.gather"(%arg0, %5) <{dimension_numbers = #stablehlo.gather<collapsed_slice_dims = [2], operand_batching_dims = [0, 1], start_indices_batching_dims = [0, 1], start_index_map = [2], index_vector_dim = 3>, indices_are_sorted = false, slice_sizes = array<i64: 1, 1, 1>}> : (tensor<64x512x30522xf32>, tensor<64x512x1x1xi32>) -> tensor<64x512x1xf32>
    %cst = stablehlo.constant dense<0x7FC00000> : tensor<f32>
    %14 = stablehlo.broadcast_in_dim %cst, dims = [] : (tensor<f32>) -> tensor<64x512x1xf32>
    %15 = stablehlo.select %12, %13, %14 : tensor<64x512x1xi1>, tensor<64x512x1xf32>
    return %15, %5 : tensor<64x512x1xf32>, tensor<64x512x1x1xi32>
  }
  func.func private @_where_88(%arg0: tensor<64x512xi1>, %arg1: tensor<64x512xf32>, %arg2: tensor<f32>) -> tensor<64x512xf32> {
    %0 = stablehlo.convert %arg2 : tensor<f32>
    %1 = stablehlo.broadcast_in_dim %0, dims = [] : (tensor<f32>) -> tensor<64x512xf32>
    %2 = stablehlo.select %arg0, %arg1, %1 : tensor<64x512xi1>, tensor<64x512xf32>
    return %2 : tensor<64x512xf32>
  }
  func.func private @argmax(%arg0: tensor<64x512x30522xf32>) -> tensor<64x512xi32> {
    %0 = stablehlo.iota dim = 2 : tensor<64x512x30522xi32>
    %cst = stablehlo.constant dense<0xFF800000> : tensor<f32>
    %c = stablehlo.constant dense<0> : tensor<i32>
    %1:2 = stablehlo.reduce(%arg0 init: %cst), (%0 init: %c) across dimensions = [2] : (tensor<64x512x30522xf32>, tensor<64x512x30522xi32>, tensor<f32>, tensor<i32>) -> (tensor<64x512xf32>, tensor<64x512xi32>)
     reducer(%arg1: tensor<f32>, %arg3: tensor<f32>) (%arg2: tensor<i32>, %arg4: tensor<i32>)  {
      %2 = stablehlo.compare  GT, %arg1, %arg3,  FLOAT : (tensor<f32>, tensor<f32>) -> tensor<i1>
      %3 = stablehlo.compare  NE, %arg1, %arg1,  FLOAT : (tensor<f32>, tensor<f32>) -> tensor<i1>
      %4 = stablehlo.or %2, %3 : tensor<i1>
      %5 = stablehlo.compare  EQ, %arg1, %arg3,  FLOAT : (tensor<f32>, tensor<f32>) -> tensor<i1>
      %6 = stablehlo.compare  LT, %arg2, %arg4,  SIGNED : (tensor<i32>, tensor<i32>) -> tensor<i1>
      %7 = stablehlo.and %5, %6 : tensor<i1>
      %8 = stablehlo.or %4, %7 : tensor<i1>
      %9 = stablehlo.select %4, %arg1, %arg3 : tensor<i1>, tensor<f32>
      %10 = stablehlo.select %8, %arg2, %arg4 : tensor<i1>, tensor<i32>
      stablehlo.return %9, %10 : tensor<f32>, tensor<i32>
    }
    return %1#1 : tensor<64x512xi32>
  }
  func.func private @_where_104(%arg0: tensor<64x512xi1>, %arg1: tensor<64x512xf32>) -> tensor<64x512xf32> {
    %cst = stablehlo.constant dense<0.000000e+00> : tensor<f32>
    %0 = stablehlo.broadcast_in_dim %cst, dims = [] : (tensor<f32>) -> tensor<64x512xf32>
    %1 = stablehlo.select %arg0, %arg1, %0 : tensor<64x512xi1>, tensor<64x512xf32>
    return %1 : tensor<64x512xf32>
  }
  func.func private @take_along_axis_105(%arg0: tensor<64x512x1x1xi32>, %arg1: tensor<64x512x1xf32>) -> tensor<64x512x30522xf32> {
    %cst = stablehlo.constant dense<0.000000e+00> : tensor<f32>
    %0 = stablehlo.broadcast_in_dim %cst, dims = [] : (tensor<f32>) -> tensor<64x512x30522xf32>
    %1 = "stablehlo.scatter"(%0, %arg0, %arg1) <{indices_are_sorted = false, scatter_dimension_numbers = #stablehlo.scatter<inserted_window_dims = [2], input_batching_dims = [0, 1], scatter_indices_batching_dims = [0, 1], scatter_dims_to_operand_dims = [2], index_vector_dim = 3>, unique_indices = false}> ({
    ^bb0(%arg2: tensor<f32>, %arg3: tensor<f32>):
      %2 = stablehlo.add %arg2, %arg3 : tensor<f32>
      stablehlo.return %2 : tensor<f32>
    }) : (tensor<64x512x30522xf32>, tensor<64x512x1x1xi32>, tensor<64x512x1xf32>) -> tensor<64x512x30522xf32>
    return %1 : tensor<64x512x30522xf32>
  }
  func.func private @_var_122(%arg0: tensor<64x512x768xf32>, %arg1: tensor<f32>, %arg2: tensor<i1>, %arg3: tensor<64x512x1xf32>) -> tensor<64x512x768xf32> {
    %0 = call @_where_123(%arg2, %arg3) : (tensor<i1>, tensor<64x512x1xf32>) -> tensor<64x512x1xf32>
    %1 = stablehlo.broadcast_in_dim %arg1, dims = [] : (tensor<f32>) -> tensor<64x512x1xf32>
    %2 = stablehlo.divide %0, %1 : tensor<64x512x1xf32>
    %cst = stablehlo.constant dense<0.000000e+00> : tensor<f32>
    %3 = stablehlo.reduce(%2 init: %cst) applies stablehlo.add across dimensions = [2] : (tensor<64x512x1xf32>, tensor<f32>) -> tensor<64x512xf32>
    %4 = stablehlo.broadcast_in_dim %3, dims = [0, 1] : (tensor<64x512xf32>) -> tensor<64x512x768xf32>
    %5 = stablehlo.multiply %4, %arg0 : tensor<64x512x768xf32>
    %6 = stablehlo.negate %5 : tensor<64x512x768xf32>
    %cst_0 = stablehlo.constant dense<0.000000e+00> : tensor<f32>
    %7 = stablehlo.reduce(%6 init: %cst_0) applies stablehlo.add across dimensions = [2] : (tensor<64x512x768xf32>, tensor<f32>) -> tensor<64x512xf32>
    %8 = stablehlo.reshape %7 : (tensor<64x512xf32>) -> tensor<64x512x1xf32>
    %cst_1 = stablehlo.constant dense<7.680000e+02> : tensor<f32>
    %9 = stablehlo.broadcast_in_dim %cst_1, dims = [] : (tensor<f32>) -> tensor<64x512x1xf32>
    %10 = stablehlo.divide %8, %9 : tensor<64x512x1xf32>
    %cst_2 = stablehlo.constant dense<0.000000e+00> : tensor<f32>
    %11 = stablehlo.reduce(%10 init: %cst_2) applies stablehlo.add across dimensions = [2] : (tensor<64x512x1xf32>, tensor<f32>) -> tensor<64x512xf32>
    %12 = stablehlo.broadcast_in_dim %11, dims = [0, 1] : (tensor<64x512xf32>) -> tensor<64x512x768xf32>
    %13 = stablehlo.add %5, %12 : tensor<64x512x768xf32>
    return %13 : tensor<64x512x768xf32>
  }
  func.func private @_where_123(%arg0: tensor<i1>, %arg1: tensor<64x512x1xf32>) -> tensor<64x512x1xf32> {
    %cst = stablehlo.constant dense<0.000000e+00> : tensor<f32>
    %0 = stablehlo.broadcast_in_dim %cst, dims = [] : (tensor<f32>) -> tensor<64x512x1xf32>
    %1 = stablehlo.select %arg0, %arg1, %0 : tensor<i1>, tensor<64x512x1xf32>
    return %1 : tensor<64x512x1xf32>
  }
  func.func private @_where_149(%arg0: tensor<64x512x12x512xi1>, %arg1: tensor<64x512x12x512xf32>) -> tensor<64x512x12x512xf32> {
    %cst = stablehlo.constant dense<0.000000e+00> : tensor<f32>
    %0 = stablehlo.broadcast_in_dim %cst, dims = [] : (tensor<f32>) -> tensor<64x512x12x512xf32>
    %1 = stablehlo.select %arg0, %arg1, %0 : tensor<64x512x12x512xi1>, tensor<64x512x12x512xf32>
    return %1 : tensor<64x512x12x512xf32>
  }
  func.func private @_where_249(%arg0: tensor<i1>, %arg1: tensor<i32>, %arg2: tensor<i32>) -> tensor<i32> {
    %0 = stablehlo.select %arg0, %arg1, %arg2 : tensor<i1>, tensor<i32>
    return %0 : tensor<i32>
  }
  func.func private @clip(%arg0: tensor<i32>, %arg1: tensor<i32>, %arg2: tensor<i32>) -> tensor<i32> {
    %0 = stablehlo.convert %arg1 : tensor<i32>
    %1 = stablehlo.maximum %0, %arg0 : tensor<i32>
    %2 = stablehlo.convert %arg2 : tensor<i32>
    %3 = stablehlo.minimum %2, %1 : tensor<i32>
    return %3 : tensor<i32>
  }
  func.func private @_where_293(%arg0: tensor<i1>, %arg1: tensor<f32>, %arg2: tensor<f32>) -> tensor<f32> {
    %0 = stablehlo.convert %arg2 : tensor<f32>
    %1 = stablehlo.select %arg0, %arg1, %0 : tensor<i1>, tensor<f32>
    return %1 : tensor<f32>
  }
}
