module @jit__step attributes {mhlo.num_partitions = 4 : i32, mhlo.num_replicas = 1 : i32} {
  sdy.mesh @mesh = <["dp"=4]>
  sdy.mesh @empty_mesh = <[]>
  func.func public @main(%arg0: tensor<30522x768xf32> {sdy.sharding = #sdy.sharding<@mesh, [{}, {}]>}, %arg1: tensor<512x768xf32> {sdy.sharding = #sdy.sharding<@mesh, [{}, {}]>}, %arg2: tensor<2x768xf32> {sdy.sharding = #sdy.sharding<@mesh, [{}, {}]>}, %arg3: tensor<768xf32> {sdy.sharding = #sdy.sharding<@mesh, [{}]>}, %arg4: tensor<768xf32> {sdy.sharding = #sdy.sharding<@mesh, [{}]>}, %arg5: tensor<768x768xf32> {sdy.sharding = #sdy.sharding<@mesh, [{}, {}]>}, %arg6: tensor<768xf32> {sdy.sharding = #sdy.sharding<@mesh, [{}]>}, %arg7: tensor<768x768xf32> {sdy.sharding = #sdy.sharding<@mesh, [{}, {}]>}, %arg8: tensor<768xf32> {sdy.sharding = #sdy.sharding<@mesh, [{}]>}, %arg9: tensor<768x768xf32> {sdy.sharding = #sdy.sharding<@mesh, [{}, {}]>}, %arg10: tensor<768xf32> {sdy.sharding = #sdy.sharding<@mesh, [{}]>}, %arg11: tensor<768x768xf32> {sdy.sharding = #sdy.sharding<@mesh, [{}, {}]>}, %arg12: tensor<768xf32> {sdy.sharding = #sdy.sharding<@mesh, [{}]>}, %arg13: tensor<768xf32> {sdy.sharding = #sdy.sharding<@mesh, [{}]>}, %arg14: tensor<768xf32> {sdy.sharding = #sdy.sharding<@mesh, [{}]>}, %arg15: tensor<3072x768xf32> {sdy.sharding = #sdy.sharding<@mesh, [{}, {}]>}, %arg16: tensor<3072xf32> {sdy.sharding = #sdy.sharding<@mesh, [{}]>}, %arg17: tensor<768x3072xf32> {sdy.sharding = #sdy.sharding<@mesh, [{}, {}]>}, %arg18: tensor<768xf32> {sdy.sharding = #sdy.sharding<@mesh, [{}]>}, %arg19: tensor<768xf32> {sdy.sharding = #sdy.sharding<@mesh, [{}]>}, %arg20: tensor<768xf32> {sdy.sharding = #sdy.sharding<@mesh, [{}]>}, %arg21: tensor<768x768xf32> {sdy.sharding = #sdy.sharding<@mesh, [{}, {}]>}, %arg22: tensor<768xf32> {sdy.sharding = #sdy.sharding<@mesh, [{}]>}, %arg23: tensor<768x768xf32> {sdy.sharding = #sdy.sharding<@mesh, [{}, {}]>}, %arg24: tensor<768xf32> {sdy.sharding = #sdy.sharding<@mesh, [{}]>}, %arg25: tensor<768x768xf32> {sdy.sharding = #sdy.sharding<@mesh, [{}, {}]>}, %arg26: tensor<768xf32> {sdy.sharding = #sdy.sharding<@mesh, [{}]>}, %arg27: tensor<768x768xf32> {sdy.sharding = #sdy.sharding<@mesh, [{}, {}]>}, %arg28: tensor<768xf32> {sdy.sharding = #sdy.sharding<@mesh, [{}]>}, %arg29: tensor<768xf32> {sdy.sharding = #sdy.sharding<@mesh, [{}]>}, %arg30: tensor<768xf32> {sdy.sharding = #sdy.sharding<@mesh, [{}]>}, %arg31: tensor<3072x768xf32> {sdy.sharding = #sdy.sharding<@mesh, [{}, {}]>}, %arg32: tensor<3072xf32> {sdy.sharding = #sdy.sharding<@mesh, [{}]>}, %arg33: tensor<768x3072xf32> {sdy.sharding = #sdy.sharding<@mesh, [{}, {}]>}, %arg34: tensor<768xf32> {sdy.sharding = #sdy.sharding<@mesh, [{}]>}, %arg35: tensor<768xf32> {sdy.sharding = #sdy.sharding<@mesh, [{}]>}, %arg36: tensor<768xf32> {sdy.sharding = #sdy.sharding<@mesh, [{}]>}, %arg37: tensor<768x768xf32> {sdy.sharding = #sdy.sharding<@mesh, [{}, {}]>}, %arg38: tensor<768xf32> {sdy.sharding = #sdy.sharding<@mesh, [{}]>}, %arg39: tensor<768x768xf32> {sdy.sharding = #sdy.sharding<@mesh, [{}, {}]>}, %arg40: tensor<768xf32> {sdy.sharding = #sdy.sharding<@mesh, [{}]>}, %arg41: tensor<768x768xf32> {sdy.sharding = #sdy.sharding<@mesh, [{}, {}]>}, %arg42: tensor<768xf32> {sdy.sharding = #sdy.sharding<@mesh, [{}]>}, %arg43: tensor<768x768xf32> {sdy.sharding = #sdy.sharding<@mesh, [{}, {}]>}, %arg44: tensor<768xf32> {sdy.sharding = #sdy.sharding<@mesh, [{}]>}, %arg45: tensor<768xf32> {sdy.sharding = #sdy.sharding<@mesh, [{}]>}, %arg46: tensor<768xf32> {sdy.sharding = #sdy.sharding<@mesh, [{}]>}, %arg47: tensor<3072x768xf32> {sdy.sharding = #sdy.sharding<@mesh, [{}, {}]>}, %arg48: tensor<3072xf32> {sdy.sharding = #sdy.sharding<@mesh, [{}]>}, %arg49: tensor<768x3072xf32> {sdy.sharding = #sdy.sharding<@mesh, [{}, {}]>}, %arg50: tensor<768xf32> {sdy.sharding = #sdy.sharding<@mesh, [{}]>}, %arg51: tensor<768xf32> {sdy.sharding = #sdy.sharding<@mesh, [{}]>}, %arg52: tensor<768xf32> {sdy.sharding = #sdy.sharding<@mesh, [{}]>}, %arg53: tensor<768x768xf32> {sdy.sharding = #sdy.sharding<@mesh, [{}, {}]>}, %arg54: tensor<768xf32> {sdy.sharding = #sdy.sharding<@mesh, [{}]>}, %arg55: tensor<768x768xf32> {sdy.sharding = #sdy.sharding<@mesh, [{}, {}]>}, %arg56: tensor<768xf32> {sdy.sharding = #sdy.sharding<@mesh, [{}]>}, %arg57: tensor<768x768xf32> {sdy.sharding = #sdy.sharding<@mesh, [{}, {}]>}, %arg58: tensor<768xf32> {sdy.sharding = #sdy.sharding<@mesh, [{}]>}, %arg59: tensor<768x768xf32> {sdy.sharding = #sdy.sharding<@mesh, [{}, {}]>}, %arg60: tensor<768xf32> {sdy.sharding = #sdy.sharding<@mesh, [{}]>}, %arg61: tensor<768xf32> {sdy.sharding = #sdy.sharding<@mesh, [{}]>}, %arg62: tensor<768xf32> {sdy.sharding = #sdy.sharding<@mesh, [{}]>}, %arg63: tensor<3072x768xf32> {sdy.sharding = #sdy.sharding<@mesh, [{}, {}]>}, %arg64: tensor<3072xf32> {sdy.sharding = #sdy.sharding<@mesh, [{}]>}, %arg65: tensor<768x3072xf32> {sdy.sharding = #sdy.sharding<@mesh, [{}, {}]>}, %arg66: tensor<768xf32> {sdy.sharding = #sdy.sharding<@mesh, [{}]>}, %arg67: tensor<768xf32> {sdy.sharding = #sdy.sharding<@mesh, [{}]>}, %arg68: tensor<768xf32> {sdy.sharding = #sdy.sharding<@mesh, [{}]>}, %arg69: tensor<768x768xf32> {sdy.sharding = #sdy.sharding<@mesh, [{}, {}]>}, %arg70: tensor<768xf32> {sdy.sharding = #sdy.sharding<@mesh, [{}]>}, %arg71: tensor<768x768xf32> {sdy.sharding = #sdy.sharding<@mesh, [{}, {}]>}, %arg72: tensor<768xf32> {sdy.sharding = #sdy.sharding<@mesh, [{}]>}, %arg73: tensor<768x768xf32> {sdy.sharding = #sdy.sharding<@mesh, [{}, {}]>}, %arg74: tensor<768xf32> {sdy.sharding = #sdy.sharding<@mesh, [{}]>}, %arg75: tensor<768x768xf32> {sdy.sharding = #sdy.sharding<@mesh, [{}, {}]>}, %arg76: tensor<768xf32> {sdy.sharding = #sdy.sharding<@mesh, [{}]>}, %arg77: tensor<768xf32> {sdy.sharding = #sdy.sharding<@mesh, [{}]>}, %arg78: tensor<768xf32> {sdy.sharding = #sdy.sharding<@mesh, [{}]>}, %arg79: tensor<3072x768xf32> {sdy.sharding = #sdy.sharding<@mesh, [{}, {}]>}, %arg80: tensor<3072xf32> {sdy.sharding = #sdy.sharding<@mesh, [{}]>}, %arg81: tensor<768x3072xf32> {sdy.sharding = #sdy.sharding<@mesh, [{}, {}]>}, %arg82: tensor<768xf32> {sdy.sharding = #sdy.sharding<@mesh, [{}]>}, %arg83: tensor<768xf32> {sdy.sharding = #sdy.sharding<@mesh, [{}]>}, %arg84: tensor<768xf32> {sdy.sharding = #sdy.sharding<@mesh, [{}]>}, %arg85: tensor<768x768xf32> {sdy.sharding = #sdy.sharding<@mesh, [{}, {}]>}, %arg86: tensor<768xf32> {sdy.sharding = #sdy.sharding<@mesh, [{}]>}, %arg87: tensor<768x768xf32> {sdy.sharding = #sdy.sharding<@mesh, [{}, {}]>}, %arg88: tensor<768xf32> {sdy.sharding = #sdy.sharding<@mesh, [{}]>}, %arg89: tensor<768x768xf32> {sdy.sharding = #sdy.sharding<@mesh, [{}, {}]>}, %arg90: tensor<768xf32> {sdy.sharding = #sdy.sharding<@mesh, [{}]>}, %arg91: tensor<768x768xf32> {sdy.sharding = #sdy.sharding<@mesh, [{}, {}]>}, %arg92: tensor<768xf32> {sdy.sharding = #sdy.sharding<@mesh, [{}]>}, %arg93: tensor<768xf32> {sdy.sharding = #sdy.sharding<@mesh, [{}]>}, %arg94: tensor<768xf32> {sdy.sharding = #sdy.sharding<@mesh, [{}]>}, %arg95: tensor<3072x768xf32> {sdy.sharding = #sdy.sharding<@mesh, [{}, {}]>}, %arg96: tensor<3072xf32> {sdy.sharding = #sdy.sharding<@mesh, [{}]>}, %arg97: tensor<768x3072xf32> {sdy.sharding = #sdy.sharding<@mesh, [{}, {}]>}, %arg98: tensor<768xf32> {sdy.sharding = #sdy.sharding<@mesh, [{}]>}, %arg99: tensor<768xf32> {sdy.sharding = #sdy.sharding<@mesh, [{}]>}, %arg100: tensor<768xf32> {sdy.sharding = #sdy.sharding<@mesh, [{}]>}, %arg101: tensor<768x768xf32> {sdy.sharding = #sdy.sharding<@mesh, [{}, {}]>}, %arg102: tensor<768xf32> {sdy.sharding = #sdy.sharding<@mesh, [{}]>}, %arg103: tensor<768x768xf32> {sdy.sharding = #sdy.sharding<@mesh, [{}, {}]>}, %arg104: tensor<768xf32> {sdy.sharding = #sdy.sharding<@mesh, [{}]>}, %arg105: tensor<768x768xf32> {sdy.sharding = #sdy.sharding<@mesh, [{}, {}]>}, %arg106: tensor<768xf32> {sdy.sharding = #sdy.sharding<@mesh, [{}]>}, %arg107: tensor<768x768xf32> {sdy.sharding = #sdy.sharding<@mesh, [{}, {}]>}, %arg108: tensor<768xf32> {sdy.sharding = #sdy.sharding<@mesh, [{}]>}, %arg109: tensor<768xf32> {sdy.sharding = #sdy.sharding<@mesh, [{}]>}, %arg110: tensor<768xf32> {sdy.sharding = #sdy.sharding<@mesh, [{}]>}, %arg111: tensor<3072x768xf32> {sdy.sharding = #sdy.sharding<@mesh, [{}, {}]>}, %arg112: tensor<3072xf32> {sdy.sharding = #sdy.sharding<@mesh, [{}]>}, %arg113: tensor<768x3072xf32> {sdy.sharding = #sdy.sharding<@mesh, [{}, {}]>}, %arg114: tensor<768xf32> {sdy.sharding = #sdy.sharding<@mesh, [{}]>}, %arg115: tensor<768xf32> {sdy.sharding = #sdy.sharding<@mesh, [{}]>}, %arg116: tensor<768xf32> {sdy.sharding = #sdy.sharding<@mesh, [{}]>}, %arg117: tensor<768x768xf32> {sdy.sharding = #sdy.sharding<@mesh, [{}, {}]>}, %arg118: tensor<768xf32> {sdy.sharding = #sdy.sharding<@mesh, [{}]>}, %arg119: tensor<768x768xf32> {sdy.sharding = #sdy.sharding<@mesh, [{}, {}]>}, %arg120: tensor<768xf32> {sdy.sharding = #sdy.sharding<@mesh, [{}]>}, %arg121: tensor<768x768xf32> {sdy.sharding = #sdy.sharding<@mesh, [{}, {}]>}, %arg122: tensor<768xf32> {sdy.sharding = #sdy.sharding<@mesh, [{}]>}, %arg123: tensor<768x768xf32> {sdy.sharding = #sdy.sharding<@mesh, [{}, {}]>}, %arg124: tensor<768xf32> {sdy.sharding = #sdy.sharding<@mesh, [{}]>}, %arg125: tensor<768xf32> {sdy.sharding = #sdy.sharding<@mesh, [{}]>}, %arg126: tensor<768xf32> {sdy.sharding = #sdy.sharding<@mesh, [{}]>}, %arg127: tensor<3072x768xf32> {sdy.sharding = #sdy.sharding<@mesh, [{}, {}]>}, %arg128: tensor<3072xf32> {sdy.sharding = #sdy.sharding<@mesh, [{}]>}, %arg129: tensor<768x3072xf32> {sdy.sharding = #sdy.sharding<@mesh, [{}, {}]>}, %arg130: tensor<768xf32> {sdy.sharding = #sdy.sharding<@mesh, [{}]>}, %arg131: tensor<768xf32> {sdy.sharding = #sdy.sharding<@mesh, [{}]>}, %arg132: tensor<768xf32> {sdy.sharding = #sdy.sharding<@mesh, [{}]>}, %arg133: tensor<768x768xf32> {sdy.sharding = #sdy.sharding<@mesh, [{}, {}]>}, %arg134: tensor<768xf32> {sdy.sharding = #sdy.sharding<@mesh, [{}]>}, %arg135: tensor<768x768xf32> {sdy.sharding = #sdy.sharding<@mesh, [{}, {}]>}, %arg136: tensor<768xf32> {sdy.sharding = #sdy.sharding<@mesh, [{}]>}, %arg137: tensor<768x768xf32> {sdy.sharding = #sdy.sharding<@mesh, [{}, {}]>}, %arg138: tensor<768xf32> {sdy.sharding = #sdy.sharding<@mesh, [{}]>}, %arg139: tensor<768x768xf32> {sdy.sharding = #sdy.sharding<@mesh, [{}, {}]>}, %arg140: tensor<768xf32> {sdy.sharding = #sdy.sharding<@mesh, [{}]>}, %arg141: tensor<768xf32> {sdy.sharding = #sdy.sharding<@mesh, [{}]>}, %arg142: tensor<768xf32> {sdy.sharding = #sdy.sharding<@mesh, [{}]>}, %arg143: tensor<3072x768xf32> {sdy.sharding = #sdy.sharding<@mesh, [{}, {}]>}, %arg144: tensor<3072xf32> {sdy.sharding = #sdy.sharding<@mesh, [{}]>}, %arg145: tensor<768x3072xf32> {sdy.sharding = #sdy.sharding<@mesh, [{}, {}]>}, %arg146: tensor<768xf32> {sdy.sharding = #sdy.sharding<@mesh, [{}]>}, %arg147: tensor<768xf32> {sdy.sharding = #sdy.sharding<@mesh, [{}]>}, %arg148: tensor<768xf32> {sdy.sharding = #sdy.sharding<@mesh, [{}]>}, %arg149: tensor<768x768xf32> {sdy.sharding = #sdy.sharding<@mesh, [{}, {}]>}, %arg150: tensor<768xf32> {sdy.sharding = #sdy.sharding<@mesh, [{}]>}, %arg151: tensor<768x768xf32> {sdy.sharding = #sdy.sharding<@mesh, [{}, {}]>}, %arg152: tensor<768xf32> {sdy.sharding = #sdy.sharding<@mesh, [{}]>}, %arg153: tensor<768x768xf32> {sdy.sharding = #sdy.sharding<@mesh, [{}, {}]>}, %arg154: tensor<768xf32> {sdy.sharding = #sdy.sharding<@mesh, [{}]>}, %arg155: tensor<768x768xf32> {sdy.sharding = #sdy.sharding<@mesh, [{}, {}]>}, %arg156: tensor<768xf32> {sdy.sharding = #sdy.sharding<@mesh, [{}]>}, %arg157: tensor<768xf32> {sdy.sharding = #sdy.sharding<@mesh, [{}]>}, %arg158: tensor<768xf32> {sdy.sharding = #sdy.sharding<@mesh, [{}]>}, %arg159: tensor<3072x768xf32> {sdy.sharding = #sdy.sharding<@mesh, [{}, {}]>}, %arg160: tensor<3072xf32> {sdy.sharding = #sdy.sharding<@mesh, [{}]>}, %arg161: tensor<768x3072xf32> {sdy.sharding = #sdy.sharding<@mesh, [{}, {}]>}, %arg162: tensor<768xf32> {sdy.sharding = #sdy.sharding<@mesh, [{}]>}, %arg163: tensor<768xf32> {sdy.sharding = #sdy.sharding<@mesh, [{}]>}, %arg164: tensor<768xf32> {sdy.sharding = #sdy.sharding<@mesh, [{}]>}, %arg165: tensor<768x768xf32> {sdy.sharding = #sdy.sharding<@mesh, [{}, {}]>}, %arg166: tensor<768xf32> {sdy.sharding = #sdy.sharding<@mesh, [{}]>}, %arg167: tensor<768x768xf32> {sdy.sharding = #sdy.sharding<@mesh, [{}, {}]>}, %arg168: tensor<768xf32> {sdy.sharding = #sdy.sharding<@mesh, [{}]>}, %arg169: tensor<768x768xf32> {sdy.sharding = #sdy.sharding<@mesh, [{}, {}]>}, %arg170: tensor<768xf32> {sdy.sharding = #sdy.sharding<@mesh, [{}]>}, %arg171: tensor<768x768xf32> {sdy.sharding = #sdy.sharding<@mesh, [{}, {}]>}, %arg172: tensor<768xf32> {sdy.sharding = #sdy.sharding<@mesh, [{}]>}, %arg173: tensor<768xf32> {sdy.sharding = #sdy.sharding<@mesh, [{}]>}, %arg174: tensor<768xf32> {sdy.sharding = #sdy.sharding<@mesh, [{}]>}, %arg175: tensor<3072x768xf32> {sdy.sharding = #sdy.sharding<@mesh, [{}, {}]>}, %arg176: tensor<3072xf32> {sdy.sharding = #sdy.sharding<@mesh, [{}]>}, %arg177: tensor<768x3072xf32> {sdy.sharding = #sdy.sharding<@mesh, [{}, {}]>}, %arg178: tensor<768xf32> {sdy.sharding = #sdy.sharding<@mesh, [{}]>}, %arg179: tensor<768xf32> {sdy.sharding = #sdy.sharding<@mesh, [{}]>}, %arg180: tensor<768xf32> {sdy.sharding = #sdy.sharding<@mesh, [{}]>}, %arg181: tensor<768x768xf32> {sdy.sharding = #sdy.sharding<@mesh, [{}, {}]>}, %arg182: tensor<768xf32> {sdy.sharding = #sdy.sharding<@mesh, [{}]>}, %arg183: tensor<768x768xf32> {sdy.sharding = #sdy.sharding<@mesh, [{}, {}]>}, %arg184: tensor<768xf32> {sdy.sharding = #sdy.sharding<@mesh, [{}]>}, %arg185: tensor<768x768xf32> {sdy.sharding = #sdy.sharding<@mesh, [{}, {}]>}, %arg186: tensor<768xf32> {sdy.sharding = #sdy.sharding<@mesh, [{}]>}, %arg187: tensor<768x768xf32> {sdy.sharding = #sdy.sharding<@mesh, [{}, {}]>}, %arg188: tensor<768xf32> {sdy.sharding = #sdy.sharding<@mesh, [{}]>}, %arg189: tensor<768xf32> {sdy.sharding = #sdy.sharding<@mesh, [{}]>}, %arg190: tensor<768xf32> {sdy.sharding = #sdy.sharding<@mesh, [{}]>}, %arg191: tensor<3072x768xf32> {sdy.sharding = #sdy.sharding<@mesh, [{}, {}]>}, %arg192: tensor<3072xf32> {sdy.sharding = #sdy.sharding<@mesh, [{}]>}, %arg193: tensor<768x3072xf32> {sdy.sharding = #sdy.sharding<@mesh, [{}, {}]>}, %arg194: tensor<768xf32> {sdy.sharding = #sdy.sharding<@mesh, [{}]>}, %arg195: tensor<768xf32> {sdy.sharding = #sdy.sharding<@mesh, [{}]>}, %arg196: tensor<768xf32> {sdy.sharding = #sdy.sharding<@mesh, [{}]>}, %arg197: tensor<768x768xf32> {sdy.sharding = #sdy.sharding<@mesh, [{}, {}]>}, %arg198: tensor<768xf32> {sdy.sharding = #sdy.sharding<@mesh, [{}]>}, %arg199: tensor<768xf32> {sdy.sharding = #sdy.sharding<@mesh, [{}]>}, %arg200: tensor<768xf32> {sdy.sharding = #sdy.sharding<@mesh, [{}]>}, %arg201: tensor<30522xf32> {sdy.sharding = #sdy.sharding<@mesh, [{}]>}, %arg202: tensor<i32>, %arg203: tensor<30522x768xf32> {sdy.sharding = #sdy.sharding<@mesh, [{}, {}]>}, %arg204: tensor<512x768xf32> {sdy.sharding = #sdy.sharding<@mesh, [{}, {}]>}, %arg205: tensor<2x768xf32> {sdy.sharding = #sdy.sharding<@mesh, [{}, {}]>}, %arg206: tensor<768xf32> {sdy.sharding = #sdy.sharding<@mesh, [{}]>}, %arg207: tensor<768xf32> {sdy.sharding = #sdy.sharding<@mesh, [{}]>}, %arg208: tensor<768x768xf32> {sdy.sharding = #sdy.sharding<@mesh, [{}, {}]>}, %arg209: tensor<768xf32> {sdy.sharding = #sdy.sharding<@mesh, [{}]>}, %arg210: tensor<768x768xf32> {sdy.sharding = #sdy.sharding<@mesh, [{}, {}]>}, %arg211: tensor<768xf32> {sdy.sharding = #sdy.sharding<@mesh, [{}]>}, %arg212: tensor<768x768xf32> {sdy.sharding = #sdy.sharding<@mesh, [{}, {}]>}, %arg213: tensor<768xf32> {sdy.sharding = #sdy.sharding<@mesh, [{}]>}, %arg214: tensor<768x768xf32> {sdy.sharding = #sdy.sharding<@mesh, [{}, {}]>}, %arg215: tensor<768xf32> {sdy.sharding = #sdy.sharding<@mesh, [{}]>}, %arg216: tensor<768xf32> {sdy.sharding = #sdy.sharding<@mesh, [{}]>}, %arg217: tensor<768xf32> {sdy.sharding = #sdy.sharding<@mesh, [{}]>}, %arg218: tensor<3072x768xf32> {sdy.sharding = #sdy.sharding<@mesh, [{}, {}]>}, %arg219: tensor<3072xf32> {sdy.sharding = #sdy.sharding<@mesh, [{}]>}, %arg220: tensor<768x3072xf32> {sdy.sharding = #sdy.sharding<@mesh, [{}, {}]>}, %arg221: tensor<768xf32> {sdy.sharding = #sdy.sharding<@mesh, [{}]>}, %arg222: tensor<768xf32> {sdy.sharding = #sdy.sharding<@mesh, [{}]>}, %arg223: tensor<768xf32> {sdy.sharding = #sdy.sharding<@mesh, [{}]>}, %arg224: tensor<768x768xf32> {sdy.sharding = #sdy.sharding<@mesh, [{}, {}]>}, %arg225: tensor<768xf32> {sdy.sharding = #sdy.sharding<@mesh, [{}]>}, %arg226: tensor<768x768xf32> {sdy.sharding = #sdy.sharding<@mesh, [{}, {}]>}, %arg227: tensor<768xf32> {sdy.sharding = #sdy.sharding<@mesh, [{}]>}, %arg228: tensor<768x768xf32> {sdy.sharding = #sdy.sharding<@mesh, [{}, {}]>}, %arg229: tensor<768xf32> {sdy.sharding = #sdy.sharding<@mesh, [{}]>}, %arg230: tensor<768x768xf32> {sdy.sharding = #sdy.sharding<@mesh, [{}, {}]>}, %arg231: tensor<768xf32> {sdy.sharding = #sdy.sharding<@mesh, [{}]>}, %arg232: tensor<768xf32> {sdy.sharding = #sdy.sharding<@mesh, [{}]>}, %arg233: tensor<768xf32> {sdy.sharding = #sdy.sharding<@mesh, [{}]>}, %arg234: tensor<3072x768xf32> {sdy.sharding = #sdy.sharding<@mesh, [{}, {}]>}, %arg235: tensor<3072xf32> {sdy.sharding = #sdy.sharding<@mesh, [{}]>}, %arg236: tensor<768x3072xf32> {sdy.sharding = #sdy.sharding<@mesh, [{}, {}]>}, %arg237: tensor<768xf32> {sdy.sharding = #sdy.sharding<@mesh, [{}]>}, %arg238: tensor<768xf32> {sdy.sharding = #sdy.sharding<@mesh, [{}]>}, %arg239: tensor<768xf32> {sdy.sharding = #sdy.sharding<@mesh, [{}]>}, %arg240: tensor<768x768xf32> {sdy.sharding = #sdy.sharding<@mesh, [{}, {}]>}, %arg241: tensor<768xf32> {sdy.sharding = #sdy.sharding<@mesh, [{}]>}, %arg242: tensor<768x768xf32> {sdy.sharding = #sdy.sharding<@mesh, [{}, {}]>}, %arg243: tensor<768xf32> {sdy.sharding = #sdy.sharding<@mesh, [{}]>}, %arg244: tensor<768x768xf32> {sdy.sharding = #sdy.sharding<@mesh, [{}, {}]>}, %arg245: tensor<768xf32> {sdy.sharding = #sdy.sharding<@mesh, [{}]>}, %arg246: tensor<768x768xf32> {sdy.sharding = #sdy.sharding<@mesh, [{}, {}]>}, %arg247: tensor<768xf32> {sdy.sharding = #sdy.sharding<@mesh, [{}]>}, %arg248: tensor<768xf32> {sdy.sharding = #sdy.sharding<@mesh, [{}]>}, %arg249: tensor<768xf32> {sdy.sharding = #sdy.sharding<@mesh, [{}]>}, %arg250: tensor<3072x768xf32> {sdy.sharding = #sdy.sharding<@mesh, [{}, {}]>}, %arg251: tensor<3072xf32> {sdy.sharding = #sdy.sharding<@mesh, [{}]>}, %arg252: tensor<768x3072xf32> {sdy.sharding = #sdy.sharding<@mesh, [{}, {}]>}, %arg253: tensor<768xf32> {sdy.sharding = #sdy.sharding<@mesh, [{}]>}, %arg254: tensor<768xf32> {sdy.sharding = #sdy.sharding<@mesh, [{}]>}, %arg255: tensor<768xf32> {sdy.sharding = #sdy.sharding<@mesh, [{}]>}, %arg256: tensor<768x768xf32> {sdy.sharding = #sdy.sharding<@mesh, [{}, {}]>}, %arg257: tensor<768xf32> {sdy.sharding = #sdy.sharding<@mesh, [{}]>}, %arg258: tensor<768x768xf32> {sdy.sharding = #sdy.sharding<@mesh, [{}, {}]>}, %arg259: tensor<768xf32> {sdy.sharding = #sdy.sharding<@mesh, [{}]>}, %arg260: tensor<768x768xf32> {sdy.sharding = #sdy.sharding<@mesh, [{}, {}]>}, %arg261: tensor<768xf32> {sdy.sharding = #sdy.sharding<@mesh, [{}]>}, %arg262: tensor<768x768xf32> {sdy.sharding = #sdy.sharding<@mesh, [{}, {}]>}, %arg263: tensor<768xf32> {sdy.sharding = #sdy.sharding<@mesh, [{}]>}, %arg264: tensor<768xf32> {sdy.sharding = #sdy.sharding<@mesh, [{}]>}, %arg265: tensor<768xf32> {sdy.sharding = #sdy.sharding<@mesh, [{}]>}, %arg266: tensor<3072x768xf32> {sdy.sharding = #sdy.sharding<@mesh, [{}, {}]>}, %arg267: tensor<3072xf32> {sdy.sharding = #sdy.sharding<@mesh, [{}]>}, %arg268: tensor<768x3072xf32> {sdy.sharding = #sdy.sharding<@mesh, [{}, {}]>}, %arg269: tensor<768xf32> {sdy.sharding = #sdy.sharding<@mesh, [{}]>}, %arg270: tensor<768xf32> {sdy.sharding = #sdy.sharding<@mesh, [{}]>}, %arg271: tensor<768xf32> {sdy.sharding = #sdy.sharding<@mesh, [{}]>}, %arg272: tensor<768x768xf32> {sdy.sharding = #sdy.sharding<@mesh, [{}, {}]>}, %arg273: tensor<768xf32> {sdy.sharding = #sdy.sharding<@mesh, [{}]>}, %arg274: tensor<768x768xf32> {sdy.sharding = #sdy.sharding<@mesh, [{}, {}]>}, %arg275: tensor<768xf32> {sdy.sharding = #sdy.sharding<@mesh, [{}]>}, %arg276: tensor<768x768xf32> {sdy.sharding = #sdy.sharding<@mesh, [{}, {}]>}, %arg277: tensor<768xf32> {sdy.sharding = #sdy.sharding<@mesh, [{}]>}, %arg278: tensor<768x768xf32> {sdy.sharding = #sdy.sharding<@mesh, [{}, {}]>}, %arg279: tensor<768xf32> {sdy.sharding = #sdy.sharding<@mesh, [{}]>}, %arg280: tensor<768xf32> {sdy.sharding = #sdy.sharding<@mesh, [{}]>}, %arg281: tensor<768xf32> {sdy.sharding = #sdy.sharding<@mesh, [{}]>}, %arg282: tensor<3072x768xf32> {sdy.sharding = #sdy.sharding<@mesh, [{}, {}]>}, %arg283: tensor<3072xf32> {sdy.sharding = #sdy.sharding<@mesh, [{}]>}, %arg284: tensor<768x3072xf32> {sdy.sharding = #sdy.sharding<@mesh, [{}, {}]>}, %arg285: tensor<768xf32> {sdy.sharding = #sdy.sharding<@mesh, [{}]>}, %arg286: tensor<768xf32> {sdy.sharding = #sdy.sharding<@mesh, [{}]>}, %arg287: tensor<768xf32> {sdy.sharding = #sdy.sharding<@mesh, [{}]>}, %arg288: tensor<768x768xf32> {sdy.sharding = #sdy.sharding<@mesh, [{}, {}]>}, %arg289: tensor<768xf32> {sdy.sharding = #sdy.sharding<@mesh, [{}]>}, %arg290: tensor<768x768xf32> {sdy.sharding = #sdy.sharding<@mesh, [{}, {}]>}, %arg291: tensor<768xf32> {sdy.sharding = #sdy.sharding<@mesh, [{}]>}, %arg292: tensor<768x768xf32> {sdy.sharding = #sdy.sharding<@mesh, [{}, {}]>}, %arg293: tensor<768xf32> {sdy.sharding = #sdy.sharding<@mesh, [{}]>}, %arg294: tensor<768x768xf32> {sdy.sharding = #sdy.sharding<@mesh, [{}, {}]>}, %arg295: tensor<768xf32> {sdy.sharding = #sdy.sharding<@mesh, [{}]>}, %arg296: tensor<768xf32> {sdy.sharding = #sdy.sharding<@mesh, [{}]>}, %arg297: tensor<768xf32> {sdy.sharding = #sdy.sharding<@mesh, [{}]>}, %arg298: tensor<3072x768xf32> {sdy.sharding = #sdy.sharding<@mesh, [{}, {}]>}, %arg299: tensor<3072xf32> {sdy.sharding = #sdy.sharding<@mesh, [{}]>}, %arg300: tensor<768x3072xf32> {sdy.sharding = #sdy.sharding<@mesh, [{}, {}]>}, %arg301: tensor<768xf32> {sdy.sharding = #sdy.sharding<@mesh, [{}]>}, %arg302: tensor<768xf32> {sdy.sharding = #sdy.sharding<@mesh, [{}]>}, %arg303: tensor<768xf32> {sdy.sharding = #sdy.sharding<@mesh, [{}]>}, %arg304: tensor<768x768xf32> {sdy.sharding = #sdy.sharding<@mesh, [{}, {}]>}, %arg305: tensor<768xf32> {sdy.sharding = #sdy.sharding<@mesh, [{}]>}, %arg306: tensor<768x768xf32> {sdy.sharding = #sdy.sharding<@mesh, [{}, {}]>}, %arg307: tensor<768xf32> {sdy.sharding = #sdy.sharding<@mesh, [{}]>}, %arg308: tensor<768x768xf32> {sdy.sharding = #sdy.sharding<@mesh, [{}, {}]>}, %arg309: tensor<768xf32> {sdy.sharding = #sdy.sharding<@mesh, [{}]>}, %arg310: tensor<768x768xf32> {sdy.sharding = #sdy.sharding<@mesh, [{}, {}]>}, %arg311: tensor<768xf32> {sdy.sharding = #sdy.sharding<@mesh, [{}]>}, %arg312: tensor<768xf32> {sdy.sharding = #sdy.sharding<@mesh, [{}]>}, %arg313: tensor<768xf32> {sdy.sharding = #sdy.sharding<@mesh, [{}]>}, %arg314: tensor<3072x768xf32> {sdy.sharding = #sdy.sharding<@mesh, [{}, {}]>}, %arg315: tensor<3072xf32> {sdy.sharding = #sdy.sharding<@mesh, [{}]>}, %arg316: tensor<768x3072xf32> {sdy.sharding = #sdy.sharding<@mesh, [{}, {}]>}, %arg317: tensor<768xf32> {sdy.sharding = #sdy.sharding<@mesh, [{}]>}, %arg318: tensor<768xf32> {sdy.sharding = #sdy.sharding<@mesh, [{}]>}, %arg319: tensor<768xf32> {sdy.sharding = #sdy.sharding<@mesh, [{}]>}, %arg320: tensor<768x768xf32> {sdy.sharding = #sdy.sharding<@mesh, [{}, {}]>}, %arg321: tensor<768xf32> {sdy.sharding = #sdy.sharding<@mesh, [{}]>}, %arg322: tensor<768x768xf32> {sdy.sharding = #sdy.sharding<@mesh, [{}, {}]>}, %arg323: tensor<768xf32> {sdy.sharding = #sdy.sharding<@mesh, [{}]>}, %arg324: tensor<768x768xf32> {sdy.sharding = #sdy.sharding<@mesh, [{}, {}]>}, %arg325: tensor<768xf32> {sdy.sharding = #sdy.sharding<@mesh, [{}]>}, %arg326: tensor<768x768xf32> {sdy.sharding = #sdy.sharding<@mesh, [{}, {}]>}, %arg327: tensor<768xf32> {sdy.sharding = #sdy.sharding<@mesh, [{}]>}, %arg328: tensor<768xf32> {sdy.sharding = #sdy.sharding<@mesh, [{}]>}, %arg329: tensor<768xf32> {sdy.sharding = #sdy.sharding<@mesh, [{}]>}, %arg330: tensor<3072x768xf32> {sdy.sharding = #sdy.sharding<@mesh, [{}, {}]>}, %arg331: tensor<3072xf32> {sdy.sharding = #sdy.sharding<@mesh, [{}]>}, %arg332: tensor<768x3072xf32> {sdy.sharding = #sdy.sharding<@mesh, [{}, {}]>}, %arg333: tensor<768xf32> {sdy.sharding = #sdy.sharding<@mesh, [{}]>}, %arg334: tensor<768xf32> {sdy.sharding = #sdy.sharding<@mesh, [{}]>}, %arg335: tensor<768xf32> {sdy.sharding = #sdy.sharding<@mesh, [{}]>}, %arg336: tensor<768x768xf32> {sdy.sharding = #sdy.sharding<@mesh, [{}, {}]>}, %arg337: tensor<768xf32> {sdy.sharding = #sdy.sharding<@mesh, [{}]>}, %arg338: tensor<768x768xf32> {sdy.sharding = #sdy.sharding<@mesh, [{}, {}]>}, %arg339: tensor<768xf32> {sdy.sharding = #sdy.sharding<@mesh, [{}]>}, %arg340: tensor<768x768xf32> {sdy.sharding = #sdy.sharding<@mesh, [{}, {}]>}, %arg341: tensor<768xf32> {sdy.sharding = #sdy.sharding<@mesh, [{}]>}, %arg342: tensor<768x768xf32> {sdy.sharding = #sdy.sharding<@mesh, [{}, {}]>}, %arg343: tensor<768xf32> {sdy.sharding = #sdy.sharding<@mesh, [{}]>}, %arg344: tensor<768xf32> {sdy.sharding = #sdy.sharding<@mesh, [{}]>}, %arg345: tensor<768xf32> {sdy.sharding = #sdy.sharding<@mesh, [{}]>}, %arg346: tensor<3072x768xf32> {sdy.sharding = #sdy.sharding<@mesh, [{}, {}]>}, %arg347: tensor<3072xf32> {sdy.sharding = #sdy.sharding<@mesh, [{}]>}, %arg348: tensor<768x3072xf32> {sdy.sharding = #sdy.sharding<@mesh, [{}, {}]>}, %arg349: tensor<768xf32> {sdy.sharding = #sdy.sharding<@mesh, [{}]>}, %arg350: tensor<768xf32> {sdy.sharding = #sdy.sharding<@mesh, [{}]>}, %arg351: tensor<768xf32> {sdy.sharding = #sdy.sharding<@mesh, [{}]>}, %arg352: tensor<768x768xf32> {sdy.sharding = #sdy.sharding<@mesh, [{}, {}]>}, %arg353: tensor<768xf32> {sdy.sharding = #sdy.sharding<@mesh, [{}]>}, %arg354: tensor<768x768xf32> {sdy.sharding = #sdy.sharding<@mesh, [{}, {}]>}, %arg355: tensor<768xf32> {sdy.sharding = #sdy.sharding<@mesh, [{}]>}, %arg356: tensor<768x768xf32> {sdy.sharding = #sdy.sharding<@mesh, [{}, {}]>}, %arg357: tensor<768xf32> {sdy.sharding = #sdy.sharding<@mesh, [{}]>}, %arg358: tensor<768x768xf32> {sdy.sharding = #sdy.sharding<@mesh, [{}, {}]>}, %arg359: tensor<768xf32> {sdy.sharding = #sdy.sharding<@mesh, [{}]>}, %arg360: tensor<768xf32> {sdy.sharding = #sdy.sharding<@mesh, [{}]>}, %arg361: tensor<768xf32> {sdy.sharding = #sdy.sharding<@mesh, [{}]>}, %arg362: tensor<3072x768xf32> {sdy.sharding = #sdy.sharding<@mesh, [{}, {}]>}, %arg363: tensor<3072xf32> {sdy.sharding = #sdy.sharding<@mesh, [{}]>}, %arg364: tensor<768x3072xf32> {sdy.sharding = #sdy.sharding<@mesh, [{}, {}]>}, %arg365: tensor<768xf32> {sdy.sharding = #sdy.sharding<@mesh, [{}]>}, %arg366: tensor<768xf32> {sdy.sharding = #sdy.sharding<@mesh, [{}]>}, %arg367: tensor<768xf32> {sdy.sharding = #sdy.sharding<@mesh, [{}]>}, %arg368: tensor<768x768xf32> {sdy.sharding = #sdy.sharding<@mesh, [{}, {}]>}, %arg369: tensor<768xf32> {sdy.sharding = #sdy.sharding<@mesh, [{}]>}, %arg370: tensor<768x768xf32> {sdy.sharding = #sdy.sharding<@mesh, [{}, {}]>}, %arg371: tensor<768xf32> {sdy.sharding = #sdy.sharding<@mesh, [{}]>}, %arg372: tensor<768x768xf32> {sdy.sharding = #sdy.sharding<@mesh, [{}, {}]>}, %arg373: tensor<768xf32> {sdy.sharding = #sdy.sharding<@mesh, [{}]>}, %arg374: tensor<768x768xf32> {sdy.sharding = #sdy.sharding<@mesh, [{}, {}]>}, %arg375: tensor<768xf32> {sdy.sharding = #sdy.sharding<@mesh, [{}]>}, %arg376: tensor<768xf32> {sdy.sharding = #sdy.sharding<@mesh, [{}]>}, %arg377: tensor<768xf32> {sdy.sharding = #sdy.sharding<@mesh, [{}]>}, %arg378: tensor<3072x768xf32> {sdy.sharding = #sdy.sharding<@mesh, [{}, {}]>}, %arg379: tensor<3072xf32> {sdy.sharding = #sdy.sharding<@mesh, [{}]>}, %arg380: tensor<768x3072xf32> {sdy.sharding = #sdy.sharding<@mesh, [{}, {}]>}, %arg381: tensor<768xf32> {sdy.sharding = #sdy.sharding<@mesh, [{}]>}, %arg382: tensor<768xf32> {sdy.sharding = #sdy.sharding<@mesh, [{}]>}, %arg383: tensor<768xf32> {sdy.sharding = #sdy.sharding<@mesh, [{}]>}, %arg384: tensor<768x768xf32> {sdy.sharding = #sdy.sharding<@mesh, [{}, {}]>}, %arg385: tensor<768xf32> {sdy.sharding = #sdy.sharding<@mesh, [{}]>}, %arg386: tensor<768x768xf32> {sdy.sharding = #sdy.sharding<@mesh, [{}, {}]>}, %arg387: tensor<768xf32> {sdy.sharding = #sdy.sharding<@mesh, [{}]>}, %arg388: tensor<768x768xf32> {sdy.sharding = #sdy.sharding<@mesh, [{}, {}]>}, %arg389: tensor<768xf32> {sdy.sharding = #sdy.sharding<@mesh, [{}]>}, %arg390: tensor<768x768xf32> {sdy.sharding = #sdy.sharding<@mesh, [{}, {}]>}, %arg391: tensor<768xf32> {sdy.sharding = #sdy.sharding<@mesh, [{}]>}, %arg392: tensor<768xf32> {sdy.sharding = #sdy.sharding<@mesh, [{}]>}, %arg393: tensor<768xf32> {sdy.sharding = #sdy.sharding<@mesh, [{}]>}, %arg394: tensor<3072x768xf32> {sdy.sharding = #sdy.sharding<@mesh, [{}, {}]>}, %arg395: tensor<3072xf32> {sdy.sharding = #sdy.sharding<@mesh, [{}]>}, %arg396: tensor<768x3072xf32> {sdy.sharding = #sdy.sharding<@mesh, [{}, {}]>}, %arg397: tensor<768xf32> {sdy.sharding = #sdy.sharding<@mesh, [{}]>}, %arg398: tensor<768xf32> {sdy.sharding = #sdy.sharding<@mesh, [{}]>}, %arg399: tensor<768xf32> {sdy.sharding = #sdy.sharding<@mesh, [{}]>}, %arg400: tensor<768x768xf32> {sdy.sharding = #sdy.sharding<@mesh, [{}, {}]>}, %arg401: tensor<768xf32> {sdy.sharding = #sdy.sharding<@mesh, [{}]>}, %arg402: tensor<768xf32> {sdy.sharding = #sdy.sharding<@mesh, [{}]>}, %arg403: tensor<768xf32> {sdy.sharding = #sdy.sharding<@mesh, [{}]>}, %arg404: tensor<30522xf32> {sdy.sharding = #sdy.sharding<@mesh, [{}]>}, %arg405: tensor<30522x768xf32> {sdy.sharding = #sdy.sharding<@mesh, [{}, {}]>}, %arg406: tensor<512x768xf32> {sdy.sharding = #sdy.sharding<@mesh, [{}, {}]>}, %arg407: tensor<2x768xf32> {sdy.sharding = #sdy.sharding<@mesh, [{}, {}]>}, %arg408: tensor<768xf32> {sdy.sharding = #sdy.sharding<@mesh, [{}]>}, %arg409: tensor<768xf32> {sdy.sharding = #sdy.sharding<@mesh, [{}]>}, %arg410: tensor<768x768xf32> {sdy.sharding = #sdy.sharding<@mesh, [{}, {}]>}, %arg411: tensor<768xf32> {sdy.sharding = #sdy.sharding<@mesh, [{}]>}, %arg412: tensor<768x768xf32> {sdy.sharding = #sdy.sharding<@mesh, [{}, {}]>}, %arg413: tensor<768xf32> {sdy.sharding = #sdy.sharding<@mesh, [{}]>}, %arg414: tensor<768x768xf32> {sdy.sharding = #sdy.sharding<@mesh, [{}, {}]>}, %arg415: tensor<768xf32> {sdy.sharding = #sdy.sharding<@mesh, [{}]>}, %arg416: tensor<768x768xf32> {sdy.sharding = #sdy.sharding<@mesh, [{}, {}]>}, %arg417: tensor<768xf32> {sdy.sharding = #sdy.sharding<@mesh, [{}]>}, %arg418: tensor<768xf32> {sdy.sharding = #sdy.sharding<@mesh, [{}]>}, %arg419: tensor<768xf32> {sdy.sharding = #sdy.sharding<@mesh, [{}]>}, %arg420: tensor<3072x768xf32> {sdy.sharding = #sdy.sharding<@mesh, [{}, {}]>}, %arg421: tensor<3072xf32> {sdy.sharding = #sdy.sharding<@mesh, [{}]>}, %arg422: tensor<768x3072xf32> {sdy.sharding = #sdy.sharding<@mesh, [{}, {}]>}, %arg423: tensor<768xf32> {sdy.sharding = #sdy.sharding<@mesh, [{}]>}, %arg424: tensor<768xf32> {sdy.sharding = #sdy.sharding<@mesh, [{}]>}, %arg425: tensor<768xf32> {sdy.sharding = #sdy.sharding<@mesh, [{}]>}, %arg426: tensor<768x768xf32> {sdy.sharding = #sdy.sharding<@mesh, [{}, {}]>}, %arg427: tensor<768xf32> {sdy.sharding = #sdy.sharding<@mesh, [{}]>}, %arg428: tensor<768x768xf32> {sdy.sharding = #sdy.sharding<@mesh, [{}, {}]>}, %arg429: tensor<768xf32> {sdy.sharding = #sdy.sharding<@mesh, [{}]>}, %arg430: tensor<768x768xf32> {sdy.sharding = #sdy.sharding<@mesh, [{}, {}]>}, %arg431: tensor<768xf32> {sdy.sharding = #sdy.sharding<@mesh, [{}]>}, %arg432: tensor<768x768xf32> {sdy.sharding = #sdy.sharding<@mesh, [{}, {}]>}, %arg433: tensor<768xf32> {sdy.sharding = #sdy.sharding<@mesh, [{}]>}, %arg434: tensor<768xf32> {sdy.sharding = #sdy.sharding<@mesh, [{}]>}, %arg435: tensor<768xf32> {sdy.sharding = #sdy.sharding<@mesh, [{}]>}, %arg436: tensor<3072x768xf32> {sdy.sharding = #sdy.sharding<@mesh, [{}, {}]>}, %arg437: tensor<3072xf32> {sdy.sharding = #sdy.sharding<@mesh, [{}]>}, %arg438: tensor<768x3072xf32> {sdy.sharding = #sdy.sharding<@mesh, [{}, {}]>}, %arg439: tensor<768xf32> {sdy.sharding = #sdy.sharding<@mesh, [{}]>}, %arg440: tensor<768xf32> {sdy.sharding = #sdy.sharding<@mesh, [{}]>}, %arg441: tensor<768xf32> {sdy.sharding = #sdy.sharding<@mesh, [{}]>}, %arg442: tensor<768x768xf32> {sdy.sharding = #sdy.sharding<@mesh, [{}, {}]>}, %arg443: tensor<768xf32> {sdy.sharding = #sdy.sharding<@mesh, [{}]>}, %arg444: tensor<768x768xf32> {sdy.sharding = #sdy.sharding<@mesh, [{}, {}]>}, %arg445: tensor<768xf32> {sdy.sharding = #sdy.sharding<@mesh, [{}]>}, %arg446: tensor<768x768xf32> {sdy.sharding = #sdy.sharding<@mesh, [{}, {}]>}, %arg447: tensor<768xf32> {sdy.sharding = #sdy.sharding<@mesh, [{}]>}, %arg448: tensor<768x768xf32> {sdy.sharding = #sdy.sharding<@mesh, [{}, {}]>}, %arg449: tensor<768xf32> {sdy.sharding = #sdy.sharding<@mesh, [{}]>}, %arg450: tensor<768xf32> {sdy.sharding = #sdy.sharding<@mesh, [{}]>}, %arg451: tensor<768xf32> {sdy.sharding = #sdy.sharding<@mesh, [{}]>}, %arg452: tensor<3072x768xf32> {sdy.sharding = #sdy.sharding<@mesh, [{}, {}]>}, %arg453: tensor<3072xf32> {sdy.sharding = #sdy.sharding<@mesh, [{}]>}, %arg454: tensor<768x3072xf32> {sdy.sharding = #sdy.sharding<@mesh, [{}, {}]>}, %arg455: tensor<768xf32> {sdy.sharding = #sdy.sharding<@mesh, [{}]>}, %arg456: tensor<768xf32> {sdy.sharding = #sdy.sharding<@mesh, [{}]>}, %arg457: tensor<768xf32> {sdy.sharding = #sdy.sharding<@mesh, [{}]>}, %arg458: tensor<768x768xf32> {sdy.sharding = #sdy.sharding<@mesh, [{}, {}]>}, %arg459: tensor<768xf32> {sdy.sharding = #sdy.sharding<@mesh, [{}]>}, %arg460: tensor<768x768xf32> {sdy.sharding = #sdy.sharding<@mesh, [{}, {}]>}, %arg461: tensor<768xf32> {sdy.sharding = #sdy.sharding<@mesh, [{}]>}, %arg462: tensor<768x768xf32> {sdy.sharding = #sdy.sharding<@mesh, [{}, {}]>}, %arg463: tensor<768xf32> {sdy.sharding = #sdy.sharding<@mesh, [{}]>}, %arg464: tensor<768x768xf32> {sdy.sharding = #sdy.sharding<@mesh, [{}, {}]>}, %arg465: tensor<768xf32> {sdy.sharding = #sdy.sharding<@mesh, [{}]>}, %arg466: tensor<768xf32> {sdy.sharding = #sdy.sharding<@mesh, [{}]>}, %arg467: tensor<768xf32> {sdy.sharding = #sdy.sharding<@mesh, [{}]>}, %arg468: tensor<3072x768xf32> {sdy.sharding = #sdy.sharding<@mesh, [{}, {}]>}, %arg469: tensor<3072xf32> {sdy.sharding = #sdy.sharding<@mesh, [{}]>}, %arg470: tensor<768x3072xf32> {sdy.sharding = #sdy.sharding<@mesh, [{}, {}]>}, %arg471: tensor<768xf32> {sdy.sharding = #sdy.sharding<@mesh, [{}]>}, %arg472: tensor<768xf32> {sdy.sharding = #sdy.sharding<@mesh, [{}]>}, %arg473: tensor<768xf32> {sdy.sharding = #sdy.sharding<@mesh, [{}]>}, %arg474: tensor<768x768xf32> {sdy.sharding = #sdy.sharding<@mesh, [{}, {}]>}, %arg475: tensor<768xf32> {sdy.sharding = #sdy.sharding<@mesh, [{}]>}, %arg476: tensor<768x768xf32> {sdy.sharding = #sdy.sharding<@mesh, [{}, {}]>}, %arg477: tensor<768xf32> {sdy.sharding = #sdy.sharding<@mesh, [{}]>}, %arg478: tensor<768x768xf32> {sdy.sharding = #sdy.sharding<@mesh, [{}, {}]>}, %arg479: tensor<768xf32> {sdy.sharding = #sdy.sharding<@mesh, [{}]>}, %arg480: tensor<768x768xf32> {sdy.sharding = #sdy.sharding<@mesh, [{}, {}]>}, %arg481: tensor<768xf32> {sdy.sharding = #sdy.sharding<@mesh, [{}]>}, %arg482: tensor<768xf32> {sdy.sharding = #sdy.sharding<@mesh, [{}]>}, %arg483: tensor<768xf32> {sdy.sharding = #sdy.sharding<@mesh, [{}]>}, %arg484: tensor<3072x768xf32> {sdy.sharding = #sdy.sharding<@mesh, [{}, {}]>}, %arg485: tensor<3072xf32> {sdy.sharding = #sdy.sharding<@mesh, [{}]>}, %arg486: tensor<768x3072xf32> {sdy.sharding = #sdy.sharding<@mesh, [{}, {}]>}, %arg487: tensor<768xf32> {sdy.sharding = #sdy.sharding<@mesh, [{}]>}, %arg488: tensor<768xf32> {sdy.sharding = #sdy.sharding<@mesh, [{}]>}, %arg489: tensor<768xf32> {sdy.sharding = #sdy.sharding<@mesh, [{}]>}, %arg490: tensor<768x768xf32> {sdy.sharding = #sdy.sharding<@mesh, [{}, {}]>}, %arg491: tensor<768xf32> {sdy.sharding = #sdy.sharding<@mesh, [{}]>}, %arg492: tensor<768x768xf32> {sdy.sharding = #sdy.sharding<@mesh, [{}, {}]>}, %arg493: tensor<768xf32> {sdy.sharding = #sdy.sharding<@mesh, [{}]>}, %arg494: tensor<768x768xf32> {sdy.sharding = #sdy.sharding<@mesh, [{}, {}]>}, %arg495: tensor<768xf32> {sdy.sharding = #sdy.sharding<@mesh, [{}]>}, %arg496: tensor<768x768xf32> {sdy.sharding = #sdy.sharding<@mesh, [{}, {}]>}, %arg497: tensor<768xf32> {sdy.sharding = #sdy.sharding<@mesh, [{}]>}, %arg498: tensor<768xf32> {sdy.sharding = #sdy.sharding<@mesh, [{}]>}, %arg499: tensor<768xf32> {sdy.sharding = #sdy.sharding<@mesh, [{}]>}, %arg500: tensor<3072x768xf32> {sdy.sharding = #sdy.sharding<@mesh, [{}, {}]>}, %arg501: tensor<3072xf32> {sdy.sharding = #sdy.sharding<@mesh, [{}]>}, %arg502: tensor<768x3072xf32> {sdy.sharding = #sdy.sharding<@mesh, [{}, {}]>}, %arg503: tensor<768xf32> {sdy.sharding = #sdy.sharding<@mesh, [{}]>}, %arg504: tensor<768xf32> {sdy.sharding = #sdy.sharding<@mesh, [{}]>}, %arg505: tensor<768xf32> {sdy.sharding = #sdy.sharding<@mesh, [{}]>}, %arg506: tensor<768x768xf32> {sdy.sharding = #sdy.sharding<@mesh, [{}, {}]>}, %arg507: tensor<768xf32> {sdy.sharding = #sdy.sharding<@mesh, [{}]>}, %arg508: tensor<768x768xf32> {sdy.sharding = #sdy.sharding<@mesh, [{}, {}]>}, %arg509: tensor<768xf32> {sdy.sharding = #sdy.sharding<@mesh, [{}]>}, %arg510: tensor<768x768xf32> {sdy.sharding = #sdy.sharding<@mesh, [{}, {}]>}, %arg511: tensor<768xf32> {sdy.sharding = #sdy.sharding<@mesh, [{}]>}, %arg512: tensor<768x768xf32> {sdy.sharding = #sdy.sharding<@mesh, [{}, {}]>}, %arg513: tensor<768xf32> {sdy.sharding = #sdy.sharding<@mesh, [{}]>}, %arg514: tensor<768xf32> {sdy.sharding = #sdy.sharding<@mesh, [{}]>}, %arg515: tensor<768xf32> {sdy.sharding = #sdy.sharding<@mesh, [{}]>}, %arg516: tensor<3072x768xf32> {sdy.sharding = #sdy.sharding<@mesh, [{}, {}]>}, %arg517: tensor<3072xf32> {sdy.sharding = #sdy.sharding<@mesh, [{}]>}, %arg518: tensor<768x3072xf32> {sdy.sharding = #sdy.sharding<@mesh, [{}, {}]>}, %arg519: tensor<768xf32> {sdy.sharding = #sdy.sharding<@mesh, [{}]>}, %arg520: tensor<768xf32> {sdy.sharding = #sdy.sharding<@mesh, [{}]>}, %arg521: tensor<768xf32> {sdy.sharding = #sdy.sharding<@mesh, [{}]>}, %arg522: tensor<768x768xf32> {sdy.sharding = #sdy.sharding<@mesh, [{}, {}]>}, %arg523: tensor<768xf32> {sdy.sharding = #sdy.sharding<@mesh, [{}]>}, %arg524: tensor<768x768xf32> {sdy.sharding = #sdy.sharding<@mesh, [{}, {}]>}, %arg525: tensor<768xf32> {sdy.sharding = #sdy.sharding<@mesh, [{}]>}, %arg526: tensor<768x768xf32> {sdy.sharding = #sdy.sharding<@mesh, [{}, {}]>}, %arg527: tensor<768xf32> {sdy.sharding = #sdy.sharding<@mesh, [{}]>}, %arg528: tensor<768x768xf32> {sdy.sharding = #sdy.sharding<@mesh, [{}, {}]>}, %arg529: tensor<768xf32> {sdy.sharding = #sdy.sharding<@mesh, [{}]>}, %arg530: tensor<768xf32> {sdy.sharding = #sdy.sharding<@mesh, [{}]>}, %arg531: tensor<768xf32> {sdy.sharding = #sdy.sharding<@mesh, [{}]>}, %arg532: tensor<3072x768xf32> {sdy.sharding = #sdy.sharding<@mesh, [{}, {}]>}, %arg533: tensor<3072xf32> {sdy.sharding = #sdy.sharding<@mesh, [{}]>}, %arg534: tensor<768x3072xf32> {sdy.sharding = #sdy.sharding<@mesh, [{}, {}]>}, %arg535: tensor<768xf32> {sdy.sharding = #sdy.sharding<@mesh, [{}]>}, %arg536: tensor<768xf32> {sdy.sharding = #sdy.sharding<@mesh, [{}]>}, %arg537: tensor<768xf32> {sdy.sharding = #sdy.sharding<@mesh, [{}]>}, %arg538: tensor<768x768xf32> {sdy.sharding = #sdy.sharding<@mesh, [{}, {}]>}, %arg539: tensor<768xf32> {sdy.sharding = #sdy.sharding<@mesh, [{}]>}, %arg540: tensor<768x768xf32> {sdy.sharding = #sdy.sharding<@mesh, [{}, {}]>}, %arg541: tensor<768xf32> {sdy.sharding = #sdy.sharding<@mesh, [{}]>}, %arg542: tensor<768x768xf32> {sdy.sharding = #sdy.sharding<@mesh, [{}, {}]>}, %arg543: tensor<768xf32> {sdy.sharding = #sdy.sharding<@mesh, [{}]>}, %arg544: tensor<768x768xf32> {sdy.sharding = #sdy.sharding<@mesh, [{}, {}]>}, %arg545: tensor<768xf32> {sdy.sharding = #sdy.sharding<@mesh, [{}]>}, %arg546: tensor<768xf32> {sdy.sharding = #sdy.sharding<@mesh, [{}]>}, %arg547: tensor<768xf32> {sdy.sharding = #sdy.sharding<@mesh, [{}]>}, %arg548: tensor<3072x768xf32> {sdy.sharding = #sdy.sharding<@mesh, [{}, {}]>}, %arg549: tensor<3072xf32> {sdy.sharding = #sdy.sharding<@mesh, [{}]>}, %arg550: tensor<768x3072xf32> {sdy.sharding = #sdy.sharding<@mesh, [{}, {}]>}, %arg551: tensor<768xf32> {sdy.sharding = #sdy.sharding<@mesh, [{}]>}, %arg552: tensor<768xf32> {sdy.sharding = #sdy.sharding<@mesh, [{}]>}, %arg553: tensor<768xf32> {sdy.sharding = #sdy.sharding<@mesh, [{}]>}, %arg554: tensor<768x768xf32> {sdy.sharding = #sdy.sharding<@mesh, [{}, {}]>}, %arg555: tensor<768xf32> {sdy.sharding = #sdy.sharding<@mesh, [{}]>}, %arg556: tensor<768x768xf32> {sdy.sharding = #sdy.sharding<@mesh, [{}, {}]>}, %arg557: tensor<768xf32> {sdy.sharding = #sdy.sharding<@mesh, [{}]>}, %arg558: tensor<768x768xf32> {sdy.sharding = #sdy.sharding<@mesh, [{}, {}]>}, %arg559: tensor<768xf32> {sdy.sharding = #sdy.sharding<@mesh, [{}]>}, %arg560: tensor<768x768xf32> {sdy.sharding = #sdy.sharding<@mesh, [{}, {}]>}, %arg561: tensor<768xf32> {sdy.sharding = #sdy.sharding<@mesh, [{}]>}, %arg562: tensor<768xf32> {sdy.sharding = #sdy.sharding<@mesh, [{}]>}, %arg563: tensor<768xf32> {sdy.sharding = #sdy.sharding<@mesh, [{}]>}, %arg564: tensor<3072x768xf32> {sdy.sharding = #sdy.sharding<@mesh, [{}, {}]>}, %arg565: tensor<3072xf32> {sdy.sharding = #sdy.sharding<@mesh, [{}]>}, %arg566: tensor<768x3072xf32> {sdy.sharding = #sdy.sharding<@mesh, [{}, {}]>}, %arg567: tensor<768xf32> {sdy.sharding = #sdy.sharding<@mesh, [{}]>}, %arg568: tensor<768xf32> {sdy.sharding = #sdy.sharding<@mesh, [{}]>}, %arg569: tensor<768xf32> {sdy.sharding = #sdy.sharding<@mesh, [{}]>}, %arg570: tensor<768x768xf32> {sdy.sharding = #sdy.sharding<@mesh, [{}, {}]>}, %arg571: tensor<768xf32> {sdy.sharding = #sdy.sharding<@mesh, [{}]>}, %arg572: tensor<768x768xf32> {sdy.sharding = #sdy.sharding<@mesh, [{}, {}]>}, %arg573: tensor<768xf32> {sdy.sharding = #sdy.sharding<@mesh, [{}]>}, %arg574: tensor<768x768xf32> {sdy.sharding = #sdy.sharding<@mesh, [{}, {}]>}, %arg575: tensor<768xf32> {sdy.sharding = #sdy.sharding<@mesh, [{}]>}, %arg576: tensor<768x768xf32> {sdy.sharding = #sdy.sharding<@mesh, [{}, {}]>}, %arg577: tensor<768xf32> {sdy.sharding = #sdy.sharding<@mesh, [{}]>}, %arg578: tensor<768xf32> {sdy.sharding = #sdy.sharding<@mesh, [{}]>}, %arg579: tensor<768xf32> {sdy.sharding = #sdy.sharding<@mesh, [{}]>}, %arg580: tensor<3072x768xf32> {sdy.sharding = #sdy.sharding<@mesh, [{}, {}]>}, %arg581: tensor<3072xf32> {sdy.sharding = #sdy.sharding<@mesh, [{}]>}, %arg582: tensor<768x3072xf32> {sdy.sharding = #sdy.sharding<@mesh, [{}, {}]>}, %arg583: tensor<768xf32> {sdy.sharding = #sdy.sharding<@mesh, [{}]>}, %arg584: tensor<768xf32> {sdy.sharding = #sdy.sharding<@mesh, [{}]>}, %arg585: tensor<768xf32> {sdy.sharding = #sdy.sharding<@mesh, [{}]>}, %arg586: tensor<768x768xf32> {sdy.sharding = #sdy.sharding<@mesh, [{}, {}]>}, %arg587: tensor<768xf32> {sdy.sharding = #sdy.sharding<@mesh, [{}]>}, %arg588: tensor<768x768xf32> {sdy.sharding = #sdy.sharding<@mesh, [{}, {}]>}, %arg589: tensor<768xf32> {sdy.sharding = #sdy.sharding<@mesh, [{}]>}, %arg590: tensor<768x768xf32> {sdy.sharding = #sdy.sharding<@mesh, [{}, {}]>}, %arg591: tensor<768xf32> {sdy.sharding = #sdy.sharding<@mesh, [{}]>}, %arg592: tensor<768x768xf32> {sdy.sharding = #sdy.sharding<@mesh, [{}, {}]>}, %arg593: tensor<768xf32> {sdy.sharding = #sdy.sharding<@mesh, [{}]>}, %arg594: tensor<768xf32> {sdy.sharding = #sdy.sharding<@mesh, [{}]>}, %arg595: tensor<768xf32> {sdy.sharding = #sdy.sharding<@mesh, [{}]>}, %arg596: tensor<3072x768xf32> {sdy.sharding = #sdy.sharding<@mesh, [{}, {}]>}, %arg597: tensor<3072xf32> {sdy.sharding = #sdy.sharding<@mesh, [{}]>}, %arg598: tensor<768x3072xf32> {sdy.sharding = #sdy.sharding<@mesh, [{}, {}]>}, %arg599: tensor<768xf32> {sdy.sharding = #sdy.sharding<@mesh, [{}]>}, %arg600: tensor<768xf32> {sdy.sharding = #sdy.sharding<@mesh, [{}]>}, %arg601: tensor<768xf32> {sdy.sharding = #sdy.sharding<@mesh, [{}]>}, %arg602: tensor<768x768xf32> {sdy.sharding = #sdy.sharding<@mesh, [{}, {}]>}, %arg603: tensor<768xf32> {sdy.sharding = #sdy.sharding<@mesh, [{}]>}, %arg604: tensor<768xf32> {sdy.sharding = #sdy.sharding<@mesh, [{}]>}, %arg605: tensor<768xf32> {sdy.sharding = #sdy.sharding<@mesh, [{}]>}, %arg606: tensor<30522xf32> {sdy.sharding = #sdy.sharding<@mesh, [{}]>}, %arg607: tensor<i32>, %arg608: tensor<64x512xi32> {sdy.sharding = #sdy.sharding<@mesh, [{"dp"}, {}]>}, %arg609: tensor<64x512xi32> {sdy.sharding = #sdy.sharding<@mesh, [{"dp"}, {}]>}, %arg610: tensor<64x512xi32> {sdy.sharding = #sdy.sharding<@mesh, [{"dp"}, {}]>}, %arg611: tensor<64x512xi32> {sdy.sharding = #sdy.sharding<@mesh, [{"dp"}, {}]>}, %arg612: tensor<2xui32>) -> (tensor<i32> {jax.result_info = "result[0]"}, tensor<30522x768xf32> {jax.result_info = "result[1][0].bert.embeddings.word_embeddings.weight.value"}, tensor<512x768xf32> {jax.result_info = "result[1][0].bert.embeddings.position_embeddings.weight.value"}, tensor<2x768xf32> {jax.result_info = "result[1][0].bert.embeddings.token_type_embeddings.weight.value"}, tensor<768xf32> {jax.result_info = "result[1][0].bert.embeddings.LayerNorm.weight.value"}, tensor<768xf32> {jax.result_info = "result[1][0].bert.embeddings.LayerNorm.bias.value"}, tensor<768x768xf32> {jax.result_info = "result[1][0].bert.encoder.layer[0].attention.self.query.weight.value"}, tensor<768xf32> {jax.result_info = "result[1][0].bert.encoder.layer[0].attention.self.query.bias.value"}, tensor<768x768xf32> {jax.result_info = "result[1][0].bert.encoder.layer[0].attention.self.value.weight.value"}, tensor<768xf32> {jax.result_info = "result[1][0].bert.encoder.layer[0].attention.self.value.bias.value"}, tensor<768x768xf32> {jax.result_info = "result[1][0].bert.encoder.layer[0].attention.self.key.weight.value"}, tensor<768xf32> {jax.result_info = "result[1][0].bert.encoder.layer[0].attention.self.key.bias.value"}, tensor<768x768xf32> {jax.result_info = "result[1][0].bert.encoder.layer[0].attention.output.dense.weight.value"}, tensor<768xf32> {jax.result_info = "result[1][0].bert.encoder.layer[0].attention.output.dense.bias.value"}, tensor<768xf32> {jax.result_info = "result[1][0].bert.encoder.layer[0].attention.output.LayerNorm.weight.value"}, tensor<768xf32> {jax.result_info = "result[1][0].bert.encoder.layer[0].attention.output.LayerNorm.bias.value"}, tensor<3072x768xf32> {jax.result_info = "result[1][0].bert.encoder.layer[0].intermediate.dense.weight.value"}, tensor<3072xf32> {jax.result_info = "result[1][0].bert.encoder.layer[0].intermediate.dense.bias.value"}, tensor<768x3072xf32> {jax.result_info = "result[1][0].bert.encoder.layer[0].output.dense.weight.value"}, tensor<768xf32> {jax.result_info = "result[1][0].bert.encoder.layer[0].output.dense.bias.value"}, tensor<768xf32> {jax.result_info = "result[1][0].bert.encoder.layer[0].output.LayerNorm.weight.value"}, tensor<768xf32> {jax.result_info = "result[1][0].bert.encoder.layer[0].output.LayerNorm.bias.value"}, tensor<768x768xf32> {jax.result_info = "result[1][0].bert.encoder.layer[1].attention.self.query.weight.value"}, tensor<768xf32> {jax.result_info = "result[1][0].bert.encoder.layer[1].attention.self.query.bias.value"}, tensor<768x768xf32> {jax.result_info = "result[1][0].bert.encoder.layer[1].attention.self.value.weight.value"}, tensor<768xf32> {jax.result_info = "result[1][0].bert.encoder.layer[1].attention.self.value.bias.value"}, tensor<768x768xf32> {jax.result_info = "result[1][0].bert.encoder.layer[1].attention.self.key.weight.value"}, tensor<768xf32> {jax.result_info = "result[1][0].bert.encoder.layer[1].attention.self.key.bias.value"}, tensor<768x768xf32> {jax.result_info = "result[1][0].bert.encoder.layer[1].attention.output.dense.weight.value"}, tensor<768xf32> {jax.result_info = "result[1][0].bert.encoder.layer[1].attention.output.dense.bias.value"}, tensor<768xf32> {jax.result_info = "result[1][0].bert.encoder.layer[1].attention.output.LayerNorm.weight.value"}, tensor<768xf32> {jax.result_info = "result[1][0].bert.encoder.layer[1].attention.output.LayerNorm.bias.value"}, tensor<3072x768xf32> {jax.result_info = "result[1][0].bert.encoder.layer[1].intermediate.dense.weight.value"}, tensor<3072xf32> {jax.result_info = "result[1][0].bert.encoder.layer[1].intermediate.dense.bias.value"}, tensor<768x3072xf32> {jax.result_info = "result[1][0].bert.encoder.layer[1].output.dense.weight.value"}, tensor<768xf32> {jax.result_info = "result[1][0].bert.encoder.layer[1].output.dense.bias.value"}, tensor<768xf32> {jax.result_info = "result[1][0].bert.encoder.layer[1].output.LayerNorm.weight.value"}, tensor<768xf32> {jax.result_info = "result[1][0].bert.encoder.layer[1].output.LayerNorm.bias.value"}, tensor<768x768xf32> {jax.result_info = "result[1][0].bert.encoder.layer[2].attention.self.query.weight.value"}, tensor<768xf32> {jax.result_info = "result[1][0].bert.encoder.layer[2].attention.self.query.bias.value"}, tensor<768x768xf32> {jax.result_info = "result[1][0].bert.encoder.layer[2].attention.self.value.weight.value"}, tensor<768xf32> {jax.result_info = "result[1][0].bert.encoder.layer[2].attention.self.value.bias.value"}, tensor<768x768xf32> {jax.result_info = "result[1][0].bert.encoder.layer[2].attention.self.key.weight.value"}, tensor<768xf32> {jax.result_info = "result[1][0].bert.encoder.layer[2].attention.self.key.bias.value"}, tensor<768x768xf32> {jax.result_info = "result[1][0].bert.encoder.layer[2].attention.output.dense.weight.value"}, tensor<768xf32> {jax.result_info = "result[1][0].bert.encoder.layer[2].attention.output.dense.bias.value"}, tensor<768xf32> {jax.result_info = "result[1][0].bert.encoder.layer[2].attention.output.LayerNorm.weight.value"}, tensor<768xf32> {jax.result_info = "result[1][0].bert.encoder.layer[2].attention.output.LayerNorm.bias.value"}, tensor<3072x768xf32> {jax.result_info = "result[1][0].bert.encoder.layer[2].intermediate.dense.weight.value"}, tensor<3072xf32> {jax.result_info = "result[1][0].bert.encoder.layer[2].intermediate.dense.bias.value"}, tensor<768x3072xf32> {jax.result_info = "result[1][0].bert.encoder.layer[2].output.dense.weight.value"}, tensor<768xf32> {jax.result_info = "result[1][0].bert.encoder.layer[2].output.dense.bias.value"}, tensor<768xf32> {jax.result_info = "result[1][0].bert.encoder.layer[2].output.LayerNorm.weight.value"}, tensor<768xf32> {jax.result_info = "result[1][0].bert.encoder.layer[2].output.LayerNorm.bias.value"}, tensor<768x768xf32> {jax.result_info = "result[1][0].bert.encoder.layer[3].attention.self.query.weight.value"}, tensor<768xf32> {jax.result_info = "result[1][0].bert.encoder.layer[3].attention.self.query.bias.value"}, tensor<768x768xf32> {jax.result_info = "result[1][0].bert.encoder.layer[3].attention.self.value.weight.value"}, tensor<768xf32> {jax.result_info = "result[1][0].bert.encoder.layer[3].attention.self.value.bias.value"}, tensor<768x768xf32> {jax.result_info = "result[1][0].bert.encoder.layer[3].attention.self.key.weight.value"}, tensor<768xf32> {jax.result_info = "result[1][0].bert.encoder.layer[3].attention.self.key.bias.value"}, tensor<768x768xf32> {jax.result_info = "result[1][0].bert.encoder.layer[3].attention.output.dense.weight.value"}, tensor<768xf32> {jax.result_info = "result[1][0].bert.encoder.layer[3].attention.output.dense.bias.value"}, tensor<768xf32> {jax.result_info = "result[1][0].bert.encoder.layer[3].attention.output.LayerNorm.weight.value"}, tensor<768xf32> {jax.result_info = "result[1][0].bert.encoder.layer[3].attention.output.LayerNorm.bias.value"}, tensor<3072x768xf32> {jax.result_info = "result[1][0].bert.encoder.layer[3].intermediate.dense.weight.value"}, tensor<3072xf32> {jax.result_info = "result[1][0].bert.encoder.layer[3].intermediate.dense.bias.value"}, tensor<768x3072xf32> {jax.result_info = "result[1][0].bert.encoder.layer[3].output.dense.weight.value"}, tensor<768xf32> {jax.result_info = "result[1][0].bert.encoder.layer[3].output.dense.bias.value"}, tensor<768xf32> {jax.result_info = "result[1][0].bert.encoder.layer[3].output.LayerNorm.weight.value"}, tensor<768xf32> {jax.result_info = "result[1][0].bert.encoder.layer[3].output.LayerNorm.bias.value"}, tensor<768x768xf32> {jax.result_info = "result[1][0].bert.encoder.layer[4].attention.self.query.weight.value"}, tensor<768xf32> {jax.result_info = "result[1][0].bert.encoder.layer[4].attention.self.query.bias.value"}, tensor<768x768xf32> {jax.result_info = "result[1][0].bert.encoder.layer[4].attention.self.value.weight.value"}, tensor<768xf32> {jax.result_info = "result[1][0].bert.encoder.layer[4].attention.self.value.bias.value"}, tensor<768x768xf32> {jax.result_info = "result[1][0].bert.encoder.layer[4].attention.self.key.weight.value"}, tensor<768xf32> {jax.result_info = "result[1][0].bert.encoder.layer[4].attention.self.key.bias.value"}, tensor<768x768xf32> {jax.result_info = "result[1][0].bert.encoder.layer[4].attention.output.dense.weight.value"}, tensor<768xf32> {jax.result_info = "result[1][0].bert.encoder.layer[4].attention.output.dense.bias.value"}, tensor<768xf32> {jax.result_info = "result[1][0].bert.encoder.layer[4].attention.output.LayerNorm.weight.value"}, tensor<768xf32> {jax.result_info = "result[1][0].bert.encoder.layer[4].attention.output.LayerNorm.bias.value"}, tensor<3072x768xf32> {jax.result_info = "result[1][0].bert.encoder.layer[4].intermediate.dense.weight.value"}, tensor<3072xf32> {jax.result_info = "result[1][0].bert.encoder.layer[4].intermediate.dense.bias.value"}, tensor<768x3072xf32> {jax.result_info = "result[1][0].bert.encoder.layer[4].output.dense.weight.value"}, tensor<768xf32> {jax.result_info = "result[1][0].bert.encoder.layer[4].output.dense.bias.value"}, tensor<768xf32> {jax.result_info = "result[1][0].bert.encoder.layer[4].output.LayerNorm.weight.value"}, tensor<768xf32> {jax.result_info = "result[1][0].bert.encoder.layer[4].output.LayerNorm.bias.value"}, tensor<768x768xf32> {jax.result_info = "result[1][0].bert.encoder.layer[5].attention.self.query.weight.value"}, tensor<768xf32> {jax.result_info = "result[1][0].bert.encoder.layer[5].attention.self.query.bias.value"}, tensor<768x768xf32> {jax.result_info = "result[1][0].bert.encoder.layer[5].attention.self.value.weight.value"}, tensor<768xf32> {jax.result_info = "result[1][0].bert.encoder.layer[5].attention.self.value.bias.value"}, tensor<768x768xf32> {jax.result_info = "result[1][0].bert.encoder.layer[5].attention.self.key.weight.value"}, tensor<768xf32> {jax.result_info = "result[1][0].bert.encoder.layer[5].attention.self.key.bias.value"}, tensor<768x768xf32> {jax.result_info = "result[1][0].bert.encoder.layer[5].attention.output.dense.weight.value"}, tensor<768xf32> {jax.result_info = "result[1][0].bert.encoder.layer[5].attention.output.dense.bias.value"}, tensor<768xf32> {jax.result_info = "result[1][0].bert.encoder.layer[5].attention.output.LayerNorm.weight.value"}, tensor<768xf32> {jax.result_info = "result[1][0].bert.encoder.layer[5].attention.output.LayerNorm.bias.value"}, tensor<3072x768xf32> {jax.result_info = "result[1][0].bert.encoder.layer[5].intermediate.dense.weight.value"}, tensor<3072xf32> {jax.result_info = "result[1][0].bert.encoder.layer[5].intermediate.dense.bias.value"}, tensor<768x3072xf32> {jax.result_info = "result[1][0].bert.encoder.layer[5].output.dense.weight.value"}, tensor<768xf32> {jax.result_info = "result[1][0].bert.encoder.layer[5].output.dense.bias.value"}, tensor<768xf32> {jax.result_info = "result[1][0].bert.encoder.layer[5].output.LayerNorm.weight.value"}, tensor<768xf32> {jax.result_info = "result[1][0].bert.encoder.layer[5].output.LayerNorm.bias.value"}, tensor<768x768xf32> {jax.result_info = "result[1][0].bert.encoder.layer[6].attention.self.query.weight.value"}, tensor<768xf32> {jax.result_info = "result[1][0].bert.encoder.layer[6].attention.self.query.bias.value"}, tensor<768x768xf32> {jax.result_info = "result[1][0].bert.encoder.layer[6].attention.self.value.weight.value"}, tensor<768xf32> {jax.result_info = "result[1][0].bert.encoder.layer[6].attention.self.value.bias.value"}, tensor<768x768xf32> {jax.result_info = "result[1][0].bert.encoder.layer[6].attention.self.key.weight.value"}, tensor<768xf32> {jax.result_info = "result[1][0].bert.encoder.layer[6].attention.self.key.bias.value"}, tensor<768x768xf32> {jax.result_info = "result[1][0].bert.encoder.layer[6].attention.output.dense.weight.value"}, tensor<768xf32> {jax.result_info = "result[1][0].bert.encoder.layer[6].attention.output.dense.bias.value"}, tensor<768xf32> {jax.result_info = "result[1][0].bert.encoder.layer[6].attention.output.LayerNorm.weight.value"}, tensor<768xf32> {jax.result_info = "result[1][0].bert.encoder.layer[6].attention.output.LayerNorm.bias.value"}, tensor<3072x768xf32> {jax.result_info = "result[1][0].bert.encoder.layer[6].intermediate.dense.weight.value"}, tensor<3072xf32> {jax.result_info = "result[1][0].bert.encoder.layer[6].intermediate.dense.bias.value"}, tensor<768x3072xf32> {jax.result_info = "result[1][0].bert.encoder.layer[6].output.dense.weight.value"}, tensor<768xf32> {jax.result_info = "result[1][0].bert.encoder.layer[6].output.dense.bias.value"}, tensor<768xf32> {jax.result_info = "result[1][0].bert.encoder.layer[6].output.LayerNorm.weight.value"}, tensor<768xf32> {jax.result_info = "result[1][0].bert.encoder.layer[6].output.LayerNorm.bias.value"}, tensor<768x768xf32> {jax.result_info = "result[1][0].bert.encoder.layer[7].attention.self.query.weight.value"}, tensor<768xf32> {jax.result_info = "result[1][0].bert.encoder.layer[7].attention.self.query.bias.value"}, tensor<768x768xf32> {jax.result_info = "result[1][0].bert.encoder.layer[7].attention.self.value.weight.value"}, tensor<768xf32> {jax.result_info = "result[1][0].bert.encoder.layer[7].attention.self.value.bias.value"}, tensor<768x768xf32> {jax.result_info = "result[1][0].bert.encoder.layer[7].attention.self.key.weight.value"}, tensor<768xf32> {jax.result_info = "result[1][0].bert.encoder.layer[7].attention.self.key.bias.value"}, tensor<768x768xf32> {jax.result_info = "result[1][0].bert.encoder.layer[7].attention.output.dense.weight.value"}, tensor<768xf32> {jax.result_info = "result[1][0].bert.encoder.layer[7].attention.output.dense.bias.value"}, tensor<768xf32> {jax.result_info = "result[1][0].bert.encoder.layer[7].attention.output.LayerNorm.weight.value"}, tensor<768xf32> {jax.result_info = "result[1][0].bert.encoder.layer[7].attention.output.LayerNorm.bias.value"}, tensor<3072x768xf32> {jax.result_info = "result[1][0].bert.encoder.layer[7].intermediate.dense.weight.value"}, tensor<3072xf32> {jax.result_info = "result[1][0].bert.encoder.layer[7].intermediate.dense.bias.value"}, tensor<768x3072xf32> {jax.result_info = "result[1][0].bert.encoder.layer[7].output.dense.weight.value"}, tensor<768xf32> {jax.result_info = "result[1][0].bert.encoder.layer[7].output.dense.bias.value"}, tensor<768xf32> {jax.result_info = "result[1][0].bert.encoder.layer[7].output.LayerNorm.weight.value"}, tensor<768xf32> {jax.result_info = "result[1][0].bert.encoder.layer[7].output.LayerNorm.bias.value"}, tensor<768x768xf32> {jax.result_info = "result[1][0].bert.encoder.layer[8].attention.self.query.weight.value"}, tensor<768xf32> {jax.result_info = "result[1][0].bert.encoder.layer[8].attention.self.query.bias.value"}, tensor<768x768xf32> {jax.result_info = "result[1][0].bert.encoder.layer[8].attention.self.value.weight.value"}, tensor<768xf32> {jax.result_info = "result[1][0].bert.encoder.layer[8].attention.self.value.bias.value"}, tensor<768x768xf32> {jax.result_info = "result[1][0].bert.encoder.layer[8].attention.self.key.weight.value"}, tensor<768xf32> {jax.result_info = "result[1][0].bert.encoder.layer[8].attention.self.key.bias.value"}, tensor<768x768xf32> {jax.result_info = "result[1][0].bert.encoder.layer[8].attention.output.dense.weight.value"}, tensor<768xf32> {jax.result_info = "result[1][0].bert.encoder.layer[8].attention.output.dense.bias.value"}, tensor<768xf32> {jax.result_info = "result[1][0].bert.encoder.layer[8].attention.output.LayerNorm.weight.value"}, tensor<768xf32> {jax.result_info = "result[1][0].bert.encoder.layer[8].attention.output.LayerNorm.bias.value"}, tensor<3072x768xf32> {jax.result_info = "result[1][0].bert.encoder.layer[8].intermediate.dense.weight.value"}, tensor<3072xf32> {jax.result_info = "result[1][0].bert.encoder.layer[8].intermediate.dense.bias.value"}, tensor<768x3072xf32> {jax.result_info = "result[1][0].bert.encoder.layer[8].output.dense.weight.value"}, tensor<768xf32> {jax.result_info = "result[1][0].bert.encoder.layer[8].output.dense.bias.value"}, tensor<768xf32> {jax.result_info = "result[1][0].bert.encoder.layer[8].output.LayerNorm.weight.value"}, tensor<768xf32> {jax.result_info = "result[1][0].bert.encoder.layer[8].output.LayerNorm.bias.value"}, tensor<768x768xf32> {jax.result_info = "result[1][0].bert.encoder.layer[9].attention.self.query.weight.value"}, tensor<768xf32> {jax.result_info = "result[1][0].bert.encoder.layer[9].attention.self.query.bias.value"}, tensor<768x768xf32> {jax.result_info = "result[1][0].bert.encoder.layer[9].attention.self.value.weight.value"}, tensor<768xf32> {jax.result_info = "result[1][0].bert.encoder.layer[9].attention.self.value.bias.value"}, tensor<768x768xf32> {jax.result_info = "result[1][0].bert.encoder.layer[9].attention.self.key.weight.value"}, tensor<768xf32> {jax.result_info = "result[1][0].bert.encoder.layer[9].attention.self.key.bias.value"}, tensor<768x768xf32> {jax.result_info = "result[1][0].bert.encoder.layer[9].attention.output.dense.weight.value"}, tensor<768xf32> {jax.result_info = "result[1][0].bert.encoder.layer[9].attention.output.dense.bias.value"}, tensor<768xf32> {jax.result_info = "result[1][0].bert.encoder.layer[9].attention.output.LayerNorm.weight.value"}, tensor<768xf32> {jax.result_info = "result[1][0].bert.encoder.layer[9].attention.output.LayerNorm.bias.value"}, tensor<3072x768xf32> {jax.result_info = "result[1][0].bert.encoder.layer[9].intermediate.dense.weight.value"}, tensor<3072xf32> {jax.result_info = "result[1][0].bert.encoder.layer[9].intermediate.dense.bias.value"}, tensor<768x3072xf32> {jax.result_info = "result[1][0].bert.encoder.layer[9].output.dense.weight.value"}, tensor<768xf32> {jax.result_info = "result[1][0].bert.encoder.layer[9].output.dense.bias.value"}, tensor<768xf32> {jax.result_info = "result[1][0].bert.encoder.layer[9].output.LayerNorm.weight.value"}, tensor<768xf32> {jax.result_info = "result[1][0].bert.encoder.layer[9].output.LayerNorm.bias.value"}, tensor<768x768xf32> {jax.result_info = "result[1][0].bert.encoder.layer[10].attention.self.query.weight.value"}, tensor<768xf32> {jax.result_info = "result[1][0].bert.encoder.layer[10].attention.self.query.bias.value"}, tensor<768x768xf32> {jax.result_info = "result[1][0].bert.encoder.layer[10].attention.self.value.weight.value"}, tensor<768xf32> {jax.result_info = "result[1][0].bert.encoder.layer[10].attention.self.value.bias.value"}, tensor<768x768xf32> {jax.result_info = "result[1][0].bert.encoder.layer[10].attention.self.key.weight.value"}, tensor<768xf32> {jax.result_info = "result[1][0].bert.encoder.layer[10].attention.self.key.bias.value"}, tensor<768x768xf32> {jax.result_info = "result[1][0].bert.encoder.layer[10].attention.output.dense.weight.value"}, tensor<768xf32> {jax.result_info = "result[1][0].bert.encoder.layer[10].attention.output.dense.bias.value"}, tensor<768xf32> {jax.result_info = "result[1][0].bert.encoder.layer[10].attention.output.LayerNorm.weight.value"}, tensor<768xf32> {jax.result_info = "result[1][0].bert.encoder.layer[10].attention.output.LayerNorm.bias.value"}, tensor<3072x768xf32> {jax.result_info = "result[1][0].bert.encoder.layer[10].intermediate.dense.weight.value"}, tensor<3072xf32> {jax.result_info = "result[1][0].bert.encoder.layer[10].intermediate.dense.bias.value"}, tensor<768x3072xf32> {jax.result_info = "result[1][0].bert.encoder.layer[10].output.dense.weight.value"}, tensor<768xf32> {jax.result_info = "result[1][0].bert.encoder.layer[10].output.dense.bias.value"}, tensor<768xf32> {jax.result_info = "result[1][0].bert.encoder.layer[10].output.LayerNorm.weight.value"}, tensor<768xf32> {jax.result_info = "result[1][0].bert.encoder.layer[10].output.LayerNorm.bias.value"}, tensor<768x768xf32> {jax.result_info = "result[1][0].bert.encoder.layer[11].attention.self.query.weight.value"}, tensor<768xf32> {jax.result_info = "result[1][0].bert.encoder.layer[11].attention.self.query.bias.value"}, tensor<768x768xf32> {jax.result_info = "result[1][0].bert.encoder.layer[11].attention.self.value.weight.value"}, tensor<768xf32> {jax.result_info = "result[1][0].bert.encoder.layer[11].attention.self.value.bias.value"}, tensor<768x768xf32> {jax.result_info = "result[1][0].bert.encoder.layer[11].attention.self.key.weight.value"}, tensor<768xf32> {jax.result_info = "result[1][0].bert.encoder.layer[11].attention.self.key.bias.value"}, tensor<768x768xf32> {jax.result_info = "result[1][0].bert.encoder.layer[11].attention.output.dense.weight.value"}, tensor<768xf32> {jax.result_info = "result[1][0].bert.encoder.layer[11].attention.output.dense.bias.value"}, tensor<768xf32> {jax.result_info = "result[1][0].bert.encoder.layer[11].attention.output.LayerNorm.weight.value"}, tensor<768xf32> {jax.result_info = "result[1][0].bert.encoder.layer[11].attention.output.LayerNorm.bias.value"}, tensor<3072x768xf32> {jax.result_info = "result[1][0].bert.encoder.layer[11].intermediate.dense.weight.value"}, tensor<3072xf32> {jax.result_info = "result[1][0].bert.encoder.layer[11].intermediate.dense.bias.value"}, tensor<768x3072xf32> {jax.result_info = "result[1][0].bert.encoder.layer[11].output.dense.weight.value"}, tensor<768xf32> {jax.result_info = "result[1][0].bert.encoder.layer[11].output.dense.bias.value"}, tensor<768xf32> {jax.result_info = "result[1][0].bert.encoder.layer[11].output.LayerNorm.weight.value"}, tensor<768xf32> {jax.result_info = "result[1][0].bert.encoder.layer[11].output.LayerNorm.bias.value"}, tensor<768x768xf32> {jax.result_info = "result[1][0].cls.predictions.transform.dense.weight.value"}, tensor<768xf32> {jax.result_info = "result[1][0].cls.predictions.transform.dense.bias.value"}, tensor<768xf32> {jax.result_info = "result[1][0].cls.predictions.transform.LayerNorm.weight.value"}, tensor<768xf32> {jax.result_info = "result[1][0].cls.predictions.transform.LayerNorm.bias.value"}, tensor<30522xf32> {jax.result_info = "result[1][0].cls.predictions.bias"}, tensor<i32> {jax.result_info = "result[1][1].opt_state[1][0].count"}, tensor<30522x768xf32> {jax.result_info = "result[1][1].opt_state[1][0].mu.bert.embeddings.word_embeddings.weight.value"}, tensor<512x768xf32> {jax.result_info = "result[1][1].opt_state[1][0].mu.bert.embeddings.position_embeddings.weight.value"}, tensor<2x768xf32> {jax.result_info = "result[1][1].opt_state[1][0].mu.bert.embeddings.token_type_embeddings.weight.value"}, tensor<768xf32> {jax.result_info = "result[1][1].opt_state[1][0].mu.bert.embeddings.LayerNorm.weight.value"}, tensor<768xf32> {jax.result_info = "result[1][1].opt_state[1][0].mu.bert.embeddings.LayerNorm.bias.value"}, tensor<768x768xf32> {jax.result_info = "result[1][1].opt_state[1][0].mu.bert.encoder.layer[0].attention.self.query.weight.value"}, tensor<768xf32> {jax.result_info = "result[1][1].opt_state[1][0].mu.bert.encoder.layer[0].attention.self.query.bias.value"}, tensor<768x768xf32> {jax.result_info = "result[1][1].opt_state[1][0].mu.bert.encoder.layer[0].attention.self.value.weight.value"}, tensor<768xf32> {jax.result_info = "result[1][1].opt_state[1][0].mu.bert.encoder.layer[0].attention.self.value.bias.value"}, tensor<768x768xf32> {jax.result_info = "result[1][1].opt_state[1][0].mu.bert.encoder.layer[0].attention.self.key.weight.value"}, tensor<768xf32> {jax.result_info = "result[1][1].opt_state[1][0].mu.bert.encoder.layer[0].attention.self.key.bias.value"}, tensor<768x768xf32> {jax.result_info = "result[1][1].opt_state[1][0].mu.bert.encoder.layer[0].attention.output.dense.weight.value"}, tensor<768xf32> {jax.result_info = "result[1][1].opt_state[1][0].mu.bert.encoder.layer[0].attention.output.dense.bias.value"}, tensor<768xf32> {jax.result_info = "result[1][1].opt_state[1][0].mu.bert.encoder.layer[0].attention.output.LayerNorm.weight.value"}, tensor<768xf32> {jax.result_info = "result[1][1].opt_state[1][0].mu.bert.encoder.layer[0].attention.output.LayerNorm.bias.value"}, tensor<3072x768xf32> {jax.result_info = "result[1][1].opt_state[1][0].mu.bert.encoder.layer[0].intermediate.dense.weight.value"}, tensor<3072xf32> {jax.result_info = "result[1][1].opt_state[1][0].mu.bert.encoder.layer[0].intermediate.dense.bias.value"}, tensor<768x3072xf32> {jax.result_info = "result[1][1].opt_state[1][0].mu.bert.encoder.layer[0].output.dense.weight.value"}, tensor<768xf32> {jax.result_info = "result[1][1].opt_state[1][0].mu.bert.encoder.layer[0].output.dense.bias.value"}, tensor<768xf32> {jax.result_info = "result[1][1].opt_state[1][0].mu.bert.encoder.layer[0].output.LayerNorm.weight.value"}, tensor<768xf32> {jax.result_info = "result[1][1].opt_state[1][0].mu.bert.encoder.layer[0].output.LayerNorm.bias.value"}, tensor<768x768xf32> {jax.result_info = "result[1][1].opt_state[1][0].mu.bert.encoder.layer[1].attention.self.query.weight.value"}, tensor<768xf32> {jax.result_info = "result[1][1].opt_state[1][0].mu.bert.encoder.layer[1].attention.self.query.bias.value"}, tensor<768x768xf32> {jax.result_info = "result[1][1].opt_state[1][0].mu.bert.encoder.layer[1].attention.self.value.weight.value"}, tensor<768xf32> {jax.result_info = "result[1][1].opt_state[1][0].mu.bert.encoder.layer[1].attention.self.value.bias.value"}, tensor<768x768xf32> {jax.result_info = "result[1][1].opt_state[1][0].mu.bert.encoder.layer[1].attention.self.key.weight.value"}, tensor<768xf32> {jax.result_info = "result[1][1].opt_state[1][0].mu.bert.encoder.layer[1].attention.self.key.bias.value"}, tensor<768x768xf32> {jax.result_info = "result[1][1].opt_state[1][0].mu.bert.encoder.layer[1].attention.output.dense.weight.value"}, tensor<768xf32> {jax.result_info = "result[1][1].opt_state[1][0].mu.bert.encoder.layer[1].attention.output.dense.bias.value"}, tensor<768xf32> {jax.result_info = "result[1][1].opt_state[1][0].mu.bert.encoder.layer[1].attention.output.LayerNorm.weight.value"}, tensor<768xf32> {jax.result_info = "result[1][1].opt_state[1][0].mu.bert.encoder.layer[1].attention.output.LayerNorm.bias.value"}, tensor<3072x768xf32> {jax.result_info = "result[1][1].opt_state[1][0].mu.bert.encoder.layer[1].intermediate.dense.weight.value"}, tensor<3072xf32> {jax.result_info = "result[1][1].opt_state[1][0].mu.bert.encoder.layer[1].intermediate.dense.bias.value"}, tensor<768x3072xf32> {jax.result_info = "result[1][1].opt_state[1][0].mu.bert.encoder.layer[1].output.dense.weight.value"}, tensor<768xf32> {jax.result_info = "result[1][1].opt_state[1][0].mu.bert.encoder.layer[1].output.dense.bias.value"}, tensor<768xf32> {jax.result_info = "result[1][1].opt_state[1][0].mu.bert.encoder.layer[1].output.LayerNorm.weight.value"}, tensor<768xf32> {jax.result_info = "result[1][1].opt_state[1][0].mu.bert.encoder.layer[1].output.LayerNorm.bias.value"}, tensor<768x768xf32> {jax.result_info = "result[1][1].opt_state[1][0].mu.bert.encoder.layer[2].attention.self.query.weight.value"}, tensor<768xf32> {jax.result_info = "result[1][1].opt_state[1][0].mu.bert.encoder.layer[2].attention.self.query.bias.value"}, tensor<768x768xf32> {jax.result_info = "result[1][1].opt_state[1][0].mu.bert.encoder.layer[2].attention.self.value.weight.value"}, tensor<768xf32> {jax.result_info = "result[1][1].opt_state[1][0].mu.bert.encoder.layer[2].attention.self.value.bias.value"}, tensor<768x768xf32> {jax.result_info = "result[1][1].opt_state[1][0].mu.bert.encoder.layer[2].attention.self.key.weight.value"}, tensor<768xf32> {jax.result_info = "result[1][1].opt_state[1][0].mu.bert.encoder.layer[2].attention.self.key.bias.value"}, tensor<768x768xf32> {jax.result_info = "result[1][1].opt_state[1][0].mu.bert.encoder.layer[2].attention.output.dense.weight.value"}, tensor<768xf32> {jax.result_info = "result[1][1].opt_state[1][0].mu.bert.encoder.layer[2].attention.output.dense.bias.value"}, tensor<768xf32> {jax.result_info = "result[1][1].opt_state[1][0].mu.bert.encoder.layer[2].attention.output.LayerNorm.weight.value"}, tensor<768xf32> {jax.result_info = "result[1][1].opt_state[1][0].mu.bert.encoder.layer[2].attention.output.LayerNorm.bias.value"}, tensor<3072x768xf32> {jax.result_info = "result[1][1].opt_state[1][0].mu.bert.encoder.layer[2].intermediate.dense.weight.value"}, tensor<3072xf32> {jax.result_info = "result[1][1].opt_state[1][0].mu.bert.encoder.layer[2].intermediate.dense.bias.value"}, tensor<768x3072xf32> {jax.result_info = "result[1][1].opt_state[1][0].mu.bert.encoder.layer[2].output.dense.weight.value"}, tensor<768xf32> {jax.result_info = "result[1][1].opt_state[1][0].mu.bert.encoder.layer[2].output.dense.bias.value"}, tensor<768xf32> {jax.result_info = "result[1][1].opt_state[1][0].mu.bert.encoder.layer[2].output.LayerNorm.weight.value"}, tensor<768xf32> {jax.result_info = "result[1][1].opt_state[1][0].mu.bert.encoder.layer[2].output.LayerNorm.bias.value"}, tensor<768x768xf32> {jax.result_info = "result[1][1].opt_state[1][0].mu.bert.encoder.layer[3].attention.self.query.weight.value"}, tensor<768xf32> {jax.result_info = "result[1][1].opt_state[1][0].mu.bert.encoder.layer[3].attention.self.query.bias.value"}, tensor<768x768xf32> {jax.result_info = "result[1][1].opt_state[1][0].mu.bert.encoder.layer[3].attention.self.value.weight.value"}, tensor<768xf32> {jax.result_info = "result[1][1].opt_state[1][0].mu.bert.encoder.layer[3].attention.self.value.bias.value"}, tensor<768x768xf32> {jax.result_info = "result[1][1].opt_state[1][0].mu.bert.encoder.layer[3].attention.self.key.weight.value"}, tensor<768xf32> {jax.result_info = "result[1][1].opt_state[1][0].mu.bert.encoder.layer[3].attention.self.key.bias.value"}, tensor<768x768xf32> {jax.result_info = "result[1][1].opt_state[1][0].mu.bert.encoder.layer[3].attention.output.dense.weight.value"}, tensor<768xf32> {jax.result_info = "result[1][1].opt_state[1][0].mu.bert.encoder.layer[3].attention.output.dense.bias.value"}, tensor<768xf32> {jax.result_info = "result[1][1].opt_state[1][0].mu.bert.encoder.layer[3].attention.output.LayerNorm.weight.value"}, tensor<768xf32> {jax.result_info = "result[1][1].opt_state[1][0].mu.bert.encoder.layer[3].attention.output.LayerNorm.bias.value"}, tensor<3072x768xf32> {jax.result_info = "result[1][1].opt_state[1][0].mu.bert.encoder.layer[3].intermediate.dense.weight.value"}, tensor<3072xf32> {jax.result_info = "result[1][1].opt_state[1][0].mu.bert.encoder.layer[3].intermediate.dense.bias.value"}, tensor<768x3072xf32> {jax.result_info = "result[1][1].opt_state[1][0].mu.bert.encoder.layer[3].output.dense.weight.value"}, tensor<768xf32> {jax.result_info = "result[1][1].opt_state[1][0].mu.bert.encoder.layer[3].output.dense.bias.value"}, tensor<768xf32> {jax.result_info = "result[1][1].opt_state[1][0].mu.bert.encoder.layer[3].output.LayerNorm.weight.value"}, tensor<768xf32> {jax.result_info = "result[1][1].opt_state[1][0].mu.bert.encoder.layer[3].output.LayerNorm.bias.value"}, tensor<768x768xf32> {jax.result_info = "result[1][1].opt_state[1][0].mu.bert.encoder.layer[4].attention.self.query.weight.value"}, tensor<768xf32> {jax.result_info = "result[1][1].opt_state[1][0].mu.bert.encoder.layer[4].attention.self.query.bias.value"}, tensor<768x768xf32> {jax.result_info = "result[1][1].opt_state[1][0].mu.bert.encoder.layer[4].attention.self.value.weight.value"}, tensor<768xf32> {jax.result_info = "result[1][1].opt_state[1][0].mu.bert.encoder.layer[4].attention.self.value.bias.value"}, tensor<768x768xf32> {jax.result_info = "result[1][1].opt_state[1][0].mu.bert.encoder.layer[4].attention.self.key.weight.value"}, tensor<768xf32> {jax.result_info = "result[1][1].opt_state[1][0].mu.bert.encoder.layer[4].attention.self.key.bias.value"}, tensor<768x768xf32> {jax.result_info = "result[1][1].opt_state[1][0].mu.bert.encoder.layer[4].attention.output.dense.weight.value"}, tensor<768xf32> {jax.result_info = "result[1][1].opt_state[1][0].mu.bert.encoder.layer[4].attention.output.dense.bias.value"}, tensor<768xf32> {jax.result_info = "result[1][1].opt_state[1][0].mu.bert.encoder.layer[4].attention.output.LayerNorm.weight.value"}, tensor<768xf32> {jax.result_info = "result[1][1].opt_state[1][0].mu.bert.encoder.layer[4].attention.output.LayerNorm.bias.value"}, tensor<3072x768xf32> {jax.result_info = "result[1][1].opt_state[1][0].mu.bert.encoder.layer[4].intermediate.dense.weight.value"}, tensor<3072xf32> {jax.result_info = "result[1][1].opt_state[1][0].mu.bert.encoder.layer[4].intermediate.dense.bias.value"}, tensor<768x3072xf32> {jax.result_info = "result[1][1].opt_state[1][0].mu.bert.encoder.layer[4].output.dense.weight.value"}, tensor<768xf32> {jax.result_info = "result[1][1].opt_state[1][0].mu.bert.encoder.layer[4].output.dense.bias.value"}, tensor<768xf32> {jax.result_info = "result[1][1].opt_state[1][0].mu.bert.encoder.layer[4].output.LayerNorm.weight.value"}, tensor<768xf32> {jax.result_info = "result[1][1].opt_state[1][0].mu.bert.encoder.layer[4].output.LayerNorm.bias.value"}, tensor<768x768xf32> {jax.result_info = "result[1][1].opt_state[1][0].mu.bert.encoder.layer[5].attention.self.query.weight.value"}, tensor<768xf32> {jax.result_info = "result[1][1].opt_state[1][0].mu.bert.encoder.layer[5].attention.self.query.bias.value"}, tensor<768x768xf32> {jax.result_info = "result[1][1].opt_state[1][0].mu.bert.encoder.layer[5].attention.self.value.weight.value"}, tensor<768xf32> {jax.result_info = "result[1][1].opt_state[1][0].mu.bert.encoder.layer[5].attention.self.value.bias.value"}, tensor<768x768xf32> {jax.result_info = "result[1][1].opt_state[1][0].mu.bert.encoder.layer[5].attention.self.key.weight.value"}, tensor<768xf32> {jax.result_info = "result[1][1].opt_state[1][0].mu.bert.encoder.layer[5].attention.self.key.bias.value"}, tensor<768x768xf32> {jax.result_info = "result[1][1].opt_state[1][0].mu.bert.encoder.layer[5].attention.output.dense.weight.value"}, tensor<768xf32> {jax.result_info = "result[1][1].opt_state[1][0].mu.bert.encoder.layer[5].attention.output.dense.bias.value"}, tensor<768xf32> {jax.result_info = "result[1][1].opt_state[1][0].mu.bert.encoder.layer[5].attention.output.LayerNorm.weight.value"}, tensor<768xf32> {jax.result_info = "result[1][1].opt_state[1][0].mu.bert.encoder.layer[5].attention.output.LayerNorm.bias.value"}, tensor<3072x768xf32> {jax.result_info = "result[1][1].opt_state[1][0].mu.bert.encoder.layer[5].intermediate.dense.weight.value"}, tensor<3072xf32> {jax.result_info = "result[1][1].opt_state[1][0].mu.bert.encoder.layer[5].intermediate.dense.bias.value"}, tensor<768x3072xf32> {jax.result_info = "result[1][1].opt_state[1][0].mu.bert.encoder.layer[5].output.dense.weight.value"}, tensor<768xf32> {jax.result_info = "result[1][1].opt_state[1][0].mu.bert.encoder.layer[5].output.dense.bias.value"}, tensor<768xf32> {jax.result_info = "result[1][1].opt_state[1][0].mu.bert.encoder.layer[5].output.LayerNorm.weight.value"}, tensor<768xf32> {jax.result_info = "result[1][1].opt_state[1][0].mu.bert.encoder.layer[5].output.LayerNorm.bias.value"}, tensor<768x768xf32> {jax.result_info = "result[1][1].opt_state[1][0].mu.bert.encoder.layer[6].attention.self.query.weight.value"}, tensor<768xf32> {jax.result_info = "result[1][1].opt_state[1][0].mu.bert.encoder.layer[6].attention.self.query.bias.value"}, tensor<768x768xf32> {jax.result_info = "result[1][1].opt_state[1][0].mu.bert.encoder.layer[6].attention.self.value.weight.value"}, tensor<768xf32> {jax.result_info = "result[1][1].opt_state[1][0].mu.bert.encoder.layer[6].attention.self.value.bias.value"}, tensor<768x768xf32> {jax.result_info = "result[1][1].opt_state[1][0].mu.bert.encoder.layer[6].attention.self.key.weight.value"}, tensor<768xf32> {jax.result_info = "result[1][1].opt_state[1][0].mu.bert.encoder.layer[6].attention.self.key.bias.value"}, tensor<768x768xf32> {jax.result_info = "result[1][1].opt_state[1][0].mu.bert.encoder.layer[6].attention.output.dense.weight.value"}, tensor<768xf32> {jax.result_info = "result[1][1].opt_state[1][0].mu.bert.encoder.layer[6].attention.output.dense.bias.value"}, tensor<768xf32> {jax.result_info = "result[1][1].opt_state[1][0].mu.bert.encoder.layer[6].attention.output.LayerNorm.weight.value"}, tensor<768xf32> {jax.result_info = "result[1][1].opt_state[1][0].mu.bert.encoder.layer[6].attention.output.LayerNorm.bias.value"}, tensor<3072x768xf32> {jax.result_info = "result[1][1].opt_state[1][0].mu.bert.encoder.layer[6].intermediate.dense.weight.value"}, tensor<3072xf32> {jax.result_info = "result[1][1].opt_state[1][0].mu.bert.encoder.layer[6].intermediate.dense.bias.value"}, tensor<768x3072xf32> {jax.result_info = "result[1][1].opt_state[1][0].mu.bert.encoder.layer[6].output.dense.weight.value"}, tensor<768xf32> {jax.result_info = "result[1][1].opt_state[1][0].mu.bert.encoder.layer[6].output.dense.bias.value"}, tensor<768xf32> {jax.result_info = "result[1][1].opt_state[1][0].mu.bert.encoder.layer[6].output.LayerNorm.weight.value"}, tensor<768xf32> {jax.result_info = "result[1][1].opt_state[1][0].mu.bert.encoder.layer[6].output.LayerNorm.bias.value"}, tensor<768x768xf32> {jax.result_info = "result[1][1].opt_state[1][0].mu.bert.encoder.layer[7].attention.self.query.weight.value"}, tensor<768xf32> {jax.result_info = "result[1][1].opt_state[1][0].mu.bert.encoder.layer[7].attention.self.query.bias.value"}, tensor<768x768xf32> {jax.result_info = "result[1][1].opt_state[1][0].mu.bert.encoder.layer[7].attention.self.value.weight.value"}, tensor<768xf32> {jax.result_info = "result[1][1].opt_state[1][0].mu.bert.encoder.layer[7].attention.self.value.bias.value"}, tensor<768x768xf32> {jax.result_info = "result[1][1].opt_state[1][0].mu.bert.encoder.layer[7].attention.self.key.weight.value"}, tensor<768xf32> {jax.result_info = "result[1][1].opt_state[1][0].mu.bert.encoder.layer[7].attention.self.key.bias.value"}, tensor<768x768xf32> {jax.result_info = "result[1][1].opt_state[1][0].mu.bert.encoder.layer[7].attention.output.dense.weight.value"}, tensor<768xf32> {jax.result_info = "result[1][1].opt_state[1][0].mu.bert.encoder.layer[7].attention.output.dense.bias.value"}, tensor<768xf32> {jax.result_info = "result[1][1].opt_state[1][0].mu.bert.encoder.layer[7].attention.output.LayerNorm.weight.value"}, tensor<768xf32> {jax.result_info = "result[1][1].opt_state[1][0].mu.bert.encoder.layer[7].attention.output.LayerNorm.bias.value"}, tensor<3072x768xf32> {jax.result_info = "result[1][1].opt_state[1][0].mu.bert.encoder.layer[7].intermediate.dense.weight.value"}, tensor<3072xf32> {jax.result_info = "result[1][1].opt_state[1][0].mu.bert.encoder.layer[7].intermediate.dense.bias.value"}, tensor<768x3072xf32> {jax.result_info = "result[1][1].opt_state[1][0].mu.bert.encoder.layer[7].output.dense.weight.value"}, tensor<768xf32> {jax.result_info = "result[1][1].opt_state[1][0].mu.bert.encoder.layer[7].output.dense.bias.value"}, tensor<768xf32> {jax.result_info = "result[1][1].opt_state[1][0].mu.bert.encoder.layer[7].output.LayerNorm.weight.value"}, tensor<768xf32> {jax.result_info = "result[1][1].opt_state[1][0].mu.bert.encoder.layer[7].output.LayerNorm.bias.value"}, tensor<768x768xf32> {jax.result_info = "result[1][1].opt_state[1][0].mu.bert.encoder.layer[8].attention.self.query.weight.value"}, tensor<768xf32> {jax.result_info = "result[1][1].opt_state[1][0].mu.bert.encoder.layer[8].attention.self.query.bias.value"}, tensor<768x768xf32> {jax.result_info = "result[1][1].opt_state[1][0].mu.bert.encoder.layer[8].attention.self.value.weight.value"}, tensor<768xf32> {jax.result_info = "result[1][1].opt_state[1][0].mu.bert.encoder.layer[8].attention.self.value.bias.value"}, tensor<768x768xf32> {jax.result_info = "result[1][1].opt_state[1][0].mu.bert.encoder.layer[8].attention.self.key.weight.value"}, tensor<768xf32> {jax.result_info = "result[1][1].opt_state[1][0].mu.bert.encoder.layer[8].attention.self.key.bias.value"}, tensor<768x768xf32> {jax.result_info = "result[1][1].opt_state[1][0].mu.bert.encoder.layer[8].attention.output.dense.weight.value"}, tensor<768xf32> {jax.result_info = "result[1][1].opt_state[1][0].mu.bert.encoder.layer[8].attention.output.dense.bias.value"}, tensor<768xf32> {jax.result_info = "result[1][1].opt_state[1][0].mu.bert.encoder.layer[8].attention.output.LayerNorm.weight.value"}, tensor<768xf32> {jax.result_info = "result[1][1].opt_state[1][0].mu.bert.encoder.layer[8].attention.output.LayerNorm.bias.value"}, tensor<3072x768xf32> {jax.result_info = "result[1][1].opt_state[1][0].mu.bert.encoder.layer[8].intermediate.dense.weight.value"}, tensor<3072xf32> {jax.result_info = "result[1][1].opt_state[1][0].mu.bert.encoder.layer[8].intermediate.dense.bias.value"}, tensor<768x3072xf32> {jax.result_info = "result[1][1].opt_state[1][0].mu.bert.encoder.layer[8].output.dense.weight.value"}, tensor<768xf32> {jax.result_info = "result[1][1].opt_state[1][0].mu.bert.encoder.layer[8].output.dense.bias.value"}, tensor<768xf32> {jax.result_info = "result[1][1].opt_state[1][0].mu.bert.encoder.layer[8].output.LayerNorm.weight.value"}, tensor<768xf32> {jax.result_info = "result[1][1].opt_state[1][0].mu.bert.encoder.layer[8].output.LayerNorm.bias.value"}, tensor<768x768xf32> {jax.result_info = "result[1][1].opt_state[1][0].mu.bert.encoder.layer[9].attention.self.query.weight.value"}, tensor<768xf32> {jax.result_info = "result[1][1].opt_state[1][0].mu.bert.encoder.layer[9].attention.self.query.bias.value"}, tensor<768x768xf32> {jax.result_info = "result[1][1].opt_state[1][0].mu.bert.encoder.layer[9].attention.self.value.weight.value"}, tensor<768xf32> {jax.result_info = "result[1][1].opt_state[1][0].mu.bert.encoder.layer[9].attention.self.value.bias.value"}, tensor<768x768xf32> {jax.result_info = "result[1][1].opt_state[1][0].mu.bert.encoder.layer[9].attention.self.key.weight.value"}, tensor<768xf32> {jax.result_info = "result[1][1].opt_state[1][0].mu.bert.encoder.layer[9].attention.self.key.bias.value"}, tensor<768x768xf32> {jax.result_info = "result[1][1].opt_state[1][0].mu.bert.encoder.layer[9].attention.output.dense.weight.value"}, tensor<768xf32> {jax.result_info = "result[1][1].opt_state[1][0].mu.bert.encoder.layer[9].attention.output.dense.bias.value"}, tensor<768xf32> {jax.result_info = "result[1][1].opt_state[1][0].mu.bert.encoder.layer[9].attention.output.LayerNorm.weight.value"}, tensor<768xf32> {jax.result_info = "result[1][1].opt_state[1][0].mu.bert.encoder.layer[9].attention.output.LayerNorm.bias.value"}, tensor<3072x768xf32> {jax.result_info = "result[1][1].opt_state[1][0].mu.bert.encoder.layer[9].intermediate.dense.weight.value"}, tensor<3072xf32> {jax.result_info = "result[1][1].opt_state[1][0].mu.bert.encoder.layer[9].intermediate.dense.bias.value"}, tensor<768x3072xf32> {jax.result_info = "result[1][1].opt_state[1][0].mu.bert.encoder.layer[9].output.dense.weight.value"}, tensor<768xf32> {jax.result_info = "result[1][1].opt_state[1][0].mu.bert.encoder.layer[9].output.dense.bias.value"}, tensor<768xf32> {jax.result_info = "result[1][1].opt_state[1][0].mu.bert.encoder.layer[9].output.LayerNorm.weight.value"}, tensor<768xf32> {jax.result_info = "result[1][1].opt_state[1][0].mu.bert.encoder.layer[9].output.LayerNorm.bias.value"}, tensor<768x768xf32> {jax.result_info = "result[1][1].opt_state[1][0].mu.bert.encoder.layer[10].attention.self.query.weight.value"}, tensor<768xf32> {jax.result_info = "result[1][1].opt_state[1][0].mu.bert.encoder.layer[10].attention.self.query.bias.value"}, tensor<768x768xf32> {jax.result_info = "result[1][1].opt_state[1][0].mu.bert.encoder.layer[10].attention.self.value.weight.value"}, tensor<768xf32> {jax.result_info = "result[1][1].opt_state[1][0].mu.bert.encoder.layer[10].attention.self.value.bias.value"}, tensor<768x768xf32> {jax.result_info = "result[1][1].opt_state[1][0].mu.bert.encoder.layer[10].attention.self.key.weight.value"}, tensor<768xf32> {jax.result_info = "result[1][1].opt_state[1][0].mu.bert.encoder.layer[10].attention.self.key.bias.value"}, tensor<768x768xf32> {jax.result_info = "result[1][1].opt_state[1][0].mu.bert.encoder.layer[10].attention.output.dense.weight.value"}, tensor<768xf32> {jax.result_info = "result[1][1].opt_state[1][0].mu.bert.encoder.layer[10].attention.output.dense.bias.value"}, tensor<768xf32> {jax.result_info = "result[1][1].opt_state[1][0].mu.bert.encoder.layer[10].attention.output.LayerNorm.weight.value"}, tensor<768xf32> {jax.result_info = "result[1][1].opt_state[1][0].mu.bert.encoder.layer[10].attention.output.LayerNorm.bias.value"}, tensor<3072x768xf32> {jax.result_info = "result[1][1].opt_state[1][0].mu.bert.encoder.layer[10].intermediate.dense.weight.value"}, tensor<3072xf32> {jax.result_info = "result[1][1].opt_state[1][0].mu.bert.encoder.layer[10].intermediate.dense.bias.value"}, tensor<768x3072xf32> {jax.result_info = "result[1][1].opt_state[1][0].mu.bert.encoder.layer[10].output.dense.weight.value"}, tensor<768xf32> {jax.result_info = "result[1][1].opt_state[1][0].mu.bert.encoder.layer[10].output.dense.bias.value"}, tensor<768xf32> {jax.result_info = "result[1][1].opt_state[1][0].mu.bert.encoder.layer[10].output.LayerNorm.weight.value"}, tensor<768xf32> {jax.result_info = "result[1][1].opt_state[1][0].mu.bert.encoder.layer[10].output.LayerNorm.bias.value"}, tensor<768x768xf32> {jax.result_info = "result[1][1].opt_state[1][0].mu.bert.encoder.layer[11].attention.self.query.weight.value"}, tensor<768xf32> {jax.result_info = "result[1][1].opt_state[1][0].mu.bert.encoder.layer[11].attention.self.query.bias.value"}, tensor<768x768xf32> {jax.result_info = "result[1][1].opt_state[1][0].mu.bert.encoder.layer[11].attention.self.value.weight.value"}, tensor<768xf32> {jax.result_info = "result[1][1].opt_state[1][0].mu.bert.encoder.layer[11].attention.self.value.bias.value"}, tensor<768x768xf32> {jax.result_info = "result[1][1].opt_state[1][0].mu.bert.encoder.layer[11].attention.self.key.weight.value"}, tensor<768xf32> {jax.result_info = "result[1][1].opt_state[1][0].mu.bert.encoder.layer[11].attention.self.key.bias.value"}, tensor<768x768xf32> {jax.result_info = "result[1][1].opt_state[1][0].mu.bert.encoder.layer[11].attention.output.dense.weight.value"}, tensor<768xf32> {jax.result_info = "result[1][1].opt_state[1][0].mu.bert.encoder.layer[11].attention.output.dense.bias.value"}, tensor<768xf32> {jax.result_info = "result[1][1].opt_state[1][0].mu.bert.encoder.layer[11].attention.output.LayerNorm.weight.value"}, tensor<768xf32> {jax.result_info = "result[1][1].opt_state[1][0].mu.bert.encoder.layer[11].attention.output.LayerNorm.bias.value"}, tensor<3072x768xf32> {jax.result_info = "result[1][1].opt_state[1][0].mu.bert.encoder.layer[11].intermediate.dense.weight.value"}, tensor<3072xf32> {jax.result_info = "result[1][1].opt_state[1][0].mu.bert.encoder.layer[11].intermediate.dense.bias.value"}, tensor<768x3072xf32> {jax.result_info = "result[1][1].opt_state[1][0].mu.bert.encoder.layer[11].output.dense.weight.value"}, tensor<768xf32> {jax.result_info = "result[1][1].opt_state[1][0].mu.bert.encoder.layer[11].output.dense.bias.value"}, tensor<768xf32> {jax.result_info = "result[1][1].opt_state[1][0].mu.bert.encoder.layer[11].output.LayerNorm.weight.value"}, tensor<768xf32> {jax.result_info = "result[1][1].opt_state[1][0].mu.bert.encoder.layer[11].output.LayerNorm.bias.value"}, tensor<768x768xf32> {jax.result_info = "result[1][1].opt_state[1][0].mu.cls.predictions.transform.dense.weight.value"}, tensor<768xf32> {jax.result_info = "result[1][1].opt_state[1][0].mu.cls.predictions.transform.dense.bias.value"}, tensor<768xf32> {jax.result_info = "result[1][1].opt_state[1][0].mu.cls.predictions.transform.LayerNorm.weight.value"}, tensor<768xf32> {jax.result_info = "result[1][1].opt_state[1][0].mu.cls.predictions.transform.LayerNorm.bias.value"}, tensor<30522xf32> {jax.result_info = "result[1][1].opt_state[1][0].mu.cls.predictions.bias"}, tensor<30522x768xf32> {jax.result_info = "result[1][1].opt_state[1][0].nu.bert.embeddings.word_embeddings.weight.value"}, tensor<512x768xf32> {jax.result_info = "result[1][1].opt_state[1][0].nu.bert.embeddings.position_embeddings.weight.value"}, tensor<2x768xf32> {jax.result_info = "result[1][1].opt_state[1][0].nu.bert.embeddings.token_type_embeddings.weight.value"}, tensor<768xf32> {jax.result_info = "result[1][1].opt_state[1][0].nu.bert.embeddings.LayerNorm.weight.value"}, tensor<768xf32> {jax.result_info = "result[1][1].opt_state[1][0].nu.bert.embeddings.LayerNorm.bias.value"}, tensor<768x768xf32> {jax.result_info = "result[1][1].opt_state[1][0].nu.bert.encoder.layer[0].attention.self.query.weight.value"}, tensor<768xf32> {jax.result_info = "result[1][1].opt_state[1][0].nu.bert.encoder.layer[0].attention.self.query.bias.value"}, tensor<768x768xf32> {jax.result_info = "result[1][1].opt_state[1][0].nu.bert.encoder.layer[0].attention.self.value.weight.value"}, tensor<768xf32> {jax.result_info = "result[1][1].opt_state[1][0].nu.bert.encoder.layer[0].attention.self.value.bias.value"}, tensor<768x768xf32> {jax.result_info = "result[1][1].opt_state[1][0].nu.bert.encoder.layer[0].attention.self.key.weight.value"}, tensor<768xf32> {jax.result_info = "result[1][1].opt_state[1][0].nu.bert.encoder.layer[0].attention.self.key.bias.value"}, tensor<768x768xf32> {jax.result_info = "result[1][1].opt_state[1][0].nu.bert.encoder.layer[0].attention.output.dense.weight.value"}, tensor<768xf32> {jax.result_info = "result[1][1].opt_state[1][0].nu.bert.encoder.layer[0].attention.output.dense.bias.value"}, tensor<768xf32> {jax.result_info = "result[1][1].opt_state[1][0].nu.bert.encoder.layer[0].attention.output.LayerNorm.weight.value"}, tensor<768xf32> {jax.result_info = "result[1][1].opt_state[1][0].nu.bert.encoder.layer[0].attention.output.LayerNorm.bias.value"}, tensor<3072x768xf32> {jax.result_info = "result[1][1].opt_state[1][0].nu.bert.encoder.layer[0].intermediate.dense.weight.value"}, tensor<3072xf32> {jax.result_info = "result[1][1].opt_state[1][0].nu.bert.encoder.layer[0].intermediate.dense.bias.value"}, tensor<768x3072xf32> {jax.result_info = "result[1][1].opt_state[1][0].nu.bert.encoder.layer[0].output.dense.weight.value"}, tensor<768xf32> {jax.result_info = "result[1][1].opt_state[1][0].nu.bert.encoder.layer[0].output.dense.bias.value"}, tensor<768xf32> {jax.result_info = "result[1][1].opt_state[1][0].nu.bert.encoder.layer[0].output.LayerNorm.weight.value"}, tensor<768xf32> {jax.result_info = "result[1][1].opt_state[1][0].nu.bert.encoder.layer[0].output.LayerNorm.bias.value"}, tensor<768x768xf32> {jax.result_info = "result[1][1].opt_state[1][0].nu.bert.encoder.layer[1].attention.self.query.weight.value"}, tensor<768xf32> {jax.result_info = "result[1][1].opt_state[1][0].nu.bert.encoder.layer[1].attention.self.query.bias.value"}, tensor<768x768xf32> {jax.result_info = "result[1][1].opt_state[1][0].nu.bert.encoder.layer[1].attention.self.value.weight.value"}, tensor<768xf32> {jax.result_info = "result[1][1].opt_state[1][0].nu.bert.encoder.layer[1].attention.self.value.bias.value"}, tensor<768x768xf32> {jax.result_info = "result[1][1].opt_state[1][0].nu.bert.encoder.layer[1].attention.self.key.weight.value"}, tensor<768xf32> {jax.result_info = "result[1][1].opt_state[1][0].nu.bert.encoder.layer[1].attention.self.key.bias.value"}, tensor<768x768xf32> {jax.result_info = "result[1][1].opt_state[1][0].nu.bert.encoder.layer[1].attention.output.dense.weight.value"}, tensor<768xf32> {jax.result_info = "result[1][1].opt_state[1][0].nu.bert.encoder.layer[1].attention.output.dense.bias.value"}, tensor<768xf32> {jax.result_info = "result[1][1].opt_state[1][0].nu.bert.encoder.layer[1].attention.output.LayerNorm.weight.value"}, tensor<768xf32> {jax.result_info = "result[1][1].opt_state[1][0].nu.bert.encoder.layer[1].attention.output.LayerNorm.bias.value"}, tensor<3072x768xf32> {jax.result_info = "result[1][1].opt_state[1][0].nu.bert.encoder.layer[1].intermediate.dense.weight.value"}, tensor<3072xf32> {jax.result_info = "result[1][1].opt_state[1][0].nu.bert.encoder.layer[1].intermediate.dense.bias.value"}, tensor<768x3072xf32> {jax.result_info = "result[1][1].opt_state[1][0].nu.bert.encoder.layer[1].output.dense.weight.value"}, tensor<768xf32> {jax.result_info = "result[1][1].opt_state[1][0].nu.bert.encoder.layer[1].output.dense.bias.value"}, tensor<768xf32> {jax.result_info = "result[1][1].opt_state[1][0].nu.bert.encoder.layer[1].output.LayerNorm.weight.value"}, tensor<768xf32> {jax.result_info = "result[1][1].opt_state[1][0].nu.bert.encoder.layer[1].output.LayerNorm.bias.value"}, tensor<768x768xf32> {jax.result_info = "result[1][1].opt_state[1][0].nu.bert.encoder.layer[2].attention.self.query.weight.value"}, tensor<768xf32> {jax.result_info = "result[1][1].opt_state[1][0].nu.bert.encoder.layer[2].attention.self.query.bias.value"}, tensor<768x768xf32> {jax.result_info = "result[1][1].opt_state[1][0].nu.bert.encoder.layer[2].attention.self.value.weight.value"}, tensor<768xf32> {jax.result_info = "result[1][1].opt_state[1][0].nu.bert.encoder.layer[2].attention.self.value.bias.value"}, tensor<768x768xf32> {jax.result_info = "result[1][1].opt_state[1][0].nu.bert.encoder.layer[2].attention.self.key.weight.value"}, tensor<768xf32> {jax.result_info = "result[1][1].opt_state[1][0].nu.bert.encoder.layer[2].attention.self.key.bias.value"}, tensor<768x768xf32> {jax.result_info = "result[1][1].opt_state[1][0].nu.bert.encoder.layer[2].attention.output.dense.weight.value"}, tensor<768xf32> {jax.result_info = "result[1][1].opt_state[1][0].nu.bert.encoder.layer[2].attention.output.dense.bias.value"}, tensor<768xf32> {jax.result_info = "result[1][1].opt_state[1][0].nu.bert.encoder.layer[2].attention.output.LayerNorm.weight.value"}, tensor<768xf32> {jax.result_info = "result[1][1].opt_state[1][0].nu.bert.encoder.layer[2].attention.output.LayerNorm.bias.value"}, tensor<3072x768xf32> {jax.result_info = "result[1][1].opt_state[1][0].nu.bert.encoder.layer[2].intermediate.dense.weight.value"}, tensor<3072xf32> {jax.result_info = "result[1][1].opt_state[1][0].nu.bert.encoder.layer[2].intermediate.dense.bias.value"}, tensor<768x3072xf32> {jax.result_info = "result[1][1].opt_state[1][0].nu.bert.encoder.layer[2].output.dense.weight.value"}, tensor<768xf32> {jax.result_info = "result[1][1].opt_state[1][0].nu.bert.encoder.layer[2].output.dense.bias.value"}, tensor<768xf32> {jax.result_info = "result[1][1].opt_state[1][0].nu.bert.encoder.layer[2].output.LayerNorm.weight.value"}, tensor<768xf32> {jax.result_info = "result[1][1].opt_state[1][0].nu.bert.encoder.layer[2].output.LayerNorm.bias.value"}, tensor<768x768xf32> {jax.result_info = "result[1][1].opt_state[1][0].nu.bert.encoder.layer[3].attention.self.query.weight.value"}, tensor<768xf32> {jax.result_info = "result[1][1].opt_state[1][0].nu.bert.encoder.layer[3].attention.self.query.bias.value"}, tensor<768x768xf32> {jax.result_info = "result[1][1].opt_state[1][0].nu.bert.encoder.layer[3].attention.self.value.weight.value"}, tensor<768xf32> {jax.result_info = "result[1][1].opt_state[1][0].nu.bert.encoder.layer[3].attention.self.value.bias.value"}, tensor<768x768xf32> {jax.result_info = "result[1][1].opt_state[1][0].nu.bert.encoder.layer[3].attention.self.key.weight.value"}, tensor<768xf32> {jax.result_info = "result[1][1].opt_state[1][0].nu.bert.encoder.layer[3].attention.self.key.bias.value"}, tensor<768x768xf32> {jax.result_info = "result[1][1].opt_state[1][0].nu.bert.encoder.layer[3].attention.output.dense.weight.value"}, tensor<768xf32> {jax.result_info = "result[1][1].opt_state[1][0].nu.bert.encoder.layer[3].attention.output.dense.bias.value"}, tensor<768xf32> {jax.result_info = "result[1][1].opt_state[1][0].nu.bert.encoder.layer[3].attention.output.LayerNorm.weight.value"}, tensor<768xf32> {jax.result_info = "result[1][1].opt_state[1][0].nu.bert.encoder.layer[3].attention.output.LayerNorm.bias.value"}, tensor<3072x768xf32> {jax.result_info = "result[1][1].opt_state[1][0].nu.bert.encoder.layer[3].intermediate.dense.weight.value"}, tensor<3072xf32> {jax.result_info = "result[1][1].opt_state[1][0].nu.bert.encoder.layer[3].intermediate.dense.bias.value"}, tensor<768x3072xf32> {jax.result_info = "result[1][1].opt_state[1][0].nu.bert.encoder.layer[3].output.dense.weight.value"}, tensor<768xf32> {jax.result_info = "result[1][1].opt_state[1][0].nu.bert.encoder.layer[3].output.dense.bias.value"}, tensor<768xf32> {jax.result_info = "result[1][1].opt_state[1][0].nu.bert.encoder.layer[3].output.LayerNorm.weight.value"}, tensor<768xf32> {jax.result_info = "result[1][1].opt_state[1][0].nu.bert.encoder.layer[3].output.LayerNorm.bias.value"}, tensor<768x768xf32> {jax.result_info = "result[1][1].opt_state[1][0].nu.bert.encoder.layer[4].attention.self.query.weight.value"}, tensor<768xf32> {jax.result_info = "result[1][1].opt_state[1][0].nu.bert.encoder.layer[4].attention.self.query.bias.value"}, tensor<768x768xf32> {jax.result_info = "result[1][1].opt_state[1][0].nu.bert.encoder.layer[4].attention.self.value.weight.value"}, tensor<768xf32> {jax.result_info = "result[1][1].opt_state[1][0].nu.bert.encoder.layer[4].attention.self.value.bias.value"}, tensor<768x768xf32> {jax.result_info = "result[1][1].opt_state[1][0].nu.bert.encoder.layer[4].attention.self.key.weight.value"}, tensor<768xf32> {jax.result_info = "result[1][1].opt_state[1][0].nu.bert.encoder.layer[4].attention.self.key.bias.value"}, tensor<768x768xf32> {jax.result_info = "result[1][1].opt_state[1][0].nu.bert.encoder.layer[4].attention.output.dense.weight.value"}, tensor<768xf32> {jax.result_info = "result[1][1].opt_state[1][0].nu.bert.encoder.layer[4].attention.output.dense.bias.value"}, tensor<768xf32> {jax.result_info = "result[1][1].opt_state[1][0].nu.bert.encoder.layer[4].attention.output.LayerNorm.weight.value"}, tensor<768xf32> {jax.result_info = "result[1][1].opt_state[1][0].nu.bert.encoder.layer[4].attention.output.LayerNorm.bias.value"}, tensor<3072x768xf32> {jax.result_info = "result[1][1].opt_state[1][0].nu.bert.encoder.layer[4].intermediate.dense.weight.value"}, tensor<3072xf32> {jax.result_info = "result[1][1].opt_state[1][0].nu.bert.encoder.layer[4].intermediate.dense.bias.value"}, tensor<768x3072xf32> {jax.result_info = "result[1][1].opt_state[1][0].nu.bert.encoder.layer[4].output.dense.weight.value"}, tensor<768xf32> {jax.result_info = "result[1][1].opt_state[1][0].nu.bert.encoder.layer[4].output.dense.bias.value"}, tensor<768xf32> {jax.result_info = "result[1][1].opt_state[1][0].nu.bert.encoder.layer[4].output.LayerNorm.weight.value"}, tensor<768xf32> {jax.result_info = "result[1][1].opt_state[1][0].nu.bert.encoder.layer[4].output.LayerNorm.bias.value"}, tensor<768x768xf32> {jax.result_info = "result[1][1].opt_state[1][0].nu.bert.encoder.layer[5].attention.self.query.weight.value"}, tensor<768xf32> {jax.result_info = "result[1][1].opt_state[1][0].nu.bert.encoder.layer[5].attention.self.query.bias.value"}, tensor<768x768xf32> {jax.result_info = "result[1][1].opt_state[1][0].nu.bert.encoder.layer[5].attention.self.value.weight.value"}, tensor<768xf32> {jax.result_info = "result[1][1].opt_state[1][0].nu.bert.encoder.layer[5].attention.self.value.bias.value"}, tensor<768x768xf32> {jax.result_info = "result[1][1].opt_state[1][0].nu.bert.encoder.layer[5].attention.self.key.weight.value"}, tensor<768xf32> {jax.result_info = "result[1][1].opt_state[1][0].nu.bert.encoder.layer[5].attention.self.key.bias.value"}, tensor<768x768xf32> {jax.result_info = "result[1][1].opt_state[1][0].nu.bert.encoder.layer[5].attention.output.dense.weight.value"}, tensor<768xf32> {jax.result_info = "result[1][1].opt_state[1][0].nu.bert.encoder.layer[5].attention.output.dense.bias.value"}, tensor<768xf32> {jax.result_info = "result[1][1].opt_state[1][0].nu.bert.encoder.layer[5].attention.output.LayerNorm.weight.value"}, tensor<768xf32> {jax.result_info = "result[1][1].opt_state[1][0].nu.bert.encoder.layer[5].attention.output.LayerNorm.bias.value"}, tensor<3072x768xf32> {jax.result_info = "result[1][1].opt_state[1][0].nu.bert.encoder.layer[5].intermediate.dense.weight.value"}, tensor<3072xf32> {jax.result_info = "result[1][1].opt_state[1][0].nu.bert.encoder.layer[5].intermediate.dense.bias.value"}, tensor<768x3072xf32> {jax.result_info = "result[1][1].opt_state[1][0].nu.bert.encoder.layer[5].output.dense.weight.value"}, tensor<768xf32> {jax.result_info = "result[1][1].opt_state[1][0].nu.bert.encoder.layer[5].output.dense.bias.value"}, tensor<768xf32> {jax.result_info = "result[1][1].opt_state[1][0].nu.bert.encoder.layer[5].output.LayerNorm.weight.value"}, tensor<768xf32> {jax.result_info = "result[1][1].opt_state[1][0].nu.bert.encoder.layer[5].output.LayerNorm.bias.value"}, tensor<768x768xf32> {jax.result_info = "result[1][1].opt_state[1][0].nu.bert.encoder.layer[6].attention.self.query.weight.value"}, tensor<768xf32> {jax.result_info = "result[1][1].opt_state[1][0].nu.bert.encoder.layer[6].attention.self.query.bias.value"}, tensor<768x768xf32> {jax.result_info = "result[1][1].opt_state[1][0].nu.bert.encoder.layer[6].attention.self.value.weight.value"}, tensor<768xf32> {jax.result_info = "result[1][1].opt_state[1][0].nu.bert.encoder.layer[6].attention.self.value.bias.value"}, tensor<768x768xf32> {jax.result_info = "result[1][1].opt_state[1][0].nu.bert.encoder.layer[6].attention.self.key.weight.value"}, tensor<768xf32> {jax.result_info = "result[1][1].opt_state[1][0].nu.bert.encoder.layer[6].attention.self.key.bias.value"}, tensor<768x768xf32> {jax.result_info = "result[1][1].opt_state[1][0].nu.bert.encoder.layer[6].attention.output.dense.weight.value"}, tensor<768xf32> {jax.result_info = "result[1][1].opt_state[1][0].nu.bert.encoder.layer[6].attention.output.dense.bias.value"}, tensor<768xf32> {jax.result_info = "result[1][1].opt_state[1][0].nu.bert.encoder.layer[6].attention.output.LayerNorm.weight.value"}, tensor<768xf32> {jax.result_info = "result[1][1].opt_state[1][0].nu.bert.encoder.layer[6].attention.output.LayerNorm.bias.value"}, tensor<3072x768xf32> {jax.result_info = "result[1][1].opt_state[1][0].nu.bert.encoder.layer[6].intermediate.dense.weight.value"}, tensor<3072xf32> {jax.result_info = "result[1][1].opt_state[1][0].nu.bert.encoder.layer[6].intermediate.dense.bias.value"}, tensor<768x3072xf32> {jax.result_info = "result[1][1].opt_state[1][0].nu.bert.encoder.layer[6].output.dense.weight.value"}, tensor<768xf32> {jax.result_info = "result[1][1].opt_state[1][0].nu.bert.encoder.layer[6].output.dense.bias.value"}, tensor<768xf32> {jax.result_info = "result[1][1].opt_state[1][0].nu.bert.encoder.layer[6].output.LayerNorm.weight.value"}, tensor<768xf32> {jax.result_info = "result[1][1].opt_state[1][0].nu.bert.encoder.layer[6].output.LayerNorm.bias.value"}, tensor<768x768xf32> {jax.result_info = "result[1][1].opt_state[1][0].nu.bert.encoder.layer[7].attention.self.query.weight.value"}, tensor<768xf32> {jax.result_info = "result[1][1].opt_state[1][0].nu.bert.encoder.layer[7].attention.self.query.bias.value"}, tensor<768x768xf32> {jax.result_info = "result[1][1].opt_state[1][0].nu.bert.encoder.layer[7].attention.self.value.weight.value"}, tensor<768xf32> {jax.result_info = "result[1][1].opt_state[1][0].nu.bert.encoder.layer[7].attention.self.value.bias.value"}, tensor<768x768xf32> {jax.result_info = "result[1][1].opt_state[1][0].nu.bert.encoder.layer[7].attention.self.key.weight.value"}, tensor<768xf32> {jax.result_info = "result[1][1].opt_state[1][0].nu.bert.encoder.layer[7].attention.self.key.bias.value"}, tensor<768x768xf32> {jax.result_info = "result[1][1].opt_state[1][0].nu.bert.encoder.layer[7].attention.output.dense.weight.value"}, tensor<768xf32> {jax.result_info = "result[1][1].opt_state[1][0].nu.bert.encoder.layer[7].attention.output.dense.bias.value"}, tensor<768xf32> {jax.result_info = "result[1][1].opt_state[1][0].nu.bert.encoder.layer[7].attention.output.LayerNorm.weight.value"}, tensor<768xf32> {jax.result_info = "result[1][1].opt_state[1][0].nu.bert.encoder.layer[7].attention.output.LayerNorm.bias.value"}, tensor<3072x768xf32> {jax.result_info = "result[1][1].opt_state[1][0].nu.bert.encoder.layer[7].intermediate.dense.weight.value"}, tensor<3072xf32> {jax.result_info = "result[1][1].opt_state[1][0].nu.bert.encoder.layer[7].intermediate.dense.bias.value"}, tensor<768x3072xf32> {jax.result_info = "result[1][1].opt_state[1][0].nu.bert.encoder.layer[7].output.dense.weight.value"}, tensor<768xf32> {jax.result_info = "result[1][1].opt_state[1][0].nu.bert.encoder.layer[7].output.dense.bias.value"}, tensor<768xf32> {jax.result_info = "result[1][1].opt_state[1][0].nu.bert.encoder.layer[7].output.LayerNorm.weight.value"}, tensor<768xf32> {jax.result_info = "result[1][1].opt_state[1][0].nu.bert.encoder.layer[7].output.LayerNorm.bias.value"}, tensor<768x768xf32> {jax.result_info = "result[1][1].opt_state[1][0].nu.bert.encoder.layer[8].attention.self.query.weight.value"}, tensor<768xf32> {jax.result_info = "result[1][1].opt_state[1][0].nu.bert.encoder.layer[8].attention.self.query.bias.value"}, tensor<768x768xf32> {jax.result_info = "result[1][1].opt_state[1][0].nu.bert.encoder.layer[8].attention.self.value.weight.value"}, tensor<768xf32> {jax.result_info = "result[1][1].opt_state[1][0].nu.bert.encoder.layer[8].attention.self.value.bias.value"}, tensor<768x768xf32> {jax.result_info = "result[1][1].opt_state[1][0].nu.bert.encoder.layer[8].attention.self.key.weight.value"}, tensor<768xf32> {jax.result_info = "result[1][1].opt_state[1][0].nu.bert.encoder.layer[8].attention.self.key.bias.value"}, tensor<768x768xf32> {jax.result_info = "result[1][1].opt_state[1][0].nu.bert.encoder.layer[8].attention.output.dense.weight.value"}, tensor<768xf32> {jax.result_info = "result[1][1].opt_state[1][0].nu.bert.encoder.layer[8].attention.output.dense.bias.value"}, tensor<768xf32> {jax.result_info = "result[1][1].opt_state[1][0].nu.bert.encoder.layer[8].attention.output.LayerNorm.weight.value"}, tensor<768xf32> {jax.result_info = "result[1][1].opt_state[1][0].nu.bert.encoder.layer[8].attention.output.LayerNorm.bias.value"}, tensor<3072x768xf32> {jax.result_info = "result[1][1].opt_state[1][0].nu.bert.encoder.layer[8].intermediate.dense.weight.value"}, tensor<3072xf32> {jax.result_info = "result[1][1].opt_state[1][0].nu.bert.encoder.layer[8].intermediate.dense.bias.value"}, tensor<768x3072xf32> {jax.result_info = "result[1][1].opt_state[1][0].nu.bert.encoder.layer[8].output.dense.weight.value"}, tensor<768xf32> {jax.result_info = "result[1][1].opt_state[1][0].nu.bert.encoder.layer[8].output.dense.bias.value"}, tensor<768xf32> {jax.result_info = "result[1][1].opt_state[1][0].nu.bert.encoder.layer[8].output.LayerNorm.weight.value"}, tensor<768xf32> {jax.result_info = "result[1][1].opt_state[1][0].nu.bert.encoder.layer[8].output.LayerNorm.bias.value"}, tensor<768x768xf32> {jax.result_info = "result[1][1].opt_state[1][0].nu.bert.encoder.layer[9].attention.self.query.weight.value"}, tensor<768xf32> {jax.result_info = "result[1][1].opt_state[1][0].nu.bert.encoder.layer[9].attention.self.query.bias.value"}, tensor<768x768xf32> {jax.result_info = "result[1][1].opt_state[1][0].nu.bert.encoder.layer[9].attention.self.value.weight.value"}, tensor<768xf32> {jax.result_info = "result[1][1].opt_state[1][0].nu.bert.encoder.layer[9].attention.self.value.bias.value"}, tensor<768x768xf32> {jax.result_info = "result[1][1].opt_state[1][0].nu.bert.encoder.layer[9].attention.self.key.weight.value"}, tensor<768xf32> {jax.result_info = "result[1][1].opt_state[1][0].nu.bert.encoder.layer[9].attention.self.key.bias.value"}, tensor<768x768xf32> {jax.result_info = "result[1][1].opt_state[1][0].nu.bert.encoder.layer[9].attention.output.dense.weight.value"}, tensor<768xf32> {jax.result_info = "result[1][1].opt_state[1][0].nu.bert.encoder.layer[9].attention.output.dense.bias.value"}, tensor<768xf32> {jax.result_info = "result[1][1].opt_state[1][0].nu.bert.encoder.layer[9].attention.output.LayerNorm.weight.value"}, tensor<768xf32> {jax.result_info = "result[1][1].opt_state[1][0].nu.bert.encoder.layer[9].attention.output.LayerNorm.bias.value"}, tensor<3072x768xf32> {jax.result_info = "result[1][1].opt_state[1][0].nu.bert.encoder.layer[9].intermediate.dense.weight.value"}, tensor<3072xf32> {jax.result_info = "result[1][1].opt_state[1][0].nu.bert.encoder.layer[9].intermediate.dense.bias.value"}, tensor<768x3072xf32> {jax.result_info = "result[1][1].opt_state[1][0].nu.bert.encoder.layer[9].output.dense.weight.value"}, tensor<768xf32> {jax.result_info = "result[1][1].opt_state[1][0].nu.bert.encoder.layer[9].output.dense.bias.value"}, tensor<768xf32> {jax.result_info = "result[1][1].opt_state[1][0].nu.bert.encoder.layer[9].output.LayerNorm.weight.value"}, tensor<768xf32> {jax.result_info = "result[1][1].opt_state[1][0].nu.bert.encoder.layer[9].output.LayerNorm.bias.value"}, tensor<768x768xf32> {jax.result_info = "result[1][1].opt_state[1][0].nu.bert.encoder.layer[10].attention.self.query.weight.value"}, tensor<768xf32> {jax.result_info = "result[1][1].opt_state[1][0].nu.bert.encoder.layer[10].attention.self.query.bias.value"}, tensor<768x768xf32> {jax.result_info = "result[1][1].opt_state[1][0].nu.bert.encoder.layer[10].attention.self.value.weight.value"}, tensor<768xf32> {jax.result_info = "result[1][1].opt_state[1][0].nu.bert.encoder.layer[10].attention.self.value.bias.value"}, tensor<768x768xf32> {jax.result_info = "result[1][1].opt_state[1][0].nu.bert.encoder.layer[10].attention.self.key.weight.value"}, tensor<768xf32> {jax.result_info = "result[1][1].opt_state[1][0].nu.bert.encoder.layer[10].attention.self.key.bias.value"}, tensor<768x768xf32> {jax.result_info = "result[1][1].opt_state[1][0].nu.bert.encoder.layer[10].attention.output.dense.weight.value"}, tensor<768xf32> {jax.result_info = "result[1][1].opt_state[1][0].nu.bert.encoder.layer[10].attention.output.dense.bias.value"}, tensor<768xf32> {jax.result_info = "result[1][1].opt_state[1][0].nu.bert.encoder.layer[10].attention.output.LayerNorm.weight.value"}, tensor<768xf32> {jax.result_info = "result[1][1].opt_state[1][0].nu.bert.encoder.layer[10].attention.output.LayerNorm.bias.value"}, tensor<3072x768xf32> {jax.result_info = "result[1][1].opt_state[1][0].nu.bert.encoder.layer[10].intermediate.dense.weight.value"}, tensor<3072xf32> {jax.result_info = "result[1][1].opt_state[1][0].nu.bert.encoder.layer[10].intermediate.dense.bias.value"}, tensor<768x3072xf32> {jax.result_info = "result[1][1].opt_state[1][0].nu.bert.encoder.layer[10].output.dense.weight.value"}, tensor<768xf32> {jax.result_info = "result[1][1].opt_state[1][0].nu.bert.encoder.layer[10].output.dense.bias.value"}, tensor<768xf32> {jax.result_info = "result[1][1].opt_state[1][0].nu.bert.encoder.layer[10].output.LayerNorm.weight.value"}, tensor<768xf32> {jax.result_info = "result[1][1].opt_state[1][0].nu.bert.encoder.layer[10].output.LayerNorm.bias.value"}, tensor<768x768xf32> {jax.result_info = "result[1][1].opt_state[1][0].nu.bert.encoder.layer[11].attention.self.query.weight.value"}, tensor<768xf32> {jax.result_info = "result[1][1].opt_state[1][0].nu.bert.encoder.layer[11].attention.self.query.bias.value"}, tensor<768x768xf32> {jax.result_info = "result[1][1].opt_state[1][0].nu.bert.encoder.layer[11].attention.self.value.weight.value"}, tensor<768xf32> {jax.result_info = "result[1][1].opt_state[1][0].nu.bert.encoder.layer[11].attention.self.value.bias.value"}, tensor<768x768xf32> {jax.result_info = "result[1][1].opt_state[1][0].nu.bert.encoder.layer[11].attention.self.key.weight.value"}, tensor<768xf32> {jax.result_info = "result[1][1].opt_state[1][0].nu.bert.encoder.layer[11].attention.self.key.bias.value"}, tensor<768x768xf32> {jax.result_info = "result[1][1].opt_state[1][0].nu.bert.encoder.layer[11].attention.output.dense.weight.value"}, tensor<768xf32> {jax.result_info = "result[1][1].opt_state[1][0].nu.bert.encoder.layer[11].attention.output.dense.bias.value"}, tensor<768xf32> {jax.result_info = "result[1][1].opt_state[1][0].nu.bert.encoder.layer[11].attention.output.LayerNorm.weight.value"}, tensor<768xf32> {jax.result_info = "result[1][1].opt_state[1][0].nu.bert.encoder.layer[11].attention.output.LayerNorm.bias.value"}, tensor<3072x768xf32> {jax.result_info = "result[1][1].opt_state[1][0].nu.bert.encoder.layer[11].intermediate.dense.weight.value"}, tensor<3072xf32> {jax.result_info = "result[1][1].opt_state[1][0].nu.bert.encoder.layer[11].intermediate.dense.bias.value"}, tensor<768x3072xf32> {jax.result_info = "result[1][1].opt_state[1][0].nu.bert.encoder.layer[11].output.dense.weight.value"}, tensor<768xf32> {jax.result_info = "result[1][1].opt_state[1][0].nu.bert.encoder.layer[11].output.dense.bias.value"}, tensor<768xf32> {jax.result_info = "result[1][1].opt_state[1][0].nu.bert.encoder.layer[11].output.LayerNorm.weight.value"}, tensor<768xf32> {jax.result_info = "result[1][1].opt_state[1][0].nu.bert.encoder.layer[11].output.LayerNorm.bias.value"}, tensor<768x768xf32> {jax.result_info = "result[1][1].opt_state[1][0].nu.cls.predictions.transform.dense.weight.value"}, tensor<768xf32> {jax.result_info = "result[1][1].opt_state[1][0].nu.cls.predictions.transform.dense.bias.value"}, tensor<768xf32> {jax.result_info = "result[1][1].opt_state[1][0].nu.cls.predictions.transform.LayerNorm.weight.value"}, tensor<768xf32> {jax.result_info = "result[1][1].opt_state[1][0].nu.cls.predictions.transform.LayerNorm.bias.value"}, tensor<30522xf32> {jax.result_info = "result[1][1].opt_state[1][0].nu.cls.predictions.bias"}, tensor<i32> {jax.result_info = "result[1][1].opt_state[1][2].count"}, tensor<i32> {jax.result_info = "result[1][2]['acc'][0]"}, tensor<i32> {jax.result_info = "result[1][2]['acc'][1]"}, tensor<f32> {jax.result_info = "result[1][2]['loss'][0]"}, tensor<i32> {jax.result_info = "result[1][2]['loss'][1]"}, tensor<i32> {jax.result_info = "result[1][2]['total_token']"}) {
    %0 = sdy.sharding_constraint %arg612 <@empty_mesh, [{}]> : tensor<2xui32>
    %1 = stablehlo.iota dim = 0 : tensor<512xi32>
    %2 = stablehlo.broadcast_in_dim %1, dims = [1] : (tensor<512xi32>) -> tensor<1x512xi32>
    %3 = stablehlo.broadcast_in_dim %2, dims = [0, 1] : (tensor<1x512xi32>) -> tensor<64x512xi32>
    %4 = call @_threefry_split(%0) : (tensor<2xui32>) -> tensor<2x2xui32>
    %5 = stablehlo.slice %4 [0:1, 0:2] : (tensor<2x2xui32>) -> tensor<1x2xui32>
    %6 = stablehlo.reshape %5 : (tensor<1x2xui32>) -> tensor<2xui32>
    %7 = call @_threefry_split(%6) : (tensor<2xui32>) -> tensor<2x2xui32>
    %8 = stablehlo.slice %7 [0:1, 0:2] : (tensor<2x2xui32>) -> tensor<1x2xui32>
    %9 = stablehlo.reshape %8 : (tensor<1x2xui32>) -> tensor<2xui32>
    %10 = stablehlo.slice %7 [1:2, 0:2] : (tensor<2x2xui32>) -> tensor<1x2xui32>
    %11 = stablehlo.reshape %10 : (tensor<1x2xui32>) -> tensor<2xui32>
    %12 = call @_threefry_split(%9) : (tensor<2xui32>) -> tensor<2x2xui32>
    %13 = stablehlo.slice %12 [1:2, 0:2] : (tensor<2x2xui32>) -> tensor<1x2xui32>
    %14 = stablehlo.reshape %13 : (tensor<1x2xui32>) -> tensor<2xui32>
    %c = stablehlo.constant dense<0> : tensor<i32>
    %15 = stablehlo.broadcast_in_dim %c, dims = [] : (tensor<i32>) -> tensor<64x512xi32>
    %16 = stablehlo.compare  LT, %arg608, %15,  SIGNED : (tensor<64x512xi32>, tensor<64x512xi32>) -> tensor<64x512xi1>
    %c_0 = stablehlo.constant dense<30522> : tensor<i32>
    %17 = stablehlo.broadcast_in_dim %c_0, dims = [] : (tensor<i32>) -> tensor<64x512xi32>
    %18 = stablehlo.add %arg608, %17 : tensor<64x512xi32>
    %19 = stablehlo.select %16, %18, %arg608 : tensor<64x512xi1>, tensor<64x512xi32>
    %20 = stablehlo.broadcast_in_dim %19, dims = [0, 1] : (tensor<64x512xi32>) -> tensor<64x512x1xi32>
    %21 = "stablehlo.gather"(%arg0, %20) <{dimension_numbers = #stablehlo.gather<offset_dims = [2], collapsed_slice_dims = [0], start_index_map = [0], index_vector_dim = 2>, indices_are_sorted = false, slice_sizes = array<i64: 1, 768>}> : (tensor<30522x768xf32>, tensor<64x512x1xi32>) -> tensor<64x512x768xf32>
    %22 = stablehlo.broadcast_in_dim %c, dims = [] : (tensor<i32>) -> tensor<64x512xi32>
    %23 = stablehlo.compare  LT, %3, %22,  SIGNED : (tensor<64x512xi32>, tensor<64x512xi32>) -> tensor<64x512xi1>
    %c_1 = stablehlo.constant dense<512> : tensor<i32>
    %24 = stablehlo.broadcast_in_dim %c_1, dims = [] : (tensor<i32>) -> tensor<64x512xi32>
    %25 = stablehlo.add %3, %24 : tensor<64x512xi32>
    %26 = stablehlo.select %23, %25, %3 : tensor<64x512xi1>, tensor<64x512xi32>
    %27 = stablehlo.broadcast_in_dim %26, dims = [0, 1] : (tensor<64x512xi32>) -> tensor<64x512x1xi32>
    %28 = "stablehlo.gather"(%arg1, %27) <{dimension_numbers = #stablehlo.gather<offset_dims = [2], collapsed_slice_dims = [0], start_index_map = [0], index_vector_dim = 2>, indices_are_sorted = false, slice_sizes = array<i64: 1, 768>}> : (tensor<512x768xf32>, tensor<64x512x1xi32>) -> tensor<64x512x768xf32>
    %29 = stablehlo.broadcast_in_dim %c, dims = [] : (tensor<i32>) -> tensor<64x512xi32>
    %30 = stablehlo.compare  LT, %arg610, %29,  SIGNED : (tensor<64x512xi32>, tensor<64x512xi32>) -> tensor<64x512xi1>
    %c_2 = stablehlo.constant dense<2> : tensor<i32>
    %31 = stablehlo.broadcast_in_dim %c_2, dims = [] : (tensor<i32>) -> tensor<64x512xi32>
    %32 = stablehlo.add %arg610, %31 : tensor<64x512xi32>
    %33 = stablehlo.select %30, %32, %arg610 : tensor<64x512xi1>, tensor<64x512xi32>
    %34 = stablehlo.broadcast_in_dim %33, dims = [0, 1] : (tensor<64x512xi32>) -> tensor<64x512x1xi32>
    %35 = "stablehlo.gather"(%arg2, %34) <{dimension_numbers = #stablehlo.gather<offset_dims = [2], collapsed_slice_dims = [0], start_index_map = [0], index_vector_dim = 2>, indices_are_sorted = false, slice_sizes = array<i64: 1, 768>}> : (tensor<2x768xf32>, tensor<64x512x1xi32>) -> tensor<64x512x768xf32>
    %36 = stablehlo.add %21, %35 : tensor<64x512x768xf32>
    %37 = stablehlo.add %36, %28 : tensor<64x512x768xf32>
    %cst = stablehlo.constant dense<0.000000e+00> : tensor<f32>
    %38 = stablehlo.reduce(%37 init: %cst) applies stablehlo.add across dimensions = [2] : (tensor<64x512x768xf32>, tensor<f32>) -> tensor<64x512xf32>
    %39 = stablehlo.broadcast_in_dim %38, dims = [0, 1] : (tensor<64x512xf32>) -> tensor<64x512x1xf32>
    %cst_3 = stablehlo.constant dense<7.680000e+02> : tensor<f32>
    %40 = stablehlo.broadcast_in_dim %cst_3, dims = [] : (tensor<f32>) -> tensor<64x512x1xf32>
    %41 = stablehlo.divide %39, %40 : tensor<64x512x1xf32>
    %c_4 = stablehlo.constant dense<0> : tensor<i32>
    %42:4 = call @_var(%37, %c_4) : (tensor<64x512x768xf32>, tensor<i32>) -> (tensor<64x512x1xf32>, tensor<64x512x768xf32>, tensor<f32>, tensor<i1>)
    %cst_5 = stablehlo.constant dense<0.000000e+00> : tensor<f32>
    %43 = stablehlo.broadcast_in_dim %cst_5, dims = [] : (tensor<f32>) -> tensor<64x512x1xf32>
    %44 = stablehlo.maximum %42#0, %43 : tensor<64x512x1xf32>
    %45 = stablehlo.compare  EQ, %42#0, %44,  FLOAT : (tensor<64x512x1xf32>, tensor<64x512x1xf32>) -> tensor<64x512x1xi1>
    %cst_6 = stablehlo.constant dense<1.000000e+00> : tensor<f32>
    %46 = stablehlo.broadcast_in_dim %cst_6, dims = [] : (tensor<f32>) -> tensor<64x512x1xf32>
    %47 = stablehlo.broadcast_in_dim %cst_5, dims = [] : (tensor<f32>) -> tensor<64x512x1xf32>
    %48 = stablehlo.select %45, %46, %47 : tensor<64x512x1xi1>, tensor<64x512x1xf32>
    %49 = stablehlo.broadcast_in_dim %cst_5, dims = [] : (tensor<f32>) -> tensor<64x512x1xf32>
    %50 = stablehlo.compare  EQ, %49, %44,  FLOAT : (tensor<64x512x1xf32>, tensor<64x512x1xf32>) -> tensor<64x512x1xi1>
    %cst_7 = stablehlo.constant dense<2.000000e+00> : tensor<f32>
    %51 = stablehlo.broadcast_in_dim %cst_7, dims = [] : (tensor<f32>) -> tensor<64x512x1xf32>
    %52 = stablehlo.broadcast_in_dim %cst_6, dims = [] : (tensor<f32>) -> tensor<64x512x1xf32>
    %53 = stablehlo.select %50, %51, %52 : tensor<64x512x1xi1>, tensor<64x512x1xf32>
    %54 = stablehlo.divide %48, %53 : tensor<64x512x1xf32>
    %cst_8 = stablehlo.constant dense<9.99999996E-13> : tensor<f32>
    %55 = stablehlo.broadcast_in_dim %cst_8, dims = [] : (tensor<f32>) -> tensor<64x512x1xf32>
    %56 = stablehlo.add %44, %55 : tensor<64x512x1xf32>
    %57 = stablehlo.rsqrt %56 : tensor<64x512x1xf32>
    %58 = stablehlo.divide %57, %56 : tensor<64x512x1xf32>
    %cst_9 = stablehlo.constant dense<-5.000000e-01> : tensor<f32>
    %59 = stablehlo.broadcast_in_dim %cst_9, dims = [] : (tensor<f32>) -> tensor<64x512x1xf32>
    %60 = stablehlo.multiply %59, %58 : tensor<64x512x1xf32>
    %61 = stablehlo.broadcast_in_dim %41, dims = [0, 1, 2] : (tensor<64x512x1xf32>) -> tensor<64x512x768xf32>
    %62 = stablehlo.subtract %37, %61 : tensor<64x512x768xf32>
    %63 = stablehlo.broadcast_in_dim %57, dims = [0, 1, 2] : (tensor<64x512x1xf32>) -> tensor<64x512x768xf32>
    %64 = stablehlo.multiply %62, %63 : tensor<64x512x768xf32>
    %65 = stablehlo.broadcast_in_dim %arg3, dims = [2] : (tensor<768xf32>) -> tensor<1x1x768xf32>
    %66 = stablehlo.broadcast_in_dim %65, dims = [0, 1, 2] : (tensor<1x1x768xf32>) -> tensor<64x512x768xf32>
    %67 = stablehlo.multiply %66, %64 : tensor<64x512x768xf32>
    %68 = stablehlo.broadcast_in_dim %arg4, dims = [2] : (tensor<768xf32>) -> tensor<1x1x768xf32>
    %69 = stablehlo.broadcast_in_dim %68, dims = [0, 1, 2] : (tensor<1x1x768xf32>) -> tensor<64x512x768xf32>
    %70 = stablehlo.add %67, %69 : tensor<64x512x768xf32>
    %cst_10 = stablehlo.constant dense<2.000000e-01> : tensor<f32>
    %71 = stablehlo.subtract %cst_6, %cst_10 : tensor<f32>
    %72 = call @_bernoulli(%14, %71) : (tensor<2xui32>, tensor<f32>) -> tensor<64x512x768xi1>
    %73 = stablehlo.broadcast_in_dim %71, dims = [] : (tensor<f32>) -> tensor<64x512x768xf32>
    %74 = stablehlo.divide %70, %73 : tensor<64x512x768xf32>
    %75 = call @_where_48(%72, %74, %cst_5) : (tensor<64x512x768xi1>, tensor<64x512x768xf32>, tensor<f32>) -> tensor<64x512x768xf32>
    %c_11 = stablehlo.constant dense<true> : tensor<i1>
    %76 = stablehlo.broadcast_in_dim %c_11, dims = [] : (tensor<i1>) -> tensor<512xi1>
    %77 = stablehlo.broadcast_in_dim %76, dims = [1] : (tensor<512xi1>) -> tensor<512x512xi1>
    %78 = stablehlo.broadcast_in_dim %77, dims = [1, 2] : (tensor<512x512xi1>) -> tensor<64x512x512xi1>
    %79 = stablehlo.broadcast_in_dim %arg609, dims = [0, 2] : (tensor<64x512xi32>) -> tensor<64x1x512xi32>
    %80 = stablehlo.convert %78 : (tensor<64x512x512xi1>) -> tensor<64x512x512xi32>
    %81 = stablehlo.broadcast_in_dim %79, dims = [0, 1, 2] : (tensor<64x1x512xi32>) -> tensor<64x512x512xi32>
    %82 = stablehlo.and %80, %81 : tensor<64x512x512xi32>
    %c_12 = stablehlo.constant dense<0> : tensor<i32>
    %83 = stablehlo.broadcast_in_dim %c_12, dims = [] : (tensor<i32>) -> tensor<64x512x512xi32>
    %84 = stablehlo.compare  NE, %82, %83,  SIGNED : (tensor<64x512x512xi32>, tensor<64x512x512xi32>) -> tensor<64x512x512xi1>
    %85 = stablehlo.convert %84 : tensor<64x512x512xi1>
    %86 = call @_threefry_split_58(%11) : (tensor<2xui32>) -> tensor<12x2xui32>
    %87 = stablehlo.slice %86 [0:1, 0:2] : (tensor<12x2xui32>) -> tensor<1x2xui32>
    %88 = stablehlo.reshape %87 : (tensor<1x2xui32>) -> tensor<2xui32>
    %89 = call @_threefry_split_71(%88) : (tensor<2xui32>) -> tensor<3x2xui32>
    %90 = stablehlo.slice %89 [0:1, 0:2] : (tensor<3x2xui32>) -> tensor<1x2xui32>
    %91 = stablehlo.reshape %90 : (tensor<1x2xui32>) -> tensor<2xui32>
    %92 = stablehlo.slice %89 [2:3, 0:2] : (tensor<3x2xui32>) -> tensor<1x2xui32>
    %93 = stablehlo.reshape %92 : (tensor<1x2xui32>) -> tensor<2xui32>
    %94 = call @_threefry_split(%91) : (tensor<2xui32>) -> tensor<2x2xui32>
    %95 = stablehlo.slice %94 [0:1, 0:2] : (tensor<2x2xui32>) -> tensor<1x2xui32>
    %96 = stablehlo.reshape %95 : (tensor<1x2xui32>) -> tensor<2xui32>
    %97 = stablehlo.slice %94 [1:2, 0:2] : (tensor<2x2xui32>) -> tensor<1x2xui32>
    %98 = stablehlo.reshape %97 : (tensor<1x2xui32>) -> tensor<2xui32>
    %99 = call @_threefry_split(%96) : (tensor<2xui32>) -> tensor<2x2xui32>
    %100 = stablehlo.slice %99 [1:2, 0:2] : (tensor<2x2xui32>) -> tensor<1x2xui32>
    %101 = stablehlo.reshape %100 : (tensor<1x2xui32>) -> tensor<2xui32>
    %102 = stablehlo.transpose %arg5, dims = [1, 0] : (tensor<768x768xf32>) -> tensor<768x768xf32>
    %103 = stablehlo.dot_general %75, %102, contracting_dims = [2] x [0], precision = [DEFAULT, DEFAULT] : (tensor<64x512x768xf32>, tensor<768x768xf32>) -> tensor<64x512x768xf32>
    %104 = stablehlo.broadcast_in_dim %arg6, dims = [2] : (tensor<768xf32>) -> tensor<1x1x768xf32>
    %105 = stablehlo.broadcast_in_dim %104, dims = [0, 1, 2] : (tensor<1x1x768xf32>) -> tensor<64x512x768xf32>
    %106 = stablehlo.add %103, %105 : tensor<64x512x768xf32>
    %107 = stablehlo.transpose %arg9, dims = [1, 0] : (tensor<768x768xf32>) -> tensor<768x768xf32>
    %108 = stablehlo.dot_general %75, %107, contracting_dims = [2] x [0], precision = [DEFAULT, DEFAULT] : (tensor<64x512x768xf32>, tensor<768x768xf32>) -> tensor<64x512x768xf32>
    %109 = stablehlo.broadcast_in_dim %arg10, dims = [2] : (tensor<768xf32>) -> tensor<1x1x768xf32>
    %110 = stablehlo.broadcast_in_dim %109, dims = [0, 1, 2] : (tensor<1x1x768xf32>) -> tensor<64x512x768xf32>
    %111 = stablehlo.add %108, %110 : tensor<64x512x768xf32>
    %112 = stablehlo.transpose %arg7, dims = [1, 0] : (tensor<768x768xf32>) -> tensor<768x768xf32>
    %113 = stablehlo.dot_general %75, %112, contracting_dims = [2] x [0], precision = [DEFAULT, DEFAULT] : (tensor<64x512x768xf32>, tensor<768x768xf32>) -> tensor<64x512x768xf32>
    %114 = stablehlo.broadcast_in_dim %arg8, dims = [2] : (tensor<768xf32>) -> tensor<1x1x768xf32>
    %115 = stablehlo.broadcast_in_dim %114, dims = [0, 1, 2] : (tensor<1x1x768xf32>) -> tensor<64x512x768xf32>
    %116 = stablehlo.add %113, %115 : tensor<64x512x768xf32>
    %117 = stablehlo.reshape %106 : (tensor<64x512x768xf32>) -> tensor<64x512x12x64xf32>
    %118 = stablehlo.reshape %111 : (tensor<64x512x768xf32>) -> tensor<64x512x12x64xf32>
    %119 = stablehlo.reshape %116 : (tensor<64x512x768xf32>) -> tensor<64x512x12x64xf32>
    %120 = stablehlo.broadcast_in_dim %85, dims = [0, 1, 3] : (tensor<64x512x512xi1>) -> tensor<64x512x1x512xi1>
    %cst_13 = stablehlo.constant dense<2.000000e-01> : tensor<f32>
    %cst_14 = stablehlo.constant dense<1.000000e+00> : tensor<f32>
    %121 = stablehlo.subtract %cst_14, %cst_13 : tensor<f32>
    %122 = stablehlo.convert %121 : tensor<f32>
    %123 = call @_bernoulli_87(%101, %122) : (tensor<2xui32>, tensor<f32>) -> tensor<64x512x12x512xi1>
    %cst_15 = stablehlo.constant dense<6.400000e+01> : tensor<f32>
    %124 = stablehlo.sqrt %cst_15 : tensor<f32>
    %125 = stablehlo.convert %124 : tensor<f32>
    %126 = stablehlo.broadcast_in_dim %125, dims = [] : (tensor<f32>) -> tensor<64x512x12x64xf32>
    %127 = stablehlo.divide %117, %126 : tensor<64x512x12x64xf32>
    %128 = stablehlo.dot_general %118, %127, batching_dims = [0, 2] x [0, 2], contracting_dims = [3] x [3], precision = [DEFAULT, DEFAULT] : (tensor<64x512x12x64xf32>, tensor<64x512x12x64xf32>) -> tensor<64x12x512x512xf32>
    %129 = stablehlo.transpose %128, dims = [0, 3, 1, 2] : (tensor<64x12x512x512xf32>) -> tensor<64x512x12x512xf32>
    %cst_16 = stablehlo.constant dense<-3.40282347E+38> : tensor<f32>
    %130:2 = call @_where_110(%120, %129, %cst_16) : (tensor<64x512x1x512xi1>, tensor<64x512x12x512xf32>, tensor<f32>) -> (tensor<64x512x12x512xf32>, tensor<64x512x12x512xi1>)
    %cst_17 = stablehlo.constant dense<0xFF800000> : tensor<f32>
    %131 = stablehlo.reduce(%130#0 init: %cst_17) applies stablehlo.maximum across dimensions = [3] : (tensor<64x512x12x512xf32>, tensor<f32>) -> tensor<64x512x12xf32>
    %cst_18 = stablehlo.constant dense<0xFF800000> : tensor<f32>
    %132 = stablehlo.broadcast_in_dim %cst_18, dims = [] : (tensor<f32>) -> tensor<64x512x12xf32>
    %133 = stablehlo.maximum %132, %131 : tensor<64x512x12xf32>
    %134 = stablehlo.broadcast_in_dim %133, dims = [0, 1, 2] : (tensor<64x512x12xf32>) -> tensor<64x512x12x1xf32>
    %135 = stablehlo.broadcast_in_dim %134, dims = [0, 1, 2, 3] : (tensor<64x512x12x1xf32>) -> tensor<64x512x12x512xf32>
    %136 = stablehlo.subtract %130#0, %135 : tensor<64x512x12x512xf32>
    %137 = stablehlo.exponential %136 : tensor<64x512x12x512xf32>
    %cst_19 = stablehlo.constant dense<0.000000e+00> : tensor<f32>
    %138 = stablehlo.reduce(%137 init: %cst_19) applies stablehlo.add across dimensions = [3] : (tensor<64x512x12x512xf32>, tensor<f32>) -> tensor<64x512x12xf32>
    %139 = stablehlo.broadcast_in_dim %138, dims = [0, 1, 2] : (tensor<64x512x12xf32>) -> tensor<64x512x12x1xf32>
    %140 = stablehlo.broadcast_in_dim %139, dims = [0, 1, 2, 3] : (tensor<64x512x12x1xf32>) -> tensor<64x512x12x512xf32>
    %141 = stablehlo.divide %137, %140 : tensor<64x512x12x512xf32>
    %142 = stablehlo.multiply %139, %139 : tensor<64x512x12x1xf32>
    %cst_20 = stablehlo.constant dense<1.000000e+00> : tensor<f32>
    %143 = stablehlo.broadcast_in_dim %cst_20, dims = [] : (tensor<f32>) -> tensor<64x512x12x1xf32>
    %144 = stablehlo.divide %143, %142 : tensor<64x512x12x1xf32>
    %cst_21 = stablehlo.constant dense<0.000000e+00> : tensor<f32>
    %145 = call @_where_123(%123, %141, %cst_21) : (tensor<64x512x12x512xi1>, tensor<64x512x12x512xf32>, tensor<f32>) -> tensor<64x512x12x512xf32>
    %cst_22 = stablehlo.constant dense<8.000000e-01> : tensor<f32>
    %146 = stablehlo.broadcast_in_dim %cst_22, dims = [] : (tensor<f32>) -> tensor<64x512x12x512xf32>
    %147 = stablehlo.divide %145, %146 : tensor<64x512x12x512xf32>
    %148 = stablehlo.dot_general %119, %147, batching_dims = [0, 2] x [0, 2], contracting_dims = [1] x [3], precision = [DEFAULT, DEFAULT] : (tensor<64x512x12x64xf32>, tensor<64x512x12x512xf32>) -> tensor<64x12x64x512xf32>
    %149 = stablehlo.transpose %148, dims = [0, 3, 1, 2] : (tensor<64x12x64x512xf32>) -> tensor<64x512x12x64xf32>
    %150 = stablehlo.reshape %149 : (tensor<64x512x12x64xf32>) -> tensor<64x512x768xf32>
    %151 = call @_threefry_split(%98) : (tensor<2xui32>) -> tensor<2x2xui32>
    %152 = stablehlo.slice %151 [1:2, 0:2] : (tensor<2x2xui32>) -> tensor<1x2xui32>
    %153 = stablehlo.reshape %152 : (tensor<1x2xui32>) -> tensor<2xui32>
    %154 = stablehlo.transpose %arg11, dims = [1, 0] : (tensor<768x768xf32>) -> tensor<768x768xf32>
    %155 = stablehlo.dot_general %150, %154, contracting_dims = [2] x [0], precision = [DEFAULT, DEFAULT] : (tensor<64x512x768xf32>, tensor<768x768xf32>) -> tensor<64x512x768xf32>
    %156 = stablehlo.broadcast_in_dim %arg12, dims = [2] : (tensor<768xf32>) -> tensor<1x1x768xf32>
    %157 = stablehlo.broadcast_in_dim %156, dims = [0, 1, 2] : (tensor<1x1x768xf32>) -> tensor<64x512x768xf32>
    %158 = stablehlo.add %155, %157 : tensor<64x512x768xf32>
    %159 = stablehlo.subtract %cst_6, %cst_10 : tensor<f32>
    %160 = call @_bernoulli(%153, %159) : (tensor<2xui32>, tensor<f32>) -> tensor<64x512x768xi1>
    %161 = stablehlo.broadcast_in_dim %159, dims = [] : (tensor<f32>) -> tensor<64x512x768xf32>
    %162 = stablehlo.divide %158, %161 : tensor<64x512x768xf32>
    %163 = call @_where_48(%160, %162, %cst_5) : (tensor<64x512x768xi1>, tensor<64x512x768xf32>, tensor<f32>) -> tensor<64x512x768xf32>
    %164 = stablehlo.add %163, %75 : tensor<64x512x768xf32>
    %cst_23 = stablehlo.constant dense<0.000000e+00> : tensor<f32>
    %165 = stablehlo.reduce(%164 init: %cst_23) applies stablehlo.add across dimensions = [2] : (tensor<64x512x768xf32>, tensor<f32>) -> tensor<64x512xf32>
    %166 = stablehlo.broadcast_in_dim %165, dims = [0, 1] : (tensor<64x512xf32>) -> tensor<64x512x1xf32>
    %167 = stablehlo.broadcast_in_dim %cst_3, dims = [] : (tensor<f32>) -> tensor<64x512x1xf32>
    %168 = stablehlo.divide %166, %167 : tensor<64x512x1xf32>
    %169:4 = call @_var(%164, %c_4) : (tensor<64x512x768xf32>, tensor<i32>) -> (tensor<64x512x1xf32>, tensor<64x512x768xf32>, tensor<f32>, tensor<i1>)
    %170 = stablehlo.broadcast_in_dim %cst_5, dims = [] : (tensor<f32>) -> tensor<64x512x1xf32>
    %171 = stablehlo.maximum %169#0, %170 : tensor<64x512x1xf32>
    %172 = stablehlo.compare  EQ, %169#0, %171,  FLOAT : (tensor<64x512x1xf32>, tensor<64x512x1xf32>) -> tensor<64x512x1xi1>
    %173 = stablehlo.broadcast_in_dim %cst_6, dims = [] : (tensor<f32>) -> tensor<64x512x1xf32>
    %174 = stablehlo.broadcast_in_dim %cst_5, dims = [] : (tensor<f32>) -> tensor<64x512x1xf32>
    %175 = stablehlo.select %172, %173, %174 : tensor<64x512x1xi1>, tensor<64x512x1xf32>
    %176 = stablehlo.broadcast_in_dim %cst_5, dims = [] : (tensor<f32>) -> tensor<64x512x1xf32>
    %177 = stablehlo.compare  EQ, %176, %171,  FLOAT : (tensor<64x512x1xf32>, tensor<64x512x1xf32>) -> tensor<64x512x1xi1>
    %178 = stablehlo.broadcast_in_dim %cst_7, dims = [] : (tensor<f32>) -> tensor<64x512x1xf32>
    %179 = stablehlo.broadcast_in_dim %cst_6, dims = [] : (tensor<f32>) -> tensor<64x512x1xf32>
    %180 = stablehlo.select %177, %178, %179 : tensor<64x512x1xi1>, tensor<64x512x1xf32>
    %181 = stablehlo.divide %175, %180 : tensor<64x512x1xf32>
    %182 = stablehlo.broadcast_in_dim %cst_8, dims = [] : (tensor<f32>) -> tensor<64x512x1xf32>
    %183 = stablehlo.add %171, %182 : tensor<64x512x1xf32>
    %184 = stablehlo.rsqrt %183 : tensor<64x512x1xf32>
    %185 = stablehlo.divide %184, %183 : tensor<64x512x1xf32>
    %186 = stablehlo.broadcast_in_dim %cst_9, dims = [] : (tensor<f32>) -> tensor<64x512x1xf32>
    %187 = stablehlo.multiply %186, %185 : tensor<64x512x1xf32>
    %188 = stablehlo.broadcast_in_dim %168, dims = [0, 1, 2] : (tensor<64x512x1xf32>) -> tensor<64x512x768xf32>
    %189 = stablehlo.subtract %164, %188 : tensor<64x512x768xf32>
    %190 = stablehlo.broadcast_in_dim %184, dims = [0, 1, 2] : (tensor<64x512x1xf32>) -> tensor<64x512x768xf32>
    %191 = stablehlo.multiply %189, %190 : tensor<64x512x768xf32>
    %192 = stablehlo.broadcast_in_dim %arg13, dims = [2] : (tensor<768xf32>) -> tensor<1x1x768xf32>
    %193 = stablehlo.broadcast_in_dim %192, dims = [0, 1, 2] : (tensor<1x1x768xf32>) -> tensor<64x512x768xf32>
    %194 = stablehlo.multiply %193, %191 : tensor<64x512x768xf32>
    %195 = stablehlo.broadcast_in_dim %arg14, dims = [2] : (tensor<768xf32>) -> tensor<1x1x768xf32>
    %196 = stablehlo.broadcast_in_dim %195, dims = [0, 1, 2] : (tensor<1x1x768xf32>) -> tensor<64x512x768xf32>
    %197 = stablehlo.add %194, %196 : tensor<64x512x768xf32>
    %198 = stablehlo.transpose %arg15, dims = [1, 0] : (tensor<3072x768xf32>) -> tensor<768x3072xf32>
    %199 = stablehlo.dot_general %197, %198, contracting_dims = [2] x [0], precision = [DEFAULT, DEFAULT] : (tensor<64x512x768xf32>, tensor<768x3072xf32>) -> tensor<64x512x3072xf32>
    %200 = stablehlo.broadcast_in_dim %arg16, dims = [2] : (tensor<3072xf32>) -> tensor<1x1x3072xf32>
    %201 = stablehlo.broadcast_in_dim %200, dims = [0, 1, 2] : (tensor<1x1x3072xf32>) -> tensor<64x512x3072xf32>
    %202 = stablehlo.add %199, %201 : tensor<64x512x3072xf32>
    %203 = stablehlo.multiply %202, %202 : tensor<64x512x3072xf32>
    %204 = stablehlo.multiply %203, %202 : tensor<64x512x3072xf32>
    %205 = stablehlo.multiply %202, %202 : tensor<64x512x3072xf32>
    %cst_24 = stablehlo.constant dense<3.000000e+00> : tensor<f32>
    %206 = stablehlo.broadcast_in_dim %cst_24, dims = [] : (tensor<f32>) -> tensor<64x512x3072xf32>
    %207 = stablehlo.multiply %206, %205 : tensor<64x512x3072xf32>
    %cst_25 = stablehlo.constant dense<4.471500e-02> : tensor<f32>
    %208 = stablehlo.broadcast_in_dim %cst_25, dims = [] : (tensor<f32>) -> tensor<64x512x3072xf32>
    %209 = stablehlo.multiply %208, %204 : tensor<64x512x3072xf32>
    %210 = stablehlo.add %202, %209 : tensor<64x512x3072xf32>
    %cst_26 = stablehlo.constant dense<0.797884583> : tensor<f32>
    %211 = stablehlo.broadcast_in_dim %cst_26, dims = [] : (tensor<f32>) -> tensor<64x512x3072xf32>
    %212 = stablehlo.multiply %211, %210 : tensor<64x512x3072xf32>
    %213 = stablehlo.tanh %212 : tensor<64x512x3072xf32>
    %214 = stablehlo.broadcast_in_dim %cst_6, dims = [] : (tensor<f32>) -> tensor<f32>
    %215 = stablehlo.broadcast_in_dim %214, dims = [] : (tensor<f32>) -> tensor<64x512x3072xf32>
    %216 = stablehlo.subtract %215, %213 : tensor<64x512x3072xf32>
    %217 = stablehlo.broadcast_in_dim %cst_6, dims = [] : (tensor<f32>) -> tensor<64x512x3072xf32>
    %218 = stablehlo.add %217, %213 : tensor<64x512x3072xf32>
    %cst_27 = stablehlo.constant dense<5.000000e-01> : tensor<f32>
    %219 = stablehlo.broadcast_in_dim %cst_27, dims = [] : (tensor<f32>) -> tensor<64x512x3072xf32>
    %220 = stablehlo.multiply %219, %218 : tensor<64x512x3072xf32>
    %221 = stablehlo.multiply %202, %220 : tensor<64x512x3072xf32>
    %222 = call @_threefry_split(%93) : (tensor<2xui32>) -> tensor<2x2xui32>
    %223 = stablehlo.slice %222 [1:2, 0:2] : (tensor<2x2xui32>) -> tensor<1x2xui32>
    %224 = stablehlo.reshape %223 : (tensor<1x2xui32>) -> tensor<2xui32>
    %225 = stablehlo.transpose %arg17, dims = [1, 0] : (tensor<768x3072xf32>) -> tensor<3072x768xf32>
    %226 = stablehlo.dot_general %221, %225, contracting_dims = [2] x [0], precision = [DEFAULT, DEFAULT] : (tensor<64x512x3072xf32>, tensor<3072x768xf32>) -> tensor<64x512x768xf32>
    %227 = stablehlo.broadcast_in_dim %arg18, dims = [2] : (tensor<768xf32>) -> tensor<1x1x768xf32>
    %228 = stablehlo.broadcast_in_dim %227, dims = [0, 1, 2] : (tensor<1x1x768xf32>) -> tensor<64x512x768xf32>
    %229 = stablehlo.add %226, %228 : tensor<64x512x768xf32>
    %230 = stablehlo.subtract %cst_6, %cst_10 : tensor<f32>
    %231 = call @_bernoulli(%224, %230) : (tensor<2xui32>, tensor<f32>) -> tensor<64x512x768xi1>
    %232 = stablehlo.broadcast_in_dim %230, dims = [] : (tensor<f32>) -> tensor<64x512x768xf32>
    %233 = stablehlo.divide %229, %232 : tensor<64x512x768xf32>
    %234 = call @_where_48(%231, %233, %cst_5) : (tensor<64x512x768xi1>, tensor<64x512x768xf32>, tensor<f32>) -> tensor<64x512x768xf32>
    %235 = stablehlo.add %234, %197 : tensor<64x512x768xf32>
    %cst_28 = stablehlo.constant dense<0.000000e+00> : tensor<f32>
    %236 = stablehlo.reduce(%235 init: %cst_28) applies stablehlo.add across dimensions = [2] : (tensor<64x512x768xf32>, tensor<f32>) -> tensor<64x512xf32>
    %237 = stablehlo.broadcast_in_dim %236, dims = [0, 1] : (tensor<64x512xf32>) -> tensor<64x512x1xf32>
    %238 = stablehlo.broadcast_in_dim %cst_3, dims = [] : (tensor<f32>) -> tensor<64x512x1xf32>
    %239 = stablehlo.divide %237, %238 : tensor<64x512x1xf32>
    %240:4 = call @_var(%235, %c_4) : (tensor<64x512x768xf32>, tensor<i32>) -> (tensor<64x512x1xf32>, tensor<64x512x768xf32>, tensor<f32>, tensor<i1>)
    %241 = stablehlo.broadcast_in_dim %cst_5, dims = [] : (tensor<f32>) -> tensor<64x512x1xf32>
    %242 = stablehlo.maximum %240#0, %241 : tensor<64x512x1xf32>
    %243 = stablehlo.compare  EQ, %240#0, %242,  FLOAT : (tensor<64x512x1xf32>, tensor<64x512x1xf32>) -> tensor<64x512x1xi1>
    %244 = stablehlo.broadcast_in_dim %cst_6, dims = [] : (tensor<f32>) -> tensor<64x512x1xf32>
    %245 = stablehlo.broadcast_in_dim %cst_5, dims = [] : (tensor<f32>) -> tensor<64x512x1xf32>
    %246 = stablehlo.select %243, %244, %245 : tensor<64x512x1xi1>, tensor<64x512x1xf32>
    %247 = stablehlo.broadcast_in_dim %cst_5, dims = [] : (tensor<f32>) -> tensor<64x512x1xf32>
    %248 = stablehlo.compare  EQ, %247, %242,  FLOAT : (tensor<64x512x1xf32>, tensor<64x512x1xf32>) -> tensor<64x512x1xi1>
    %249 = stablehlo.broadcast_in_dim %cst_7, dims = [] : (tensor<f32>) -> tensor<64x512x1xf32>
    %250 = stablehlo.broadcast_in_dim %cst_6, dims = [] : (tensor<f32>) -> tensor<64x512x1xf32>
    %251 = stablehlo.select %248, %249, %250 : tensor<64x512x1xi1>, tensor<64x512x1xf32>
    %252 = stablehlo.divide %246, %251 : tensor<64x512x1xf32>
    %253 = stablehlo.broadcast_in_dim %cst_8, dims = [] : (tensor<f32>) -> tensor<64x512x1xf32>
    %254 = stablehlo.add %242, %253 : tensor<64x512x1xf32>
    %255 = stablehlo.rsqrt %254 : tensor<64x512x1xf32>
    %256 = stablehlo.divide %255, %254 : tensor<64x512x1xf32>
    %257 = stablehlo.broadcast_in_dim %cst_9, dims = [] : (tensor<f32>) -> tensor<64x512x1xf32>
    %258 = stablehlo.multiply %257, %256 : tensor<64x512x1xf32>
    %259 = stablehlo.broadcast_in_dim %239, dims = [0, 1, 2] : (tensor<64x512x1xf32>) -> tensor<64x512x768xf32>
    %260 = stablehlo.subtract %235, %259 : tensor<64x512x768xf32>
    %261 = stablehlo.broadcast_in_dim %255, dims = [0, 1, 2] : (tensor<64x512x1xf32>) -> tensor<64x512x768xf32>
    %262 = stablehlo.multiply %260, %261 : tensor<64x512x768xf32>
    %263 = stablehlo.broadcast_in_dim %arg19, dims = [2] : (tensor<768xf32>) -> tensor<1x1x768xf32>
    %264 = stablehlo.broadcast_in_dim %263, dims = [0, 1, 2] : (tensor<1x1x768xf32>) -> tensor<64x512x768xf32>
    %265 = stablehlo.multiply %264, %262 : tensor<64x512x768xf32>
    %266 = stablehlo.broadcast_in_dim %arg20, dims = [2] : (tensor<768xf32>) -> tensor<1x1x768xf32>
    %267 = stablehlo.broadcast_in_dim %266, dims = [0, 1, 2] : (tensor<1x1x768xf32>) -> tensor<64x512x768xf32>
    %268 = stablehlo.add %265, %267 : tensor<64x512x768xf32>
    %269 = stablehlo.slice %86 [1:2, 0:2] : (tensor<12x2xui32>) -> tensor<1x2xui32>
    %270 = stablehlo.reshape %269 : (tensor<1x2xui32>) -> tensor<2xui32>
    %271 = call @_threefry_split_71(%270) : (tensor<2xui32>) -> tensor<3x2xui32>
    %272 = stablehlo.slice %271 [0:1, 0:2] : (tensor<3x2xui32>) -> tensor<1x2xui32>
    %273 = stablehlo.reshape %272 : (tensor<1x2xui32>) -> tensor<2xui32>
    %274 = stablehlo.slice %271 [2:3, 0:2] : (tensor<3x2xui32>) -> tensor<1x2xui32>
    %275 = stablehlo.reshape %274 : (tensor<1x2xui32>) -> tensor<2xui32>
    %276 = call @_threefry_split(%273) : (tensor<2xui32>) -> tensor<2x2xui32>
    %277 = stablehlo.slice %276 [0:1, 0:2] : (tensor<2x2xui32>) -> tensor<1x2xui32>
    %278 = stablehlo.reshape %277 : (tensor<1x2xui32>) -> tensor<2xui32>
    %279 = stablehlo.slice %276 [1:2, 0:2] : (tensor<2x2xui32>) -> tensor<1x2xui32>
    %280 = stablehlo.reshape %279 : (tensor<1x2xui32>) -> tensor<2xui32>
    %281 = call @_threefry_split(%278) : (tensor<2xui32>) -> tensor<2x2xui32>
    %282 = stablehlo.slice %281 [1:2, 0:2] : (tensor<2x2xui32>) -> tensor<1x2xui32>
    %283 = stablehlo.reshape %282 : (tensor<1x2xui32>) -> tensor<2xui32>
    %284 = stablehlo.transpose %arg21, dims = [1, 0] : (tensor<768x768xf32>) -> tensor<768x768xf32>
    %285 = stablehlo.dot_general %268, %284, contracting_dims = [2] x [0], precision = [DEFAULT, DEFAULT] : (tensor<64x512x768xf32>, tensor<768x768xf32>) -> tensor<64x512x768xf32>
    %286 = stablehlo.broadcast_in_dim %arg22, dims = [2] : (tensor<768xf32>) -> tensor<1x1x768xf32>
    %287 = stablehlo.broadcast_in_dim %286, dims = [0, 1, 2] : (tensor<1x1x768xf32>) -> tensor<64x512x768xf32>
    %288 = stablehlo.add %285, %287 : tensor<64x512x768xf32>
    %289 = stablehlo.transpose %arg25, dims = [1, 0] : (tensor<768x768xf32>) -> tensor<768x768xf32>
    %290 = stablehlo.dot_general %268, %289, contracting_dims = [2] x [0], precision = [DEFAULT, DEFAULT] : (tensor<64x512x768xf32>, tensor<768x768xf32>) -> tensor<64x512x768xf32>
    %291 = stablehlo.broadcast_in_dim %arg26, dims = [2] : (tensor<768xf32>) -> tensor<1x1x768xf32>
    %292 = stablehlo.broadcast_in_dim %291, dims = [0, 1, 2] : (tensor<1x1x768xf32>) -> tensor<64x512x768xf32>
    %293 = stablehlo.add %290, %292 : tensor<64x512x768xf32>
    %294 = stablehlo.transpose %arg23, dims = [1, 0] : (tensor<768x768xf32>) -> tensor<768x768xf32>
    %295 = stablehlo.dot_general %268, %294, contracting_dims = [2] x [0], precision = [DEFAULT, DEFAULT] : (tensor<64x512x768xf32>, tensor<768x768xf32>) -> tensor<64x512x768xf32>
    %296 = stablehlo.broadcast_in_dim %arg24, dims = [2] : (tensor<768xf32>) -> tensor<1x1x768xf32>
    %297 = stablehlo.broadcast_in_dim %296, dims = [0, 1, 2] : (tensor<1x1x768xf32>) -> tensor<64x512x768xf32>
    %298 = stablehlo.add %295, %297 : tensor<64x512x768xf32>
    %299 = stablehlo.reshape %288 : (tensor<64x512x768xf32>) -> tensor<64x512x12x64xf32>
    %300 = stablehlo.reshape %293 : (tensor<64x512x768xf32>) -> tensor<64x512x12x64xf32>
    %301 = stablehlo.reshape %298 : (tensor<64x512x768xf32>) -> tensor<64x512x12x64xf32>
    %302 = stablehlo.broadcast_in_dim %85, dims = [0, 1, 3] : (tensor<64x512x512xi1>) -> tensor<64x512x1x512xi1>
    %303 = stablehlo.subtract %cst_14, %cst_13 : tensor<f32>
    %304 = stablehlo.convert %303 : tensor<f32>
    %305 = call @_bernoulli_87(%283, %304) : (tensor<2xui32>, tensor<f32>) -> tensor<64x512x12x512xi1>
    %306 = stablehlo.sqrt %cst_15 : tensor<f32>
    %307 = stablehlo.convert %306 : tensor<f32>
    %308 = stablehlo.broadcast_in_dim %307, dims = [] : (tensor<f32>) -> tensor<64x512x12x64xf32>
    %309 = stablehlo.divide %299, %308 : tensor<64x512x12x64xf32>
    %310 = stablehlo.dot_general %300, %309, batching_dims = [0, 2] x [0, 2], contracting_dims = [3] x [3], precision = [DEFAULT, DEFAULT] : (tensor<64x512x12x64xf32>, tensor<64x512x12x64xf32>) -> tensor<64x12x512x512xf32>
    %311 = stablehlo.transpose %310, dims = [0, 3, 1, 2] : (tensor<64x12x512x512xf32>) -> tensor<64x512x12x512xf32>
    %312:2 = call @_where_110(%302, %311, %cst_16) : (tensor<64x512x1x512xi1>, tensor<64x512x12x512xf32>, tensor<f32>) -> (tensor<64x512x12x512xf32>, tensor<64x512x12x512xi1>)
    %cst_29 = stablehlo.constant dense<0xFF800000> : tensor<f32>
    %313 = stablehlo.reduce(%312#0 init: %cst_29) applies stablehlo.maximum across dimensions = [3] : (tensor<64x512x12x512xf32>, tensor<f32>) -> tensor<64x512x12xf32>
    %314 = stablehlo.broadcast_in_dim %cst_18, dims = [] : (tensor<f32>) -> tensor<64x512x12xf32>
    %315 = stablehlo.maximum %314, %313 : tensor<64x512x12xf32>
    %316 = stablehlo.broadcast_in_dim %315, dims = [0, 1, 2] : (tensor<64x512x12xf32>) -> tensor<64x512x12x1xf32>
…
    %100 = stablehlo.or %97, %99 : tensor<12xui32>
    %101 = stablehlo.xor %95, %100 : tensor<12xui32>
    %102 = stablehlo.broadcast_in_dim %arg0, dims = [] : (tensor<ui32>) -> tensor<12xui32>
    %103 = stablehlo.add %95, %102 : tensor<12xui32>
    %104 = stablehlo.broadcast_in_dim %arg1, dims = [] : (tensor<ui32>) -> tensor<12xui32>
    %105 = stablehlo.add %101, %104 : tensor<12xui32>
    %106 = stablehlo.broadcast_in_dim %c_8, dims = [] : (tensor<ui32>) -> tensor<12xui32>
    %107 = stablehlo.add %105, %106 : tensor<12xui32>
    %108 = stablehlo.add %103, %107 : tensor<12xui32>
    %109 = stablehlo.broadcast_in_dim %c_3, dims = [] : (tensor<ui32>) -> tensor<12xui32>
    %110 = stablehlo.shift_left %107, %109 : tensor<12xui32>
    %111 = stablehlo.broadcast_in_dim %c_2, dims = [] : (tensor<ui32>) -> tensor<12xui32>
    %112 = stablehlo.shift_right_logical %107, %111 : tensor<12xui32>
    %113 = stablehlo.or %110, %112 : tensor<12xui32>
    %114 = stablehlo.xor %108, %113 : tensor<12xui32>
    %115 = stablehlo.add %108, %114 : tensor<12xui32>
    %116 = stablehlo.broadcast_in_dim %c_7, dims = [] : (tensor<ui32>) -> tensor<12xui32>
    %117 = stablehlo.shift_left %114, %116 : tensor<12xui32>
    %118 = stablehlo.broadcast_in_dim %c_8, dims = [] : (tensor<ui32>) -> tensor<12xui32>
    %119 = stablehlo.shift_right_logical %114, %118 : tensor<12xui32>
    %120 = stablehlo.or %117, %119 : tensor<12xui32>
    %121 = stablehlo.xor %115, %120 : tensor<12xui32>
    %122 = stablehlo.add %115, %121 : tensor<12xui32>
    %123 = stablehlo.broadcast_in_dim %c_9, dims = [] : (tensor<ui32>) -> tensor<12xui32>
    %124 = stablehlo.shift_left %121, %123 : tensor<12xui32>
    %125 = stablehlo.broadcast_in_dim %c_9, dims = [] : (tensor<ui32>) -> tensor<12xui32>
    %126 = stablehlo.shift_right_logical %121, %125 : tensor<12xui32>
    %127 = stablehlo.or %124, %126 : tensor<12xui32>
    %128 = stablehlo.xor %122, %127 : tensor<12xui32>
    %129 = stablehlo.add %122, %128 : tensor<12xui32>
    %130 = stablehlo.broadcast_in_dim %c_10, dims = [] : (tensor<ui32>) -> tensor<12xui32>
    %131 = stablehlo.shift_left %128, %130 : tensor<12xui32>
    %132 = stablehlo.broadcast_in_dim %c_11, dims = [] : (tensor<ui32>) -> tensor<12xui32>
    %133 = stablehlo.shift_right_logical %128, %132 : tensor<12xui32>
    %134 = stablehlo.or %131, %133 : tensor<12xui32>
    %135 = stablehlo.xor %129, %134 : tensor<12xui32>
    %136 = stablehlo.broadcast_in_dim %arg1, dims = [] : (tensor<ui32>) -> tensor<12xui32>
    %137 = stablehlo.add %129, %136 : tensor<12xui32>
    %138 = stablehlo.broadcast_in_dim %1, dims = [] : (tensor<ui32>) -> tensor<12xui32>
    %139 = stablehlo.add %135, %138 : tensor<12xui32>
    %c_13 = stablehlo.constant dense<4> : tensor<ui32>
    %140 = stablehlo.broadcast_in_dim %c_13, dims = [] : (tensor<ui32>) -> tensor<12xui32>
    %141 = stablehlo.add %139, %140 : tensor<12xui32>
    %142 = stablehlo.add %137, %141 : tensor<12xui32>
    %143 = stablehlo.broadcast_in_dim %c_0, dims = [] : (tensor<ui32>) -> tensor<12xui32>
    %144 = stablehlo.shift_left %141, %143 : tensor<12xui32>
    %145 = stablehlo.broadcast_in_dim %c_1, dims = [] : (tensor<ui32>) -> tensor<12xui32>
    %146 = stablehlo.shift_right_logical %141, %145 : tensor<12xui32>
    %147 = stablehlo.or %144, %146 : tensor<12xui32>
    %148 = stablehlo.xor %142, %147 : tensor<12xui32>
    %149 = stablehlo.add %142, %148 : tensor<12xui32>
    %150 = stablehlo.broadcast_in_dim %c_2, dims = [] : (tensor<ui32>) -> tensor<12xui32>
    %151 = stablehlo.shift_left %148, %150 : tensor<12xui32>
    %152 = stablehlo.broadcast_in_dim %c_3, dims = [] : (tensor<ui32>) -> tensor<12xui32>
    %153 = stablehlo.shift_right_logical %148, %152 : tensor<12xui32>
    %154 = stablehlo.or %151, %153 : tensor<12xui32>
    %155 = stablehlo.xor %149, %154 : tensor<12xui32>
    %156 = stablehlo.add %149, %155 : tensor<12xui32>
    %157 = stablehlo.broadcast_in_dim %c_4, dims = [] : (tensor<ui32>) -> tensor<12xui32>
    %158 = stablehlo.shift_left %155, %157 : tensor<12xui32>
    %159 = stablehlo.broadcast_in_dim %c_5, dims = [] : (tensor<ui32>) -> tensor<12xui32>
    %160 = stablehlo.shift_right_logical %155, %159 : tensor<12xui32>
    %161 = stablehlo.or %158, %160 : tensor<12xui32>
    %162 = stablehlo.xor %156, %161 : tensor<12xui32>
    %163 = stablehlo.add %156, %162 : tensor<12xui32>
    %164 = stablehlo.broadcast_in_dim %c_5, dims = [] : (tensor<ui32>) -> tensor<12xui32>
    %165 = stablehlo.shift_left %162, %164 : tensor<12xui32>
    %166 = stablehlo.broadcast_in_dim %c_4, dims = [] : (tensor<ui32>) -> tensor<12xui32>
    %167 = stablehlo.shift_right_logical %162, %166 : tensor<12xui32>
    %168 = stablehlo.or %165, %167 : tensor<12xui32>
    %169 = stablehlo.xor %163, %168 : tensor<12xui32>
    %170 = stablehlo.broadcast_in_dim %1, dims = [] : (tensor<ui32>) -> tensor<12xui32>
    %171 = stablehlo.add %163, %170 : tensor<12xui32>
    %172 = stablehlo.broadcast_in_dim %arg0, dims = [] : (tensor<ui32>) -> tensor<12xui32>
    %173 = stablehlo.add %169, %172 : tensor<12xui32>
    %c_14 = stablehlo.constant dense<5> : tensor<ui32>
    %174 = stablehlo.broadcast_in_dim %c_14, dims = [] : (tensor<ui32>) -> tensor<12xui32>
    %175 = stablehlo.add %173, %174 : tensor<12xui32>
    return %171, %175 : tensor<12xui32>, tensor<12xui32>
  }
  func.func private @_threefry_split_71(%arg0: tensor<2xui32>) -> tensor<3x2xui32> {
    %0 = stablehlo.slice %arg0 [0:1] : (tensor<2xui32>) -> tensor<1xui32>
    %1 = stablehlo.reshape %0 : (tensor<1xui32>) -> tensor<ui32>
    %2 = stablehlo.slice %arg0 [1:2] : (tensor<2xui32>) -> tensor<1xui32>
    %3 = stablehlo.reshape %2 : (tensor<1xui32>) -> tensor<ui32>
    %4 = stablehlo.iota dim = 0 : tensor<3xui64>
    %c = stablehlo.constant dense<1> : tensor<ui64>
    %5 = stablehlo.broadcast_in_dim %c, dims = [] : (tensor<ui64>) -> tensor<3xui64>
    %6 = stablehlo.multiply %5, %4 : tensor<3xui64>
    %c_0 = stablehlo.constant dense<32> : tensor<ui64>
    %7 = stablehlo.broadcast_in_dim %c_0, dims = [] : (tensor<ui64>) -> tensor<3xui64>
    %8 = stablehlo.shift_right_logical %6, %7 : tensor<3xui64>
    %9 = stablehlo.convert %6 : (tensor<3xui64>) -> tensor<3xui32>
    %10 = stablehlo.convert %8 : (tensor<3xui64>) -> tensor<3xui32>
    %11:2 = call @threefry2x32_73(%1, %3, %10, %9) : (tensor<ui32>, tensor<ui32>, tensor<3xui32>, tensor<3xui32>) -> (tensor<3xui32>, tensor<3xui32>)
    %12 = stablehlo.broadcast_in_dim %11#0, dims = [0] : (tensor<3xui32>) -> tensor<3x1xui32>
    %13 = stablehlo.broadcast_in_dim %11#1, dims = [0] : (tensor<3xui32>) -> tensor<3x1xui32>
    %14 = stablehlo.concatenate %12, %13, dim = 1 : (tensor<3x1xui32>, tensor<3x1xui32>) -> tensor<3x2xui32>
    return %14 : tensor<3x2xui32>
  }
  func.func private @threefry2x32_73(%arg0: tensor<ui32>, %arg1: tensor<ui32>, %arg2: tensor<3xui32>, %arg3: tensor<3xui32>) -> (tensor<3xui32>, tensor<3xui32>) {
    %0 = stablehlo.xor %arg0, %arg1 : tensor<ui32>
    %c = stablehlo.constant dense<466688986> : tensor<ui32>
    %1 = stablehlo.xor %0, %c : tensor<ui32>
    %2 = stablehlo.broadcast_in_dim %arg0, dims = [] : (tensor<ui32>) -> tensor<3xui32>
    %3 = stablehlo.add %arg2, %2 : tensor<3xui32>
    %4 = stablehlo.broadcast_in_dim %arg1, dims = [] : (tensor<ui32>) -> tensor<3xui32>
    %5 = stablehlo.add %arg3, %4 : tensor<3xui32>
    %6 = stablehlo.add %3, %5 : tensor<3xui32>
    %c_0 = stablehlo.constant dense<13> : tensor<ui32>
    %7 = stablehlo.broadcast_in_dim %c_0, dims = [] : (tensor<ui32>) -> tensor<3xui32>
    %8 = stablehlo.shift_left %5, %7 : tensor<3xui32>
    %c_1 = stablehlo.constant dense<19> : tensor<ui32>
    %9 = stablehlo.broadcast_in_dim %c_1, dims = [] : (tensor<ui32>) -> tensor<3xui32>
    %10 = stablehlo.shift_right_logical %5, %9 : tensor<3xui32>
    %11 = stablehlo.or %8, %10 : tensor<3xui32>
    %12 = stablehlo.xor %6, %11 : tensor<3xui32>
    %13 = stablehlo.add %6, %12 : tensor<3xui32>
    %c_2 = stablehlo.constant dense<15> : tensor<ui32>
    %14 = stablehlo.broadcast_in_dim %c_2, dims = [] : (tensor<ui32>) -> tensor<3xui32>
    %15 = stablehlo.shift_left %12, %14 : tensor<3xui32>
    %c_3 = stablehlo.constant dense<17> : tensor<ui32>
    %16 = stablehlo.broadcast_in_dim %c_3, dims = [] : (tensor<ui32>) -> tensor<3xui32>
    %17 = stablehlo.shift_right_logical %12, %16 : tensor<3xui32>
    %18 = stablehlo.or %15, %17 : tensor<3xui32>
    %19 = stablehlo.xor %13, %18 : tensor<3xui32>
    %20 = stablehlo.add %13, %19 : tensor<3xui32>
    %c_4 = stablehlo.constant dense<26> : tensor<ui32>
    %21 = stablehlo.broadcast_in_dim %c_4, dims = [] : (tensor<ui32>) -> tensor<3xui32>
    %22 = stablehlo.shift_left %19, %21 : tensor<3xui32>
    %c_5 = stablehlo.constant dense<6> : tensor<ui32>
    %23 = stablehlo.broadcast_in_dim %c_5, dims = [] : (tensor<ui32>) -> tensor<3xui32>
    %24 = stablehlo.shift_right_logical %19, %23 : tensor<3xui32>
    %25 = stablehlo.or %22, %24 : tensor<3xui32>
    %26 = stablehlo.xor %20, %25 : tensor<3xui32>
    %27 = stablehlo.add %20, %26 : tensor<3xui32>
    %28 = stablehlo.broadcast_in_dim %c_5, dims = [] : (tensor<ui32>) -> tensor<3xui32>
    %29 = stablehlo.shift_left %26, %28 : tensor<3xui32>
    %30 = stablehlo.broadcast_in_dim %c_4, dims = [] : (tensor<ui32>) -> tensor<3xui32>
    %31 = stablehlo.shift_right_logical %26, %30 : tensor<3xui32>
    %32 = stablehlo.or %29, %31 : tensor<3xui32>
    %33 = stablehlo.xor %27, %32 : tensor<3xui32>
    %34 = stablehlo.broadcast_in_dim %arg1, dims = [] : (tensor<ui32>) -> tensor<3xui32>
    %35 = stablehlo.add %27, %34 : tensor<3xui32>
    %36 = stablehlo.broadcast_in_dim %1, dims = [] : (tensor<ui32>) -> tensor<3xui32>
    %37 = stablehlo.add %33, %36 : tensor<3xui32>
    %c_6 = stablehlo.constant dense<1> : tensor<ui32>
    %38 = stablehlo.broadcast_in_dim %c_6, dims = [] : (tensor<ui32>) -> tensor<3xui32>
    %39 = stablehlo.add %37, %38 : tensor<3xui32>
    %40 = stablehlo.add %35, %39 : tensor<3xui32>
    %41 = stablehlo.broadcast_in_dim %c_3, dims = [] : (tensor<ui32>) -> tensor<3xui32>
    %42 = stablehlo.shift_left %39, %41 : tensor<3xui32>
    %43 = stablehlo.broadcast_in_dim %c_2, dims = [] : (tensor<ui32>) -> tensor<3xui32>
    %44 = stablehlo.shift_right_logical %39, %43 : tensor<3xui32>
    %45 = stablehlo.or %42, %44 : tensor<3xui32>
    %46 = stablehlo.xor %40, %45 : tensor<3xui32>
    %47 = stablehlo.add %40, %46 : tensor<3xui32>
    %c_7 = stablehlo.constant dense<29> : tensor<ui32>
    %48 = stablehlo.broadcast_in_dim %c_7, dims = [] : (tensor<ui32>) -> tensor<3xui32>
    %49 = stablehlo.shift_left %46, %48 : tensor<3xui32>
    %c_8 = stablehlo.constant dense<3> : tensor<ui32>
    %50 = stablehlo.broadcast_in_dim %c_8, dims = [] : (tensor<ui32>) -> tensor<3xui32>
    %51 = stablehlo.shift_right_logical %46, %50 : tensor<3xui32>
    %52 = stablehlo.or %49, %51 : tensor<3xui32>
    %53 = stablehlo.xor %47, %52 : tensor<3xui32>
    %54 = stablehlo.add %47, %53 : tensor<3xui32>
    %c_9 = stablehlo.constant dense<16> : tensor<ui32>
    %55 = stablehlo.broadcast_in_dim %c_9, dims = [] : (tensor<ui32>) -> tensor<3xui32>
    %56 = stablehlo.shift_left %53, %55 : tensor<3xui32>
    %57 = stablehlo.broadcast_in_dim %c_9, dims = [] : (tensor<ui32>) -> tensor<3xui32>
    %58 = stablehlo.shift_right_logical %53, %57 : tensor<3xui32>
    %59 = stablehlo.or %56, %58 : tensor<3xui32>
    %60 = stablehlo.xor %54, %59 : tensor<3xui32>
    %61 = stablehlo.add %54, %60 : tensor<3xui32>
    %c_10 = stablehlo.constant dense<24> : tensor<ui32>
    %62 = stablehlo.broadcast_in_dim %c_10, dims = [] : (tensor<ui32>) -> tensor<3xui32>
    %63 = stablehlo.shift_left %60, %62 : tensor<3xui32>
    %c_11 = stablehlo.constant dense<8> : tensor<ui32>
    %64 = stablehlo.broadcast_in_dim %c_11, dims = [] : (tensor<ui32>) -> tensor<3xui32>
    %65 = stablehlo.shift_right_logical %60, %64 : tensor<3xui32>
    %66 = stablehlo.or %63, %65 : tensor<3xui32>
    %67 = stablehlo.xor %61, %66 : tensor<3xui32>
    %68 = stablehlo.broadcast_in_dim %1, dims = [] : (tensor<ui32>) -> tensor<3xui32>
    %69 = stablehlo.add %61, %68 : tensor<3xui32>
    %70 = stablehlo.broadcast_in_dim %arg0, dims = [] : (tensor<ui32>) -> tensor<3xui32>
    %71 = stablehlo.add %67, %70 : tensor<3xui32>
    %c_12 = stablehlo.constant dense<2> : tensor<ui32>
    %72 = stablehlo.broadcast_in_dim %c_12, dims = [] : (tensor<ui32>) -> tensor<3xui32>
    %73 = stablehlo.add %71, %72 : tensor<3xui32>
    %74 = stablehlo.add %69, %73 : tensor<3xui32>
    %75 = stablehlo.broadcast_in_dim %c_0, dims = [] : (tensor<ui32>) -> tensor<3xui32>
    %76 = stablehlo.shift_left %73, %75 : tensor<3xui32>
    %77 = stablehlo.broadcast_in_dim %c_1, dims = [] : (tensor<ui32>) -> tensor<3xui32>
    %78 = stablehlo.shift_right_logical %73, %77 : tensor<3xui32>
    %79 = stablehlo.or %76, %78 : tensor<3xui32>
    %80 = stablehlo.xor %74, %79 : tensor<3xui32>
    %81 = stablehlo.add %74, %80 : tensor<3xui32>
    %82 = stablehlo.broadcast_in_dim %c_2, dims = [] : (tensor<ui32>) -> tensor<3xui32>
    %83 = stablehlo.shift_left %80, %82 : tensor<3xui32>
    %84 = stablehlo.broadcast_in_dim %c_3, dims = [] : (tensor<ui32>) -> tensor<3xui32>
    %85 = stablehlo.shift_right_logical %80, %84 : tensor<3xui32>
    %86 = stablehlo.or %83, %85 : tensor<3xui32>
    %87 = stablehlo.xor %81, %86 : tensor<3xui32>
    %88 = stablehlo.add %81, %87 : tensor<3xui32>
    %89 = stablehlo.broadcast_in_dim %c_4, dims = [] : (tensor<ui32>) -> tensor<3xui32>
    %90 = stablehlo.shift_left %87, %89 : tensor<3xui32>
    %91 = stablehlo.broadcast_in_dim %c_5, dims = [] : (tensor<ui32>) -> tensor<3xui32>
    %92 = stablehlo.shift_right_logical %87, %91 : tensor<3xui32>
    %93 = stablehlo.or %90, %92 : tensor<3xui32>
    %94 = stablehlo.xor %88, %93 : tensor<3xui32>
    %95 = stablehlo.add %88, %94 : tensor<3xui32>
    %96 = stablehlo.broadcast_in_dim %c_5, dims = [] : (tensor<ui32>) -> tensor<3xui32>
    %97 = stablehlo.shift_left %94, %96 : tensor<3xui32>
    %98 = stablehlo.broadcast_in_dim %c_4, dims = [] : (tensor<ui32>) -> tensor<3xui32>
    %99 = stablehlo.shift_right_logical %94, %98 : tensor<3xui32>
    %100 = stablehlo.or %97, %99 : tensor<3xui32>
    %101 = stablehlo.xor %95, %100 : tensor<3xui32>
    %102 = stablehlo.broadcast_in_dim %arg0, dims = [] : (tensor<ui32>) -> tensor<3xui32>
    %103 = stablehlo.add %95, %102 : tensor<3xui32>
    %104 = stablehlo.broadcast_in_dim %arg1, dims = [] : (tensor<ui32>) -> tensor<3xui32>
    %105 = stablehlo.add %101, %104 : tensor<3xui32>
    %106 = stablehlo.broadcast_in_dim %c_8, dims = [] : (tensor<ui32>) -> tensor<3xui32>
    %107 = stablehlo.add %105, %106 : tensor<3xui32>
    %108 = stablehlo.add %103, %107 : tensor<3xui32>
    %109 = stablehlo.broadcast_in_dim %c_3, dims = [] : (tensor<ui32>) -> tensor<3xui32>
    %110 = stablehlo.shift_left %107, %109 : tensor<3xui32>
    %111 = stablehlo.broadcast_in_dim %c_2, dims = [] : (tensor<ui32>) -> tensor<3xui32>
    %112 = stablehlo.shift_right_logical %107, %111 : tensor<3xui32>
    %113 = stablehlo.or %110, %112 : tensor<3xui32>
    %114 = stablehlo.xor %108, %113 : tensor<3xui32>
    %115 = stablehlo.add %108, %114 : tensor<3xui32>
    %116 = stablehlo.broadcast_in_dim %c_7, dims = [] : (tensor<ui32>) -> tensor<3xui32>
    %117 = stablehlo.shift_left %114, %116 : tensor<3xui32>
    %118 = stablehlo.broadcast_in_dim %c_8, dims = [] : (tensor<ui32>) -> tensor<3xui32>
    %119 = stablehlo.shift_right_logical %114, %118 : tensor<3xui32>
    %120 = stablehlo.or %117, %119 : tensor<3xui32>
    %121 = stablehlo.xor %115, %120 : tensor<3xui32>
    %122 = stablehlo.add %115, %121 : tensor<3xui32>
    %123 = stablehlo.broadcast_in_dim %c_9, dims = [] : (tensor<ui32>) -> tensor<3xui32>
    %124 = stablehlo.shift_left %121, %123 : tensor<3xui32>
    %125 = stablehlo.broadcast_in_dim %c_9, dims = [] : (tensor<ui32>) -> tensor<3xui32>
    %126 = stablehlo.shift_right_logical %121, %125 : tensor<3xui32>
    %127 = stablehlo.or %124, %126 : tensor<3xui32>
    %128 = stablehlo.xor %122, %127 : tensor<3xui32>
    %129 = stablehlo.add %122, %128 : tensor<3xui32>
    %130 = stablehlo.broadcast_in_dim %c_10, dims = [] : (tensor<ui32>) -> tensor<3xui32>
    %131 = stablehlo.shift_left %128, %130 : tensor<3xui32>
    %132 = stablehlo.broadcast_in_dim %c_11, dims = [] : (tensor<ui32>) -> tensor<3xui32>
    %133 = stablehlo.shift_right_logical %128, %132 : tensor<3xui32>
    %134 = stablehlo.or %131, %133 : tensor<3xui32>
    %135 = stablehlo.xor %129, %134 : tensor<3xui32>
    %136 = stablehlo.broadcast_in_dim %arg1, dims = [] : (tensor<ui32>) -> tensor<3xui32>
    %137 = stablehlo.add %129, %136 : tensor<3xui32>
    %138 = stablehlo.broadcast_in_dim %1, dims = [] : (tensor<ui32>) -> tensor<3xui32>
    %139 = stablehlo.add %135, %138 : tensor<3xui32>
    %c_13 = stablehlo.constant dense<4> : tensor<ui32>
    %140 = stablehlo.broadcast_in_dim %c_13, dims = [] : (tensor<ui32>) -> tensor<3xui32>
    %141 = stablehlo.add %139, %140 : tensor<3xui32>
    %142 = stablehlo.add %137, %141 : tensor<3xui32>
    %143 = stablehlo.broadcast_in_dim %c_0, dims = [] : (tensor<ui32>) -> tensor<3xui32>
    %144 = stablehlo.shift_left %141, %143 : tensor<3xui32>
    %145 = stablehlo.broadcast_in_dim %c_1, dims = [] : (tensor<ui32>) -> tensor<3xui32>
    %146 = stablehlo.shift_right_logical %141, %145 : tensor<3xui32>
    %147 = stablehlo.or %144, %146 : tensor<3xui32>
    %148 = stablehlo.xor %142, %147 : tensor<3xui32>
    %149 = stablehlo.add %142, %148 : tensor<3xui32>
    %150 = stablehlo.broadcast_in_dim %c_2, dims = [] : (tensor<ui32>) -> tensor<3xui32>
    %151 = stablehlo.shift_left %148, %150 : tensor<3xui32>
    %152 = stablehlo.broadcast_in_dim %c_3, dims = [] : (tensor<ui32>) -> tensor<3xui32>
    %153 = stablehlo.shift_right_logical %148, %152 : tensor<3xui32>
    %154 = stablehlo.or %151, %153 : tensor<3xui32>
    %155 = stablehlo.xor %149, %154 : tensor<3xui32>
    %156 = stablehlo.add %149, %155 : tensor<3xui32>
    %157 = stablehlo.broadcast_in_dim %c_4, dims = [] : (tensor<ui32>) -> tensor<3xui32>
    %158 = stablehlo.shift_left %155, %157 : tensor<3xui32>
    %159 = stablehlo.broadcast_in_dim %c_5, dims = [] : (tensor<ui32>) -> tensor<3xui32>
    %160 = stablehlo.shift_right_logical %155, %159 : tensor<3xui32>
    %161 = stablehlo.or %158, %160 : tensor<3xui32>
    %162 = stablehlo.xor %156, %161 : tensor<3xui32>
    %163 = stablehlo.add %156, %162 : tensor<3xui32>
    %164 = stablehlo.broadcast_in_dim %c_5, dims = [] : (tensor<ui32>) -> tensor<3xui32>
    %165 = stablehlo.shift_left %162, %164 : tensor<3xui32>
    %166 = stablehlo.broadcast_in_dim %c_4, dims = [] : (tensor<ui32>) -> tensor<3xui32>
    %167 = stablehlo.shift_right_logical %162, %166 : tensor<3xui32>
    %168 = stablehlo.or %165, %167 : tensor<3xui32>
    %169 = stablehlo.xor %163, %168 : tensor<3xui32>
    %170 = stablehlo.broadcast_in_dim %1, dims = [] : (tensor<ui32>) -> tensor<3xui32>
    %171 = stablehlo.add %163, %170 : tensor<3xui32>
    %172 = stablehlo.broadcast_in_dim %arg0, dims = [] : (tensor<ui32>) -> tensor<3xui32>
    %173 = stablehlo.add %169, %172 : tensor<3xui32>
    %c_14 = stablehlo.constant dense<5> : tensor<ui32>
    %174 = stablehlo.broadcast_in_dim %c_14, dims = [] : (tensor<ui32>) -> tensor<3xui32>
    %175 = stablehlo.add %173, %174 : tensor<3xui32>
    return %171, %175 : tensor<3xui32>, tensor<3xui32>
  }
  func.func private @_bernoulli_87(%arg0: tensor<2xui32>, %arg1: tensor<f32>) -> tensor<64x512x12x512xi1> {
    %cst = stablehlo.constant dense<0.000000e+00> : tensor<f32>
    %cst_0 = stablehlo.constant dense<1.000000e+00> : tensor<f32>
    %0 = call @_uniform_88(%arg0, %cst, %cst_0) : (tensor<2xui32>, tensor<f32>, tensor<f32>) -> tensor<64x512x12x512xf32>
    %1 = stablehlo.broadcast_in_dim %arg1, dims = [] : (tensor<f32>) -> tensor<64x512x12x512xf32>
    %2 = stablehlo.compare  LT, %0, %1,  FLOAT : (tensor<64x512x12x512xf32>, tensor<64x512x12x512xf32>) -> tensor<64x512x12x512xi1>
    return %2 : tensor<64x512x12x512xi1>
  }
  func.func private @_uniform_88(%arg0: tensor<2xui32>, %arg1: tensor<f32>, %arg2: tensor<f32>) -> tensor<64x512x12x512xf32> {
    %0 = stablehlo.convert %arg1 : tensor<f32>
    %1 = stablehlo.convert %arg2 : tensor<f32>
    %2 = stablehlo.broadcast_in_dim %0, dims = [] : (tensor<f32>) -> tensor<1x1x1x1xf32>
    %3 = stablehlo.broadcast_in_dim %1, dims = [] : (tensor<f32>) -> tensor<1x1x1x1xf32>
    %4 = stablehlo.slice %arg0 [0:1] : (tensor<2xui32>) -> tensor<1xui32>
    %5 = stablehlo.reshape %4 : (tensor<1xui32>) -> tensor<ui32>
    %6 = stablehlo.slice %arg0 [1:2] : (tensor<2xui32>) -> tensor<1xui32>
    %7 = stablehlo.reshape %6 : (tensor<1xui32>) -> tensor<ui32>
    %8 = stablehlo.iota dim = 0 : tensor<64x512x12x512xui64>
    %9 = stablehlo.iota dim = 1 : tensor<64x512x12x512xui64>
    %10 = stablehlo.iota dim = 2 : tensor<64x512x12x512xui64>
    %11 = stablehlo.iota dim = 3 : tensor<64x512x12x512xui64>
    %c = stablehlo.constant dense<3145728> : tensor<ui64>
    %12 = stablehlo.broadcast_in_dim %c, dims = [] : (tensor<ui64>) -> tensor<64x512x12x512xui64>
    %13 = stablehlo.multiply %12, %8 : tensor<64x512x12x512xui64>
    %c_0 = stablehlo.constant dense<6144> : tensor<ui64>
    %14 = stablehlo.broadcast_in_dim %c_0, dims = [] : (tensor<ui64>) -> tensor<64x512x12x512xui64>
    %15 = stablehlo.multiply %14, %9 : tensor<64x512x12x512xui64>
    %c_1 = stablehlo.constant dense<512> : tensor<ui64>
    %16 = stablehlo.broadcast_in_dim %c_1, dims = [] : (tensor<ui64>) -> tensor<64x512x12x512xui64>
    %17 = stablehlo.multiply %16, %10 : tensor<64x512x12x512xui64>
    %c_2 = stablehlo.constant dense<1> : tensor<ui64>
    %18 = stablehlo.broadcast_in_dim %c_2, dims = [] : (tensor<ui64>) -> tensor<64x512x12x512xui64>
    %19 = stablehlo.multiply %18, %11 : tensor<64x512x12x512xui64>
    %20 = stablehlo.add %13, %15 : tensor<64x512x12x512xui64>
    %21 = stablehlo.add %20, %17 : tensor<64x512x12x512xui64>
    %22 = stablehlo.add %21, %19 : tensor<64x512x12x512xui64>
    %c_3 = stablehlo.constant dense<32> : tensor<ui64>
    %23 = stablehlo.broadcast_in_dim %c_3, dims = [] : (tensor<ui64>) -> tensor<64x512x12x512xui64>
    %24 = stablehlo.shift_right_logical %22, %23 : tensor<64x512x12x512xui64>
    %25 = stablehlo.convert %22 : (tensor<64x512x12x512xui64>) -> tensor<64x512x12x512xui32>
    %26 = stablehlo.convert %24 : (tensor<64x512x12x512xui64>) -> tensor<64x512x12x512xui32>
    %27:2 = call @threefry2x32_92(%5, %7, %26, %25) : (tensor<ui32>, tensor<ui32>, tensor<64x512x12x512xui32>, tensor<64x512x12x512xui32>) -> (tensor<64x512x12x512xui32>, tensor<64x512x12x512xui32>)
    %28 = stablehlo.xor %27#0, %27#1 : tensor<64x512x12x512xui32>
    %c_4 = stablehlo.constant dense<9> : tensor<ui32>
    %29 = stablehlo.broadcast_in_dim %c_4, dims = [] : (tensor<ui32>) -> tensor<64x512x12x512xui32>
    %30 = stablehlo.shift_right_logical %28, %29 : tensor<64x512x12x512xui32>
    %c_5 = stablehlo.constant dense<1065353216> : tensor<ui32>
    %31 = stablehlo.broadcast_in_dim %c_5, dims = [] : (tensor<ui32>) -> tensor<64x512x12x512xui32>
    %32 = stablehlo.or %30, %31 : tensor<64x512x12x512xui32>
    %33 = stablehlo.bitcast_convert %32 : (tensor<64x512x12x512xui32>) -> tensor<64x512x12x512xf32>
    %cst = stablehlo.constant dense<1.000000e+00> : tensor<f32>
    %34 = stablehlo.broadcast_in_dim %cst, dims = [] : (tensor<f32>) -> tensor<64x512x12x512xf32>
    %35 = stablehlo.subtract %33, %34 : tensor<64x512x12x512xf32>
    %36 = stablehlo.subtract %3, %2 : tensor<1x1x1x1xf32>
    %37 = stablehlo.broadcast_in_dim %36, dims = [0, 1, 2, 3] : (tensor<1x1x1x1xf32>) -> tensor<64x512x12x512xf32>
    %38 = stablehlo.multiply %35, %37 : tensor<64x512x12x512xf32>
    %39 = stablehlo.broadcast_in_dim %2, dims = [0, 1, 2, 3] : (tensor<1x1x1x1xf32>) -> tensor<64x512x12x512xf32>
    %40 = stablehlo.add %38, %39 : tensor<64x512x12x512xf32>
    %41 = stablehlo.broadcast_in_dim %2, dims = [0, 1, 2, 3] : (tensor<1x1x1x1xf32>) -> tensor<64x512x12x512xf32>
    %42 = stablehlo.maximum %41, %40 : tensor<64x512x12x512xf32>
    return %42 : tensor<64x512x12x512xf32>
  }
  func.func private @threefry2x32_92(%arg0: tensor<ui32>, %arg1: tensor<ui32>, %arg2: tensor<64x512x12x512xui32>, %arg3: tensor<64x512x12x512xui32>) -> (tensor<64x512x12x512xui32>, tensor<64x512x12x512xui32>) {
    %0 = stablehlo.xor %arg0, %arg1 : tensor<ui32>
    %c = stablehlo.constant dense<466688986> : tensor<ui32>
    %1 = stablehlo.xor %0, %c : tensor<ui32>
    %2 = stablehlo.broadcast_in_dim %arg0, dims = [] : (tensor<ui32>) -> tensor<64x512x12x512xui32>
    %3 = stablehlo.add %arg2, %2 : tensor<64x512x12x512xui32>
    %4 = stablehlo.broadcast_in_dim %arg1, dims = [] : (tensor<ui32>) -> tensor<64x512x12x512xui32>
    %5 = stablehlo.add %arg3, %4 : tensor<64x512x12x512xui32>
    %6 = stablehlo.add %3, %5 : tensor<64x512x12x512xui32>
    %c_0 = stablehlo.constant dense<13> : tensor<ui32>
    %7 = stablehlo.broadcast_in_dim %c_0, dims = [] : (tensor<ui32>) -> tensor<64x512x12x512xui32>
    %8 = stablehlo.shift_left %5, %7 : tensor<64x512x12x512xui32>
    %c_1 = stablehlo.constant dense<19> : tensor<ui32>
    %9 = stablehlo.broadcast_in_dim %c_1, dims = [] : (tensor<ui32>) -> tensor<64x512x12x512xui32>
    %10 = stablehlo.shift_right_logical %5, %9 : tensor<64x512x12x512xui32>
    %11 = stablehlo.or %8, %10 : tensor<64x512x12x512xui32>
    %12 = stablehlo.xor %6, %11 : tensor<64x512x12x512xui32>
    %13 = stablehlo.add %6, %12 : tensor<64x512x12x512xui32>
    %c_2 = stablehlo.constant dense<15> : tensor<ui32>
    %14 = stablehlo.broadcast_in_dim %c_2, dims = [] : (tensor<ui32>) -> tensor<64x512x12x512xui32>
    %15 = stablehlo.shift_left %12, %14 : tensor<64x512x12x512xui32>
    %c_3 = stablehlo.constant dense<17> : tensor<ui32>
    %16 = stablehlo.broadcast_in_dim %c_3, dims = [] : (tensor<ui32>) -> tensor<64x512x12x512xui32>
    %17 = stablehlo.shift_right_logical %12, %16 : tensor<64x512x12x512xui32>
    %18 = stablehlo.or %15, %17 : tensor<64x512x12x512xui32>
    %19 = stablehlo.xor %13, %18 : tensor<64x512x12x512xui32>
    %20 = stablehlo.add %13, %19 : tensor<64x512x12x512xui32>
    %c_4 = stablehlo.constant dense<26> : tensor<ui32>
    %21 = stablehlo.broadcast_in_dim %c_4, dims = [] : (tensor<ui32>) -> tensor<64x512x12x512xui32>
    %22 = stablehlo.shift_left %19, %21 : tensor<64x512x12x512xui32>
    %c_5 = stablehlo.constant dense<6> : tensor<ui32>
    %23 = stablehlo.broadcast_in_dim %c_5, dims = [] : (tensor<ui32>) -> tensor<64x512x12x512xui32>
    %24 = stablehlo.shift_right_logical %19, %23 : tensor<64x512x12x512xui32>
    %25 = stablehlo.or %22, %24 : tensor<64x512x12x512xui32>
    %26 = stablehlo.xor %20, %25 : tensor<64x512x12x512xui32>
    %27 = stablehlo.add %20, %26 : tensor<64x512x12x512xui32>
    %28 = stablehlo.broadcast_in_dim %c_5, dims = [] : (tensor<ui32>) -> tensor<64x512x12x512xui32>
    %29 = stablehlo.shift_left %26, %28 : tensor<64x512x12x512xui32>
    %30 = stablehlo.broadcast_in_dim %c_4, dims = [] : (tensor<ui32>) -> tensor<64x512x12x512xui32>
    %31 = stablehlo.shift_right_logical %26, %30 : tensor<64x512x12x512xui32>
    %32 = stablehlo.or %29, %31 : tensor<64x512x12x512xui32>
    %33 = stablehlo.xor %27, %32 : tensor<64x512x12x512xui32>
    %34 = stablehlo.broadcast_in_dim %arg1, dims = [] : (tensor<ui32>) -> tensor<64x512x12x512xui32>
    %35 = stablehlo.add %27, %34 : tensor<64x512x12x512xui32>
    %36 = stablehlo.broadcast_in_dim %1, dims = [] : (tensor<ui32>) -> tensor<64x512x12x512xui32>
    %37 = stablehlo.add %33, %36 : tensor<64x512x12x512xui32>
    %c_6 = stablehlo.constant dense<1> : tensor<ui32>
    %38 = stablehlo.broadcast_in_dim %c_6, dims = [] : (tensor<ui32>) -> tensor<64x512x12x512xui32>
    %39 = stablehlo.add %37, %38 : tensor<64x512x12x512xui32>
    %40 = stablehlo.add %35, %39 : tensor<64x512x12x512xui32>
    %41 = stablehlo.broadcast_in_dim %c_3, dims = [] : (tensor<ui32>) -> tensor<64x512x12x512xui32>
    %42 = stablehlo.shift_left %39, %41 : tensor<64x512x12x512xui32>
    %43 = stablehlo.broadcast_in_dim %c_2, dims = [] : (tensor<ui32>) -> tensor<64x512x12x512xui32>
    %44 = stablehlo.shift_right_logical %39, %43 : tensor<64x512x12x512xui32>
    %45 = stablehlo.or %42, %44 : tensor<64x512x12x512xui32>
    %46 = stablehlo.xor %40, %45 : tensor<64x512x12x512xui32>
    %47 = stablehlo.add %40, %46 : tensor<64x512x12x512xui32>
    %c_7 = stablehlo.constant dense<29> : tensor<ui32>
    %48 = stablehlo.broadcast_in_dim %c_7, dims = [] : (tensor<ui32>) -> tensor<64x512x12x512xui32>
    %49 = stablehlo.shift_left %46, %48 : tensor<64x512x12x512xui32>
    %c_8 = stablehlo.constant dense<3> : tensor<ui32>
    %50 = stablehlo.broadcast_in_dim %c_8, dims = [] : (tensor<ui32>) -> tensor<64x512x12x512xui32>
    %51 = stablehlo.shift_right_logical %46, %50 : tensor<64x512x12x512xui32>
    %52 = stablehlo.or %49, %51 : tensor<64x512x12x512xui32>
    %53 = stablehlo.xor %47, %52 : tensor<64x512x12x512xui32>
    %54 = stablehlo.add %47, %53 : tensor<64x512x12x512xui32>
    %c_9 = stablehlo.constant dense<16> : tensor<ui32>
    %55 = stablehlo.broadcast_in_dim %c_9, dims = [] : (tensor<ui32>) -> tensor<64x512x12x512xui32>
    %56 = stablehlo.shift_left %53, %55 : tensor<64x512x12x512xui32>
    %57 = stablehlo.broadcast_in_dim %c_9, dims = [] : (tensor<ui32>) -> tensor<64x512x12x512xui32>
    %58 = stablehlo.shift_right_logical %53, %57 : tensor<64x512x12x512xui32>
    %59 = stablehlo.or %56, %58 : tensor<64x512x12x512xui32>
    %60 = stablehlo.xor %54, %59 : tensor<64x512x12x512xui32>
    %61 = stablehlo.add %54, %60 : tensor<64x512x12x512xui32>
    %c_10 = stablehlo.constant dense<24> : tensor<ui32>
    %62 = stablehlo.broadcast_in_dim %c_10, dims = [] : (tensor<ui32>) -> tensor<64x512x12x512xui32>
    %63 = stablehlo.shift_left %60, %62 : tensor<64x512x12x512xui32>
    %c_11 = stablehlo.constant dense<8> : tensor<ui32>
    %64 = stablehlo.broadcast_in_dim %c_11, dims = [] : (tensor<ui32>) -> tensor<64x512x12x512xui32>
    %65 = stablehlo.shift_right_logical %60, %64 : tensor<64x512x12x512xui32>
    %66 = stablehlo.or %63, %65 : tensor<64x512x12x512xui32>
    %67 = stablehlo.xor %61, %66 : tensor<64x512x12x512xui32>
    %68 = stablehlo.broadcast_in_dim %1, dims = [] : (tensor<ui32>) -> tensor<64x512x12x512xui32>
    %69 = stablehlo.add %61, %68 : tensor<64x512x12x512xui32>
    %70 = stablehlo.broadcast_in_dim %arg0, dims = [] : (tensor<ui32>) -> tensor<64x512x12x512xui32>
    %71 = stablehlo.add %67, %70 : tensor<64x512x12x512xui32>
    %c_12 = stablehlo.constant dense<2> : tensor<ui32>
    %72 = stablehlo.broadcast_in_dim %c_12, dims = [] : (tensor<ui32>) -> tensor<64x512x12x512xui32>
    %73 = stablehlo.add %71, %72 : tensor<64x512x12x512xui32>
    %74 = stablehlo.add %69, %73 : tensor<64x512x12x512xui32>
    %75 = stablehlo.broadcast_in_dim %c_0, dims = [] : (tensor<ui32>) -> tensor<64x512x12x512xui32>
    %76 = stablehlo.shift_left %73, %75 : tensor<64x512x12x512xui32>
    %77 = stablehlo.broadcast_in_dim %c_1, dims = [] : (tensor<ui32>) -> tensor<64x512x12x512xui32>
    %78 = stablehlo.shift_right_logical %73, %77 : tensor<64x512x12x512xui32>
    %79 = stablehlo.or %76, %78 : tensor<64x512x12x512xui32>
    %80 = stablehlo.xor %74, %79 : tensor<64x512x12x512xui32>
    %81 = stablehlo.add %74, %80 : tensor<64x512x12x512xui32>
    %82 = stablehlo.broadcast_in_dim %c_2, dims = [] : (tensor<ui32>) -> tensor<64x512x12x512xui32>
    %83 = stablehlo.shift_left %80, %82 : tensor<64x512x12x512xui32>
    %84 = stablehlo.broadcast_in_dim %c_3, dims = [] : (tensor<ui32>) -> tensor<64x512x12x512xui32>
    %85 = stablehlo.shift_right_logical %80, %84 : tensor<64x512x12x512xui32>
    %86 = stablehlo.or %83, %85 : tensor<64x512x12x512xui32>
    %87 = stablehlo.xor %81, %86 : tensor<64x512x12x512xui32>
    %88 = stablehlo.add %81, %87 : tensor<64x512x12x512xui32>
    %89 = stablehlo.broadcast_in_dim %c_4, dims = [] : (tensor<ui32>) -> tensor<64x512x12x512xui32>
    %90 = stablehlo.shift_left %87, %89 : tensor<64x512x12x512xui32>
    %91 = stablehlo.broadcast_in_dim %c_5, dims = [] : (tensor<ui32>) -> tensor<64x512x12x512xui32>
    %92 = stablehlo.shift_right_logical %87, %91 : tensor<64x512x12x512xui32>
    %93 = stablehlo.or %90, %92 : tensor<64x512x12x512xui32>
    %94 = stablehlo.xor %88, %93 : tensor<64x512x12x512xui32>
    %95 = stablehlo.add %88, %94 : tensor<64x512x12x512xui32>
    %96 = stablehlo.broadcast_in_dim %c_5, dims = [] : (tensor<ui32>) -> tensor<64x512x12x512xui32>
    %97 = stablehlo.shift_left %94, %96 : tensor<64x512x12x512xui32>
    %98 = stablehlo.broadcast_in_dim %c_4, dims = [] : (tensor<ui32>) -> tensor<64x512x12x512xui32>
    %99 = stablehlo.shift_right_logical %94, %98 : tensor<64x512x12x512xui32>
    %100 = stablehlo.or %97, %99 : tensor<64x512x12x512xui32>
    %101 = stablehlo.xor %95, %100 : tensor<64x512x12x512xui32>
    %102 = stablehlo.broadcast_in_dim %arg0, dims = [] : (tensor<ui32>) -> tensor<64x512x12x512xui32>
    %103 = stablehlo.add %95, %102 : tensor<64x512x12x512xui32>
    %104 = stablehlo.broadcast_in_dim %arg1, dims = [] : (tensor<ui32>) -> tensor<64x512x12x512xui32>
    %105 = stablehlo.add %101, %104 : tensor<64x512x12x512xui32>
    %106 = stablehlo.broadcast_in_dim %c_8, dims = [] : (tensor<ui32>) -> tensor<64x512x12x512xui32>
    %107 = stablehlo.add %105, %106 : tensor<64x512x12x512xui32>
    %108 = stablehlo.add %103, %107 : tensor<64x512x12x512xui32>
    %109 = stablehlo.broadcast_in_dim %c_3, dims = [] : (tensor<ui32>) -> tensor<64x512x12x512xui32>
    %110 = stablehlo.shift_left %107, %109 : tensor<64x512x12x512xui32>
    %111 = stablehlo.broadcast_in_dim %c_2, dims = [] : (tensor<ui32>) -> tensor<64x512x12x512xui32>
    %112 = stablehlo.shift_right_logical %107, %111 : tensor<64x512x12x512xui32>
    %113 = stablehlo.or %110, %112 : tensor<64x512x12x512xui32>
    %114 = stablehlo.xor %108, %113 : tensor<64x512x12x512xui32>
    %115 = stablehlo.add %108, %114 : tensor<64x512x12x512xui32>
    %116 = stablehlo.broadcast_in_dim %c_7, dims = [] : (tensor<ui32>) -> tensor<64x512x12x512xui32>
    %117 = stablehlo.shift_left %114, %116 : tensor<64x512x12x512xui32>
    %118 = stablehlo.broadcast_in_dim %c_8, dims = [] : (tensor<ui32>) -> tensor<64x512x12x512xui32>
    %119 = stablehlo.shift_right_logical %114, %118 : tensor<64x512x12x512xui32>
    %120 = stablehlo.or %117, %119 : tensor<64x512x12x512xui32>
    %121 = stablehlo.xor %115, %120 : tensor<64x512x12x512xui32>
    %122 = stablehlo.add %115, %121 : tensor<64x512x12x512xui32>
    %123 = stablehlo.broadcast_in_dim %c_9, dims = [] : (tensor<ui32>) -> tensor<64x512x12x512xui32>
    %124 = stablehlo.shift_left %121, %123 : tensor<64x512x12x512xui32>
    %125 = stablehlo.broadcast_in_dim %c_9, dims = [] : (tensor<ui32>) -> tensor<64x512x12x512xui32>
    %126 = stablehlo.shift_right_logical %121, %125 : tensor<64x512x12x512xui32>
    %127 = stablehlo.or %124, %126 : tensor<64x512x12x512xui32>
    %128 = stablehlo.xor %122, %127 : tensor<64x512x12x512xui32>
    %129 = stablehlo.add %122, %128 : tensor<64x512x12x512xui32>
    %130 = stablehlo.broadcast_in_dim %c_10, dims = [] : (tensor<ui32>) -> tensor<64x512x12x512xui32>
    %131 = stablehlo.shift_left %128, %130 : tensor<64x512x12x512xui32>
    %132 = stablehlo.broadcast_in_dim %c_11, dims = [] : (tensor<ui32>) -> tensor<64x512x12x512xui32>
    %133 = stablehlo.shift_right_logical %128, %132 : tensor<64x512x12x512xui32>
    %134 = stablehlo.or %131, %133 : tensor<64x512x12x512xui32>
    %135 = stablehlo.xor %129, %134 : tensor<64x512x12x512xui32>
    %136 = stablehlo.broadcast_in_dim %arg1, dims = [] : (tensor<ui32>) -> tensor<64x512x12x512xui32>
    %137 = stablehlo.add %129, %136 : tensor<64x512x12x512xui32>
    %138 = stablehlo.broadcast_in_dim %1, dims = [] : (tensor<ui32>) -> tensor<64x512x12x512xui32>
    %139 = stablehlo.add %135, %138 : tensor<64x512x12x512xui32>
    %c_13 = stablehlo.constant dense<4> : tensor<ui32>
    %140 = stablehlo.broadcast_in_dim %c_13, dims = [] : (tensor<ui32>) -> tensor<64x512x12x512xui32>
    %141 = stablehlo.add %139, %140 : tensor<64x512x12x512xui32>
    %142 = stablehlo.add %137, %141 : tensor<64x512x12x512xui32>
    %143 = stablehlo.broadcast_in_dim %c_0, dims = [] : (tensor<ui32>) -> tensor<64x512x12x512xui32>
    %144 = stablehlo.shift_left %141, %143 : tensor<64x512x12x512xui32>
    %145 = stablehlo.broadcast_in_dim %c_1, dims = [] : (tensor<ui32>) -> tensor<64x512x12x512xui32>
    %146 = stablehlo.shift_right_logical %141, %145 : tensor<64x512x12x512xui32>
    %147 = stablehlo.or %144, %146 : tensor<64x512x12x512xui32>
    %148 = stablehlo.xor %142, %147 : tensor<64x512x12x512xui32>
    %149 = stablehlo.add %142, %148 : tensor<64x512x12x512xui32>
    %150 = stablehlo.broadcast_in_dim %c_2, dims = [] : (tensor<ui32>) -> tensor<64x512x12x512xui32>
    %151 = stablehlo.shift_left %148, %150 : tensor<64x512x12x512xui32>
    %152 = stablehlo.broadcast_in_dim %c_3, dims = [] : (tensor<ui32>) -> tensor<64x512x12x512xui32>
    %153 = stablehlo.shift_right_logical %148, %152 : tensor<64x512x12x512xui32>
    %154 = stablehlo.or %151, %153 : tensor<64x512x12x512xui32>
    %155 = stablehlo.xor %149, %154 : tensor<64x512x12x512xui32>
    %156 = stablehlo.add %149, %155 : tensor<64x512x12x512xui32>
    %157 = stablehlo.broadcast_in_dim %c_4, dims = [] : (tensor<ui32>) -> tensor<64x512x12x512xui32>
    %158 = stablehlo.shift_left %155, %157 : tensor<64x512x12x512xui32>
    %159 = stablehlo.broadcast_in_dim %c_5, dims = [] : (tensor<ui32>) -> tensor<64x512x12x512xui32>
    %160 = stablehlo.shift_right_logical %155, %159 : tensor<64x512x12x512xui32>
    %161 = stablehlo.or %158, %160 : tensor<64x512x12x512xui32>
    %162 = stablehlo.xor %156, %161 : tensor<64x512x12x512xui32>
    %163 = stablehlo.add %156, %162 : tensor<64x512x12x512xui32>
    %164 = stablehlo.broadcast_in_dim %c_5, dims = [] : (tensor<ui32>) -> tensor<64x512x12x512xui32>
    %165 = stablehlo.shift_left %162, %164 : tensor<64x512x12x512xui32>
    %166 = stablehlo.broadcast_in_dim %c_4, dims = [] : (tensor<ui32>) -> tensor<64x512x12x512xui32>
    %167 = stablehlo.shift_right_logical %162, %166 : tensor<64x512x12x512xui32>
    %168 = stablehlo.or %165, %167 : tensor<64x512x12x512xui32>
    %169 = stablehlo.xor %163, %168 : tensor<64x512x12x512xui32>
    %170 = stablehlo.broadcast_in_dim %1, dims = [] : (tensor<ui32>) -> tensor<64x512x12x512xui32>
    %171 = stablehlo.add %163, %170 : tensor<64x512x12x512xui32>
    %172 = stablehlo.broadcast_in_dim %arg0, dims = [] : (tensor<ui32>) -> tensor<64x512x12x512xui32>
    %173 = stablehlo.add %169, %172 : tensor<64x512x12x512xui32>
    %c_14 = stablehlo.constant dense<5> : tensor<ui32>
    %174 = stablehlo.broadcast_in_dim %c_14, dims = [] : (tensor<ui32>) -> tensor<64x512x12x512xui32>
    %175 = stablehlo.add %173, %174 : tensor<64x512x12x512xui32>
    return %171, %175 : tensor<64x512x12x512xui32>, tensor<64x512x12x512xui32>
  }
  func.func private @_where_110(%arg0: tensor<64x512x1x512xi1>, %arg1: tensor<64x512x12x512xf32>, %arg2: tensor<f32>) -> (tensor<64x512x12x512xf32>, tensor<64x512x12x512xi1>) {
    %0 = stablehlo.broadcast_in_dim %arg0, dims = [0, 1, 2, 3] : (tensor<64x512x1x512xi1>) -> tensor<64x512x12x512xi1>
    %1 = stablehlo.broadcast_in_dim %arg2, dims = [] : (tensor<f32>) -> tensor<64x512x12x512xf32>
    %2 = stablehlo.select %0, %arg1, %1 : tensor<64x512x12x512xi1>, tensor<64x512x12x512xf32>
    return %2, %0 : tensor<64x512x12x512xf32>, tensor<64x512x12x512xi1>
  }
  func.func private @_where_123(%arg0: tensor<64x512x12x512xi1>, %arg1: tensor<64x512x12x512xf32>, %arg2: tensor<f32>) -> tensor<64x512x12x512xf32> {
    %0 = stablehlo.convert %arg2 : tensor<f32>
    %1 = stablehlo.broadcast_in_dim %0, dims = [] : (tensor<f32>) -> tensor<64x512x12x512xf32>
    %2 = stablehlo.select %arg0, %arg1, %1 : tensor<64x512x12x512xi1>, tensor<64x512x12x512xf32>
    return %2 : tensor<64x512x12x512xf32>
  }
  func.func private @_where_164(%arg0: tensor<64x512xi1>, %arg1: tensor<64x512xi32>, %arg2: tensor<i32>) -> tensor<64x512xi32> {
    %0 = stablehlo.convert %arg2 : tensor<i32>
    %1 = stablehlo.broadcast_in_dim %0, dims = [] : (tensor<i32>) -> tensor<64x512xi32>
    %2 = stablehlo.select %arg0, %arg1, %1 : tensor<64x512xi1>, tensor<64x512xi32>
    return %2 : tensor<64x512xi32>
  }
  func.func private @take_along_axis(%arg0: tensor<64x512x30522xf32>, %arg1: tensor<64x512x1xi32>) -> (tensor<64x512x1xf32>, tensor<64x512x1x1xi32>) {
    %c = stablehlo.constant dense<0> : tensor<i32>
    %0 = stablehlo.broadcast_in_dim %c, dims = [] : (tensor<i32>) -> tensor<64x512x1xi32>
    %1 = stablehlo.compare  LT, %arg1, %0,  SIGNED : (tensor<64x512x1xi32>, tensor<64x512x1xi32>) -> tensor<64x512x1xi1>
    %c_0 = stablehlo.constant dense<30522> : tensor<i32>
    %2 = stablehlo.broadcast_in_dim %c_0, dims = [] : (tensor<i32>) -> tensor<64x512x1xi32>
    %3 = stablehlo.add %arg1, %2 : tensor<64x512x1xi32>
    %4 = stablehlo.select %1, %3, %arg1 : tensor<64x512x1xi1>, tensor<64x512x1xi32>
    %5 = stablehlo.reshape %4 : (tensor<64x512x1xi32>) -> tensor<64x512x1x1xi32>
    %c_1 = stablehlo.constant dense<30521> : tensor<1xi32>
    %c_2 = stablehlo.constant dense<0> : tensor<i32>
    %6 = stablehlo.broadcast_in_dim %c_2, dims = [] : (tensor<i32>) -> tensor<64x512x1x1xi32>
    %7 = stablehlo.compare  GE, %5, %6,  SIGNED : (tensor<64x512x1x1xi32>, tensor<64x512x1x1xi32>) -> tensor<64x512x1x1xi1>
    %8 = stablehlo.broadcast_in_dim %c_1, dims = [3] : (tensor<1xi32>) -> tensor<1x1x1x1xi32>
    %9 = stablehlo.broadcast_in_dim %8, dims = [0, 1, 2, 3] : (tensor<1x1x1x1xi32>) -> tensor<64x512x1x1xi32>
    %10 = stablehlo.compare  LE, %5, %9,  SIGNED : (tensor<64x512x1x1xi32>, tensor<64x512x1x1xi32>) -> tensor<64x512x1x1xi1>
    %11 = stablehlo.and %7, %10 : tensor<64x512x1x1xi1>
    %c_3 = stablehlo.constant dense<true> : tensor<i1>
    %12 = stablehlo.reduce(%11 init: %c_3) applies stablehlo.and across dimensions = [3] : (tensor<64x512x1x1xi1>, tensor<i1>) -> tensor<64x512x1xi1>
    %13 = "stablehlo.gather"(%arg0, %5) <{dimension_numbers = #stablehlo.gather<collapsed_slice_dims = [2], operand_batching_dims = [0, 1], start_indices_batching_dims = [0, 1], start_index_map = [2], index_vector_dim = 3>, indices_are_sorted = false, slice_sizes = array<i64: 1, 1, 1>}> : (tensor<64x512x30522xf32>, tensor<64x512x1x1xi32>) -> tensor<64x512x1xf32>
    %cst = stablehlo.constant dense<0x7FC00000> : tensor<f32>
    %14 = stablehlo.broadcast_in_dim %cst, dims = [] : (tensor<f32>) -> tensor<64x512x1xf32>
    %15 = stablehlo.select %12, %13, %14 : tensor<64x512x1xi1>, tensor<64x512x1xf32>
    return %15, %5 : tensor<64x512x1xf32>, tensor<64x512x1x1xi32>
  }
  func.func private @_where_183(%arg0: tensor<64x512xi1>, %arg1: tensor<64x512xf32>, %arg2: tensor<f32>) -> tensor<64x512xf32> {
    %0 = stablehlo.convert %arg2 : tensor<f32>
    %1 = stablehlo.broadcast_in_dim %0, dims = [] : (tensor<f32>) -> tensor<64x512xf32>
    %2 = stablehlo.select %arg0, %arg1, %1 : tensor<64x512xi1>, tensor<64x512xf32>
    return %2 : tensor<64x512xf32>
  }
  func.func private @argmax(%arg0: tensor<64x512x30522xf32>) -> tensor<64x512xi32> {
    %0 = stablehlo.iota dim = 2 : tensor<64x512x30522xi32>
    %cst = stablehlo.constant dense<0xFF800000> : tensor<f32>
    %c = stablehlo.constant dense<0> : tensor<i32>
    %1:2 = stablehlo.reduce(%arg0 init: %cst), (%0 init: %c) across dimensions = [2] : (tensor<64x512x30522xf32>, tensor<64x512x30522xi32>, tensor<f32>, tensor<i32>) -> (tensor<64x512xf32>, tensor<64x512xi32>)
     reducer(%arg1: tensor<f32>, %arg3: tensor<f32>) (%arg2: tensor<i32>, %arg4: tensor<i32>)  {
      %2 = stablehlo.compare  GT, %arg1, %arg3,  FLOAT : (tensor<f32>, tensor<f32>) -> tensor<i1>
      %3 = stablehlo.compare  NE, %arg1, %arg1,  FLOAT : (tensor<f32>, tensor<f32>) -> tensor<i1>
      %4 = stablehlo.or %2, %3 : tensor<i1>
      %5 = stablehlo.compare  EQ, %arg1, %arg3,  FLOAT : (tensor<f32>, tensor<f32>) -> tensor<i1>
      %6 = stablehlo.compare  LT, %arg2, %arg4,  SIGNED : (tensor<i32>, tensor<i32>) -> tensor<i1>
      %7 = stablehlo.and %5, %6 : tensor<i1>
      %8 = stablehlo.or %4, %7 : tensor<i1>
      %9 = stablehlo.select %4, %arg1, %arg3 : tensor<i1>, tensor<f32>
      %10 = stablehlo.select %8, %arg2, %arg4 : tensor<i1>, tensor<i32>
      stablehlo.return %9, %10 : tensor<f32>, tensor<i32>
    }
    return %1#1 : tensor<64x512xi32>
  }
  func.func private @_where_200(%arg0: tensor<64x512xi1>, %arg1: tensor<64x512xf32>) -> tensor<64x512xf32> {
    %cst = stablehlo.constant dense<0.000000e+00> : tensor<f32>
    %0 = stablehlo.broadcast_in_dim %cst, dims = [] : (tensor<f32>) -> tensor<64x512xf32>
    %1 = stablehlo.select %arg0, %arg1, %0 : tensor<64x512xi1>, tensor<64x512xf32>
    return %1 : tensor<64x512xf32>
  }
  func.func private @take_along_axis_201(%arg0: tensor<64x512x1x1xi32>, %arg1: tensor<64x512x1xf32>) -> tensor<64x512x30522xf32> {
    %cst = stablehlo.constant dense<0.000000e+00> : tensor<f32>
    %0 = stablehlo.broadcast_in_dim %cst, dims = [] : (tensor<f32>) -> tensor<64x512x30522xf32>
    %1 = "stablehlo.scatter"(%0, %arg0, %arg1) <{indices_are_sorted = false, scatter_dimension_numbers = #stablehlo.scatter<inserted_window_dims = [2], input_batching_dims = [0, 1], scatter_indices_batching_dims = [0, 1], scatter_dims_to_operand_dims = [2], index_vector_dim = 3>, unique_indices = false}> ({
    ^bb0(%arg2: tensor<f32>, %arg3: tensor<f32>):
      %2 = stablehlo.add %arg2, %arg3 : tensor<f32>
      stablehlo.return %2 : tensor<f32>
    }) : (tensor<64x512x30522xf32>, tensor<64x512x1x1xi32>, tensor<64x512x1xf32>) -> tensor<64x512x30522xf32>
    return %1 : tensor<64x512x30522xf32>
  }
  func.func private @_var_218(%arg0: tensor<64x512x768xf32>, %arg1: tensor<f32>, %arg2: tensor<i1>, %arg3: tensor<64x512x1xf32>) -> tensor<64x512x768xf32> {
    %0 = call @_where_219(%arg2, %arg3) : (tensor<i1>, tensor<64x512x1xf32>) -> tensor<64x512x1xf32>
    %1 = stablehlo.broadcast_in_dim %arg1, dims = [] : (tensor<f32>) -> tensor<64x512x1xf32>
    %2 = stablehlo.divide %0, %1 : tensor<64x512x1xf32>
    %cst = stablehlo.constant dense<0.000000e+00> : tensor<f32>
    %3 = stablehlo.reduce(%2 init: %cst) applies stablehlo.add across dimensions = [2] : (tensor<64x512x1xf32>, tensor<f32>) -> tensor<64x512xf32>
    %4 = stablehlo.broadcast_in_dim %3, dims = [0, 1] : (tensor<64x512xf32>) -> tensor<64x512x768xf32>
    %5 = stablehlo.multiply %4, %arg0 : tensor<64x512x768xf32>
    %6 = stablehlo.negate %5 : tensor<64x512x768xf32>
    %cst_0 = stablehlo.constant dense<0.000000e+00> : tensor<f32>
    %7 = stablehlo.reduce(%6 init: %cst_0) applies stablehlo.add across dimensions = [2] : (tensor<64x512x768xf32>, tensor<f32>) -> tensor<64x512xf32>
    %8 = stablehlo.reshape %7 : (tensor<64x512xf32>) -> tensor<64x512x1xf32>
    %cst_1 = stablehlo.constant dense<7.680000e+02> : tensor<f32>
    %9 = stablehlo.broadcast_in_dim %cst_1, dims = [] : (tensor<f32>) -> tensor<64x512x1xf32>
    %10 = stablehlo.divide %8, %9 : tensor<64x512x1xf32>
    %cst_2 = stablehlo.constant dense<0.000000e+00> : tensor<f32>
    %11 = stablehlo.reduce(%10 init: %cst_2) applies stablehlo.add across dimensions = [2] : (tensor<64x512x1xf32>, tensor<f32>) -> tensor<64x512xf32>
    %12 = stablehlo.broadcast_in_dim %11, dims = [0, 1] : (tensor<64x512xf32>) -> tensor<64x512x768xf32>
    %13 = stablehlo.add %5, %12 : tensor<64x512x768xf32>
    return %13 : tensor<64x512x768xf32>
  }
  func.func private @_where_219(%arg0: tensor<i1>, %arg1: tensor<64x512x1xf32>) -> tensor<64x512x1xf32> {
    %cst = stablehlo.constant dense<0.000000e+00> : tensor<f32>
    %0 = stablehlo.broadcast_in_dim %cst, dims = [] : (tensor<f32>) -> tensor<64x512x1xf32>
    %1 = stablehlo.select %arg0, %arg1, %0 : tensor<i1>, tensor<64x512x1xf32>
    return %1 : tensor<64x512x1xf32>
  }
  func.func private @_where_225(%arg0: tensor<64x512x768xi1>, %arg1: tensor<64x512x768xf32>) -> tensor<64x512x768xf32> {
    %cst = stablehlo.constant dense<0.000000e+00> : tensor<f32>
    %0 = stablehlo.broadcast_in_dim %cst, dims = [] : (tensor<f32>) -> tensor<64x512x768xf32>
    %1 = stablehlo.select %arg0, %arg1, %0 : tensor<64x512x768xi1>, tensor<64x512x768xf32>
    return %1 : tensor<64x512x768xf32>
  }
  func.func private @_where_241(%arg0: tensor<64x512x12x512xi1>, %arg1: tensor<64x512x12x512xf32>) -> tensor<64x512x12x512xf32> {
    %cst = stablehlo.constant dense<0.000000e+00> : tensor<f32>
    %0 = stablehlo.broadcast_in_dim %cst, dims = [] : (tensor<f32>) -> tensor<64x512x12x512xf32>
    %1 = stablehlo.select %arg0, %arg1, %0 : tensor<64x512x12x512xi1>, tensor<64x512x12x512xf32>
    return %1 : tensor<64x512x12x512xf32>
  }
  func.func private @_where_250(%arg0: tensor<64x512x12x512xi1>, %arg1: tensor<64x512x12x512xf32>) -> tensor<64x512x12x512xf32> {
    %cst = stablehlo.constant dense<0.000000e+00> : tensor<f32>
    %0 = stablehlo.broadcast_in_dim %cst, dims = [] : (tensor<f32>) -> tensor<64x512x12x512xf32>
    %1 = stablehlo.select %arg0, %arg1, %0 : tensor<64x512x12x512xi1>, tensor<64x512x12x512xf32>
    return %1 : tensor<64x512x12x512xf32>
  }
  func.func private @_where_350(%arg0: tensor<i1>, %arg1: tensor<i32>, %arg2: tensor<i32>) -> tensor<i32> {
    %0 = stablehlo.select %arg0, %arg1, %arg2 : tensor<i1>, tensor<i32>
    return %0 : tensor<i32>
  }
  func.func private @clip(%arg0: tensor<i32>, %arg1: tensor<i32>, %arg2: tensor<i32>) -> tensor<i32> {
    %0 = stablehlo.convert %arg1 : tensor<i32>
    %1 = stablehlo.maximum %0, %arg0 : tensor<i32>
    %2 = stablehlo.convert %arg2 : tensor<i32>
    %3 = stablehlo.minimum %2, %1 : tensor<i32>
    return %3 : tensor<i32>
  }
  func.func private @_where_394(%arg0: tensor<i1>, %arg1: tensor<f32>, %arg2: tensor<f32>) -> tensor<f32> {
    %0 = stablehlo.convert %arg2 : tensor<f32>
    %1 = stablehlo.select %arg0, %arg1, %0 : tensor<i1>, tensor<f32>
    return %1 : tensor<f32>
  }
}
